outlier-interpretation-Xu/checkpoints/acspOzFQ_checkpoint.pt (torch, 103515 bytes, 5 tensors)

attn_net.hidden.weight f4 [96, 192]
00000000: 0c3b a33c 764a 803d b3d2 63bd eb6c 2c3d
00000010: 59b5 71bd 338d 55bd 2a7a 0b3d 4046 fd3c
00000020: d24b 6d3d 6c51 653c 90af 8e3b 6eb3 64bd
00000030: 823f d1bc 2549 803d c65a e0bc 4409 073d
00000040: cafe 3b3d 62c5 0abd 527b 59bd 2c79 51bd
00000050: ca14 843d d475 733d aa2e 223d c820 68bd
00000060: 8eaf b6bc f4ee e0bc 20eb 73bd fc31 0fbc
00000070: 8a44 8bbd da94 913c 5ac8 b3bc c3b1 85bd
00000080: 3361 373d e667 843d 7429 5f3c 9316 343d
00000090: 9bb8 c8bc 9991 3abd bbd7 7d3d 106b 9bbc
000000a0: 8a95 0a3d 8c5a 023d d271 30bd e2fa 653d
000000b0: 35ff 733d acb6 683d 46e5 68bd 962c b6bc
000000c0: 62ee 2fbd aec0 413d 1894 813d 0972 65bd
000000d0: 389f c6bb 4679 88bd ab86 2fbd e198 193d
000000e0: 60f3 a03c d67b 4b3d bc53 2e3d 53e5 1dbd
000000f0: 6eee b73c 108f ff3b 72ba a63c f49c ddbc
00000100: b46b dfbc b88b 6b3d b632 2abd 5cc2 8c3d
00000110: 5a2b 153d 0cbd 73bd 8c27 f83c f8ba d33c
00000120: cc86 16bc ca74 b53c a870 34bd a69c 273d
00000130: d442 24bd a0e7 203d 32d5 25bd 8877 9cbc
00000140: 5196 4a3d 3b8d 173d 00fd a53a 42ee 2ebd
00000150: a2ce 8e3d 4520 903d 280d 773c e1be 133d
00000160: 492d 733d 5f3a 193d 054a 7dbd 3c48 54bd
00000170: 6393 30bd 72f0 713d 5c59 d8bc 50ad a13b
00000180: c413 633c 40f5 d33c de38 863d 3c2e 403d
00000190: 4c28 3c3d e0ec 71bd a4a2 193d d872 e8bc
000001a0: e1ad 3dbd 8e05 033d dacf ab3c f015 39bd
000001b0: 5373 9b3d 08e4 0cbd 00ab acba 76ca 5f3d
000001c0: 5460 2c3c 8075 56bc f915 793d bab3 5ebd
000001d0: 29da 983d fbe4 98bd ae75 2ebd b249 c3bc
000001e0: fc3f 013c bcee 653c b070 c9bb e935 7fbd
000001f0: ab7d 2ebd 2002 9ebb e482 643c d036 2dbd
00000200: 5be7 1dbd 8818 3a3d 74ee 05bc 9425 503d
00000210: a245 8ebd ed3e 55bd 1a68 9dbd 7a65 0f3d
00000220: e309 993d 7254 5abd 0c6c 3bbd 2306 303d
00000230: d0db 923d bb2e 6a3d bc20 d3bc d483 e93c
00000240: b0c2 01bc 4841 fb3c d028 88bd ad17 85bd
00000250: a21f 8d3d b84e 993d d2ab 123d 1419 70bc
00000260: 9a93 7d3d aaa5 d9bc 7fac 313d 6356 473d
00000270: 22e2 5cbd 61c2 843d a83f f3bb a49d 88bd
00000280: e648 7fbd b993 373d 6edb 3cbd 9652 b8bc
00000290: 3cae 0f3c 160d 60bd 4e76 cb3c 3c2d 75bc
000002a0: a446 f53c 2a63 b2bc 3cb5 423d 2c65 6ebd
000002b0: 0743 843d c868 25bc 52fd 2ebd be65 063d
000002c0: 88a1 ccbc 60fd e13a 901e 523d f4a5 4fbd
000002d0: dea4 7a3d 0be0 98bd 7f9a 64bd 2706 98bc
000002e0: b8b3 5f3d ade1 133d a630 913d 5494 88bd
000002f0: 6681 013d 6c9b 583d a4d6 3b3d 70f9 fcbc
00000300: dc2f d33c 38f3 c53c 0376 723d cec5 04bd
00000310: 05e6 053d 0ddd 2b3d 8f10 29bd 6cd7 12bd
00000320: 24a2 b5bc 0cdf 803d 6cc8 103d c848 ea3c
00000330: 1817 163d e41d 193d 4248 0f3d a561 72bd
00000340: 069e 093d 9cec c0bc daa6 e93c 4aab 34bd
00000350: d8d7 183d 8c5d b5bc f468 c3bc aa4e 3abd
00000360: c6f2 b9bc b61a f6bc 58c5 c33c 2bfd 013d
00000370: d168 26bd 762a 7f3d 4882 3f3d 57f3 0c3d
00000380: c752 2dbd 4611 15bd a8cf 91bd 1488 c23c
00000390: f87d 5a3d 0090 c03c 5c42 803d 74e8 cebc
000003a0: f858 cd3c 5cc1 44bd f239 483d 3727 323d
000003b0: c3ba 013d 93ed 72bd d61d 2d3d a9e6 05bd
000003c0: 20aa ee3c 3ed4 293d c8be 02bd 9c8b c8bc
000003d0: e02f d4bc 2dba 6ebd f4d8 cabc 50eb 763d
000003e0: b138 223d ecc8 d83c df68 42bd a015 c53c
000003f0: 70db bfbc aea5 c43c 4be9 6bbd 3c68 ca3c
0.019925617 0.06264202 -0.05562086 0.04209606 -0.059010837 -0.05213661 0.03405205 0.030917287
0.057933636 0.013996463 0.004354425 -0.05583518 -0.025542978 0.06263951 -0.027387034 0.03296782
0.045897283 -0.033879645 -0.053096123 -0.05114095 0.06449278 0.05943854 0.039595284 -0.056671888
-0.022300508 -0.027457692 -0.059550405 -0.008739945 -0.06800182 0.017771173 -0.021946121 -0.06528046
0.04477043 0.064651296 0.013620723 0.04396684 -0.02450209 -0.04554901 0.061973315 -0.01897195
0.033834018 0.031824633 -0.043077298 0.056147464 0.059569556 0.056814834 -0.056859277 -0.022238057
-0.04295195 0.047302894 0.06327075 -0.056016956 -0.006061461 -0.06663756 -0.04285304 0.037499312
0.0196473 0.049678646 0.042560324 -0.03854878 0.02245256 0.007799037 0.020352576 -0.02705238
-0.027273037 0.057506293 -0.041552268 0.068730086 0.036418296 -0.05950646 0.030292295 0.02584599
-0.0091874115 0.022150416 -0.04405275 0.040920876 -0.040102795 0.039283395 -0.040486522 -0.019099966
0.04945976 0.036999922 0.0012663901 -0.04270769 0.06973006 0.07037405 0.01507882 0.03607071
0.05936936 0.037409183 -0.06183817 -0.0518267 -0.04310931 0.059067197 -0.026409797 0.0049339905
0.013859693 0.02587378 0.06553815 0.046919093 0.045936868 -0.059063792 0.03750862 -0.028375074
-0.046308402 0.03198772 0.020973135 -0.045186937 0.07590356 -0.034397155 -0.001317352 0.05463644
0.010521013 -0.013089538 0.06081197 -0.05437062 0.07463486 -0.074655496 -0.042592697 -0.023838852
0.00788879 0.0140339695 -0.0061474666 -0.062307272 -0.042600315 -0.0048220307 0.013947222 -0.0422886
-0.038550716 0.04543355 -0.008174527 0.050817087 -0.06946875 -0.052061964 -0.076858714 0.035008885
0.07472589 -0.05330319 -0.04575734 0.042974602 0.07170832 0.057173472 -0.025772445 0.028505243
-0.007919952 0.030670777 -0.06648409 -0.064986564 0.06890799 0.074857175 0.035808392 -0.014654417
0.061908342 -0.026568253 0.043377396 0.04866637 -0.053926595 0.06482387 -0.00742336 -0.066706926
-0.06232538 0.044818614 -0.046107702 -0.022500318 0.008769568 -0.05469998 0.024836686 -0.014964398
0.02994091 -0.0217758 0.04753612 -0.058201954 0.06458097 -0.010095783 -0.042722054 0.032811873
-0.024979368 0.0017241649 0.051298678 -0.050695375 0.061192386 -0.07464608 -0.0558114 -0.018557621
0.054614753 0.036103893 0.07089357 -0.06668916 0.031617545 0.052882597 0.045858994 -0.03088066
0.025779657 0.024163827 0.059194576 -0.032415204 0.032690067 0.041958857 -0.041275557 -0.035849974
-0.022172041 0.06292543 0.035347387 0.028599158 0.036643118 0.03738202 0.03498102 -0.059175152
0.03359797 -0.023550324 0.028521944 -0.044108666 0.03731522 -0.022139333 -0.023853756 -0.045485176
-0.022698771 -0.030042034 0.023897812 0.03173558 -0.040627304 0.062296353 0.046755105 0.034411754
-0.04231527 -0.036393426 -0.071196854 0.023746528 0.05334279 0.023506165 0.06262657 -0.025257327
0.025066838 -0.048035964 0.048883386 0.04349443 0.03167225 -0.0593086 0.042264782 -0.032690678
0.029133856 0.041462176 -0.031920224 -0.024480633 -0.025901735 -0.05828302 -0.024761654 0.060283005
0.039604846 0.026462995 -0.047463294 0.024058163 -0.023420066 0.024004783 -0.057595532 0.024707906

attn_net.hidden.bias f4 [96]
00000000: 3cde bd3d c945 df3d 606a d8bd cff6 c9bd
00000010: 5cbf cf3c 4861 0cbc 0e84 6c3e 4a2e d03d
00000020: 20b7 cbba d2af b03d 1ead f7bd 4426 573c
00000030: c6b3 08be 041b bb3d 5c9c cd3d bb8c dcbd
00000040: 34ce 203c 01da e93d c689 c5bd 8ee5 0f3e
00000050: f86c c0bc 8b76 343e a4c4 84bd 8d2f 143e
00000060: 1263 5f3d 70ca 363e ccc4 133e c2e3 dfbc
00000070: 3f03 9a3d 0010 b439 0467 78bd 20ab dcbd
00000080: 3ab6 a63c 2fb6 073e 78e7 083d 5021 33be
00000090: d058 1dbc f430 3a3e a570 ea3d a474 edbd
000000a0: 2494 c0bd 7c23 1a3e a217 a5bd ef03 cabd
000000b0: 6608 5d3d c6d7 053e cc94 343e 68ae 1d3d
000000c0: 0138 193e d755 0c3e 2d37 04be 1586 0c3d
000000d0: 4b07 803d 5256 00be 8e2b 2f3e 1a3c 42be
000000e0: 8045 f5bc b52d 1c3d 11a8 8bbd bb94 2d3d
000000f0: b033 afbb 3f2b 053e 52f3 f33d 2123 003e
00000100: e84b 703d 82b3 babd a0c6 00be 5598 763d
00000110: 4dec 063e 4817 c8bc 764d ad3c 146e d73d
00000120: caf1 e3bd e4c4 c93c b747 04be 0d63 263e
00000130: 3c82 d23c 4025 873d 34ba 3bbe 0427 b13d
00000140: e3bd b9bd 9c68 36be 7d6a 8d3c 55c2 bf3d
00000150: d0ad d5bb f3e2 c93d ccc5 433e 68ad a8bd
00000160: 12c5 b63c 5606 c13d cfbd 05be 86c5 373e
00000170: f001 b8bd 0c46 9ebd be87 543c fea8 e23d
0.092709035 0.10901982 -0.105671644 -0.09861528 0.025359802 -0.0085681155 0.2309725 0.10165079
-0.0015542246 0.08627285 -0.12093566 0.013131682 -0.13349828 0.09136012 0.10039589 -0.1076903
0.009814788 0.11418534 -0.09645419 0.14052412 -0.02348946 0.17623346 -0.06482819 0.14471264
0.05453784 0.17850661 0.14430541 -0.027330283 0.075201504 0.00034344196 -0.06064512 -0.10774827
0.020350564 0.13253091 0.03342387 -0.17493176 -0.009603694 0.18182737 0.114472665 -0.11594513
-0.094032556 0.15052599 -0.08061148 -0.098640315 0.053963087 0.13070592 0.17634887 0.038496405
0.1496277 0.1370462 -0.12911673 0.034307558 0.06251391 -0.12532929 0.17106459 -0.1896824
-0.029940367 0.038129527 -0.068191655 0.04237817 -0.005346738 0.13004778 0.11911644 0.125134
0.05866614 -0.0911627 -0.1257577 0.06020387 0.13176079 -0.024425164 0.0211551 0.105190426
-0.11130102 0.024630018 -0.12917982 0.16248722 0.025696866 0.06598902 -0.1833275 0.0865002
-0.09069421 -0.17813343 0.017262692 0.09363238 -0.006520964 0.0985774 0.19118422 -0.082361996
0.022310767 0.094250366 -0.13060687 0.17946443 -0.089847445 -0.07728204 0.012971817 0.11067389

attn_net.out.weight f4 [64, 96]
00000000: 4aa6 8cbd 95c3 1e3d a4f8 91bd dd75 73bd
00000010: 7ab5 23bd 5259 823d 7816 92bd 68fd d33c
00000020: 1261 25bd a4e1 893d 00c6 6939 60a5 013d
00000030: da2a 57bd 2161 83bd 56e4 00bd 64d3 be3c
00000040: d2fe 2dbd 1421 8bbd 941f 8ebd 2ec6 35bd
00000050: a6b2 33bd 74c1 89bd 7c3e c03c 8b69 1dbd
00000060: 82a5 e53c 7ef1 86bd 61c0 58bd fad5 8b3d
00000070: 980b bf3c 8741 023d 8c3f 123d e6b3 8a3d
00000080: cc71 bebc 88e1 e73c b5fa 133d 2bf7 873d
00000090: c644 bbbc 1682 343d 467b 8a3d 9448 8e3d
000000a0: d10e 593d 3e1c 7cbd 8c84 8cbd f643 883d
000000b0: d0d5 5bbd 388a 8c3d c62e 94bd d8bf 8bbd
000000c0: a249 3cbd dbd1 88bd 6483 8a3d 59e0 84bd
000000d0: a409 0c3d bec9 5fbd 8282 913d 0079 2bbb
000000e0: 58d7 bebc 936d 8bbd f4d8 86bd 0a4e a83c
000000f0: 2aa0 c83c 705a 59bb 6cb3 7dbd 88c3 863d
00000100: de2d 8b3d a88b 6e3c 0a48 64bd 0003 84bd
00000110: 003a 71bd adaa 8bbd 18bf 453d 19f1 49bd
00000120: d475 823d f44d bf3c f4a8 eebc ae4c 96bd
00000130: f48b bebc 8b57 83bd e268 02bd 3023 e9bc
00000140: fc86 60bd f233 e6bc 1455 8b3d 75ec 01bd
00000150: 0cad c6bc 7ce5 c33c 131c 8d3d 5591 883d
00000160: 269f 7cbd e7a8 2ebd 5641 9abd 8077 c23c
00000170: 7a11 b7bd 2842 1bbd d47b f2bc 0758 a2bd
00000180: 7c68 303d 9eb7 8d3d 8b9b 993d b25c a73d
00000190: 5987 43bd 8986 4fbd 4db6 a53d 62b2 25bd
000001a0: a88b 963d fadc 623d 832e 89bd 3fc4 6fbd
000001b0: 6ffd 3f3d cb9f 123d b5b2 e4bc 066b 8b3d
000001c0: 37c7 4e3d 9291 dd3c 6ec7 adbc aa7a 56bb
000001d0: 06db 843d 4c61 76bd 520b 82bd a43f 92bc
000001e0: d82d 253d 9163 993d c857 23bc 84f9 bf3c
000001f0: bef0 743d 1887 79bd b3f9 293d 6f42 a83d
00000200: 9fd5 453d f462 bbbc 182e 0a3d dd21 8d3d
00000210: a03a c0bc 0c7e 67bd a0c8 c5bc 7c74 243d
00000220: 61a4 5ebd 2313 ca3d 724a 25bd 205d c4bc
00000230: 38fa 1cbd 906d c6bc c8e0 173c 23c6 79bd
00000240: b8ae 15bd 8450 e23d 4a75 89bd 479c 8a3d
00000250: 20a0 61bd a656 af3d 6811 b93d 5238 973d
00000260: 11e3 8abd b027 913d df40 00bd 8a32 a5bc
00000270: f263 d03c 2427 0d3d d49e d03c 14e4 8d3d
00000280: 726f 053d 90ac 70bc 4a4e 8bbd 2cde 0c3d
00000290: 711c cdbc 761b 8b3d 09cb 24bd a435 a83d
000002a0: 50c9 013d 04f1 89bd 6749 703d 1d68 b73d
000002b0: b70b 83bd 2482 8b3d 3065 c6bb 7289 b23d
000002c0: 7102 22bd fcbe bdbc 4a82 e53c a049 1d3b
000002d0: adb9 0dbd 7aee da3c a6e7 c63d 4d8f 893d
000002e0: c056 803d 1a12 88bc f51b e1bc c8b2 8f3d
000002f0: 8f7f a13d 4c56 7fbd 107f ed3c b5e7 df3d
00000300: 90c9 b3bd 5c74 2dbd 2ef7 91bd c83a 98bd
00000310: 4be4 893d 9481 c6bc b842 8ebd bcdd d5bc
00000320: 225c d1bc 2976 84bd 3065 49bd e201 20bd
00000330: 6a1a 5a3d d6ea b93c e8af 8fbd 9eeb 8bbd
00000340: c019 e6ba 202d 8cbd 8b6f 793d 061a 9ebd
00000350: 1ef0 8a3d c7f3 893d 3c88 c3bc 088a 973c
00000360: 1e20 fabc 00fc 1f3c 7cb9 813d d83b 68bd
00000370: fea2 8b3d 5616 7f3d f406 c43c a434 93bd
00000380: 57ec 2b3d b6f1 15bd 0408 d43c 17dd 87bd
00000390: b88e 383d 9aa0 783d 925d 353d 8b06 66bd
000003a0: 6526 023d 2bb1 91bd 58a7 9fbd aea7 f13c
000003b0: 5625 c43c edd1 883d 9c37 7ebd 6856 e03c
000003c0: a6e6 91bd ec61 c5bd a02d 553b 3996 8dbd
000003d0: 8680 d5bc 534d a9bd 80b4 d6bc 3eda 40bd
000003e0: a751 29bd b9de 803d 39aa 7dbd 2e8b 063d
000003f0: c240 893d 2b80 7d3d e407 ac3c 444c ce3c
-0.068676546 0.03876074 -0.071275026 -0.059438575 -0.03996799 0.06364693 -0.07133192 0.02587767
-0.040375777 0.06732491 0.00022294372 0.031651855 -0.0525311 -0.0641501 -0.031467758 0.023294158
-0.042479344 -0.067934185 -0.06939617 -0.044378452 -0.043871544 -0.067263514 0.023467295 -0.03843073
0.028033022 -0.0658903 -0.05291784 0.06827922 0.023320958 0.031800773 0.035705134 0.06772594
-0.023247622 0.028305784 0.036127765 0.066389404 -0.022859942 0.044069372 0.06761794 0.06947437
0.052992646 -0.06155037 -0.06861219 0.066535875 -0.053670704 0.06862301 -0.07235484 -0.06823701
-0.04596866 -0.06680652 0.06763342 -0.064881034 0.03418888 -0.054635756 0.071049705 -0.002616465
-0.023296043 -0.06808009 -0.06584349 0.020545024 0.024490435 -0.0033165477 -0.06193869 0.065802634
0.06795858 0.014559664 -0.055732764 -0.06445885 -0.058893204 -0.06819663 0.048277944 -0.049302194
0.0637013 0.0233526 -0.029133298 -0.07338844 -0.023260094 -0.06413182 -0.031838305 -0.028459162
-0.05481623 -0.028100941 0.06803337 -0.031719644 -0.024252437 0.023913138 0.0689012 0.06668345
-0.061675213 -0.042641547 -0.07531993 0.023738623 -0.0893888 -0.03790489 -0.029600061 -0.07926946
0.043068394 0.06919788 0.075003706 0.08171977 -0.0477365 -0.050665412 0.08091412 -0.040453322
0.07350856 0.05538652 -0.066983245 -0.058536764 0.046872552 0.03579692 -0.027917245 0.068075225
0.050482955 0.027046952 -0.02121326 -0.0032726922 0.06487088 -0.060151383 -0.063498154 -0.017852612
0.040326923 0.07489694 -0.009969659 0.023434408 0.059799902 -0.06091985 0.041497897 0.08215796
0.048299428 -0.022874333 0.033735365 0.068912245 -0.023465455 -0.056516692 -0.024143517 0.04015015
-0.054355983 0.09866931 -0.0403542 -0.023970187 -0.038324565 -0.024222165 0.009269901 -0.060979974
-0.036543578 0.110505134 -0.06711824 0.06768089 -0.055084348 0.08561449 0.09036523 0.07383789
-0.06781591 0.07087648 -0.031311866 -0.0201657 0.025438283 0.034461156 0.02546636 0.06928268
0.032576986 -0.01468958 -0.06802042 0.034391567 -0.025037976 0.06792347 -0.040232692 0.08213356
0.031686127 -0.06735423 0.058663752 0.08955405 -0.06398719 0.06811932 -0.006054543 0.08717622
-0.03955311 -0.023162358 0.028016228 0.0024000183 -0.034600902 0.026725043 0.09712152 0.067167856
0.06266546 -0.016610194 -0.027479151 0.07016522 0.07885658 -0.06233816 0.028991252 0.109328665
-0.08778679 -0.042347297 -0.07127224 -0.07433087 0.067329966 -0.02423171 -0.06946319 -0.026106708
-0.025556628 -0.0646785 -0.049168766 -0.039064296 0.053247847 0.022694986 -0.07015973 -0.0683205
-0.0017555282 -0.068445444 0.06089739 -0.07719807 0.0678408 0.0673595 -0.023868673 0.018498436
-0.030532893 0.009764671 0.063342065 -0.056697696 0.06818198 0.06227716 0.023929097 -0.07187775
0.041973438 -0.036607467 0.025882728 -0.066339664 0.045057982 0.060700037 0.04427869 -0.056158584
0.031774897 -0.0711387 -0.0779559 0.029498901 0.023943584 0.06680665 -0.062064752 0.027384952
-0.07124071 -0.09637818 0.0032528415 -0.06913418 -0.026062261 -0.082667015 -0.026209116 -0.047083132
-0.041337635 0.06292481 -0.061929915 0.032847576 0.06701805 0.06188981 0.020999856 0.02518285

attn_net.out.bias f4 [64]
00000000: 61a5 cabd 7739 093e 29d4 23be 611e 073e
00000010: 7290 1dbe fe96 253e 9400 813e f944 043e
00000020: 72ff e43d b7af d13d 5718 fdbd 1c64 96bd
00000030: f0ed 10be 3e52 963d f31d 1fbe 6cdd e1bd
00000040: fe34 acbd b76b 87be a3f8 c03d cf04 c6bd
00000050: f74c e8bd 4339 96bd 6f53 5d3e ddac 863d
00000060: fe92 28be 3e36 fc3d 80d5 eabd 0e82 ca3d
00000070: 8df9 4d3e 402f 84bd 3775 27be 916a e0bd
00000080: f08e 383e 2607 883d 9a85 353e 5b82 3b3d
00000090: 6204 f83d 80e0 de3d 324a 01be 090e b6bd
000000a0: 7982 a6bd ca55 14be 29b3 3ebd 2aa2 2c3e
000000b0: 7a13 b53d 6fb5 f13d 1874 06be 5aaa 00be
000000c0: d856 523e 1d4b 5f3d 4480 b8bd e99f 143e
000000d0: dcf4 f0bd bc66 ccbd c55c 23be 0c68 5f3e
000000e0: deee 293e 5153 133d a82d 4ebe 36fc 4cbe
000000f0: e613 543c c882 153d 7768 9bbd 1061 2d3e
-0.09894825 0.13400827 -0.15998901 0.13195182 -0.15387133 0.1617088 0.25195754 0.12916936
0.11181535 0.10238593 -0.12358158 -0.07343313 -0.14153266 0.07339905 -0.15538768 -0.11028561
-0.08408545 -0.26449367 0.09422424 -0.09668886 -0.11342805 -0.073351406 0.21613859 0.0657594
-0.16462323 0.123150334 -0.11466503 0.09888087 0.20114727 -0.06454325 -0.16353308 -0.10957826
0.18023276 0.066419885 0.17726746 0.045778614 0.12110211 0.10882664 -0.1262596 -0.08889396
-0.081303544 -0.14485851 -0.04655758 0.16858736 0.088416055 0.11802184 -0.13130224 -0.12564984
0.20540941 0.054514993 -0.0900884 0.14514126 -0.11765453 -0.099805325 -0.15953358 0.21817034
0.16595027 0.03596813 -0.20134604 -0.20018086 0.012944197 0.036501676 -0.075882845 0.16931558

linear.weight f4 [64, 11]
00000000: 11f8 0abd f46b b43d 5fdb 4cbd e402 8a3d
00000010: d17e 563d 4c2f a6bd e01a 5fbc ded4 c7bd
00000020: 2061 29bb 8cd1 debc eb51 c6bd fafb 38bd
00000030: bae6 773d 3ded 513e edb5 b93d 06eb 88bc
00000040: eedc 5fbd 34eb c23c 38ca de3c 68b4 703c
00000050: ab60 373e 0231 853e 143d b9bd e4de d63d
00000060: b081 d73d 4902 a7bd 0512 6e3d e035 96bb
00000070: 0866 903c d82a 303c 60c2 963d 3434 113d
00000080: eab4 41bd 7367 a2bd a00c 52bd 9429 b0bd
00000090: e69d 61bd 0cdf c43c b6e5 573c c7f9 4cbd
000000a0: 949d 99bd 84bb 85bc dcea b1bd 63ab 2abe
000000b0: c078 363d d48c 233d 26b5 86bc d28e 603d
000000c0: 3cea c6bc 4628 583d 8855 343c d6a2 313d
000000d0: c6c9 0d3d b0fd 803d 1001 163c 2072 423d
000000e0: 9101 8dbd 7a6f dcbd 49db 86be 3672 1abd
000000f0: 48f4 b63d 6047 17bc 16d7 c1bd 7872 a9bd
00000100: bd7c cbbe 1c26 eebe abef a83d c150 603e
00000110: f958 bd3e f6f9 d23e e744 843d 5c73 30bd
00000120: e45a 58bd d053 933e 7421 92bc 3bd8 893e
00000130: 57f8 9e3e 0cd0 09bd 908a b03b 6a2c ce3d
00000140: cc31 fe3d ec5b 963d 70da 5abc 7c6b 8c3d
00000150: 8c52 373e a034 57bb 32f4 413e e0f1 923e
00000160: de14 433d 84cb c5bc 480a e0bd e981 a6bd
00000170: 9e27 4abd 8000 e23d 6b59 b5bd 0e55 d73d
00000180: c82c 3b3d 4d69 4cbe 0d13 6dbe f9fa 893d
00000190: 4e0e 59bd b437 25bd 9008 ad3b 707a 8b3b
000001a0: d669 67bd c44b ea3c 94c3 0dbd 201e 553c
000001b0: f4c4 00bd a3e8 07be 1031 abbd b4bc cebd
000001c0: 982a 46bd ea2d a3bd 11c5 7abd 0017 1dbc
000001d0: 08b1 c4bc d248 80bd 4237 b8bd c0e1 6ebc
000001e0: b1a8 27be 01f4 563d 4450 323c 5f96 96bd
000001f0: 9f69 90bd cf0b 8ebd 68ef 4bbc 7bfb 843d
00000200: 4b65 7cbd a02e 403c befb c53d b8ab 18bc
00000210: 2cfe 953d eb0e 86bd 74ad e43d b6bd a5bd
00000220: 5004 973d 1ed3 88bd 7e31 d5bd cf5e 10be
00000230: d8b9 2fbc 7044 10be 1e83 c8bd 9445 123d
00000240: 80ad b73a 5e51 89bc 37be b63c f06a b7bb
00000250: fe35 183d 9faf d0bd b0fe 073c 81e3 43bd
00000260: 90b4 8abb cb9f 91bd 5079 4d3d 2974 01bd
00000270: b807 123d 5614 bbbd 709e eebb c089 033b
00000280: ded5 04bd f2aa a03c 5808 69bc 406f 33bb
00000290: 307d 653d 0840 933c acca 6bbd cba9 6abe
000002a0: 8c0c 68bd 8acf cf3c d3a0 ee3d 3bf8 b33d
000002b0: 907a 053c ae2c 3ebd 6138 88be 1267 e0bd
000002c0: 9a7d b03d 3669 883d bab2 38bd 00af aab9
000002d0: ce02 963d 1895 25bc 1523 b2bd aa0d 153d
000002e0: 7eb3 6dbd 3a82 3f3d a0f9 c0bd dc02 463d
000002f0: 61a9 4ebd d8d8 3dbd e86b 2d3d 5195 533d
00000300: 4446 203d 408f 4bbb e849 27bc 502f 0f3c
00000310: ac35 36bd a817 e5bb 28ae d0bd d090 e33b
00000320: 9a6f 893d ff67 ce3d 9665 0abd 00b1 253d
00000330: 70a9 453b 8ce7 843d f7c6 8abd 78b1 b63d
00000340: 530d d13d 2b11 06bd 98ce 9d3d 75fa 073e
00000350: e0f3 e43b 9c48 6cbd f66b 743d ceed 3a3d
00000360: de89 073d 7ee1 773d fa04 00bd 18de 4b3d
00000370: 7c04 f4bc c4d9 17be a816 bdbd 005a 873d
00000380: 5474 dcbc d849 02bd 5d8c 81bd 4309 be3d
00000390: 9298 7f3d c2bd 1b3d 487c 943c b708 443d
000003a0: c4fb b0bd 50d6 53bc a212 28be 4aa7 d1bd
000003b0: 1233 163e 403c e73d 1d7a 923d 7f18 b13d
000003c0: 12c9 01be 316d 5bbe 807d 8ebc 7e7d 86be
000003d0: aede c2be 2cba e5bd 3d51 20be 88a1 13bc
000003e0: 89e4 9a3d 907b 59bc 5c40 833d 1bf0 bcbe
000003f0: 7a38 f6be 8cfb e73c 400f adbc 106f 90bb
-0.03392798 0.08809653 -0.050013896 0.067388326 0.052367035 -0.0811449 -0.013617247 -0.09757398
-0.0025845245 -0.02719953 -0.09683593 -0.04516218 0.060522772 0.20500655 0.09067903 -0.01671363
-0.054654054 0.023793794 0.027196035 0.01469145 0.1790797 0.26013952 -0.09044853 0.10491732
0.10522783 -0.08154733 0.058122654 -0.004584059 0.017626777 0.010752402 0.07361293 0.035450175
-0.047291674 -0.079298876 -0.05128157 -0.086016804 -0.055082224 0.024032138 0.013177326 -0.050042894
-0.07500759 -0.016324766 -0.08687374 -0.16666941 0.04454875 0.039929226 -0.0164438 0.054823704
-0.024281614 0.052772783 0.01100672 0.043368183 0.034616254 0.06298387 0.009155527 0.04747212
-0.068850644 -0.1076345 -0.26339176 -0.037706576 0.08933312 -0.009233326 -0.094648525 -0.08273786
-0.39743605 -0.4651345 0.08248838 0.21905805 0.36981943 0.4120633 0.064584546 -0.043078765
-0.052821055 0.2877488 -0.017838217 0.26922783 0.31048843 -0.033645675 0.0053876117 0.10067065
0.12411842 0.073417515 -0.013357744 0.068564385 0.17902583 -0.0032837763 0.1894081 0.2870016
0.047627322 -0.024144895 -0.10939461 -0.08130247 -0.04935419 0.110352516 -0.08854946 0.1051427
0.045697004 -0.19962044 -0.23151799 0.06737322 -0.052992158 -0.040336326 0.0052805617 0.004256539
-0.056497417 0.028600581 -0.034610346 0.013007671 -0.03143783 -0.13272338 -0.08358967 -0.10094586
-0.048380464 -0.07967742 -0.061223093 -0.009588003 -0.024010196 -0.06263889 -0.089949146 -0.01458019
-0.16372944 0.052478794 0.010883395 -0.073529 -0.070513956 -0.06935846 -0.012447216 0.064932786
-0.061620038 0.011729866 0.09667157 -0.009318285 0.0732387 -0.06545814 0.11165896 -0.08092825
0.073738694 -0.066808924 -0.104098305 -0.14098667 -0.010725461 -0.14088607 -0.097906336 0.035710886
0.0014013499 -0.016762432 0.022307498 -0.0055974647 0.037160866 -0.10189747 0.008300468 -0.047824387
-0.0042329505 -0.07110556 0.05016452 -0.03160492 0.035651892 -0.09134738 -0.007282071 0.002007112
-0.032430522 0.019612763 -0.014223181 -0.0027379543 0.05602759 0.017974868 -0.05756633 -0.22916333
-0.05665259 0.025367517 0.116517685 0.087875806 0.008146897 -0.04642933 -0.26605514 -0.10957159
0.086177066 0.066606924 -0.045092322 -0.00032555312 0.07324754 -0.0101063475 -0.086980976 0.036389984
-0.058032505 0.046755053 -0.09422612 0.04834257 -0.0504545 -0.046349376 0.042339236 0.05165607
0.03912951 -0.0031060725 -0.010210492 0.0087393075 -0.04448478 -0.0069913454 -0.10189468 0.006944753
0.067107394 0.100784294 -0.033788286 0.040452003 0.0030160807 0.064894766 -0.06776231 0.08920568
0.102076195 -0.032731216 0.0770542 0.13279136 0.00698708 -0.057686433 0.059673272 0.045636944
0.033090465 0.06051778 -0.031254746 0.049772352 -0.029787295 -0.14829165 -0.09232837 0.06608963
-0.026910938 -0.031808704 -0.063256 0.0927911 0.06240136 0.038022764 0.018125668 0.047859874
-0.086417705 -0.012929514 -0.16413358 -0.10236986 0.1466792 0.11290789 0.071521975 0.086472504
-0.12674358 -0.21428372 -0.017393827 -0.26267618 -0.38060516 -0.1121715 -0.1565599 -0.00901068
0.07563121 -0.0132740885 0.0640876 -0.36901936 -0.48089963 0.02831819 -0.021125436 -0.004407771
