outlier-interpretation-Xu/checkpoints/ADQSoJKp_checkpoint.pt (torch, 103259 bytes, 5 tensors)

attn_net.hidden.weight f4 [96, 192]
000000 b6 34 a8 bc 5c d3 04 bc 23 54 14 3c 9f 0c 0a bc
       -0.020532947 -0.008107033 0.009053263 -0.008425861
000010 94 26 0b bd 06 ab c1 bc 46 4e b4 3d 64 5c d3 3c
       -0.033972338 -0.02364112 0.08803992 0.025800891
000020 ec 73 ad bd e9 72 de 3c 48 f8 6f 3d d4 c8 fe bb
       -0.08469376 0.027154403 0.05858639 -0.0077754054
000030 1c 6f 1b bc 98 d9 d3 bc 44 c2 9d bc fd d2 48 bd
       -0.00948694 -0.025860593 -0.019257672 -0.04902934
000040 e0 60 46 bd b4 ce af 3c 78 02 2d bd 30 8c ef 3c
       -0.04843223 0.021460868 -0.042238683 0.029241651
000050 78 94 f1 bc 77 1f 72 bd cc e7 16 3d 0d b6 e3 3c
       -0.02948974 -0.05911204 0.036842152 0.02779677
000060 e8 39 50 3d 07 0d 63 3b ca 53 55 3d 5d d7 b4 3c
       0.050836474 0.0034645216 0.05208186 0.02207535
000070 7b f1 d0 bc da b3 56 3c b8 73 14 bd 93 07 83 bc
       -0.025505772 0.013104403 -0.03624317 -0.015994823
000080 79 a6 3b bd cd 86 70 bd bf cb 42 3d b2 6e 81 3c
       -0.045813058 -0.058722306 0.04755759 0.015799854
000090 17 10 a2 3d 82 d2 df bc e2 f4 52 bd b8 99 8f bd
       0.07913225 -0.027322058 -0.05150307 -0.070117414
0000a0 20 bb d7 bc 08 e3 a5 3d 4c 75 70 3d 98 f8 93 bd
       -0.026334345 0.080999434 0.058705613 -0.0722515
0000b0 23 94 ba 3d 7d e1 75 bd 31 56 8b bd ab 61 60 3d
       0.09110286 -0.060029496 -0.06803549 0.054780643
0000c0 04 8a 8b 3c 42 c1 54 3c 10 6d ac bc 40 ce 79 3d
       0.017033584 0.012985529 -0.021048099 0.06098771
0000d0 8f b3 b8 bb 6a 8b 69 bb 6e c2 1f 3b 44 19 99 3c
       -0.0056366394 -0.0035636076 0.0024377364 0.018688805
0000e0 77 e0 9c bc 39 f2 80 bd cc 3d 60 3d 8e d9 a5 bc
       -0.019150002 -0.062962 0.054746434 -0.02024534
0000f0 04 6d 89 bd a7 dc 63 bd 8d 2c b8 bd 1c af 41 3d
       -0.06710246 -0.055630352 -0.089928724 0.047286138
000100 e1 7a 4a bd b4 75 f6 3c 94 23 74 3c 84 2a 96 bd
       -0.049433593 0.030085422 0.014901061 -0.07332328
000110 7c 38 37 3d e6 ff 87 bb 4c 7d 39 3d 51 35 b8 bc
       0.044731602 -0.0041503785 0.045285508 -0.02248636
000120 5d 1d aa bd 8b f4 62 bd 60 94 6a 3d c2 0f 55 3b
       -0.08306382 -0.055408996 0.057270408 0.0032510613
000130 52 c0 50 3d b5 25 2e bd b8 b2 79 bd 28 1c 33 bc
       0.05096466 -0.04251643 -0.060961455 -0.010932006
000140 c0 c8 7a 3c b1 5d d7 bb cc 11 92 3c e7 b0 5d 3c
       0.015306652 -0.006572448 0.017830752 0.013530946
000150 c8 5e 03 3d 1e 96 71 bd 2e 82 64 3d 24 6e 5d 3d
       0.032072812 -0.058981054 0.05578821 0.054060116
000160 cf ca 78 3d 26 61 16 3d 59 b6 87 3d 2f 5e 2c bd
       0.06074029 0.03671374 0.06626577 -0.042082008
000170 fe 6f ad 3b 34 58 ee bc 94 43 ef bc bd 0e bb bb
       0.0052928915 -0.029094793 -0.029207028 -0.005708544
000180 f8 65 a9 bb ac f6 21 3b 9e 83 70 bc ff 15 ae 3c
       -0.0051696263 0.0024713678 -0.0146798175 0.021250723
000190 5f 8c 18 bc 10 c1 57 bd 3e 6b 09 3d 46 a1 a8 3c
       -0.009310811 -0.052674353 0.03354954 0.020584714
0001a0 a5 97 96 3c e2 c5 83 3c a7 58 09 3c 73 b9 8b 3b
       0.018382857 0.016085569 0.008382953 0.0042640506
0001b0 26 b1 77 3c 44 0c 21 bd 80 df 30 b9 f5 05 49 3d
       0.015117919 -0.039318338 -0.00016867928 0.049077947
0001c0 14 29 89 3d f0 8b 33 ba 66 c0 ea 3b 26 94 63 3d
       0.06697288 -0.00068491604 0.007164049 0.055561207
0001d0 50 eb 53 bd 60 e2 bb bc 16 70 9a bd c8 bd 8a 3b
       -0.051738083 -0.022935092 -0.0754091 0.0042340495
0001e0 4e b3 e0 bc f8 8e 72 3c 24 e4 ad bb d8 87 ee bb
       -0.02742925 0.014804594 -0.0053067375 -0.0072793774
0001f0 c2 8c ae bd 85 81 02 3b e0 27 02 3d b0 1d 17 3d
       -0.08522941 0.0019913625 0.03177631 0.036893547
000200 71 82 b6 bd 59 12 60 3d 88 23 44 bc 30 e6 79 bb
       -0.089115985 0.054704998 -0.011971362 -0.0038131587
000210 16 98 17 3c ea 0d a7 bd e2 ad 69 3d 98 ae 72 3c
       0.009252569 -0.08156951 0.057050593 0.014812134
000220 12 16 9a bd cf c7 96 bc e5 61 31 bb 38 39 50 3c
       -0.07523741 -0.018405823 -0.0027066406 0.0127089545
000230 8a b6 da ba 55 3b 91 bd 9f ee 70 bd 8c 73 88 bd
       -0.0016686481 -0.07091395 -0.058821317 -0.06662664
000240 a2 e7 3e bd 69 0e fc 3c 0b f0 5e bd 20 64 55 3d
       -0.04660762 0.03076859 -0.05442814 0.05209744
000250 25 c7 b9 bc e1 09 69 bd 20 40 02 3d 87 88 66 3d
       -0.022677967 -0.056894187 0.031799436 0.056282546
000260 84 1f 40 3d d4 43 b6 bc a7 58 84 3d ab 9c 0b 3d
       0.046905056 -0.02224914 0.064622216 0.034084957
000270 6a 42 65 bd 35 af 06 bd 22 76 6b 3c f7 ad 8a bb
       -0.05597154 -0.032881934 0.014371427 -0.004232164
000280 74 8f f0 3c 80 a8 7d bd 65 af 43 3d 39 97 b2 bc
       0.029365279 -0.061928272 0.04777469 -0.021800624
000290 9e 7f 91 3d e8 8a 85 3b 45 52 ef bb dc 94 9b bc
       0.07104419 0.004075397 -0.0073035085 -0.01899188
0002a0 79 db 91 3c 37 04 05 bd 13 2a 41 3d af b4 37 bc
       0.017804848 -0.032474723 0.047159266 -0.011212512
0002b0 ef d4 76 bc 14 47 7f bd 04 73 e2 3c e0 aa bb 3c
       -0.015065416 -0.062323645 0.027642734 0.022908628
0002c0 1a 3e 4d 3d df 5a dd 3c 4c fb ee 3c ae ef 7d 3c
       0.050108053 0.02702087 0.029172562 0.015499039
0002d0 01 51 87 3b 30 18 41 3c e2 ef 35 bc 60 31 f9 b8
       0.0041295295 0.011785552 -0.011104556 -0.00011882442
0002e0 bc 67 77 bd 3d a9 6e bd 5d e9 a9 3c 63 87 23 3d
       -0.060401663 -0.058266867 0.02074116 0.039924037
0002f0 5a ee 78 bd 4c 07 27 3a dc 6b 59 bc 18 6c 63 3d
       -0.060774185 0.0006371632 -0.013270345 0.055523008
000300 45 be ad bd e8 b6 ed 3a aa ad 66 3c 43 d5 83 bc
       -0.08483557 0.0018136175 0.014079491 -0.016092902
000310 df 7c ed bc 33 7d 80 bd 04 fd bc 3d f5 24 0e 3d
       -0.028990207 -0.0627388 0.092279464 0.034703214
000320 f2 02 1c bd 03 a4 68 bd 8e c0 88 3c d8 42 a3 3b
       -0.038088746 -0.05679704 0.01669338 0.0049823336
000330 14 44 8c ba 51 ca 94 bc a8 57 90 bd 9e bf bc bd
       -0.0010701441 -0.018162878 -0.07047969 -0.092162356
000340 03 bb 91 3c 10 fa 81 bc 5a 0c fd bc fe bf 6d 3d
       0.01778937 -0.01586631 -0.030889679 0.058044426
000350 66 b8 93 3b 43 d0 85 bd 6c 26 aa 3d 4e bf b1 3c
       0.004508066 -0.065338634 0.0830811 0.021697666
000360 14 cd 2e 3d 2f 93 ec bc 47 22 36 bc d5 00 09 3d
       0.042676046 -0.028878776 -0.011116571 0.03344806
000370 e2 d5 9f bd b2 f8 24 bb fd 54 a2 bc 4b 68 06 bb
       -0.07804467 -0.0025172648 -0.019815916 -0.002050894
000380 17 dd b9 bd da fc b0 bd 4c 10 36 3b ae 8c ea ba
       -0.09075373 -0.086419776 0.002778071 -0.0017894709
000390 97 bc 71 3d ac 14 df 3c 2c fa 08 bd c8 31 94 bd
       0.059017744 0.027231537 -0.033441707 -0.072360575
0003a0 4c 7e 18 3d ce 8a ad 3d 34 11 0f 3c 14 d0 85 bd
       0.03722982 0.084737405 0.008732129 -0.065338284
0003b0 6d 05 a9 3d fd 4b c2 bd 6c 68 98 bd 78 94 92 3d
       0.08252988 -0.0948715 -0.07441792 0.071572244
0003c0 00 99 72 bb 4e c8 8c 3c 62 bb c0 bb d2 53 64 3d
       -0.0037017465 0.017185356 -0.005881713 0.055744
0003d0 14 fa 12 bc e6 bc 03 bd 31 97 5e bd 10 c8 11 bc
       -0.008970756 -0.03216257 -0.054343406 -0.008897796
0003e0 ae 11 e2 3b fa 69 6a bc 3b d9 90 bc 0b 2e 0c 3c
       0.0068990802 -0.014307493 -0.017681709 0.008555899
0003f0 ae d2 7b bd 47 e8 24 bd 9b 55 89 bd d1 44 40 3d
       -0.061480217 -0.04026058 -0.06705781 0.04694063

attn_net.hidden.bias f4 [96]
000000 5e 7b a5 3d 43 fa 27 3d d3 3f c9 3c 20 ac ae 3b
       0.08080171 0.041010153 0.024566567 0.0053305775
000010 7f 91 af be a3 f9 bf bd d6 18 13 3d 01 fd a7 3d
       -0.34290692 -0.09373786 0.035912357 0.082025535
000020 c8 b4 c1 3b dc af 2b 3c b9 ab ea bd 03 6a ad bc
       0.0059114434 0.01047894 -0.11458535 -0.021168714
000030 9c a0 9d be b2 72 4a be 3a d8 10 3d 93 fe 9f 3c
       -0.30786598 -0.19770315 0.03536246 0.01953057
000040 0d 5b 7a bd a9 8b 78 be bd 33 c9 bd f0 17 4b be
       -0.06112199 -0.24272026 -0.098243214 -0.1983335
000050 11 87 9d 3d 3c c5 2d be c4 4a 84 3c 36 97 b7 3c
       0.076917775 -0.1696977 0.016148932 0.02241097
000060 52 89 0c 3e fc 12 16 3e 39 4a 40 bc df 44 70 3d
       0.13724259 0.1465568 -0.011736446 0.05865943
000070 60 77 cc 3d 5e 53 dc bc 8c 52 d4 bc c4 41 24 3e
       0.099837065 -0.026895221 -0.025918268 0.16040713
000080 33 75 96 3d 8e 79 2e bc 63 2f 37 3c 05 a2 7c bd
       0.07346573 -0.010649098 0.0111807315 -0.06167795
000090 d7 4b 4b bd f9 d7 9e bd f5 af e9 bd da 0e 73 be
       -0.049632873 -0.07756037 -0.11410514 -0.23736134
0000a0 2a 14 92 3d 44 e3 32 3c 5c 1d 93 3e 18 6a 02 3b
       0.07132752 0.010918442 0.28733337 0.0019899663
0000b0 b8 61 a8 3c 2b 2d ab 3d 8d f4 ac bc 0a 90 e9 3a
       0.020554408 0.083582245 -0.021112705 0.0017819416
0000c0 8a 85 8a bb 05 0b 9e 3e ed 77 0f bd f4 bf 9d be
       -0.004227345 0.30867782 -0.03502648 -0.3081051
0000d0 26 8e 9d bd 40 2b 38 3e df ef 71 3e fe e6 99 3d
       -0.07693128 0.17985249 0.2362666 0.075147614
0000e0 f6 9f 78 bd 74 4b 0a 3d 7b 15 10 3e c3 1c eb 3c
       -0.060699426 0.033763364 0.14070694 0.028700238
0000f0 12 0f 83 3c 9f 0a 69 bd 1b aa 70 be d5 87 86 3e
       0.015998397 -0.056894895 -0.2350239 0.26275507
000100 e5 00 33 be ea 20 f9 bb 1c f3 65 3d e4 17 13 bd
       -0.1748081 -0.0076028006 0.05614005 -0.035911456
000110 a0 98 91 3c e6 41 22 3d 80 7c f6 3d 49 f6 8e 3c
       0.017772973 0.039613627 0.12035465 0.017451422
000120 3d 54 8d 3a 4e 46 c9 3d 5e 7b d9 3a c8 d7 64 bc
       0.0010782551 0.09827863 0.0016592552 -0.013967462
000130 a4 4c 8e 3c 98 52 cb 3d cf 6b c5 bd fa 44 85 3c
       0.01737053 0.09927863 -0.096397035 0.016268242
000140 23 b3 94 bd 8e 0d 50 3e 12 2f e0 ba 97 08 c5 bd
       -0.0726073 0.2031767 -0.0017103872 -0.09620779
000150 be 9d 0c 3d ef 0d 98 3e 5a 35 1a 3d af 40 8b 3c
       0.034330122 0.2969813 0.037648536 0.016998617
000160 24 b9 0d 3c 77 8f 8c 3e a9 1f 5f 3c cb 8e a5 bd
       0.008650098 0.27453205 0.013618388 -0.08083876
000170 87 4d 5f 3d 8c 3d 38 be 3b 0c 3d 3e 3c 8c 63 3d
       0.054517295 -0.17992228 0.18461697 0.05555366

attn_net.out.weight f4 [64, 96]
000000 91 50 4f 3d a7 de a2 3c 81 62 59 3d 59 f6 7e 3d
       0.050613943 0.01988156 0.053072456 0.062246654
000010 b1 73 77 3c b0 4f 24 be e0 f0 50 3e ae 7f 7b 3e
       0.015103267 -0.16046023 0.20404387 0.24560425
000020 29 f2 b1 3d af bf c3 3e 75 c1 b0 3c 63 ca a6 bd
       0.086887665 0.3823218 0.021576623 -0.08144071
000030 52 69 51 3e 71 6c 61 3e 46 50 51 3e 56 29 12 3e
       0.20450333 0.22014023 0.20440778 0.14273581
000040 67 95 95 bd 8b aa 5b 3d 26 af 90 3c b0 92 1a bd
       -0.07303887 0.05362944 0.017661642 -0.03773755
000050 9c 37 3e 3d 89 3b 35 3d a8 bc 7a bc 10 fc 74 3d
       0.046439752 0.04424623 -0.015303768 0.059810698
000060 b7 5e e3 3d be 57 4c 3e be bd 90 3c 60 b0 26 3d
       0.1110205 0.19955346 0.017668601 0.040695548
000070 41 89 c3 3e 18 c6 5d bd 52 3d 31 3c 24 06 e9 3c
       0.38190654 -0.054143995 0.010817843 0.02844531
000080 aa a5 c4 3d 58 a2 b4 3c 82 88 5d bd 6e 22 51 bd
       0.096019104 0.022050068 -0.054085262 -0.051058225
000090 07 61 0c 3e 9a eb d2 bd ef 56 35 3d 58 27 eb bc
       0.13708888 -0.10298844 0.04427236 -0.028705284
0000a0 82 3f f4 3d aa f4 24 3c 59 f5 2d 3e b2 bb b6 ba
       0.11926176 0.010068098 0.16988124 -0.0013941436
0000b0 ff 85 b2 3e 09 02 99 3e 5e 90 27 bd 60 e5 cb 3c
       0.34867856 0.29884365 -0.040909164 0.024889648
0000c0 a0 b5 ac bb 31 00 3b 3e a4 91 17 3d 57 ad 88 3d
       -0.005270675 0.18261792 0.037004128 0.06673687
0000d0 ad 38 40 3d 6b 9d df 3d 46 45 0d bd b3 ce f6 3d
       0.04692905 0.10918697 -0.034489892 0.120511435
0000e0 5d 35 28 bd 61 00 33 3d 17 c6 8f 3c 71 aa 0d 3e
       -0.041066516 0.043701533 0.017550511 0.1383455
0000f0 ae 5c 22 3b fe 27 7f bc a2 7b 8f 3c 79 0a 23 3e
       0.002477448 -0.0155735 0.017515007 0.15921964
000100 14 55 bd bc c2 77 96 3d fe 32 77 3e b6 d4 aa 3d
       -0.023111857 0.07347061 0.24140546 0.08341353
000110 26 ab 15 be e8 4c ef 3c 5b c6 04 3e b1 5a 94 3e
       -0.14616069 0.029211476 0.12966292 0.28975442
000120 6f f5 af 3d e9 07 e2 3e 04 45 52 3e b1 09 03 3b
       0.085917346 0.4414666 0.2053414 0.001999479
000130 c1 c9 7b 3e e6 cb 79 3e a0 0d ac 3c 32 07 66 3e
       0.24588682 0.24394187 0.02100259 0.22463682
000140 5f 35 f6 bd e4 8e 13 3e 52 5f 7f bd 80 04 3b ba
       -0.120218985 0.14409977 -0.062346764 -0.00071341544
000150 e2 80 88 3e ed 50 40 3e 85 a7 ce bc d3 87 05 3e
       0.2666083 0.1878087 -0.025226364 0.13040094
000160 41 33 7d 3e b5 3b 9a 3d 0c 12 87 bb d4 65 a8 bc
       0.24726583 0.075309195 -0.0041220244 -0.020556368
000170 95 0d 97 3e 9b e5 64 bd e2 eb 14 3e f4 9f 54 3d
       0.2950255 -0.05588303 0.14543107 0.051910356
000180 b0 55 8d 39 3f ea c6 bc 0c c1 96 3a 9a de 82 bb
       0.00026957458 -0.02428162 0.0011501624 -0.0039938213
000190 94 8e 3c 3d a8 f4 1b bc 37 d6 1a 3b 53 dd 61 3d
       0.04603441 -0.00951878 0.0023626217 0.05514271
0001a0 8e 79 00 bc 66 8c 11 3b 01 ff 1b bc 51 e0 32 3c
       -0.007841481 0.0022208928 -0.009521247 0.010917739
0001b0 2d d5 a5 bd df e0 93 bd c6 ac c6 bc 2a 23 b2 bb
       -0.08097301 -0.07220625 -0.024252307 -0.005436321
0001c0 32 50 4e bb 71 d4 88 3d 8b 09 85 3d b1 f0 82 3d
       -0.0031480906 0.06681145 0.06495961 0.063935645
0001d0 b1 92 32 3c 1a df 9c 3c 14 75 ea ba 2e 84 41 bc
       0.010899232 0.019149352 -0.0017887675 -0.011811299
0001e0 94 88 95 3d a3 28 d4 ba d8 37 fb 3a ac b0 cc bc
       0.07301441 -0.0016186427 0.0019166423 -0.024986587
0001f0 50 a4 f4 3c 47 ed a1 3b 77 0c 13 bb dd 8d b1 3c
       0.029863507 0.0049416157 -0.002243785 0.021674091
000200 c8 f1 d4 bc 96 30 3a bc f1 4b 51 bc f2 f5 aa ba
       -0.025994197 -0.011364123 -0.0127744535 -0.0013043268
000210 5a b9 cc 3c 78 1c 8f 3b 91 7e 7c bc 5e 08 9a 3c
       0.024990726 0.0043674074 -0.015411035 0.018802818
000220 06 bd 44 3c f3 84 23 bb 40 33 3e 39 ad 6f 1d bc
       0.012007957 -0.002495107 0.00018138904 -0.009609145
000230 1a 47 7e bc 52 4d 5a bb 08 77 f3 39 60 b8 28 3c
       -0.015519882 -0.0033310247 0.00046437257 0.010297865
000240 8a f0 15 bc a8 1e 86 bd 40 ba bb 39 d3 11 25 3d
       -0.009151587 -0.06548816 0.00035806186 0.0403002
000250 80 11 06 3a 16 fb e7 bb 64 9b 9d 3c 04 43 37 3d
       0.0005114302 -0.0070794923 0.019239135 0.044741645
000260 b2 ef 52 3c 71 de 80 3d 7e ba 81 3b 19 84 80 bb
       0.012874531 0.06292427 0.003958999 -0.0039219973
000270 30 e9 07 39 64 d6 25 3b 45 f2 48 bc 93 5b 5b 3b
       0.00012961472 0.0025304789 -0.012264793 0.003347133
000280 72 43 3b 3d cc 1f cf 3a 1f 26 8e 3d fa 17 9e bb
       0.045718618 0.0015802323 0.06940865 -0.0048246356
000290 44 32 08 bc d4 c3 25 3d 78 c8 81 3d 0c 96 7c 3d
       -0.0083127655 0.04046996 0.063370645 0.061666533
0002a0 1a 1d 52 bc a7 5c c1 bb 00 40 a3 3a ad 77 33 bc
       -0.012824321 -0.0059009376 0.0012454987 -0.010953826
0002b0 af 10 16 bb 15 80 d0 3c 96 a3 66 3d 67 e9 19 bb
       -0.0022898128 0.0254517 0.05630835 -0.0023485066
0002c0 cf b6 6c bc 76 a9 80 bd 50 9e 39 3c 7e 5d 05 3d
       -0.014447882 -0.06282322 0.011329249 0.032559864
0002d0 ff 1e c6 bb c8 1c 81 bd 59 35 f6 bb 82 c6 15 bc
       -0.0060461755 -0.06304318 -0.0075136838 -0.009141566
0002e0 66 7e c9 3a b1 83 4b 3c 4b 21 ea bc 08 bc aa bb
       0.0015372753 0.012421534 -0.028580328 -0.0052104034
0002f0 d6 f9 cc bc d2 7b 48 3c ce df 93 bd 7d 8a dd 3c
       -0.025021475 0.012236552 -0.07220422 0.027043575
000300 a6 4b 81 bc e2 15 3b 3c 30 31 15 3d 56 1f 94 bb
       -0.015783142 0.0114187915 0.036423862 -0.004520337
000310 ab 13 b0 3c 02 ab 93 3b 72 4b 2b 3d 44 4e 9e ba
       0.021493753 0.0045064697 0.041819997 -0.0012077768
000320 4a d0 90 bd 35 78 ab bc fe 69 31 3d 74 b2 1a bc
       -0.07070978 -0.020931343 0.043313973 -0.009441961
000330 e6 aa 3e be 2d f0 57 be bb f9 ff bb 52 b2 9a 3b
       -0.1861988 -0.21087714 -0.0078117526 0.0047209645
000340 18 d7 99 b9 e7 fc 27 3d 4b 23 d8 3c de e3 53 3d
       -0.0002934269 0.04101267 0.026384016 0.051730983
000350 ca d3 3c 3d 61 ad 85 3d 1a e0 de ba bc d3 0c 3c
       0.046100415 0.0652721 -0.0017004043 0.008595403
000360 1f cd 21 bc 47 b3 14 be 65 ca 22 3c b4 b5 bf 3c
       -0.009875565 -0.14521514 0.00993595 0.023402072
000370 b7 d1 7d 3c 93 92 2d 3c 5e 0c 3b 3c 9a d8 1f 3d
       0.015491894 0.010594028 0.011416523 0.039024927
000380 9f 85 31 3d e6 39 98 bb c4 75 bb bc f0 07 48 3d
       0.04334032 -0.004645574 -0.022883303 0.048835695
000390 1a db 79 bd 8f 3b 47 3c e4 72 bd bb fd ee a5 3c
       -0.060999967 0.012160196 -0.0057815183 0.02025556
0003a0 c0 24 cb bc 60 69 34 3c 66 71 ee 3c ac bb 1b bb
       -0.024797797 0.0110114515 0.029106807 -0.0023762984
0003b0 e5 0d 06 bc 5a bd 91 3c b5 03 ab bb 66 34 f4 bb
       -0.008182024 0.017790485 -0.005218948 -0.0074525354
0003c0 96 c1 0a 3c a1 83 15 be 74 bd 48 3d a4 6d b1 bd
       0.008469006 -0.14600994 0.0490088 -0.086634904
0003d0 50 bf bb 3a 60 27 cc 3b fa d4 9f 3c 3e 0a 9d 3d
       0.0014323983 0.00623028 0.019510735 0.07667969
0003e0 a8 42 81 bc e4 0e 6f 3c 90 74 c1 bc 77 f9 46 bc
       -0.015778854 0.014590953 -0.023615152 -0.012144438
0003f0 bd 84 2e bc 99 5e 45 3b fc d9 54 3b bd 27 9b 3b
       -0.010651764 0.00301162 0.0032478562 0.004734962

attn_net.out.bias f4 [64]
000000 df fa a1 3e 7f 3d 7a be 60 3b 95 be b6 10 85 3e
       0.31636712 -0.24437521 -0.29146862 0.25989312
000010 c3 46 36 be a3 58 d2 3e 90 fa b7 3e 0c 99 c6 be
       -0.17800431 0.4108325 0.35933352 -0.3878864
000020 28 d6 03 be 7e 1e db 3e 7e 0b 86 be a5 82 7a be
       -0.12874663 0.427967 -0.26180643 -0.244639
000030 78 1d d1 be 2c 43 89 be 3a 50 9f be 0a 07 cb 3e
       -0.40842795 -0.2680906 -0.31115896 0.39653808
000040 b1 b4 71 bd db 7f 75 be f1 e9 11 bd 90 6d cc be
       -0.05901021 -0.23974554 -0.035623495 -0.3992734
000050 09 e6 3d be cc ac a0 3e f9 26 8d 3e ef be 41 bd
       -0.18544783 0.31381834 0.27568796 -0.04730123
000060 b3 c1 67 be 46 9f 1e 3e 1f 42 97 be 11 36 db 3d
       -0.22632484 0.15490445 -0.29542634 0.10703672
000070 9e 10 ed 3e a8 7a 9f be 56 4c af be 80 a2 4b be
       0.4630174 -0.31148267 -0.34237927 -0.19886208
000080 dc 28 ce 3e 9b 2e 88 3e b5 95 5e be 77 0b ad bd
       0.40265548 0.26598057 -0.21736796 -0.08449452
000090 ff 25 2b 3e f3 16 65 3e fe 66 47 3c 35 a9 9b 3e
       0.16713713 0.22372036 0.012170551 0.30402532
0000a0 0d f3 96 3d b6 e4 b9 3e 60 5b a2 bd 8b df 41 3e
       0.07370577 0.36307305 -0.07927585 0.18932931
0000b0 40 64 c6 3e b8 c3 58 3e 51 f2 22 3d 99 38 83 3d
       0.3874836 0.21168411 0.039781872 0.064072795
0000c0 7b 18 ca 3c a2 62 9a 3d 28 5f 5c be bf 5a 8a be
       0.024669876 0.07538344 -0.21520674 -0.2702236
0000d0 b8 35 21 bd 0d 21 95 be 54 33 d6 3e 0d 1e 34 3d
       -0.03935787 -0.29126778 0.41836035 0.04397397
0000e0 ee 97 9f be 98 dc 3a be c2 bd 0f be 61 87 c4 be
       -0.311706 -0.18248212 -0.1403723 -0.38384536
0000f0 b5 e7 01 3e 0b 39 55 be 0f a8 b6 3e 9a 20 5c 3d
       0.12686045 -0.20822541 0.35675094 0.05374203

linear.weight f4 [64, 10]
000000 88 f9 88 3f 45 40 95 3f c4 c1 4d bf af f9 6b 3f
       1.0701151 1.1660239 -0.8037379 0.9217786
000010 d9 ae 20 bf e8 55 3d bf 2b 99 37 3e 38 76 36 bf
       -0.62766796 -0.7395921 0.17929523 -0.7127414
000020 29 9c 5c be 15 e4 23 bf 90 dc a5 3d 6a 94 ed bd
       -0.21543945 -0.640199 0.080987096 -0.11600573
000030 e8 12 b4 bd f5 9a 81 bc 0d cf c1 3d 1d cb 0c 3d
       -0.087926686 -0.01582096 0.0946332 0.03437339
000040 2a 10 c3 3d 5f e9 b9 bc 5a c6 af 3d 60 27 95 bc
       0.095245674 -0.022694288 0.085827544 -0.018207252
000050 b0 b3 6a 3e e5 e9 20 be 07 28 1d be 4f 1f d4 bd
       0.22920108 -0.15714224 -0.153473 -0.10357534
000060 59 7e 0b 3e ce b6 4b 3d f0 87 c9 3d 58 31 59 3c
       0.13622417 0.049734883 0.09840381 0.013256393
000070 68 f2 a7 3d 04 5c 93 bc 8d c3 5a be 3f 0e bb be
       0.08200532 -0.017988212 -0.21363659 -0.36534306
000080 a5 0d 93 3c 0a 0a 5c be 35 21 55 3e cc cc b9 bb
       0.017950842 -0.21488205 0.20813449 -0.0056701656
000090 ef 9c 9d bd 33 1f f8 3c d4 7b 96 bd dc 89 bd bd
       -0.07695948 0.030288314 -0.07347837 -0.0925481
0000a0 af 0b 8e 3d fb eb 0a 3d aa f4 20 bd 2d 28 7f bd
       0.06935822 0.033916455 -0.03929583 -0.062294174
0000b0 16 35 fb 3c 27 6e 20 be 2a 8b 2e 3d f4 43 35 bd
       0.030664962 -0.1566702 0.042613186 -0.04425426
0000c0 aa 06 9e bd 42 5f 99 bd 89 ef 9c 3f 6f 3c 91 3f
       -0.07716115 -0.07488872 1.22606 1.1346568
0000d0 c0 f6 5b bf f1 e6 a5 3f 10 58 2a bf aa 71 34 bf
       -0.85923386 1.2961103 -0.6654062 -0.7048594
0000e0 71 33 f6 3d 5b 75 98 bf 03 09 cd 3d 8d 8f 80 bf
       0.120215304 -1.1910814 0.100114845 -1.0043808
0000f0 b5 b3 91 bf e8 75 95 bf 9b fc 64 3f 5e c7 a5 bf
       -1.1382967 -1.1676607 0.89447945 -1.2951467
000100 1e 93 45 3f b3 58 61 3f c6 86 cc be f5 e3 5b 3f
       0.7717761 0.8802597 -0.39946574 0.8589471
000110 8c 9b 7a 3c 9e bc 58 3f d1 df a0 bd 99 3b 51 3d
       0.015295874 0.84662807 -0.078551896 0.051082227
000120 63 08 f4 3b 7a 21 13 bd f0 f5 bb bd d2 d2 78 bd
       0.007447289 -0.035920598 -0.09177768 -0.06074793
000130 de c7 55 3d 04 89 ab 3d 22 a3 0a 3d 36 e6 17 3d
       0.05219256 0.08375743 0.03384698 0.03708478
000140 91 5e b3 bd 41 db e2 ba 87 ee 89 bd ae 76 3f 3c
       -0.087582715 -0.0017307774 -0.067349486 0.01168601
000150 b2 84 d0 bc 1b 1b ef bd d7 65 b6 3c 7a b5 61 3c
       -0.025453899 -0.11675092 0.022265358 0.013776178
000160 9c 78 51 bd e4 0e f9 3d ff 66 99 3f e9 63 a0 3f
       -0.051140413 0.12161043 1.1984557 1.253049
000170 25 33 92 bf 73 19 a3 3f ed 48 42 bf 3d 38 3d bf
       -1.1421858 1.2742141 -0.75892526 -0.7391394
000180 85 e6 20 3e 52 ed 97 bf 20 1a cf bc 76 19 89 bf
       0.15712936 -1.18693 -0.025281012 -1.0710895
000190 af e7 33 be 8e 96 2f 3d 22 ec 64 be 4b 00 74 bd
       -0.17568849 0.04286819 -0.22355703 -0.059570592
0001a0 78 b9 1f be f6 9b 7a 3c 19 8d 0b 3e 81 00 9c 3d
       -0.15598094 0.015295973 0.13628043 0.076172836
0001b0 33 f4 04 be 22 e9 dd bc 8c cc e5 bc 3a 07 03 3e
       -0.1298378 -0.027088705 -0.028051637 0.12795725
0001c0 56 9f 2a 3d 92 28 c8 bd 80 12 12 bd a6 32 aa bb
       0.04165586 -0.09773363 -0.035662174 -0.005194026
0001d0 cd 36 3b be fc ff 5e bd 50 68 35 3c b7 b9 87 3d
       -0.18282624 -0.054443344 0.011072233 0.06627219
0001e0 9c 74 8d bd 9e e7 3f be d2 28 2c be 73 7c 13 3e
       -0.06907007 -0.18740699 -0.16812447 0.14402942
0001f0 bb 48 84 3c 1a 53 c1 bd f6 4f 82 bd a6 28 bc bd
       0.016147962 -0.094396785 -0.063629076 -0.091874406
000200 3e d9 18 3d f2 cd 90 bd da d4 fe bd 2a 30 be 3d
       0.037316553 -0.07070531 -0.12442942 0.0928653
000210 35 57 b9 bd 05 f5 5f 3c 32 3d 04 3d 5c 9b a5 bd
       -0.090498365 0.013669257 0.032284923 -0.08086273
000220 0e f6 cb bb 01 f2 fc 3d 1b 25 df bd c4 34 71 bb
       -0.0062244004 0.12350846 -0.10895749 -0.0036805132
000230 58 0a 1d 3e 8e 95 65 3c 63 d1 1f 3d dd 76 44 bc
       0.15335977 0.014012707 0.039018046 -0.01199123
000240 dd 49 ad ba b5 c8 bb 3d 48 e0 45 bc db 32 80 bd
       -0.0013220866 0.09169141 -0.012077399 -0.062597
000250 09 83 5b 3d 5f e6 54 3c 0d 18 a4 3f 05 8d a6 3f
       0.05359176 0.012994378 1.281984 1.3011786
000260 e3 1a 2f bf 4d 9f 95 3f 3b 6d 40 bf 9e 85 5d bf
       -0.684004 1.168924 -0.7516667 -0.8653201
000270 74 d8 2f 3e 20 73 62 bf 56 48 d1 bc d7 d4 5b bf
       0.17172414 -0.88456917 -0.025547188 -0.8587164
000280 52 f8 81 3d d4 d7 9a bd be b4 9b bc 42 23 97 bd
       0.063461915 -0.07560697 -0.019007083 -0.07379772
000290 fd 4a 48 bd 2e c2 a6 3c 8e 2f ac bb 81 3a ea 3c
       -0.04889964 0.020356264 -0.0052546924 0.02859235
0002a0 14 a0 86 bc 73 19 b2 bc be ad 12 bc fd 4b 51 bd
       -0.016433753 -0.02174065 -0.008952556 -0.05109786
0002b0 21 89 ce bd a2 3b a6 bd 58 6b 39 bc cd 7c b0 bd
       -0.10084749 -0.08116843 -0.011317097 -0.08617554
0002c0 26 93 4a 3d 20 06 ba 3d 5a d0 6f 3d 9d 3e 05 3d
       0.049456738 0.090831995 0.05854831 0.032530416
0002d0 7a f3 09 3e f7 a2 02 3d 2a 9d e7 bc 2a 2f 15 bd
       0.13471785 0.031893697 -0.028273184 -0.036421932
0002e0 15 63 1a 3d 0f b4 0f 3d d4 33 f3 3c 79 22 09 3a
       0.03769215 0.035083827 0.0296878 0.0005231272
0002f0 95 da 81 3d f0 07 89 3b 1c 31 b7 be ac b6 db be
       0.06340519 0.0041818544 -0.35779655 -0.42912805
000300 20 50 c8 be 0f 49 97 3e a4 21 cd 3c 00 79 8f be
       -0.3912363 0.29547927 0.025040455 -0.28022003
000310 da 32 75 bc cd 65 af bd 67 61 ff 3d 6a 55 77 bd
       -0.014965737 -0.08564339 0.1246975 -0.06038419
000320 f9 f0 96 3d ea fc 13 3d 6a 8c c2 bd 68 cd f1 3d
       0.07370181 0.03612987 -0.09499438 0.11806756
000330 c3 5b 92 bc 71 ab 87 bd a8 56 27 3b 5f b0 68 bd
       -0.017866021 -0.06624497 0.002553383 -0.056808826
000340 0a e3 08 bd 69 c9 df bd 70 6f ad 3f 31 a9 6c 3f
       -0.033419646 -0.10927088 1.3549633 0.92445666
000350 aa 9b 78 bf a7 69 9c 3f 43 c1 0e bf 59 fd 45 bf
       -0.97112525 1.2219743 -0.55763644 -0.773397
000360 2f 66 ed 3e d7 25 4b bf e0 66 a6 3d d7 a5 67 bf
       0.46367022 -0.79354614 0.081250906 -0.90487427
000370 70 cb 9c bf 63 fb 8f bf cb 5d 6f 3f ae 77 90 bf
       -1.2249584 -1.1248592 0.9350249 -1.1286523
000380 3a a5 36 3f 6d f7 54 3f eb c9 c5 be a7 c1 28 3f
       0.71345866 0.8319004 -0.38630614 0.6592049
000390 a0 06 cf bd 92 af 45 3f 87 5e 81 bc 79 29 46 be
       -0.101086855 0.77221024 -0.015792144 -0.19351758
0003a0 c5 c6 39 bc ea 2a 75 bc 2b 2a 0c 3e 62 22 8a 3d
       -0.011338894 -0.014963845 0.13687961 0.06744839
0003b0 53 0f 98 3c c8 ed 53 bd a2 f9 5b bc 51 95 22 3e
       0.018561995 -0.051740438 -0.013426216 0.15877272
0003c0 b1 6b de bd 0b 79 d4 bc 9a 1f 92 3c ef 94 f8 3c
       -0.10860384 -0.025936624 0.017837334 0.030344455
0003d0 a5 ad 29 be e5 25 93 3d dc e6 0e bc 30 97 72 bd
       -0.16570146 0.07184962 -0.008722033 -0.059226215
0003e0 b8 50 c9 3d fe 4e 55 3d 50 bd 78 3f ca 2d 91 3f
       0.09829849 0.052077286 0.9716387 1.1342099
0003f0 27 f7 7f bf 42 ab 8d 3f 93 ea 45 bf 75 a3 58 bf
       -0.999865 1.1067889 -0.77311057 -0.84624416
