outlier-interpretation-Xu/checkpoints/bEOkxDtj_checkpoint.pt (torch, 103259 bytes, 5 tensors)

attn_net.hidden.weight f4 [96, 192]
0	0xbdd75deb	-0.1051596
1	0x3db2bad2	0.087270394
2	0xbd8d80bc	-0.0690932
3	0xbd05cd5f	-0.03266656
4	0xbd8afc93	-0.06786456
5	0xbe81e998	-0.2537353
6	0xbd084723	-0.033270966
7	0xbd350c2f	-0.044201072
8	0xbe59e537	-0.21278845
9	0xbe0ccabb	-0.1374921
10	0x3dd7648e	0.10517226
11	0x3d6e518d	0.05818324
12	0x3c3826d1	0.011239723
13	0x3e0ed386	0.13947877
14	0x3e5c6e7f	0.21526526
15	0x3cf8519a	0.030312348
16	0x3dfa9f94	0.12237468
17	0x3d361cb0	0.044460952
18	0xbd06b859	-0.03289065
19	0x3c5b1302	0.013371231
20	0x3de9d811	0.114181645
21	0xbe8002a1	-0.25002006
22	0x3e88f759	0.2675121
23	0x3da2d8c3	0.079515
24	0xbe8a8437	-0.27053997
25	0xbd162882	-0.036659725
26	0x3da37622	0.079815164
27	0x3caade64	0.020857997
28	0xbdb0616c	-0.08612332
29	0xbdc4fba7	-0.096183114
30	0xbda3f80d	-0.08006296
31	0xbd0b0b14	-0.03394611
32	0xbd616c3e	-0.05503487
33	0x3ce4a5f5	0.027911166
34	0xbdccf301	-0.10007287
35	0xbe2e89f8	-0.17044818
36	0x3e429f1a	0.19006005
37	0x3e73ad72	0.23796633
38	0x3e8005fe	0.25004572
39	0xbba45e0c	-0.005016094
40	0xbd0ef490	-0.0349012
41	0xbe8db306	-0.27675647
42	0x3e9db1e1	0.30799773
43	0x3e3f770e	0.1869776
44	0x3e002423	0.12513785
45	0xbe1cbd2d	-0.1530654
46	0xbdb59336	-0.08865969
47	0xbd36a520	-0.04459107
48	0xbd697a17	-0.0570012
49	0xbe57e0db	-0.2108187
50	0xbe819010	-0.25305223
51	0x3c7bcac4	0.015368167
52	0xbe80157f	-0.250164
53	0x3e04640f	0.12928794
54	0x3d02858f	0.031865653
55	0xbcba333b	-0.022729507
56	0xba06eca8	-0.0005146959
57	0x3a7110a0	0.0009195898
58	0xbe961176	-0.29310197
59	0x3eae57a0	0.34051228
60	0xbe8a899f	-0.27058122
61	0xbe4cef2b	-0.2001311
62	0x3dd0f0bd	0.10202167
63	0x3dd23266	0.10263519
64	0x3c1a21e0	0.0094074905
65	0x3d103619	0.03520784
66	0xb8f88580	-0.00011850428
67	0x3db9c39b	0.09070512
68	0xbd88eb18	-0.066854656
69	0xbcd7a06a	-0.026321609
70	0xbbe3df5b	-0.0069541163
71	0x3e095674	0.13411885
72	0x3e07f6c5	0.13277729
73	0xbe17fb16	-0.14841875
74	0xbc2181ef	-0.009857639
75	0x3e244f59	0.16045894
76	0xbd1449bd	-0.036203135
77	0x3e634147	0.2219287
78	0x3e17057f	0.1474819
79	0xbd8de279	-0.06927962
80	0x3e356080	0.17712593
81	0x3db22ff5	0.08700553
82	0xbe32bbdb	-0.17454474
83	0xbd373c95	-0.04473551
84	0x3da5d8c2	0.08097984
85	0xbd278f94	-0.04090841
86	0x3d023f8b	0.03179888
87	0xbdaa25c9	-0.08307988
88	0x3cf1c2da	0.029511858
89	0xbcb03177	-0.021507962
90	0xbe09c472	-0.13453844
91	0x3d601e75	0.054716546
92	0x3b990e64	0.004670905
93	0xbe20fdbe	-0.15721795
94	0xbcfe01ab	-0.031006655
95	0xbd681216	-0.056657873
96	0xbcfcdfe0	-0.03086847
97	0x3e14444c	0.14479178
98	0x3e003394	0.12519675
99	0x3d6f7538	0.058461398
100	0x3e3b27de	0.18276927
101	0xbde30198	-0.11084288
102	0x3d960715	0.073255695
103	0xbd281e4c	-0.04104452
104	0xbe070262	-0.13184503
105	0x3e0dd73f	0.13851641
106	0x3c658568	0.014008857
107	0x3bdf302a	0.0068111615
108	0x3e074f6b	0.1321389
109	0xbe0a8255	-0.1352628
110	0x3e030ef2	0.1279867
111	0xbd3e205f	-0.04641759
112	0x3b6bd505	0.0035985124
113	0xbe43a86a	-0.19107214
114	0xbe4ceb2b	-0.20011584
115	0x3dbd0047	0.092285685
116	0xbd9c850b	-0.076425634
117	0x3dff3ee4	0.12463167
118	0xbb2d60f1	-0.0026455487
119	0xbccd51fd	-0.02506351
120	0xbc195e84	-0.009360913
121	0xbdb4bd7d	-0.088252045
122	0x3d068c6a	0.032848753
123	0x3d830b60	0.06398654
124	0x3dd8a633	0.10578575
125	0x3dbf99d0	0.09355509
126	0x3e3fd85e	0.18734881
127	0xbc9026fa	-0.01759671
128	0x3d34c59f	0.04413378
129	0x3dffb6c2	0.1248603
130	0x3beb3c4d	0.0071788193
131	0x3c928b69	0.017888742
132	0xbc3ce711	-0.0115297
133	0xbd2edab6	-0.042689048
134	0x3c9b6ce9	0.01897283
135	0xbb924363	-0.0044635995
136	0x3d4b3495	0.049610693
137	0xbd9d90b0	-0.076936126
138	0x3d2346bf	0.03986239
139	0xbd0eb197	-0.03483733
140	0x3d8ee748	0.06977707
141	0x3d91ff0f	0.07128727
142	0x3e053a22	0.13010457
143	0xbc2ec42c	-0.010666888
144	0x3df006f2	0.11720075
145	0xbce06eb3	-0.027396536
146	0xbe26a676	-0.16274437
147	0x3d4695ae	0.04848259
148	0x3dc7d8a1	0.097581156
149	0xbd0dee03	-0.034650814
150	0xbbe68bcc	-0.007035708
151	0x3d30c69e	0.043158166
152	0xbc02121a	-0.007938886
153	0xbd1f9e01	-0.038969044
154	0xbd1173d5	-0.035510857
155	0xbd29cfaf	-0.041457828
156	0xbcdaacc4	-0.02669371
157	0x3d291f0f	0.041289385
158	0xbbcf4e29	-0.006326456
159	0xbc2e9ac2	-0.010657014
160	0xbb480186	-0.0030518486
161	0x3c6bb675	0.014386763
162	0xbca7f819	-0.020504044
163	0x3d7a3769	0.061088
164	0x3d5c8d6b	0.053845804
165	0xbcdf4f67	-0.027259542
166	0x3d648482	0.05579043
167	0xbcea7821	-0.028621735
168	0x3c7c39e4	0.015394662
169	0xbe04a19b	-0.12952273
170	0x3e2c960d	0.16854115
171	0xbd5ae556	-0.053441368
172	0x3e22f11f	0.15912293
173	0xbc69b0be	-0.01426333
174	0xbc8e51ce	-0.017372992
175	0xbd2293c3	-0.039691698
176	0xbda50c11	-0.08058942
177	0xbde57ed5	-0.11205832
178	0xbe49c825	-0.19705255
179	0xbc212e26	-0.009837663
180	0xbe01df01	-0.12682725
181	0x3e1538d7	0.14572464
182	0xbc32ea10	-0.010920063
183	0xbc94dac2	-0.018170718
184	0xbc7e69f7	-0.015528194
185	0x3bbc35d2	0.0057437206
186	0x3cbf7884	0.023372896
187	0x3e4d77ad	0.20065184
188	0xbdeec743	-0.116591
189	0x3d5482a0	0.051882386
190	0xba07a832	-0.00051749044
191	0x3dd87970	0.10570037
192	0xbd46eda4	-0.048566476
193	0x3c9ec392	0.019380365
194	0x3d2e1ffb	0.042510968
195	0x3ccfd34d	0.02536931
196	0x3d24318d	0.040086318
197	0x3bb731bc	0.0055906456
198	0x3c9ac51d	0.018892819
199	0x3c77533b	0.015095527
200	0xbbf402a4	-0.007446604
201	0xbcfd32ee	-0.030908074
202	0x3d4cbcd1	0.049984757
203	0x3d884d8f	0.06655418
204	0xbb8b7f05	-0.0042570853
205	0x3cd0b1e7	0.025475455
206	0xbcd2b7d6	-0.025722425
207	0xbd179e26	-0.037016056
208	0x3d39a885	0.04532673
209	0x3d93682e	0.07197605
210	0xbd4999e1	-0.049219016
211	0x3d67de2a	0.056608357
212	0x3d3ba21e	0.045808904
213	0x3d393101	0.04521275
214	0xbd203dc9	-0.039121423
215	0x3d34f914	0.044182852
216	0x3af9d7ca	0.0019061503
217	0xbc048914	-0.008089323
218	0x3d7cb532	0.06169624
219	0xbd18ce4c	-0.037306115
220	0xbc78bc4d	-0.015181613
221	0xbd0f39c0	-0.034967184
222	0xbb065f9f	-0.0020503772
223	0xbbf14fc4	-0.007364245
224	0xbd8abe5e	-0.06774591
225	0x3c57ed96	0.0131792035
226	0xbd572472	-0.05252499
227	0xbd071385	-0.0329776
228	0xba4bfe76	-0.0007781753
229	0x3bff28fe	0.007786869
230	0xbd31ef51	-0.04344112
231	0x3d282961	0.041055087
232	0xbcd90168	-0.026489928
233	0x3d812e5a	0.06307669
234	0xbdf0910b	-0.11746415
235	0xbcfec670	-0.031100482
236	0x3d568fde	0.052383296
237	0xbcc51238	-0.024056539
238	0xbd358d17	-0.044324007
239	0xbc9a98b2	-0.018871639
240	0xbd236a40	-0.03989625
241	0x3d13bdb2	0.03606958
242	0x3d043f17	0.03228673
243	0xbc217a56	-0.009855827
244	0x3be5b438	0.007010009
245	0xbbb7991a	-0.005602968
246	0xbd578384	-0.052615657
247	0xbbecfa3e	-0.0072319796
248	0xbcaa4431	-0.02078447
249	0x3a9023e4	0.0010997024
250	0x3cd82d48	0.02638878
251	0xbdf94a5a	-0.121723846
252	0x3d8a6786	0.06758027
253	0xbd51a519	-0.05118284
254	0x3c7f197c	0.015570041
255	0x3d00c161	0.03143442

attn_net.hidden.bias f4 [96]
0	0x3ec5d7c3	0.38641176
1	0xbe542734	-0.2071808
2	0xbd5e07ef	-0.054206785
3	0x3e92e5f5	0.28691068
4	0xbd3b2183	-0.045686256
5	0x3d2a3b0f	0.04156023
6	0x3d9ae5a9	0.075633354
7	0x3d209790	0.03920704
8	0x3dc55620	0.09635568
9	0x3ea77723	0.32708082
10	0xbea029a0	-0.31281757
11	0xbd49d7db	-0.04927812
12	0x3e54b690	0.20772767
13	0xbda64135	-0.08117906
14	0x3e62ccf1	0.22148491
15	0x3dd39ff6	0.103332445
16	0x3d2b2be6	0.04178991
17	0x3e00d9ff	0.12583159
18	0xbe9bc9a5	-0.3042728
19	0xbca5b6e2	-0.020228807
20	0x3d8b7582	0.06809522
21	0xbe5934a4	-0.21211487
22	0xbd8acd42	-0.06777431
23	0x3d2f974a	0.04286889
24	0x3ce477de	0.027889188
25	0x3d0c294a	0.034219064
26	0xbe8a96a2	-0.2706805
27	0xbd1b6a91	-0.037943427
28	0xbc855e58	-0.016280338
29	0xbd74b91d	-0.05974685
30	0xbe966992	-0.2937742
31	0x3dc4361f	0.09580635
32	0xbe2a1c9e	-0.16612479
33	0x3d86eb11	0.06587804
34	0xbc230a04	-0.009951118
35	0x3c85372d	0.016261661
36	0xbc15705c	-0.009121027
37	0xbdce74c7	-0.10080867
38	0xbd0b6c59	-0.034038875
39	0x3e0c9f74	0.13732702
40	0xbd4561b3	-0.048188876
41	0x3e975ae0	0.2956152
42	0x3e06d190	0.13165879
43	0xbe64c71c	-0.22341579
44	0x3e7ee7ad	0.24893065
45	0x3d9f0c4b	0.077660166
46	0xbcad4eac	-0.021155678
47	0xbc571fdd	-0.013130155
48	0x3c9a939c	0.018869214
49	0x3d1b0ebe	0.037855856
50	0xbb4b7d14	-0.0031049894
51	0x3d60fc5f	0.05492818
52	0x3d073180	0.03300619
53	0xbe716231	-0.23572613
54	0xbd53b4c6	-0.05168607
55	0xbe95ca42	-0.29255873
56	0xbd242b64	-0.040080443
57	0x3dafc8ff	0.08583259
58	0xbe495b7d	-0.19663806
59	0xbe511caf	-0.20421098
60	0x3e350391	0.17677142
61	0xbe682ea8	-0.22674048
62	0xbe62884e	-0.22122309
63	0x3df734f7	0.12070649
64	0x3ca66a0c	0.020314239
65	0xbe051054	-0.1299451
66	0xbd03bc6d	-0.03216212
67	0xbcda5285	-0.026650677
68	0xbe885e2a	-0.2663434
69	0xbd43392e	-0.047661953
70	0xbdcaad48	-0.09896332
71	0x3c3b3e3a	0.01142841
72	0xbcef4248	-0.02920641
73	0x3e7d375a	0.24728146
74	0x3af23796	0.0018479701
75	0xbe372f52	-0.17889145
76	0x3c952c33	0.018209552
77	0x3e816962	0.25275713
78	0x3d02be6c	0.03191988
79	0x3c8353e1	0.016031208
80	0x3d979288	0.074009955
81	0x3e96d946	0.2946264
82	0xbe005799	-0.12533416
83	0x3d108963	0.035287272
84	0x3ea2c6fc	0.31792438
85	0xbb2300c9	-0.0024872294
86	0xbe14b848	-0.14523423
87	0xbc5abb53	-0.013350326
88	0x3e810051	0.25195554
89	0x3d0f3e25	0.034971375
90	0xbe2ef1ae	-0.17084381
91	0x3c2ab1fb	0.01041841
92	0xbd0e30f0	-0.03471464
93	0xbc14f656	-0.009091934
94	0xbe8de66e	-0.27714866
95	0x3ab935fb	0.0014130467

attn_net.out.weight f4 [64, 96]
0	0x3c086e9b	0.008327152
1	0x3b01a08b	0.001977953
2	0x3c001ed0	0.007819846
3	0x3b700c7e	0.003662854
4	0x3c23aec8	0.009990402
5	0x3d70e93b	0.058816176
6	0xbb73a250	-0.0037175603
7	0x3c7c0153	0.015381175
8	0x3a5548dc	0.0008136162
9	0x3c8dffc2	0.017333869
10	0x3ca25709	0.019816892
11	0x3cd2ecc5	0.025747666
12	0x3b915565	0.0044352286
13	0x3d2ed575	0.042684037
14	0xbbb7ddc7	-0.0056111547
15	0xbbff66b9	-0.007794228
16	0x3bda3dde	0.006660207
17	0x3d277394	0.04088171
18	0xba2a8eb0	-0.00065062474
19	0x3be334cd	0.0069337846
20	0x3cd7457e	0.026278254
21	0x3d55394c	0.052056596
22	0xbb43765a	-0.0029825182
23	0xbc670e83	-0.014102581
24	0xbcc96aef	-0.024587123
25	0xbc0f84e0	-0.008759707
26	0x3d854a93	0.065083645
27	0x3a8486b8	0.001011095
28	0xbbdd6567	-0.006756473
29	0x3bdf44a0	0.0068136007
30	0xbbf68274	-0.0075228754
31	0x3c9e2b73	0.019307828
32	0x3d116d4a	0.035504617
33	0xbad4dc8c	-0.0016240044
34	0x3be2bba9	0.0069193435
35	0xbcd0bab1	-0.025479646
36	0x3c9946da	0.018710542
37	0xbbe9b7db	-0.007132513
38	0xbb52b829	-0.0032153225
39	0x3c5e91ef	0.013584598
40	0x3d467c36	0.0484583
41	0x3a99cda1	0.0011734256
42	0x3b8bffe2	0.004272447
43	0x3d869e2f	0.0657314
44	0x3cd267ed	0.025684321
45	0x3d546231	0.051851455
46	0xbb77f0e0	-0.0037832782
47	0xbd5efbb6	-0.05443927
48	0x3d0405d4	0.03223212
49	0x3bcb011b	0.0061952
50	0x3bd3e5c4	0.006466599
51	0xbc0046e3	-0.007829401
52	0xbbd79fed	-0.006580344
53	0x3d80ca96	0.0628864
54	0xba88f54e	-0.0010449083
55	0xbb5b8925	-0.0033498493
56	0xbc4d6cc0	-0.012538135
57	0x3b1a031d	0.002350039
58	0x3ba81216	0.005129109
59	0x3bf0ac17	0.0073447335
60	0x3bb5de8e	0.005550212
61	0x3d1d0bcc	0.03834133
62	0x3c984958	0.01858966
63	0x3d26f759	0.040763233
64	0x3bb3d6d0	0.005488254
65	0x3c472f08	0.012157209
66	0xbc002970	-0.0078223795
67	0x3beab4b0	0.007162653
68	0xbc0d3bfc	-0.008620258
69	0x3abf22be	0.0014582498
70	0x3aefd6bc	0.0018298249
71	0xbc01f929	-0.00793294
72	0x3d4592d3	0.048235726
73	0x3cecb98b	0.028897068
74	0x39ea3970	0.00044674752
75	0x3bf1673f	0.007367044
76	0xbbe37947	-0.0069419476
77	0x3d63017d	0.05542134
78	0xbbf07e8e	-0.0073393052
79	0x3ce539d1	0.02798167
80	0x3cc4c45f	0.024019418
81	0x3ce47f7e	0.027892824
82	0xba133430	-0.00056153815
83	0xb9dcea40	-0.000421362
84	0x3d3ba5f6	0.04581257
85	0xbc5deb44	-0.013544861
86	0x3c0c216e	0.008552892
87	0xbb95c48e	-0.0045705503
88	0x3ca8f923	0.02062661
89	0x3cdf63ac	0.027269207
90	0xbbe3b4fe	-0.006949066
91	0xbc714773	-0.0147265075
92	0xbbc730b0	-0.006078802
93	0x3d2ae6af	0.041723903
94	0xbc74b4ac	-0.014935654
95	0x3c0050b2	0.007831739
96	0xbbfb1b4c	-0.007663166
97	0x3c84af75	0.016196946
98	0xbb423ad4	-0.0029637115
99	0x3d155bc9	0.036464486
100	0x3b9f6df8	0.004865404
101	0x3cf2760d	0.029597307
102	0x3d04b307	0.032397296
103	0x3bca2494	0.0061689112
104	0xbc123488	-0.008923657
105	0x3d21ba42	0.03948427
106	0x3c83928a	0.016061086
107	0x3baaaeca	0.0052088248
108	0x3cf219c8	0.02955331
109	0x3d0bdbb5	0.034145076
110	0xbcdc25b1	-0.026873441
111	0x3bd3d438	0.0064645074
112	0xbc0f48bc	-0.008745369
113	0x3c30ef50	0.010799244
114	0x3c5bc41e	0.013413457
115	0xbbe7de9f	-0.007076099
116	0xbbabcbce	-0.0052428013
117	0x3d859fef	0.065246455
118	0x3b4e44e1	0.003147416
119	0xbc6bc827	-0.014390982
120	0xbbdd1aa4	-0.0067475606
121	0xbc02937e	-0.007969735
122	0x3d05f4e7	0.03270426
123	0xbb9ab294	-0.004720995
124	0xbbb3cf02	-0.0054873237
125	0xbb9a2812	-0.004704484
126	0x3d27a47e	0.040928356
127	0x3caf7821	0.021419587
128	0x3cbd4a2a	0.023106653
129	0xbc0137c8	-0.007886834
130	0x3a87f9ec	0.0010374165
131	0x3c1157d3	0.008871037
132	0x3d43c154	0.047791794
133	0x3b9bc04f	0.0047531496
134	0x3a48ddc8	0.00076624425
135	0xbbf91123	-0.00760092
136	0x3d712a0f	0.058878
137	0xbb89f6a5	-0.0042103105
138	0x3c940520	0.01806885
139	0x3c6fbdc4	0.014632646
140	0x3d32348d	0.043507148
141	0x3bb8113a	0.005617288
142	0xbb844788	-0.0040368475
143	0x3bba5f62	0.00568764
144	0xbbba229b	-0.005680395
145	0xbc006898	-0.007837437
146	0xbbd5dd62	-0.006526635
147	0xbbd8399e	-0.0065986654
148	0x3d3c1f30	0.04592818
149	0xbc023b05	-0.007948642
150	0xbc1ba02c	-0.009498637
151	0x3cfdafde	0.03096765
152	0x3d09e0a1	0.03366149
153	0xbb868a6b	-0.004105856
154	0xbc059b6f	-0.008154734
155	0x3c7b2aeb	0.015330057
156	0x3c5a29b4	0.013315607
157	0x3b2aa32b	0.0026037197
158	0x3d0d0854	0.03443177
159	0x3d4b2729	0.049597893
160	0xbbddb836	-0.0067663444
161	0xbb33877f	-0.0027393994
162	0xbbd47706	-0.0064839153
163	0xbb8b663a	-0.0042541297
164	0x3da56ec0	0.080777645
165	0x3bd90648	0.0066230632
166	0x3bda8c2e	0.0066695428
167	0x3bc86db4	0.0061165933
168	0x3d2faa1d	0.042886842
169	0x3b042bca	0.0020167702
170	0xbb1912e2	-0.0023357202
171	0x3d44a344	0.048007265
172	0xbc035c2a	-0.008017579
173	0x3be394d0	0.00694523
174	0x3bd14422	0.006386296
175	0x3d13c8c5	0.03608014
176	0xbc894558	-0.016756698
177	0x3d23ab2a	0.039958157
178	0x3b28c1e8	0.0025750343
179	0xbc0607a9	-0.008180537
180	0x3d8227d7	0.06355255
181	0x3ba5455a	0.0050436677
182	0x3cb4c0b7	0.02206455
183	0x3bb9b885	0.0056677484
184	0x3d3af076	0.045639478
185	0x3d8ffb99	0.0703041
186	0xbb951932	-0.0045501227
187	0x3ca1ad14	0.01973585
188	0xbc1b1bef	-0.009467109
189	0x3b80dedc	0.003932817
190	0xbb5a69b1	-0.0033327157
191	0x3bdb4858	0.0066919737
192	0xbce2c5db	-0.027682235
193	0xbcabb474	-0.02096007
194	0xbb00fc72	-0.001968172
195	0x3d897d58	0.067133605
196	0x3bcbc484	0.006218495
197	0xbc454baf	-0.01204197
198	0x3d2aad17	0.041668978
199	0xbc694482	-0.014237525
200	0xbafc6aac	-0.0019257865
201	0x3d6291ec	0.055314943
202	0x3d11e7e3	0.035621535
203	0xbb7205d3	-0.003692974
204	0x3d824964	0.063616544
205	0xba80e226	-0.0009833022
206	0xbde5d719	-0.11222667
207	0x3b885620	0.0041606575
208	0xbd188423	-0.03723539
209	0x3d2d28c6	0.042275213
210	0x3c58c525	0.013230597
211	0xbbba819c	-0.00569172
212	0x3d0c56a5	0.03426232
213	0x3ce4371c	0.02785831
214	0x3b844d76	0.0040375544
215	0xbcaaa0e8	-0.02082868
216	0xbbde7340	-0.006788641
217	0xbb483535	-0.0030549292
218	0x3d6b0a46	0.057382844
219	0xbbf03df1	-0.0073316027
220	0x3bc98f2d	0.006151101
221	0xbc068d1a	-0.008212352
222	0x3d2539de	0.04033839
223	0x3d2a32a0	0.041552186
224	0x3c8a29cc	0.016865633
225	0x3c9737fa	0.018459309
226	0xbbe564ab	-0.007000526
227	0x3d5830ec	0.05278103
228	0x3d8a110d	0.067415334
229	0x3a93043c	0.0011216472
230	0x3bbc204e	0.0057411557
231	0x3abd351c	0.0014435383
232	0x3c8b5ce7	0.017012073
233	0x3c9ff670	0.01952669
234	0xba9cba54	-0.0011957386
235	0x3cea8330	0.028627008
236	0x3d88a442	0.06671955
237	0xbb4a5f3b	-0.0030879516
238	0x3bf6041c	0.007507814
239	0x3aa2fb53	0.001243452
240	0xbc3f3fde	-0.011672942
241	0xbbd36582	-0.0064513097
242	0xbbb2c8ee	-0.0054560816
243	0x3b9c9ee4	0.0047796834
244	0x3d23cf07	0.03999236
245	0x3d1768a3	0.036965024
246	0x3be16056	0.006877939
247	0x3d118dbd	0.035535563
248	0x3d19a193	0.037507605
249	0xbc0566f3	-0.008142221
250	0xbc4558b6	-0.012045076
251	0xbc00a102	-0.007850887
252	0x3d358223	0.04431356
253	0x3d668a74	0.056284383
254	0x3ca8cce2	0.020605508
255	0x3d53898c	0.051644847

attn_net.out.bias f4 [64]
0	0xbe6a25cb	-0.2286598
1	0xbe8867d9	-0.2664173
2	0xbe921cba	-0.28537542
3	0xbdc51a98	-0.09624213
4	0xbe8f4c77	-0.27988026
5	0x3e9ce840	0.30645943
6	0xbe2b7ece	-0.16747591
7	0x3e7a20a9	0.24426521
8	0x3e2cf47d	0.1689014
9	0xbe906000	-0.28198242
10	0x3e8f6dfc	0.280136
11	0xbebc5ea4	-0.36790955
12	0xbe8ddd02	-0.27707678
13	0xbe94c7ff	-0.29058835
14	0x3d9fb902	0.07798959
15	0xbe17ceb1	-0.1482494
16	0xbe6060bb	-0.219119
17	0xbe5f9211	-0.21833064
18	0xbe3187bd	-0.17336936
19	0xbe14be7f	-0.14525793
20	0xbe95a38b	-0.29226336
21	0x3e83b578	0.25724387
22	0x3eb1c989	0.34724072
23	0x3ec34103	0.38135538
24	0x3ee4d01d	0.44690028
25	0xbdb5c244	-0.08874944
26	0x3ed6fa9d	0.41988078
27	0x3d2edfae	0.042693786
28	0xbe7fcde5	-0.24980886
29	0xbe9b9708	-0.30388665
30	0xbe93a507	-0.28836843
31	0xbe29aa20	-0.16568804
32	0xbdc7cfab	-0.097564064
33	0xbe9f389f	-0.31097886
34	0x3edbccbe	0.42929643
35	0x3e96eea6	0.2947895
36	0xbe544da0	-0.20732737
37	0x3eb9c951	0.36286405
38	0x3d476c8b	0.0486875
39	0xbe755162	-0.23956826
40	0xbe004bd7	-0.1252893
41	0x3edaf862	0.42767626
42	0x3eadd114	0.33948576
43	0x3d8c9a51	0.06865371
44	0xbebd8378	-0.37014365
45	0xbebb420b	-0.36573824
46	0x3ebb6f77	0.36608478
47	0xbdbc0ca4	-0.091820985
48	0xbe694188	-0.22778904
49	0xbe9eb866	-0.3100006
50	0xbd84cee8	-0.06484777
51	0x3d82a4c9	0.063790865
52	0x3e41b33e	0.18916032
53	0xbd140753	-0.036139797
54	0x3d9410d2	0.07229771
55	0xbea8c745	-0.3296453
56	0xbea1ac57	-0.31576797
57	0xbead1bd3	-0.3381029
58	0x3edbdc4c	0.4294151
59	0x3eee0488	0.46487832
60	0x3ea54803	0.32281503
61	0x3eae9102	0.34095007
62	0xbea5f300	-0.32411957
63	0xbe5f566b	-0.2181031

linear.weight f4 [64, 10]
0	0xbcabe99a	-0.020985413
1	0x3d992a2b	0.07478746
2	0xbcc22311	-0.023698362
3	0x3b29b4f0	0.00258952
4	0xbcf29fd1	-0.029617222
5	0x3d0e261e	0.03470432
6	0x3c83280d	0.016010309
7	0xbdec3175	-0.11532871
8	0xbca49c09	-0.020093935
9	0xbb6ad323	-0.0035831414
10	0xbd3cd4d8	-0.04610142
11	0xbbbd3f6e	-0.0057753837
12	0xbd9f0029	-0.077637024
13	0x3a34387c	0.0006874872
14	0x3d293fa0	0.041320443
15	0xbd81f1fe	-0.063449845
16	0x3d5b92ee	0.05360692
17	0xb950c6bc	-0.0001991046
18	0xbd913f0f	-0.070921056
19	0x3cdbe66c	0.026843272
20	0xbd0b60ae	-0.034027748
21	0xbdc004b9	-0.09375901
22	0x3d283bf0	0.041072786
23	0xbcb67095	-0.02227048
24	0xbd0813e2	-0.033222087
25	0xbd2bd5b9	-0.04195187
26	0xbddf3667	-0.10899048
27	0x3d5434bd	0.051808108
28	0x3d35e283	0.04440547
29	0xbdc7fcfa	-0.09765048
30	0x3d83b689	0.064313
31	0xba143098	-0.0005652993
32	0xbd0342f7	-0.032046285
33	0xbd07599c	-0.033044443
34	0x3de663f7	0.112495355
35	0xbdb6fbd4	-0.08934751
36	0x3d487f1d	0.04894935
37	0xbe0ed30a	-0.13947693
38	0xbd901e67	-0.07037049
39	0xbd16fede	-0.036864154
40	0x3df362de	0.11884092
41	0xbe9ed30d	-0.31020394
42	0x3d704aa3	0.05866493
43	0xbd5ffb23	-0.054682862
44	0xbdf515e5	-0.11967067
45	0x3da0db7c	0.07854363
46	0xbd5aa3ce	-0.053378873
47	0xbbd8f05f	-0.0066204513
48	0xbde71aff	-0.11284446
49	0xbe030ee8	-0.12798655
50	0xbf8b5dbd	-1.0887982
51	0xbf9f240c	-1.2432876
52	0x3f3dddb2	0.74166405
53	0x3f46a727	0.77598804
54	0x3f60f816	0.8787855
55	0x3f6d6957	0.9273886
56	0x3f6426f0	0.89121914
57	0xbe98d045	-0.29846397
58	0x3ca6d0fc	0.020363323
59	0x3f443b92	0.766534
60	0x3d80019f	0.06250309
61	0xbd0b6e90	-0.034040987
62	0x3d22eddc	0.03977762
63	0xbda3bdc8	-0.07995182
64	0xbd51cdea	-0.051221766
65	0x3ce292ca	0.027657885
66	0xbc67f1c7	-0.014156765
67	0x3da048b0	0.07826364
68	0x3d04bd5e	0.032407157
69	0x3d88173c	0.066450566
70	0xbf90066c	-1.125196
71	0xbf86aee7	-1.0522126
72	0x3f062b5f	0.5240993
73	0x3f3c2e10	0.73507786
74	0x3f4027a4	0.75060487
75	0x3f826a06	1.0188606
76	0x3f2e745b	0.68146294
77	0xbead0bf4	-0.33798182
78	0x3e1fd71b	0.156094
79	0x3f1a9a42	0.6039163
80	0xbf790baa	-0.9728342
81	0xbf9b41bb	-1.2129434
82	0x3f175c4f	0.59125227
83	0x3f28caa0	0.6593418
84	0x3f3d1b9c	0.73870254
85	0x3f865f31	1.04978
86	0x3f37e02e	0.71826446
87	0xbdd255ee	-0.10270296
88	0x3df83d83	0.121211074
89	0x3f49becf	0.78806776
90	0x3e91bee3	0.28465948
91	0xbdc8dff9	-0.098083444
92	0xbe0aff13	-0.13573866
93	0x3ce2dbb0	0.027692646
94	0x3d77b5dd	0.060476173
95	0x3d2d2e24	0.04228033
96	0x3cb57b40	0.022153497
97	0xbcb956e0	-0.022624433
98	0xbd4fe77e	-0.050757878
99	0x3d161baa	0.036647476
100	0x3f7504a1	0.9571019
101	0x3f9afea0	1.2108955
102	0xbf217eb4	-0.6308396
103	0xbf37f003	-0.71850604
104	0xbf355ece	-0.70847785
105	0xbf8738e0	-1.0564232
106	0xbf2b6263	-0.66947
107	0x3e17f73c	0.14840406
108	0xbc27b3f1	-0.0102357725
109	0xbf46166c	-0.77377963
110	0x3b7cdf82	0.003858537
111	0xbe072237	-0.13196646
112	0x3ce150e9	0.027504401
113	0xbd9a2820	-0.075271845
114	0xbdb3158f	-0.08744346
115	0x3bffa34a	0.007801448
116	0xbd779c68	-0.060451895
117	0x3d1091c2	0.035295255
118	0xbe1ee6df	-0.15517758
119	0xbdbb10ac	-0.09134039
120	0x3e266d96	0.16252741
121	0xbe8ddfae	-0.27709717
122	0x3e058fdd	0.1304316
123	0xbe251dc6	-0.16124639
124	0xbda2e13c	-0.07953116
125	0xbd815172	-0.063143626
126	0xbd6ebb3c	-0.05828403
127	0x3ce83cb2	0.028349254
128	0xbcec390a	-0.028835792
129	0xbc825d4e	-0.015913632
130	0x3d6e2d15	0.058148462
131	0x3e8f700c	0.28015172
132	0x3d9fca48	0.07802254
133	0x3d78aab2	0.060709663
134	0x3e6015c2	0.218833
135	0x3da55844	0.08073476
136	0x3e648412	0.22316006
137	0xbda6cbda	-0.0814435
138	0xbd567bde	-0.052364223
139	0x3e730214	0.23731261
140	0x3f034fde	0.5129374
141	0x3f1c19fc	0.6097715
142	0xbe1dcbe8	-0.15409815
143	0xbe3f8ccd	-0.18706055
144	0xbe62b057	-0.22137581
145	0xbe80911b	-0.25110707
146	0xbe30ae91	-0.17254092
147	0x3cb5f799	0.02221279
148	0xbbbbbb4c	-0.0057291146
149	0xbda5bc88	-0.080926
150	0xbdc20740	-0.09474039
151	0xbe2ef790	-0.17086625
152	0xbc013613	-0.007886427
153	0xbd710601	-0.058843616
154	0xbc753c8e	-0.014968051
155	0xbd4a9d1a	-0.04946623
156	0xbdb04eba	-0.08608766
157	0xbd1d63c1	-0.03842521
158	0xbd501363	-0.05079974
159	0x3cc12a52	0.02357975
160	0xbc8d6bf1	-0.017263385
161	0xbde75b58	-0.11296719
162	0xbde46e60	-0.11153865
163	0xbdd7f5d1	-0.10544933
164	0xbd1cd97b	-0.038293343
165	0xbd108619	-0.035284135
166	0xbca43e98	-0.020049378
167	0x3d6f63b8	0.05844471
168	0xbde2a55d	-0.11066697
169	0xbe2adffb	-0.16687004
170	0x3a4fa56c	0.0007921073
171	0x3da899cb	0.08232459
172	0xbd5e782e	-0.05431383
173	0xbd81bf0a	-0.06335266
174	0x3ce9f559	0.028559374
175	0xbe18d069	-0.14923252
176	0x3d4d6363	0.05014361
177	0xbd5f2e91	-0.05448777
178	0xbc29f63c	-0.010373648
179	0x3cfc53a2	0.030801598
180	0xbd4e5034	-0.050369456
181	0xbc848002	-0.01617432
182	0x3d4ae1e4	0.049531832
183	0x3d45f438	0.04832861
184	0xbdbabf66	-0.091185376
185	0xbe057d33	-0.13036041
186	0xbd365900	-0.04451847
187	0xbbdc7972	-0.0067283446
188	0x3b003135	0.001956058
189	0x3cab1969	0.02088614
190	0x3cd2c0f9	0.025726782
191	0x3cc3c70c	0.023898624
192	0xbce0d706	-0.027446281
193	0x3d32a700	0.043616295
194	0x3cc6b828	0.024257734
195	0x3d9ac357	0.07556789
196	0x3bf12338	0.0073589347
197	0x3e1b332c	0.1515624
198	0x3db08ca1	0.08620573
199	0x3d3631f8	0.044481248
200	0xbcdccaeb	-0.026952228
201	0x3e718855	0.23587163
202	0x3e02b48d	0.12764187
203	0xbb88a7bf	-0.0041703875
204	0x3d93987e	0.0720682
205	0xbd29b8ad	-0.041435886
206	0x3deea9f0	0.11653507
207	0xbc8c89fb	-0.017155638
208	0x3ddf4a36	0.109028265
209	0x3d52b630	0.05144328
210	0xbf2a2920	-0.66469
211	0xbf330bab	-0.6993968
212	0x3e8302dc	0.2558812
213	0x3e0b180c	0.13583392
214	0x3daa175e	0.08305238
215	0x3eac22b2	0.3362022
216	0x3e4df6df	0.20113705
217	0xbe3b5837	-0.1829537
218	0x3e39a035	0.1812752
219	0x3e2f2bdc	0.17106575
220	0x3f8e00d6	1.1094005
221	0x3fa54099	1.2910339
222	0xbf0a40c3	-0.5400507
223	0xbf39a110	-0.72511387
224	0xbf1c7da0	-0.6112919
225	0xbf8378f6	-1.0271289
226	0xbf2454bd	-0.641918
227	0x3e85b849	0.2611716
228	0xbdfb1a52	-0.122608796
229	0xbf59b8f0	-0.8504782
230	0x3f806ac4	1.0032582
231	0x3fa1bfb0	1.2636623
232	0xbf3e2d3b	-0.74287766
233	0xbf42eff6	-0.761474
234	0xbf4d53b9	-0.80205876
235	0xbf6e6914	-0.93129086
236	0xbf4ab324	-0.79179597
237	0x3e830ec0	0.2559719
238	0xbd4e75d8	-0.050405353
239	0xbf541c10	-0.8285532
240	0xbf994b8e	-1.1976182
241	0xbfaaab36	-1.33335
242	0x3f507df6	0.814422
243	0x3f50d68a	0.8157736
244	0x3f75f475	0.96076137
245	0x3f5e28b4	0.8678086
246	0x3f541438	0.8284335
247	0xbf096e48	-0.536839
248	0x3d550dcb	0.052015107
249	0x3f5ca1b6	0.8618425
250	0xbad8fcde	-0.0016554852
251	0x3dd8e78d	0.1059104
252	0x3d23d77e	0.04000043
253	0x3b419122	0.0029535969
254	0x39759f00	0.00023424253
255	0x3d1eb5a0	0.03874743
