outlier-interpretation-Xu/checkpoints/bfQzNGKO_checkpoint.pt (torch, 103259 bytes, 5 tensors)

attn_net.hidden.weight f4 [96, 192]
0	0x3d2d92d8	0.04237637
1	0x3d6d9bab	0.058009785
2	0xbe52c497	-0.20582806
3	0x3e74c8be	0.23904702
4	0xbd0893d6	-0.033344112
5	0x3e2f4153	0.17114763
6	0xbe526739	-0.20547189
7	0xbd229de3	-0.039701354
8	0x3ca4b023	0.02010352
9	0xbe57f815	-0.2109073
10	0xbe1391d5	-0.144111
11	0xbe77d36a	-0.24201742
12	0x3d558acb	0.052134316
13	0xbccbd158	-0.024880096
14	0xbd32150b	-0.0434771
15	0xbc89c1df	-0.016816078
16	0x3ceb29eb	0.028706511
17	0x3e7e6e7f	0.24846838
18	0xbdcebeee	-0.10095011
19	0x3d470143	0.048585188
20	0xbd5d40f8	-0.054017037
21	0x3d7a7eef	0.06115621
22	0x3ca63695	0.020289699
23	0xbe4569f4	-0.19278699
24	0x3de8acb2	0.11361064
25	0xbe5db9c6	-0.21652898
26	0x3d8cbd63	0.0687206
27	0xbdd7e870	-0.10542381
28	0x3d3daa4d	0.04630499
29	0x3d7e6a02	0.062112816
30	0x3e5b744b	0.21431081
31	0x3daa41df	0.08313345
32	0x3e652766	0.2237831
33	0x3d79d647	0.060995366
34	0x3e4c7a85	0.19968612
35	0x3e1e2ca5	0.15446718
36	0xbd819ecb	-0.063291155
37	0x3b71ee00	0.003691554
38	0xbe61772f	-0.22018121
39	0x3db05cd4	0.086114556
40	0xbe5f66d6	-0.21816573
41	0xbd4301a4	-0.047608986
42	0x3c493003	0.012279513
43	0xbd6077e6	-0.054801844
44	0x3e73faa4	0.2382608
45	0xbe1e229a	-0.15442887
46	0xbc850f8d	-0.016242767
47	0x3d3bd6a7	0.045859005
48	0xbd652988	-0.05594781
49	0x3d2e8c3f	0.042614218
50	0x3e798194	0.24365836
51	0xbd8f9195	-0.070101894
52	0x3bbcf3f7	0.0057663876
53	0xbe910323	-0.28322706
54	0x3e230c1a	0.15922585
55	0x3d287739	0.041129325
56	0x3db24fbd	0.08706615
57	0xbc7afbdc	-0.015318837
58	0x3b5978b2	0.0033183512
59	0xbd528770	-0.051398695
60	0xbcb67cbd	-0.022276277
61	0x3e8b61f2	0.27223164
62	0xbe34464a	-0.17604938
63	0x3d1d5989	0.038415466
64	0xbc8c0040	-0.017089963
65	0x3d0d95b7	0.034566607
66	0xbc1dcf4e	-0.009631945
67	0x3bd227a2	0.006413416
68	0x3d914e0a	0.07094963
69	0xbd09f2b3	-0.03367872
70	0x3bd8d7c5	0.0066175186
71	0xbb629472	-0.0034573344
72	0xbd10a039	-0.03530905
73	0x3d200598	0.039067835
74	0x3d2b1925	0.041772027
75	0x3c8c25ef	0.017107932
76	0xbd8a8bea	-0.06764968
77	0x3b0e0176	0.0021668351
78	0x3ce4c9fc	0.027928345
79	0xbe1a93f4	-0.15095502
80	0xbd3f7233	-0.04673977
81	0xbcdc9190	-0.026924878
82	0xbd10e0b3	-0.03537054
83	0xbc83837e	-0.016053911
84	0xbd1c466f	-0.03815311
85	0xbcbfaffe	-0.02339935
86	0x3d69b6e5	0.057059187
87	0x3d157346	0.036486886
88	0xbdee199d	-0.11625979
89	0xbe3cbb2d	-0.18430777
90	0xbd71b99d	-0.059014905
91	0x3cb5e21b	0.022202542
92	0x3aec83c6	0.0018044643
93	0x3bbd7680	0.0057819486
94	0xbd76ed3d	-0.06028484
95	0x3c9473a5	0.01812155
96	0xbc87f051	-0.016594084
97	0x3daf35eb	0.08555206
98	0x3ce19d26	0.027540755
99	0x3d434544	0.04767348
100	0x3e0d559c	0.13802189
101	0xbd61bd29	-0.055112038
102	0xbabd7ebc	-0.0014457325
103	0x3ca849ec	0.020543061
104	0xbd5b73be	-0.053577177
105	0x3d469f45	0.048491735
106	0xbc859afd	-0.016309256
107	0xbdc28514	-0.09498039
108	0xbd2077de	-0.039176814
109	0xbd1cab34	-0.03824921
110	0xbd251d45	-0.040311117
111	0x3d217973	0.039422464
112	0x3d30e5e4	0.04318799
113	0xbd6aba43	-0.05730654
114	0xbd199008	-0.037490875
115	0xbaaea884	-0.0013325368
116	0xbcc3adbe	-0.023886558
117	0xbcb01371	-0.021493645
118	0x3d5784b5	0.052616794
119	0xbd51082d	-0.051033188
120	0xbd060794	-0.03272207
121	0xbe10368b	-0.14083306
122	0x3bdb1312	0.006685623
123	0xbccebef5	-0.02523754
124	0xbd595273	-0.053057145
125	0x3e46b45d	0.1940474
126	0xbc80c23d	-0.01571762
127	0x3cb7ae57	0.022421999
128	0x3c7bf614	0.015378494
129	0xbd046339	-0.03232119
130	0xbbb727a2	-0.0055894414
131	0x3e168638	0.14699638
132	0x3d10e601	0.0353756
133	0x3d83d30d	0.06436739
134	0xbde102a3	-0.10986831
135	0xbd592750	-0.053016007
136	0x3c102d1e	0.008799819
137	0xbe2f1449	-0.17097582
138	0xbe08dfe2	-0.13366655
139	0xbdf6630e	-0.12030612
140	0xbcc61c8a	-0.02418353
141	0xbd8132f5	-0.063085474
142	0x3c70ac56	0.014689526
143	0xbb4543ca	-0.003010022
144	0x3bcfb474	0.0063386504
145	0x3e15cc8e	0.14628813
146	0xbd31118f	-0.043229636
147	0xbd3f0235	-0.046632964
148	0xbd61c191	-0.05511624
149	0x3d1a0a94	0.037607744
150	0xbcaa6241	-0.020798804
151	0xbde48780	-0.11158657
152	0xbce8c135	-0.02841244
153	0xbe1e34e9	-0.15449871
154	0xbceeb49b	-0.029138854
155	0x3d595e10	0.05306822
156	0xbd2834ae	-0.041065864
157	0x3c448efc	0.011996981
158	0x3de43863	0.111435674
159	0xbc9ce221	-0.019150795
160	0x3de869e3	0.11348321
161	0x3d8b725d	0.068089224
162	0x3dd67075	0.10470668
163	0x3c9b08af	0.01892504
164	0xbd061e79	-0.032743905
165	0xbc6738d1	-0.014112667
166	0xbdfdf28a	-0.12399776
167	0xbc8784ce	-0.016542818
168	0xbe178490	-0.14796662
169	0x3d1326b1	0.03592557
170	0x3d13c326	0.03607478
171	0x3cac31a6	0.021019768
172	0x3e1a6bbe	0.15080163
173	0x3d5afc53	0.05346329
174	0xbd52cbd6	-0.051463924
175	0x3bbbe91e	0.005734577
176	0xbc926b54	-0.017873444
177	0x3c8f3801	0.01748276
178	0x3e0111a2	0.12604383
179	0xbc70dc9c	-0.014701035
180	0x3d810630	0.06300008
181	0xbe30acf1	-0.17253472
182	0x3e0c23d2	0.1368554
183	0x3c17035c	0.0092171095
184	0x3c0a8f8e	0.008457078
185	0x3ce90335	0.028443912
186	0xbd24ed8c	-0.040265605
187	0xbd6de638	-0.05808088
188	0x3d4af024	0.049545422
189	0x3e4d861c	0.2007069
190	0xbd650e12	-0.05592162
191	0xbd14bb78	-0.036311597
192	0x3bece122	0.0072289864
193	0xbd02e13d	-0.031953085
194	0x3c858049	0.016296523
195	0xbc58cce6	-0.013232445
196	0x3b1edadb	0.0024239335
197	0xbd06a64c	-0.032873437
198	0x3d235b68	0.039882094
199	0x3bd86a26	0.0066044508
200	0x3b7da011	0.0038700143
201	0xbd049619	-0.032369707
202	0xbc4af7ea	-0.012388209
203	0x3c92093c	0.017826669
204	0x3c0e9bdc	0.008704152
205	0x3c67d9f4	0.014151085
206	0xbc74bd73	-0.014937746
207	0xbbf71f6f	-0.007541589
208	0xba057cc0	-0.00050921366
209	0xbc9e841d	-0.019350106
210	0x3d3cb1f5	0.04606815
211	0x3c81c935	0.015843013
212	0xbab03d62	-0.0013446028
213	0xbbf797be	-0.007555931
214	0xbbc1b9ae	-0.0059120273
215	0x3c02e272	0.007988559
216	0xbd3a4e29	-0.045484696
217	0x3c7ca96a	0.015421251
218	0x3b00a8a2	0.0019631763
219	0xbc814e12	-0.015784297
220	0x3bc22a80	0.0059254766
221	0x3c02aea6	0.00797621
222	0xbc9310ce	-0.017952349
223	0x3c8eedd6	0.017447393
224	0xbd270fd5	-0.040786583
225	0x3b892673	0.0041854917
226	0xbc0ea0f6	-0.008705368
227	0xbd0d6936	-0.034524165
228	0x3b8aed5d	0.0042397217
229	0xbb1e9424	-0.0024197185
230	0x3d0e1762	0.03469027
231	0x3cca00aa	0.02465852
232	0x3d2204f8	0.03955552
233	0xbd16f014	-0.03685005
234	0x3b083653	0.0020784333
235	0x3bd8b92e	0.006613872
236	0xbd513655	-0.051077206
237	0x3d675e3f	0.056486364
238	0x3c033e08	0.008010395
239	0x398c13d0	0.00026717642
240	0x3b50f010	0.003188137
241	0x3b4b7784	0.0031046579
242	0xbca610c8	-0.020271674
243	0x3d54a799	0.051917646
244	0x3c0dec8d	0.008662355
245	0x3d341003	0.043960582
246	0x3c327aa4	0.010893498
247	0x3d16fc5a	0.036861755
248	0xbac424c9	-0.0014964576
249	0x3b8660b3	0.004100883
250	0x3b81950f	0.0039545367
251	0x39d61670	0.00040833978
252	0xbb17b430	-0.0023148172
253	0xbccf7111	-0.025322469
254	0x3c895479	0.016763913
255	0xbc6898b2	-0.014196562

attn_net.hidden.bias f4 [96]
0	0xbe8536b2	-0.26018292
1	0x3b18564c	0.0023244796
2	0x3da6f36b	0.08151897
3	0x3ec1a288	0.37819314
4	0xbeb70946	-0.35749263
5	0xbe2076d5	-0.15670331
6	0xbd47848f	-0.048710402
7	0xbe4d2040	-0.20031834
8	0xbd8c0510	-0.06836903
9	0x3d34fa46	0.04418399
10	0x3cb58a66	0.02216072
11	0xbe99cec8	-0.30040574
12	0xbb9023c4	-0.004398795
13	0xbeb144e5	-0.34622875
14	0x3e78ff0f	0.24316047
15	0xbe445a31	-0.1917503
16	0xbe46c258	-0.19410074
17	0x3e88b2d3	0.26698932
18	0xbb2cbc86	-0.0026357486
19	0xbdea3007	-0.11434942
20	0x3c2e94fb	0.010655637
21	0x3b6b572e	0.0035910117
22	0x3e2f43a2	0.17115644
23	0xbd0e245e	-0.03470265
24	0xbe5b90c5	-0.21441944
25	0xbe7e1252	-0.24811676
26	0x3b937b00	0.0045007467
27	0x3eb0a64a	0.34501868
28	0x3d142a07	0.036172893
29	0x3e7dab08	0.24772274
30	0x3d8856d8	0.06657189
31	0xbdf402f8	-0.11914629
32	0xbe77198e	-0.24130842
33	0x3cca7141	0.024712207
34	0xbe5de6b9	-0.21670045
35	0xbe16d902	-0.1473122
36	0x3e61f794	0.220671
37	0x3e8ca261	0.27467635
38	0x3e812fd2	0.25231797
39	0xbc9bb04f	-0.019004969
40	0x3e236cb0	0.1595943
41	0xbe15583d	-0.14584441
42	0x3e90f1fe	0.28309625
43	0xbd831485	-0.06400398
44	0x3b999298	0.004686665
45	0x3c4caeb6	0.012492826
46	0xbe6b5718	-0.22982442
47	0x3d8630d5	0.06552283
48	0xbe85215c	-0.26002014
49	0x3e81a4b8	0.25320983
50	0xbc5cb57b	-0.013471003
51	0xbeb508d1	-0.3535829
52	0x3e628202	0.22119907
53	0xbd78701b	-0.060653787
54	0x3c071bd4	0.008246381
55	0xbeb138b6	-0.3461358
56	0x3d2c2435	0.042026717
57	0x3e8fbd62	0.28074175
58	0x3eb5f381	0.3553734
59	0x3e738b5d	0.23783632
60	0xbd4937bd	-0.04912542
61	0x3ce1548b	0.027506134
62	0xbba020a6	-0.0048867045
63	0xbd6a91ef	-0.05726808
64	0xbc7d79d2	-0.015470939
65	0x3e9ecadc	0.31014144
66	0xbe2cb118	-0.16864431
67	0x3eadf891	0.33978704
68	0x3ea8715e	0.32898992
69	0x3eb53f1a	0.35399705
70	0x3cb63c8b	0.022245666
71	0xbe8cb2fa	-0.27480298
72	0x3d5ccc52	0.053905793
73	0x3a49e784	0.000770204
74	0xbe991cc6	-0.29904765
75	0x3ec34052	0.3813501
76	0x3ba1e11d	0.0049401657
77	0x3dc61c66	0.09673385
78	0xbd902621	-0.070385225
79	0x3c9da6ee	0.019244637
80	0x3d9be65e	0.076122984
81	0x3bb93fdb	0.005653364
82	0xbca856a2	-0.020549122
83	0xbe65067a	-0.22365752
84	0xbc84b97b	-0.016201725
85	0x3c870540	0.016481996
86	0x3eb9cf5a	0.3629101
87	0xbea9cfc9	-0.3316634
88	0xbda260db	-0.0792863
89	0xbceee607	-0.02916242
90	0x3e0bd50b	0.13655488
91	0x3e96cb3f	0.2945194
92	0x3de92e58	0.113857925
93	0x3d4567c5	0.048194665
94	0xbcbab3c6	-0.0227908
95	0x3c946153	0.018112814

attn_net.out.weight f4 [64, 96]
0	0x3bccd63c	0.0062511247
1	0xbbeea6da	-0.007283074
2	0xbd1eb991	-0.03875119
3	0x3df3b27d	0.11899278
4	0x3b2bb428	0.002619991
5	0x3d22cfb9	0.03974888
6	0xbd66ed97	-0.056378927
7	0xbaad47ac	-0.0013220212
8	0xbc17e96f	-0.0092719635
9	0x3bfc545d	0.0077004866
10	0x3dae316f	0.085055225
11	0x3d0d6396	0.0345188
12	0x3be86629	0.0070922566
13	0x3d5d9b00	0.054102898
14	0x3df33e01	0.11877061
15	0x3cfddc97	0.030988974
16	0x39a432d4	0.00031318387
17	0x3df82ab8	0.12117523
18	0x3b96ecb8	0.004605856
19	0x3d4d58a6	0.05013337
20	0x3c12be8a	0.008956561
21	0x3bf34995	0.007424543
22	0x3cbb96ab	0.022898993
23	0xbc7fe231	-0.015617893
24	0x3c90c846	0.017673623
25	0x3bf3c9fd	0.0074398504
26	0x3bda8814	0.006669054
27	0x3dacada9	0.084315605
28	0x3dadfa09	0.08494956
29	0x3e050101	0.12988664
30	0xbd87a7c8	-0.066237986
31	0xbbf73409	-0.007544045
32	0xbc7b7e50	-0.015349939
33	0x3b97207b	0.0046120263
34	0x3bbf6228	0.0058405586
35	0xbb484c02	-0.0030562882
36	0x3cd9dcf9	0.026594626
37	0x3dfa4242	0.12219669
38	0x3e1aa27d	0.15101047
39	0x3e023bde	0.1271815
40	0x3c594b95	0.013262649
41	0x3cf45348	0.029824868
42	0x3df6e4fe	0.120553955
43	0xbcf68a7e	-0.030095335
44	0x3be37047	0.0069408747
45	0xbacb055c	-0.0015489268
46	0xbbd1e810	-0.006405838
47	0x3c7e5179	0.015522354
48	0x3d0aa0fd	0.033844937
49	0xbc6d29a1	-0.014475257
50	0xbd8551a6	-0.06509714
51	0x3d27532c	0.040850803
52	0x3e085149	0.13312258
53	0xbc6d6ac6	-0.014490789
54	0x3c27cbb2	0.010241436
55	0x3d043623	0.03227819
56	0x3c5a38eb	0.013319234
57	0x3d45dee2	0.04830826
58	0x3e00efd7	0.12591492
59	0xbd353daa	-0.04424826
60	0xbd0da20f	-0.03457838
61	0xbcee5ffb	-0.029098501
62	0xbd07f813	-0.033195566
63	0xbd4a79a5	-0.049432416
64	0xbc09efc0	-0.008418977
65	0xbb04f84e	-0.0020289603
66	0xbbd92f56	-0.0066279573
67	0x3e1b3627	0.15157376
68	0x3e165bb0	0.14683414
69	0x3ba21db6	0.0049473895
70	0xbb366897	-0.0027833336
71	0xbce74b36	-0.028234106
72	0x3a8fdf34	0.0010976554
73	0x3d62ae33	0.05534191
74	0x3d2f10e9	0.042740736
75	0x3d9d6d0e	0.07686816
76	0xbba8fb25	-0.005156892
77	0x3d67bf7e	0.056579106
78	0xbd8401b8	-0.0644564
79	0xba8d2f34	-0.0010771514
80	0xbcb9236e	-0.022599902
81	0xbc7667d9	-0.015039408
82	0xbd8a8470	-0.06763542
83	0xbc9607a9	-0.0183142
84	0x3bc6a694	0.006062338
85	0x3bc55511	0.0060221036
86	0x3dc4c8ed	0.09608636
87	0x3c7de946	0.015497511
88	0x3d164978	0.03669116
89	0x3c334305	0.010941272
90	0x3db01017	0.08596819
91	0x3decf303	0.11569788
92	0x3dcc2ba3	0.099692605
93	0x3b399f02	0.0028323536
94	0x3ccc9ee4	0.024978109
95	0x3c53a7cd	0.012918425
96	0x3c00df59	0.00786575
97	0x3b35a552	0.0027716947
98	0x3c945c5a	0.018110443
99	0x3ecc848b	0.39944872
100	0xbbb27ab4	-0.0054467563
101	0x3c4d9f25	0.01255015
102	0x3cc7f227	0.02440746
103	0x3b16bd12	0.0023000878
104	0x3c1e5b89	0.009665378
105	0x3d2f37f5	0.042777974
106	0x3dc98435	0.098396696
107	0xbd11bbaa	-0.03557936
108	0x3b250783	0.002518148
109	0x3b52f394	0.003218864
110	0x3eaa9b8e	0.33321804
111	0x399de2d8	0.00030114385
112	0x3ca19410	0.019723922
113	0x3e5f6cde	0.21818873
114	0x3c04630b	0.008080254
115	0x3d47ab84	0.048747554
116	0x3d1c1171	0.03810257
117	0x3d1f9f5c	0.038970336
118	0x3e3964fb	0.18104927
119	0x3d144aa0	0.03620398
120	0xbd4c5b78	-0.04989192
121	0x3c9169b7	0.017750604
122	0xbbdbc2ce	-0.006706572
123	0x3ebda28c	0.37038076
124	0x3d984258	0.07434529
125	0x3e95ad4b	0.29233775
126	0x3e697cab	0.22801463
127	0x3b8a369e	0.0042179367
128	0xbc753942	-0.014967265
129	0x3d17b5cc	0.03703861
130	0xbb2496aa	-0.0025114217
131	0xbbdf24d7	-0.0068098116
132	0x3e8b0c30	0.27157736
133	0x3e7b36c4	0.2453261
134	0x3eade794	0.33965743
135	0x3dfd3a09	0.12364585
136	0x3e64f54f	0.22359203
137	0xbbd87d6d	-0.006606749
138	0x3eac82db	0.33693585
139	0x3d741583	0.059590828
140	0x3cd28ca2	0.025701825
141	0x3d3b068b	0.045660537
142	0xbb98c632	-0.0046622986
143	0x3d8b4a3a	0.06801267
144	0x3b8d7644	0.004317077
145	0x3e529b1d	0.20566984
146	0x3d17ff76	0.03710886
147	0x3c158796	0.0091265645
148	0x3eaee1e9	0.3415673
149	0x3d801087	0.06253152
150	0x3d133e3d	0.035948027
151	0x3ba4a0f8	0.005024072
152	0x3d4efbbb	0.050533038
153	0x3e4fc3cb	0.20289533
154	0x3ecb6934	0.397287
155	0x3e69b12e	0.22821495
156	0xbd126670	-0.035742223
157	0x3d986a24	0.0744212
158	0xbd4ce8d1	-0.05002672
159	0xbc8f8975	-0.0175216
160	0x3d9b14da	0.075723365
161	0x3e873519	0.26407698
162	0xbd1547fd	-0.036445606
163	0x3eacb813	0.33734187
164	0x3ecbf030	0.39831686
165	0x3ea4cd66	0.32187957
166	0x3d15aa3e	0.03653931
167	0x3c3cc26a	0.011520961
168	0x3d82f234	0.06393853
169	0x3e6e5183	0.23273282
170	0x3d0d3ed3	0.034483742
171	0x3ece906e	0.40344566
172	0x3cbfc428	0.023408964
173	0x3de3529d	0.110997416
174	0x3e036fe2	0.12835649
175	0x3d5546b2	0.052069373
176	0x3e13b0db	0.14422934
177	0xbbe4b8f3	-0.0069800555
178	0xbdb31bb6	-0.0874552
179	0x3bb45a3f	0.0055039222
180	0x398d2050	0.0002691769
181	0x3cb82ebd	0.022483224
182	0x3eaffde8	0.34373403
183	0xbcc25166	-0.023720454
184	0xbd821082	-0.06350805
185	0x3d0d103d	0.034439314
186	0x3e16f6a7	0.14742528
187	0x3e847239	0.25868395
188	0x3e7787f3	0.24172954
189	0x3d8a4d1b	0.06752988
190	0x3d68583a	0.056724764
191	0x3d146107	0.036225345
192	0x3dd761ea	0.105167225
193	0xbd53c82f	-0.05170458
194	0x3e87c7d8	0.26519656
195	0x3eeda1b5	0.46412435
196	0xbd21eb8c	-0.039531276
197	0x3dc210dc	0.09475872
198	0x3e0e7251	0.13910796
199	0x3c23da5c	0.010000791
200	0xbd3cf697	-0.046133604
201	0xbdab8bf5	-0.08376304
202	0x3ebca811	0.36846974
203	0x3e8a8814	0.27056944
204	0xbd1c653a	-0.038182475
205	0x3e751e86	0.23937425
206	0x3ee62b70	0.44955015
207	0x3e2afc37	0.16697775
208	0xbce3b0fa	-0.02779435
209	0x3ee11ac8	0.43965745
210	0xbd5377df	-0.05162799
211	0x3e849dd0	0.2590165
212	0xbd8e88a3	-0.06959655
213	0xbd773e50	-0.06036216
214	0x3ec04082	0.37549216
215	0x3e1426d6	0.1446794
216	0x3e4f015f	0.20215367
217	0x3e1c0425	0.15235956
218	0xbbfc8202	-0.007705928
219	0x3eecf896	0.46283406
220	0x3e798c2e	0.2436988
221	0x3eec4e60	0.46153545
222	0x3eba6348	0.3640387
223	0x3befb4e4	0.007315265
224	0xbcdab460	-0.026697338
225	0xbdddcd2c	-0.10830149
226	0xbd4423b5	-0.047885615
227	0x3c07ff13	0.0083005605
228	0x3eb579fa	0.35444623
229	0x3ee39a39	0.444536
230	0x3ef0c3aa	0.4702428
231	0x3ee83cac	0.4535879
232	0x3ea1250d	0.3147358
233	0x3d13c9c4	0.03608109
234	0x3ed2601a	0.41088945
235	0x3e06e44e	0.13173029
236	0xbcac0b38	-0.021001443
237	0xbd28242a	-0.041050114
238	0x3b462c08	0.0030238647
239	0xbd702e56	-0.05863794
240	0x3d856d08	0.06514937
241	0x3ed6396d	0.41840687
242	0x3e7c696c	0.2464959
243	0x3da61774	0.08109942
244	0x3edf5c4b	0.436251
245	0x3e6dd199	0.23224486
246	0xbd896cf3	-0.067102335
247	0x3e5ebee5	0.21752508
248	0xbd3e52e7	-0.04646578
249	0x3eed0c45	0.46298423
250	0x3efa5928	0.48896146
251	0x3ec2a417	0.38015816
252	0x3e2e1cbc	0.17003149
253	0x3e84e90b	0.25959048
254	0xbcb37de3	-0.021910613
255	0x3db590f1	0.08865536

attn_net.out.bias f4 [64]
0	0xbddefcb6	-0.108880445
1	0xbd095bd9	-0.03353486
2	0x3ecb735b	0.39736447
3	0x3ed7bc88	0.42136025
4	0xbe4ffc62	-0.2031112
5	0x3ec34dda	0.38145334
6	0x3eebe497	0.46072838
7	0xbead31ee	-0.33827156
8	0xbecb9e53	-0.3976923
9	0xbc2d5649	-0.010579654
10	0xbe345534	-0.17610627
11	0x3ea6e9e3	0.32600316
12	0xbdf71ea7	-0.12066393
13	0xbeb35342	-0.35024458
14	0xbe8ff4e9	-0.2811654
15	0xbea168ec	-0.31525362
16	0xbd747a0b	-0.0596867
17	0x3e9c978b	0.30584368
18	0x3e3a02ee	0.1816518
19	0xbea4b948	-0.32172608
20	0xbe96b9d2	-0.29438645
21	0x3cfc2d50	0.030783325
22	0xbe81028d	-0.2519726
23	0x3eb8e804	0.36114514
24	0x3e78b72d	0.24288626
25	0x3ea21eb7	0.3166406
26	0xbd67318a	-0.05644373
27	0xbeee99f7	-0.4660184
28	0xbe802581	-0.25028613
29	0xbe80c69f	-0.25151536
30	0x3ed5fd27	0.41794702
31	0xbe244fe2	-0.16046098
32	0x3ecf2448	0.40457368
33	0xbee04215	-0.43800417
34	0x3ec9c4f9	0.3940809
35	0x3ebd5081	0.36975482
36	0xbe91b6ca	-0.2845977
37	0xbe806d45	-0.25083366
38	0x3eadff4a	0.33983833
39	0x3d932408	0.07184607
40	0x3ee8ebda	0.4549244
41	0x3e8adbe2	0.27120882
42	0xbe0f0ed0	-0.13970494
43	0xbd5f62d9	-0.054537628
44	0x3eea4f8a	0.45763808
45	0x3eb2dd43	0.34934434
46	0xbeb96227	-0.36207697
47	0xbe4ac7bb	-0.19802754
48	0xbe7d2762	-0.24722055
49	0xbd85beaa	-0.06530507
50	0x3ec38835	0.38189855
51	0x3dfb11bb	0.12259241
52	0xbe7b3aac	-0.245341
53	0x3edeac62	0.43490893
54	0xbef6582b	-0.48114142
55	0x3c53af5f	0.01292023
56	0xbd342072	-0.043976255
57	0xbedc6970	-0.43049192
58	0xbe7bd330	-0.2459228
59	0xbe97eb0d	-0.29671517
60	0xbe2f7647	-0.17134963
61	0x3ece4002	0.4028321
62	0x3ec6b6a1	0.3881121
63	0xbe06b7b2	-0.13156012

linear.weight f4 [64, 10]
0	0x3d8af458	0.06784886
1	0x3d97403b	0.07385298
2	0x3e018a7f	0.12650488
3	0x3de73ff8	0.11291498
4	0x3e0badf3	0.13640575
5	0x3e8257f3	0.25457725
6	0x3e1eff88	0.15527165
7	0x3c4e0f86	0.012576943
8	0x3e533f0e	0.20629522
9	0x3e19a351	0.15003707
10	0x3ec266bf	0.37969014
11	0x3e5fc2d3	0.21851663
12	0xbed0ab22	-0.40755564
13	0xbf043ec1	-0.51658255
14	0x3e60880f	0.21926902
15	0xbf4fcf84	-0.8117602
16	0xbf06577f	-0.5247726
17	0x3ebf02af	0.37306735
18	0xbf743fce	-0.9540986
19	0xbf750d8a	-0.95723784
20	0xbf13b6f3	-0.57701033
21	0xbe5b7626	-0.21431789
22	0x3ee6b305	0.45058456
23	0x3ef937e3	0.4867545
24	0xbf0ba051	-0.545415
25	0x3f7f182f	0.99646276
26	0x3f507208	0.81424
27	0xbee42836	-0.4456193
28	0x3f88d55e	1.0690114
29	0x3f61b8f2	0.8817283
30	0x3eed029a	0.46291047
31	0x3e7a9df4	0.24474317
32	0xbedbb7ab	-0.42913565
33	0xbf2eaf49	-0.68236214
34	0x3e9e01a3	0.30860624
35	0xbf4e133f	-0.8049812
36	0xbf137e58	-0.5761466
37	0x3e93ed60	0.2889204
38	0xbf45eafa	-0.7731167
39	0xbf4bf434	-0.796695
40	0x3dd1f006	0.10250859
41	0x3dc1a963	0.09456136
42	0x3caeaec6	0.021323573
43	0x3aaf5a56	0.0013378363
44	0x3d8ab4a6	0.06772737
45	0x3d480bc0	0.04883933
46	0xbcd7552c	-0.02628573
47	0x3cef192d	0.02918681
48	0x3e934aec	0.28768098
49	0xbdd6034c	-0.104498476
50	0x3f3de5ba	0.7417866
51	0x3f01ba1e	0.5067462
52	0xbf0eb995	-0.55751926
53	0xbf4ac4f4	-0.79206777
54	0x3edc43cf	0.43020484
55	0xbf6710ac	-0.90259814
56	0xbf58f182	-0.8474351
57	0x3ea226fa	0.31670362
58	0xbf4cdb97	-0.8002257
59	0xbf873f51	-1.0566198
60	0xbf1bfdb1	-0.6093398
61	0xbf077fc4	-0.5292933
62	0x3f12cfe2	0.57348454
63	0x3f6154f2	0.8802024
64	0xbf0f1f11	-0.5590678
65	0x3f717bc6	0.9432949
66	0x3f2d8cf0	0.6779318
67	0xbed4156c	-0.41422594
68	0x3f8e9319	1.1138641
69	0x3f6f6388	0.9351125
70	0x3d6a6a4c	0.05723028
71	0x3c936acb	0.017995259
72	0x3da9721b	0.08273717
73	0x3e3d2cda	0.18474141
74	0xbe8c719b	-0.27430424
75	0x3d4b5d92	0.049649782
76	0x3e85a467	0.26101992
77	0xbe6bf02b	-0.23040836
78	0xbf111adc	-0.5668161
79	0x3da6ef74	0.08151141
80	0x3e21839a	0.15772858
81	0xbe119489	-0.14216818
82	0xbe22059a	-0.1582245
83	0xbd6a7d1e	-0.057248227
84	0xbe4f0c3f	-0.20219515
85	0x3e43ab01	0.19108202
86	0x3ea0943d	0.31363097
87	0xbe5c15ac	-0.21492642
88	0xbf58ddf3	-0.8471367
89	0x3f10d2f7	0.56571907
90	0xbdfbbbd3	-0.12291684
91	0xbe2dab6a	-0.1695992
92	0xbd7dd224	-0.061967984
93	0xbe1043a7	-0.14088307
94	0x3e0553ee	0.13020298
95	0xbe10f033	-0.14154129
96	0xbe2e6a77	-0.170328
97	0x3e0c27d0	0.13687062
98	0xbdde7382	-0.10861875
99	0xbe7bd780	-0.24593925
100	0x3db43709	0.087995596
101	0xbc7cc3b2	-0.015427517
102	0xbe2a6ee6	-0.16643867
103	0xbd514240	-0.05108857
104	0x3ca587ca	0.02020635
105	0x3dc589e6	0.09645443
106	0xbd4e2553	-0.050328564
107	0x3e4844e2	0.19557527
108	0x3ce56d09	0.028006094
109	0xbbcb085f	-0.0061960663
110	0xbebe1f12	-0.3713308
111	0xbdf7d918	-0.12101954
112	0x3ef49a82	0.4777413
113	0x3f3291dd	0.6975382
114	0xbd80d09d	-0.0628979
115	0x3f695d9e	0.91158473
116	0x3f3d5951	0.7396441
117	0x3d33581f	0.04378521
118	0x3f0af749	0.5428358
119	0x3f5faf61	0.8737698
120	0x3e59796c	0.21237725
121	0x38f0c380	0.000114805065
122	0x3d8e2824	0.0694125
123	0x3e1100e2	0.14160493
124	0x3de367d6	0.111037895
125	0x3e2182e1	0.15772583
126	0x3d4d4045	0.05011012
127	0xbca08317	-0.019593759
128	0xbd4fd905	-0.050744075
129	0x3b307d64	0.0026930207
130	0xbd0dd3eb	-0.03462593
131	0xbd3829c6	-0.044961713
132	0x3e43b23f	0.19110964
133	0xbd4c460b	-0.049871486
134	0xbe3d67bf	-0.18496607
135	0xbccbdf8b	-0.024886867
136	0x3ec2af74	0.38024485
137	0xbea11597	-0.31461784
138	0xbe9dcea0	-0.30821705
139	0xbe172dc6	-0.14763555
140	0x3d5d734d	0.054065038
141	0x3e7c3101	0.24628069
142	0xbe617575	-0.22017463
143	0xbc0d4b71	-0.008623944
144	0x3d25d3d8	0.040485233
145	0xbdf07540	-0.11741114
146	0xbcc4672a	-0.023974974
147	0x3d9a21e7	0.075259976
148	0x3bb81c89	0.005618636
149	0xbd8d037c	-0.0688543
150	0x3d3f8fc7	0.046767976
151	0x3da73665	0.08164672
152	0xbe6e65ca	-0.23281017
153	0xbdfce3f8	-0.12348169
154	0xbe0a2147	-0.13489257
155	0xbd44f988	-0.048089534
156	0x3e2109b8	0.15726364
157	0xbe26be5a	-0.16283551
158	0xbe615486	-0.220049
159	0x3e9cf193	0.30653057
160	0x3d867745	0.065657176
161	0x3d5d8fe2	0.054092295
162	0x3d975c96	0.07390706
163	0x3d98a22a	0.07452805
164	0x3dbd0f50	0.09231436
165	0x3d928b08	0.07155424
166	0xbdb5fe4a	-0.088863924
167	0x3d376847	0.04477718
168	0x3ccffede	0.025390085
169	0x3dc7e5be	0.09760617
170	0x3dbc3776	0.09190266
171	0x3d562e1c	0.052290067
172	0xbe3cca4b	-0.18436544
173	0xbe87e595	-0.26542345
174	0x3d055b2c	0.03255765
175	0xbe51ab51	-0.20475508
176	0xbe994743	-0.2993718
177	0xbe39de00	-0.18151093
178	0xbf0a829f	-0.5410556
179	0xbefa56fb	-0.48894486
180	0xbeb3d53c	-0.35123622
181	0xbed5fb65	-0.4179336
182	0x3efbbced	0.49167576
183	0x3f3208f7	0.6954493
184	0xbda0e69d	-0.07856486
185	0x3f5c6167	0.86086124
186	0x3f4844cc	0.78229976
187	0xbd4d8e78	-0.050184697
188	0x3f4db494	0.80353665
189	0x3f317bf8	0.69329786
190	0x3d6a906d	0.05726664
191	0x3d8fd1cf	0.0702244
192	0x3e9b21cc	0.30299222
193	0x3e9dfd2f	0.30857226
194	0x3d853696	0.06504552
195	0x3b452edd	0.0030087747
196	0x3e3bc295	0.18335946
197	0xbd5c852e	-0.053837948
198	0x3d6ed71a	0.058310606
199	0x3dd790a8	0.10525638
200	0x3e0eaf7e	0.13934132
201	0x3dbd9c15	0.09258286
202	0x3e4cad4d	0.19987984
203	0x3df2b524	0.11850956
204	0xbba78f8e	-0.0051135486
205	0xbe1a9988	-0.1509763
206	0xbdd50abf	-0.1040244
207	0x3e48d7a6	0.19613513
208	0x3e1fd5cb	0.156089
209	0x3da09064	0.0784004
210	0xbbfc31e0	-0.0076963753
211	0xbc315339	-0.0108230645
212	0xbcac72e3	-0.021050876
213	0xbd90e571	-0.070750125
214	0xbd4b6bf7	-0.04966351
215	0xbd986f83	-0.07443144
216	0xbcbcb4ef	-0.023035495
217	0x3ca17e58	0.019713566
218	0x3cd59e0b	0.026076337
219	0x3d7b5d34	0.061368182
220	0xbdcdfce4	-0.10058001
221	0x3e061417	0.13093601
222	0xbdcb77b6	-0.099349424
223	0x3da73c4c	0.081657976
224	0x3d940907	0.07228284
225	0x3d9a4921	0.075334795
226	0x3d709c19	0.058742616
227	0x3ccce8af	0.025013296
228	0xbeb95e72	-0.3620487
229	0x3e8c8601	0.27445987
230	0xbef6cf0e	-0.48204845
231	0xbddf9148	-0.10916382
232	0x3eb7bfd1	0.35888532
233	0x3ef358f6	0.4752881
234	0xbe1087e5	-0.1411434
235	0x3f391e7b	0.72312135
236	0x3f062a13	0.5240795
237	0xbe2ecb68	-0.17069781
238	0x3f6068d4	0.87659955
239	0x3f423f5a	0.75877917
240	0x3f19d030	0.60083294
241	0x3e9483cf	0.29006812
242	0xbec952be	-0.3932094
243	0xbf196e74	-0.59934163
244	0xbdc0a029	-0.09405548
245	0xbf21d88a	-0.6322104
246	0xbf1db96e	-0.6161107
247	0xbe20fcb4	-0.15721399
248	0xbf3548b3	-0.70814055
249	0xbf75e9a8	-0.96059656
250	0xbf092a94	-0.53580594
251	0xbf093253	-0.53592414
252	0x3f167e94	0.5878689
253	0x3f5d41d7	0.8642859
254	0xbee5020c	-0.44728124
255	0x3f86f6ee	1.0544107
