outlier-interpretation-Xu/checkpoints/bUnsQdhW_checkpoint.pt (torch, 103515 bytes, 5 tensors)

attn_net.hidden.weight f4 [96, 192]
00000000: 9bed 43bd c654 60bc 0821 06bd d230 08bd
00000010: 1672 c03c 14ab 0f3a b344 6d3d 0821 89bc
00000020: bff7 183d 0049 2fbc c044 e1bb be7a 043d
00000030: 88b4 1c3c b985 42bb 7ec9 d8bb 4c47 0fbd
00000040: 8df4 ae3d 3f8e 4bbc 5de2 3bbd 6154 95bc
00000050: bfea 843c 8a4e e5bc cd80 723c 6db3 ba3c
00000060: 475d 08bd 15e4 f6bb deff 96bc 85d0 85bc
00000070: 8cab 3d3b b3cb 3fbd 62ca 4a3b 856b 463c
00000080: a180 ebbb a83f 403d adde 2d3c 2b06 8bbc
00000090: d2ad dcbb f0dc 5dbc eaae 96bd f1bd 71bb
000000a0: 2010 bc3c 809d 50bd f16a 96bc d737 2d3d
000000b0: bb58 163c e7b1 c83c 9a0d 043d 390d dfbc
000000c0: 3bc4 2b3d 6f92 f4bc b34d 983c d544 6abc
000000d0: 95e9 aabc 06c3 c0bc f8c5 f0bc a83f 85bb
000000e0: ac1d 69bd 2095 c9bc 060d 8b3d a499 803c
000000f0: 8870 e43c 42b8 1b3b 01e7 bcbc 33f7 d6bc
00000100: 12c1 853a a159 c1bc a6c0 863b dd60 d1bc
00000110: 1620 7e3c 7088 b43b 3ab9 633b 1883 ca3a
00000120: 0424 293d a6b6 e4bc 4309 d9bc 5664 c7bc
00000130: 3e5b 143d dc34 dabc 9ca3 61bc dcd9 cabc
00000140: ad3c 6c3c 421e b0bc be23 e7bc 1013 8dbc
00000150: bc2a 9dbc 3ff6 023b 2aac 253c 93ca 6c3d
00000160: 9a2c 943c 1071 09bc 04c7 c2bc 2a3e 6ebc
00000170: accb abbc 5353 25bd 1dec 5f3c a2c4 973c
00000180: fa72 823c 965a 473c 0d54 063d e14f 4cbc
00000190: e070 0cbc ad77 6abc f962 2fbd 4383 093d
000001a0: 7ad8 c0bb ac16 adbc cbd2 993c 8ee9 8639
000001b0: e223 663c 5361 c73c 4318 413c 6ce8 b8bc
000001c0: 0d64 a43c a8e1 ba3c dff8 e6bc 99d0 d63c
000001d0: e660 8fbc 4459 5fbc 0ae5 ba3c 40f6 66bc
000001e0: 32d3 e1bc 86b0 34bd 6de3 893d 1ff6 a73c
000001f0: 09b0 503b 0db9 28bc 1cba 2dba a92f c53c
00000200: c1d0 36bd 4aa7 50bd c345 98bc 7cd6 2ebc
00000210: 4b3f 143d a400 603b a2ee 1b3c ddbe 9fba
00000220: b1b6 8b3c d0bb e0bc f571 b5bb 325a 10bc
00000230: 9760 903b 9875 e1bc 8e37 c3ba d12d 913c
00000240: cb97 8c3d 42c3 8c3c d211 85bd 08f5 df3b
00000250: 1150 0e3d f438 abbb 1ab1 d03c 2779 9a3c
00000260: bd7f 4b3c e68d 173d 8ec6 18bc 5c5c d1bc
00000270: a46f 0bbc a9cd d6bc c65c b63c d864 5c3c
00000280: 54da 8abb 47c5 103d a1e3 763c a0ae c53c
00000290: ba8e 45bd 2663 09bc 33ae 8dbd 6e33 bbbc
000002a0: cdca 343d b9fa 05bc 9827 13bd c4ef 0b3d
000002b0: d4db c8bb c7e2 d83c 12db 6b3c 414f 00bd
000002c0: ca93 313b 4d9c d83c 70c1 033d 1682 7dbc
000002d0: f1da 07bd 8bd8 61bc b393 5b3c 005a 64bb
000002e0: 2706 48bd ec81 55bd 3ef5 853d b7a6 913c
000002f0: 388e 7f3c 2468 8ebc e7ad e0bb 5887 1bbd
00000300: 2257 143d 3d46 62bc 13d2 c3bc b4f4 b33b
00000310: bf6a a6bc fcb5 803b 422b b13b 40c2 a239
00000320: a3a8 a5bc 0538 073c 922b e33c 621f fd3c
00000330: 194b 803c 15a1 ea3b 8d76 533c 9d7b 333c
00000340: e62b ba3b 791e 7d3b aea2 7a3d 2646 483c
00000350: 4053 38bd 528b 2a3d 2029 08bc 9845 303b
00000360: 5883 c3ba b0d5 643a c20a 6fbc ddad 243d
00000370: 4800 86bd e839 c33c c501 b53c ec69 403c
00000380: b3c3 ca3c a5d8 6fbc d45f 353c 2460 12ba
00000390: e04b 73bc b574 74bb 268c 793d 36a8 d73b
000003a0: 5e38 58bc ba2b 1bbd 81d9 6b3b 3c6c f63a
000003b0: 0b44 893c a161 fe3b 5f25 2ebd 2070 97bc
000003c0: 9097 fab9 7e41 8e3c 4db8 323b 95bf 6bbd
000003d0: 04da 8f3c 0a55 51bc b537 ba3b a777 813c
000003e0: ae15 4e3c f080 b2bc c726 bbbc bcd5 a03c
000003f0: 563c b63c 555a 513c 6901 05bd 2fdc 07bd
-0.04783402 -0.013692087 -0.032746345 -0.033249684 0.0234919 0.000548051 0.057926845 -0.016739383
0.037345644 -0.010698557 -0.0068746507 0.03234362 0.009564526 -0.0029681756 -0.0066158166 -0.034980103
0.08542738 -0.012424051 -0.045870174 -0.018228712 0.016225217 -0.027991552 0.014801216 0.022790635
-0.03329208 -0.0075345137 -0.018432554 -0.016334781 0.0028941361 -0.046825122 0.0030943383 0.012110596
-0.0071869646 0.046935707 0.010612172 -0.016970715 -0.006734588 -0.013541445 -0.07357581 -0.0036886896
0.022956908 -0.050931454 -0.01836154 0.04228958 0.009176428 0.024498893 0.032239534 -0.027227985
0.041935187 -0.029854981 0.018591737 -0.014298637 -0.020863334 -0.023530494 -0.029391274 -0.0040664263
-0.056913063 -0.024607241 0.067895934 0.015698262 0.02788569 0.002376095 -0.02305937 -0.02624092
0.0010204634 -0.023602309 0.004112321 -0.025558883 0.01551058 0.0055094287 0.0034747855 0.0015450446
0.041294113 -0.027919125 -0.026493674 -0.024339836 0.036219828 -0.026636533 -0.013771918 -0.024762087
0.014418763 -0.021498803 -0.028215285 -0.017221004 -0.019185416 0.00199832 0.010111848 0.057810377
0.018087674 -0.008388773 -0.023776539 -0.014541188 -0.020971142 -0.040362667 0.013667134 0.018526379
0.015923966 0.012167593 0.032795 -0.0124702165 -0.008571833 -0.0143107595 -0.042818997 0.033572447
-0.005885181 -0.021128975 0.018777272 0.00025732483 0.014046641 0.0243384 0.01178557 -0.022571765
0.02006724 0.02281268 -0.028194843 0.026222514 -0.01750226 -0.013632122 0.022814292 -0.0140967965
-0.027566526 -0.04411366 0.06732831 0.020503102 0.0031843206 -0.010298026 -0.0006627159 0.024070578
-0.044632677 -0.05094079 -0.018587952 -0.010671254 0.036193173 0.003418007 0.009517344 -0.0012187619
0.017054887 -0.027433306 -0.0055372664 -0.008810567 0.0044060457 -0.027521893 -0.0014893876 0.017722042
0.0686489 0.01718295 -0.064975396 0.00683463 0.034744326 -0.005225295 0.025475074 0.018856598
0.012420592 0.03700056 -0.009324683 -0.025556736 -0.008510504 -0.026221113 0.022261035 0.013451777
-0.0042374525 0.03534439 0.015068919 0.02413112 -0.048231818 -0.008385455 -0.069179915 -0.022851672
0.04413872 -0.008177453 -0.03592643 0.034164205 -0.006129721 0.026475323 0.014395492 -0.031325582
0.0027096146 0.026441718 0.0321669 -0.015472909 -0.033167783 -0.013784538 0.013401913 -0.0034843683
-0.048833992 -0.052125856 0.06540917 0.017779691 0.015597872 -0.017383642 -0.0068566683 -0.03797087
0.03621591 -0.013810691 -0.023903882 0.0054918174 -0.020314572 0.003927944 0.005406768 0.00031043775
-0.020222014 0.008253102 0.027730737 0.030898754 0.01566081 0.0071603158 0.012906683 0.010954765
0.0056815026 0.00386229 0.0611903 0.012223756 -0.04500127 0.041636772 -0.008310586 0.002689695
-0.0014916463 0.00087293517 -0.014589967 0.04020487 -0.065430224 0.023831323 0.02209557 0.011744004
0.02475152 -0.014639054 0.0110702105 -0.0005583784 -0.014849633 -0.0037301008 0.06092467 0.0065813316
-0.013197033 -0.037883498 0.0035987797 0.0018800567 0.016756078 0.007763103 -0.04251611 -0.018486083
-0.0004779664 0.017365213 0.0027270496 -0.057555754 0.017560013 -0.012776623 0.0056829103 0.015804125
0.012578411 -0.021789998 -0.022845639 0.019633166 0.022245567 0.0127778845 -0.032472048 -0.033168968

attn_net.hidden.bias f4 [96]
00000000: 9e14 393c a2b1 4c3d 8c2a f4bc ed3b 133d
00000010: 1e92 b4bc 0441 37bd a316 b83c 3aba 9f3c
00000020: 1764 883d 2877 613c 93c8 c5bd d27e e33c
00000030: 5ea6 89bd efad 343d 86c1 673d 5cb1 813c
00000040: 27dc 2cbd 26fb aabd de53 003b d388 09bd
00000050: 26cd 9e3b f7b1 143d 226e 33bc 41e4 c2bd
00000060: aba4 293d e912 a1bc 8836 9bbd 293c 58bd
00000070: bbd8 7bbd 6980 c6bd dcb3 c8bd 1bf7 88bd
00000080: 36e4 963d cd6e d8bd 9c58 fabd 07dd cfbd
00000090: 08fc 483c 780b 92bd b1d3 febd 8328 c33d
000000a0: 1cca a23c fbee 7e3d 4e0a 183d b044 963d
000000b0: be93 a73c c523 ff3c 4514 26bd 1680 503d
000000c0: 033a 0dbd 81a3 093e a45e c8bd 6fff 643b
000000d0: 7da3 42bc 187b 31bd 350c 513c 8902 2c3e
000000e0: 6602 243d 348d b4bd 2b19 043d a9fb 293c
000000f0: beda 2f3d b0f9 053d fa35 533d 89d9 423c
00000100: f151 26bd 9bd4 8abc d080 6abd 2a85 f2bc
00000110: e6cf 3fbc 7036 3dbc 04fc a2bd bed0 143a
00000120: 30c0 e6bd 547d e43c 3c19 aebc bef3 833d
00000130: bdf4 49bd b27a 313d a719 34bc 67bf f5bc
00000140: ed11 03bd 2e29 c83d aba9 44bc e54b c8bc
00000150: 5ed4 b2bd 0edb e4bc 7bd8 85bd e283 333c
00000160: 4e1f 40bb ca06 b93d 9356 c0bd 9e67 fd3c
00000170: 0426 663d 89b8 e93d f026 63bd 8910 04bc
0.011296419 0.04997409 -0.029805444 0.03594582 -0.02204233 -0.044739738 0.022471732 0.01949798
0.066597156 0.013761319 -0.09657397 0.027770434 -0.06721185 0.04411119 0.056581043 0.015831642
-0.04220214 -0.08348684 0.0019581239 -0.03357775 0.004846233 0.036302533 -0.010951551 -0.09516192
0.041416805 -0.019662337 -0.075787604 -0.05279175 -0.061485987 -0.09692461 -0.097999305 -0.06687757
0.073677465 -0.105680086 -0.12223932 -0.101495795 0.01226712 -0.07131094 -0.12442721 0.09529211
0.019871764 0.06223963 0.037119202 0.0733732 0.020456191 0.031144986 -0.040546674 0.050903402
-0.034479152 0.13441278 -0.09783676 0.003494229 -0.011879799 -0.043330282 0.012759258 0.16797842
0.04004135 -0.08815995 0.032250565 0.010374942 0.04293322 0.032708824 0.051565148 0.011892685
-0.04060549 -0.016947081 -0.05725175 -0.029604513 -0.011707282 -0.011548623 -0.079582244 0.0005676857
-0.112671256 0.027891792 -0.021252267 0.064429745 -0.049305666 0.043329902 -0.010992444 -0.029998494
-0.031999517 0.097734794 -0.012003343 -0.024450252 -0.08731912 -0.027936485 -0.06535431 0.010956736
-0.0029315534 0.09034498 -0.09391513 0.030933198 0.0561886 0.114121504 -0.055457056 -0.008060583

attn_net.out.weight f4 [64, 96]
00000000: 65bc 42bb 7473 353a 08af 2c3c 6c36 233b
00000010: 83e5 c1bb 0b60 0ebc 688b 143b dff3 dd3c
00000020: 7c47 e5bc 194e 5abc 6c72 513c 08d5 333c
00000030: c7b4 4cbd 42c2 4dbd 000f 403c 80a6 68bc
00000040: be3f 1c3d ea23 8cbc 7494 24bd b57a 443c
00000050: 7eee b93c 9db0 913c 250a 6ebc 98db 95bc
00000060: f8d4 c4bc 513e 013b bc24 2fba 8e38 a33c
00000070: 030f 50bb 2022 2ebd 5a4d 81bb c3ec 363b
00000080: 28d3 0cbd 36d1 f83a b420 6cbc 23d9 f4bb
00000090: 1cf2 473c 8b99 d13c 6f23 1c3b 26e4 60bd
000000a0: ab72 b63c 0f27 78bb d033 7f3c cc36 b3bb
000000b0: 4aff 55bd b44a 2fbc 481b 533b 7dba e13c
000000c0: 55db a6bb aac6 f6bc b824 d239 a24d 92bc
000000d0: 32ed e83c c94d 75bc cc89 8b3c 3206 a0bd
000000e0: 0782 c73c 62cb b93c 5ff3 803c 450a 223b
000000f0: cade 61bb 372a f7bc b9d5 c23c 1070 5a39
00000100: 3444 9dbc 0c3a 3f3b d870 d7ba db51 0dbc
00000110: 899b 79bc 032f 223d 66fe b03c 2e68 e73c
00000120: 69de 51bc 2dbb 27bd 902d b2bb 74c1 2dbd
00000130: 62b0 8c3b d21f 72bc 8471 66bd a8a3 313c
00000140: 22f3 8c3c 35b5 4ebd 7b7e acbb e15d 8a3c
00000150: 56ff 61bc ee9d aebc 618a 183d 9df5 7e3b
00000160: faf1 1cbc 64cd dc3c 0c1e 403b 72fb 2bbb
00000170: f9e1 53bc 5783 e73b ffc8 82bc 2403 2dbc
00000180: de3b 7a3c 9ac8 8e3b 2950 5c3c f968 6f3c
00000190: 1bb6 71bc 2152 3cbc 6f3a 83bc 3106 82bc
000001a0: e885 823c 3957 843c 162c a43c f064 e53b
000001b0: 5617 423c b19e 56bc 54b1 8bbc 408e e0bc
000001c0: d5c9 13bb 6526 8c3c 0c0e 213b 3087 cd3b
000001d0: b0fb 6fbc 96ed f13b 7ab0 39bc 96a9 85bc
000001e0: b065 b43c 881e 913c 9203 c9bc 2545 063d
000001f0: 8958 b6bb a4e3 0fba ce81 d8bc 766b 6d3c
00000200: f043 b13a 3fbe 9a3b d54f 403c 781d b43b
00000210: 655e 8a3c b06e 52ba a8b0 093b e594 923c
00000220: 0208 e13c be94 abbc 6a90 cabb a3e7 b2bc
00000230: 2fab e73c 44a2 233b 78dd 84bc 05d1 65bb
00000240: 1f57 003d ca71 8c3c 6034 8139 6447 16bb
00000250: c078 c3bb 2db0 873c 0087 863c 0414 dc3b
00000260: 99c2 8e3b 2364 ae3b 8afe 923c 6617 573b
00000270: 7424 61bb 5293 263b 5af4 103c 552d 8cbc
00000280: 3304 943c e433 473c 14db ddba f6d5 873b
00000290: 17d1 653c a0e9 f6bc f11a 623c 1e59 f53c
000002a0: 7b8f 83bc f9a7 7d3c a0cc b73b 3a60 f93c
000002b0: ef7e 9cbc d4a0 7b3c c099 e93b 82ee 7c3c
000002c0: 2efc 643c a9e1 b43c da9b f9ba bad0 96bc
000002d0: e932 bf3b 8afb 4f3c a99d 96bc 3ec6 98ba
000002e0: caae f13c 213c 9f3c 05ba 283c 84db ed3a
000002f0: 2047 4c3c 9505 85bb 89ac 8ebc d9b0 21bc
00000300: bc2e 813c ae64 87bb b9ac 033b 7434 0b3d
00000310: d86f a4bb 0824 8c3b 42c1 893c a828 023a
00000320: 3b47 183d b878 27bd b27f 85bc 40b4 3abb
00000330: 577f 573b 623f c73b 2fec 8d3c 3440 99bc
00000340: c8de 8abc 9404 653c e2cc 97bc a1f2 09bc
00000350: e030 7c3c 3abb ef3c 22b5 3b3c da0f 743c
00000360: 38bd 5fbc 80cd 59ba 8903 16bd 0869 5ebb
00000370: b573 82bc 760f 5f3c 0f7a 4b3c 8857 f0bb
00000380: 1eeb a7ba 2830 92bb dbb8 19bc d2bf 64bc
00000390: 607a dfbc 4cbe b33b 2669 a13a 64c5 db3c
000003a0: e83c 9fbc 9010 bc3b fbc0 59bb db2b 2abc
000003b0: e482 8dbb 2b7f 69bc cb10 563b 2b98 41bc
000003c0: f474 e9bc bfc9 edbc 55e0 b5bc f897 563c
000003d0: ebe0 eabb f920 f43b f05e dd3a fb2c a23b
000003e0: b70f 2a3c 882f 47bc df77 463c 54a2 813b
000003f0: 4b8e 69bb 2e0d 113c b0cc 50bc 463c a0bc
-0.0029714343 0.0006921806 0.010539778 0.0024904264 -0.0059172525 -0.008689891 0.00226661 0.027093826
-0.027988188 -0.013324284 0.012783628 0.010976084 -0.04997709 -0.050234087 0.011722326 -0.014199853
0.038146727 -0.017106969 -0.04018064 0.011992146 0.02269673 0.017784411 -0.014528786 -0.018293187
-0.024027333 0.0019720981 -0.0006681194 0.019924428 -0.003174723 -0.042513013 -0.0039459886 0.0027912117
-0.03438106 0.0018983248 -0.014412094 -0.007472174 0.0122037195 0.02558591 0.002382483 -0.05490508
0.022271475 -0.0037865078 0.015576318 -0.005469179 -0.052245416 -0.010698963 0.0032212306 0.027554745
-0.0050920644 -0.030124027 0.0004008168 -0.017859284 0.028433416 -0.014972159 0.01703348 -0.07813682
0.024353994 0.022679988 0.015741048 0.002472536 -0.0034465068 -0.030171497 0.023783552 0.00020831847
-0.01919756 0.0029178886 -0.0016436828 -0.008625473 -0.015234836 0.039595615 0.021605682 0.028247919
-0.012809374 -0.04094999 -0.0054375604 -0.04242082 0.0042934874 -0.014778094 -0.0562606 0.010842241
0.017205779 -0.05046578 -0.005264101 0.016890468 -0.013793787 -0.021315541 0.037241343 0.003890372
-0.009579176 0.026953407 0.0029314784 -0.0026242402 -0.012932294 0.0070652175 -0.015964983 -0.010559831
0.0152730625 0.0043574097 0.013446846 0.01461243 -0.01475289 -0.01149419 -0.016019074 -0.015872093
0.015932992 0.016154872 0.020040553 0.007000558 0.011846384 -0.013099358 -0.01705233 -0.02741158
-0.0022550721 0.017108152 0.0024575023 0.006272219 -0.014647409 0.007383059 -0.011333579 -0.016316216
0.022021145 0.017714754 -0.024537835 0.032780785 -0.0055647534 -0.0005488938 -0.026429083 0.014490953
0.0013524275 0.004722386 0.011737783 0.005496677 0.016890714 -0.0008027358 0.0021009836 0.017893264
0.027469639 -0.02094495 -0.0061817663 -0.021838969 0.028279869 0.0024968544 -0.016218886 -0.0035067212
0.031333085 0.017144103 0.0002464382 -0.0022930736 -0.0059653223 0.0165635 0.016421795 0.0067162532
0.004356694 0.005321996 0.01794364 0.0032820343 -0.0034354003 0.00254174 0.00884732 -0.01711146
0.018068409 0.012158368 -0.0016926252 0.004145379 0.014026902 -0.030140698 0.013800369 0.029949721
-0.016059628 0.015481942 0.00560911 0.030441392 -0.019103495 0.015358169 0.007128924 0.015437724
0.01397614 0.02208026 -0.001904364 -0.018410075 0.0058349264 0.012694249 -0.018385725 -0.001165576
0.029502291 0.019437851 0.010298257 0.0018147086 0.012468129 -0.0040595033 -0.017416256 -0.009868824
0.015769355 -0.004131875 0.0020091964 0.03398557 -0.0050182156 0.004276756 0.016815785 0.00049651647
0.037177306 -0.04088661 -0.016296241 -0.0028488785 0.0032882297 0.006080554 0.017324535 -0.018707372
-0.016951934 0.013978142 -0.018530313 -0.008419664 0.015392512 0.029264081 0.01145676 0.014896357
-0.013655953 -0.0008308515 -0.036624465 -0.0033937115 -0.015924314 0.013614526 0.012419238 -0.0073346533
-0.0012811159 -0.004461307 -0.009382452 -0.013961749 -0.027280033 0.0054853316 0.0012314662 0.026827522
-0.019438222 0.005739279 -0.0033226598 -0.0103864325 -0.004318582 -0.014251511 0.0032663818 -0.011816065
-0.02849815 -0.029026864 -0.022201696 0.013097756 -0.0071679256 0.0074502197 0.0016889255 0.0049492097
0.010379723 -0.012157328 0.01211354 0.0039561186 -0.0035637792 0.00885324 -0.012744114 -0.01955999

attn_net.out.bias f4 [64]
00000000: 0d02 c33d 4e6f f43a c37b 8dbd cc92 89bd
00000010: e1a6 1d3d 9580 83bd ee80 bfbd edc3 043d
00000020: e677 2f3d 583c 11bb 01d1 483d 06b2 59bc
00000030: 042f eabc d8ac 173d d4ea c8bd d5e7 593c
00000040: 893b d33e d6ec 7abd 19f2 9e3e 66c2 25bd
00000050: 7088 6a3e 3a6a b93b 6e13 173d 8409 09be
00000060: 4fb9 71bd fe1d 1dbc b65f 2abd 9062 203c
00000070: 5b4e 923e 49fb 2c3d 9227 e2bc 2f3b 84bc
00000080: c96e 33bd 6853 b13d 6023 c1bc a28a c4ba
00000090: 4abf 723d 8a2d 4b3d 6fc4 3a3e ec40 983d
000000a0: 6dcd 883e dc8e 833c 3e29 1fbd 2b5a a9bd
000000b0: 0efa 23bc 7fc3 00be f035 e2bc b9a0 33bd
000000c0: 3e39 823d 9927 763c 0476 eebc 073e 9c3e
000000d0: 8abf 82bd cce9 c13c 7ea1 063c 74b7 c1bc
000000e0: 5044 2e3c c4d4 1c3d eae6 6fbc 3766 e5bd
000000f0: 2b02 513d dc86 15bf c4f4 01bc a59b 91bd
0.095218755 0.0018648894 -0.06908371 -0.067174524 0.038489226 -0.064210095 -0.09350763 0.032413412
0.042838953 -0.0022161212 0.049027447 -0.013287073 -0.028586872 0.03703007 -0.09810415 0.013299902
0.4125636 -0.06126102 0.3104408 -0.040468596 0.2290361 0.005658415 0.036883764 -0.13382536
-0.059014615 -0.00958967 -0.041595183 0.009789124 0.28575405 0.04223183 -0.02760676 -0.016141502
-0.043806825 0.086584866 -0.023576438 -0.0014994929 0.05926446 0.049603976 0.18238996 0.07434258
0.26719227 0.016059332 -0.03885769 -0.08269151 -0.010008348 -0.12574576 -0.02761361 -0.04385445
0.06358574 0.015024089 -0.029109009 0.30516073 -0.063841894 0.023671053 0.008217214 -0.023647048
0.010636404 0.038288847 -0.014642457 -0.112011366 0.05102746 -0.58408904 -0.007931892 -0.07109765

linear.weight f4 [64, 11]
00000000: 6045 373b efd4 e3bb e4fd 0abc de63 fb3c
00000010: 3464 533d 7e62 293c d9a0 94ba 562f 97bc
00000020: 6663 af3a b30b 1fbc abc8 ddbc 52d6 61bb
00000030: c23c 623c e8ec 5fbd c67d 943b 9192 99bc
00000040: 0c38 703d c4f2 d9bc 7659 ca3b e529 f8bb
00000050: b0eb 103d 84e3 413c 1120 ee3d 4f63 383d
00000060: 96d9 16bd 1818 943d 96db 49bc 4018 853d
00000070: 0022 943c 40f0 c73c 9ab5 683c 370b 903d
00000080: 485c 0a3d 4285 3ebc 8549 3fbc 48ea c9bc
00000090: 3df4 be3c ef36 9a3c cf55 403d 0c60 2c3d
000000a0: c763 173b 803b 10bd edc5 b1bc 787a 0a3c
000000b0: 4251 173d 76a0 d93b 4946 11bd ae5b 993c
000000c0: d4b3 263c ac5e b5bc d552 c93c 7c80 97bc
000000d0: edba 813d e2c8 673d 58cc 153d 586d ab3d
000000e0: 6cf2 1f3d 75bf 203c 38f3 29ba 05af e2bb
000000f0: d44d 8bbc 367c 6ebc b94d 233d 4811 a73d
00000100: 4dd1 1cbd 990f aa3c f0db 223d ba0c 58bd
00000110: 857b d4bb a6df 133c afa7 643c f97d c13d
00000120: cb99 b33d 58c6 7e3a bef0 05bc e584 4e3d
00000130: f83d af3d f4f6 dabc 904e 21bc 9435 aa3a
00000140: c9d8 3bbd fc5b 743d 3880 d93c 4dbf 4e3d
00000150: e5e3 cebc 3ec4 8bbc a8df 8c3d 8a92 033d
00000160: 34f5 cd3c 6cd5 9739 de7b 02bc a7ed 03bd
00000170: f45a 70bd 9d40 6fbd 5e1d d6bb 9ec0 1b3d
00000180: a167 bb3b 846b 123d 88e7 473d 2943 f03d
00000190: 3c46 313a 3dde 233d cad7 363d 7605 65bd
000001a0: 1cfb 82bd 11fc 07bd 44b4 9d3d 37d4 0b3d
000001b0: 2fa5 263c b026 6a3c 5c2d 7bbd ad90 ce3b
000001c0: 66bf b23c ad3b 5bbd 0130 0b3d 982a 343c
000001d0: 82f7 3dbc 8e62 013c 99fc 2dbd b7e2 463d
000001e0: a8c3 493c b720 a6bd 78a6 833c 76bc f8ba
000001f0: afce 813c 0dc6 8cbd f98c 5a3d 1312 12bc
00000200: 938c 0abc 2032 30bc ba01 e2bb 298c 5cbc
00000210: 2912 1b3d 98f8 a03d be8a 4f3c b3e7 0dbc
00000220: bca7 a83d 7d57 d03c 8848 203c 975c 0b3d
00000230: 3093 1f3d 8e87 503c e705 b33c d120 c2bc
00000240: 4ec7 0c3d 9e18 9d3b 0c31 c03c 9e80 333b
00000250: 6ff2 5fbd 1f12 123d ce11 483d 48e8 a13c
00000260: d2be aa3c 0f49 2a3d 01e7 ce3c dce4 533c
00000270: ffd9 063c da96 dcbc 25ca 253d 0705 8d3d
00000280: b47d 9cbc 8975 4a3d 3d75 683d eee5 063c
00000290: fff9 853d e7c2 d63c 968c a63b 9931 ed3c
000002a0: a359 583d 4a99 05bb 87b0 0dbd c431 58bb
000002b0: 3a66 d5bb 7f77 373d cfa4 d5bc 37e0 d8bb
000002c0: 2c0b 093f c9c8 8dbe 2304 c63d db80 dd3d
000002d0: 25c0 863e 723b 44bf 6961 d23e 7352 d63e
000002e0: 5759 de3e 8aef 13bf ace3 993d 4871 763d
000002f0: 6ec3 ec3c 613c ff3c eab5 acbc fbf7 103d
00000300: 89a7 c4bd 4034 b33c 280b ca3d 3dea de3d
00000310: 1693 d53c 5cc7 323d 9f69 7ebf f13b 123f
00000320: 12af a9bd 4e77 50be cd34 f5be f049 7c3f
00000330: 442e 3ebf 68dc 00bf 18ba 23bf 959a 893f
00000340: 5ffb dabd 5668 c2bc b6d0 3dbb aee7 f03b
00000350: d856 4b3d 02ed 1cbb 0bbc a13c e7a6 a0bc
00000360: 508a 963c 0f75 b4bc 7cb1 40bb 86e6 27bb
00000370: 2bf7 063e e768 22bd 264d 773d ea93 d4bc
00000380: a94b 533e 4944 50be 4fd9 d23d 8e21 c43d
00000390: 585a e53d 8c02 04be c0bb cd3b 8618 30be
000003a0: 82ff b33d 015a 303d a8dd 8ebd 858c 053d
000003b0: 5f52 fa3b bd73 fdbd e120 cebd d04f 46bd
000003c0: c53f 123e 00c5 49bc c040 a4bd 7645 98bd
000003d0: 88e6 61bd c166 193d 79bd 0fbd ce0f 0dbc
000003e0: efbe 05bd 5416 61bd 6f05 563c 8893 0e3d
000003f0: 6cfb c5bc aeda dc3b c3e6 f63c 042d 32bd
0.0027964935 -0.006952874 -0.008483384 0.030687269 0.051609233 0.010338424 -0.001133944 -0.018455189
0.0013381063 -0.009707379 -0.027073225 -0.003446002 0.013808431 -0.05466929 0.004531595 -0.018746646
0.0586472 -0.026605017 0.0061752154 -0.0075733536 0.03538102 0.011834029 0.1162721 0.045016583
-0.0368286 0.07231158 -0.01232042 0.06498766 0.018082619 0.024406552 0.014203453 0.07033389
0.033779413 -0.011628451 -0.011675243 -0.024647847 0.023309821 0.018825023 0.046956833 0.042083785
0.0023100243 -0.035212994 -0.021700824 0.00845205 0.036942728 0.006641443 -0.03546742 0.018720474
0.01017471 -0.02213987 0.02457563 -0.018493883 0.063344814 0.05658806 0.03657183 0.08370465
0.03904955 0.009811272 -0.0006483081 -0.0069178366 -0.017004885 -0.014555981 0.039869044 0.08157593
-0.038285542 0.02075939 0.03976053 -0.052746512 -0.0064844512 0.00902549 0.0139559945 0.094478555
0.08769568 0.00097188866 -0.008175073 0.050419707 0.085567415 -0.026729085 -0.009845391 0.0012985938
-0.04586104 0.059658036 0.026550397 0.050475407 -0.025255153 -0.017061349 0.068785965 0.032122172
0.025141336 0.00028959976 -0.007964103 -0.032209065 -0.05868049 -0.05841123 -0.0065342626 0.03802549
0.0057191406 0.035747066 0.04880479 0.1173156 0.000676248 0.040006865 0.044639386 -0.05591341
-0.063955516 -0.033199374 0.077003986 0.03413793 0.010171219 0.01429145 -0.061322555 0.006303868
0.021819782 -0.053523708 0.033981327 0.010996483 -0.011594655 0.007897032 -0.042477224 0.048556056
0.0123147145 -0.081117086 0.01607059 -0.0018977064 0.015845625 -0.06873713 0.0533571 -0.008915442
-0.008456367 -0.010754138 -0.0068971785 -0.013461151 0.037859116 0.078599155 0.012667356 -0.008661198
0.08235118 0.025432343 0.009782918 0.034023847 0.03895873 0.012727631 0.0218534 -0.023697289
0.03436976 0.0047941944 0.023460887 0.0027389894 -0.054674562 0.035661813 0.048845105 0.01976408
0.020842943 0.04157358 0.025256636 0.012932982 0.008230685 -0.0269274 0.040475983 0.068857245
-0.019102909 0.049428497 0.056752432 0.00823353 0.065418236 0.026215984 0.005082677 0.028954314
0.05281986 -0.0020385557 -0.034592178 -0.0032988647 -0.0065124305 0.044791695 -0.026079563 -0.0066185254
0.5353267 -0.2769225 0.09668758 0.10815593 0.2631847 -0.76653206 0.41089943 0.4185978
0.43427536 -0.5778738 0.07514128 0.060166627 0.028901782 0.03115672 -0.021082837 0.035392743
-0.09602267 0.0218755 0.09865409 0.10884521 0.026071113 0.043647155 -0.99379915 0.57122713
-0.08285345 -0.20358011 -0.47891846 0.9855032 -0.74289346 -0.50336313 -0.6395583 1.07503
-0.106924765 -0.023731392 -0.0028963513 0.007351837 0.049643368 -0.0023944979 0.019742986 -0.019610835
0.0183765 -0.022028474 -0.0029402664 -0.002561958 0.13180225 -0.039650824 0.06037631 -0.025949437
0.20634331 -0.20338549 0.102953546 0.095767125 0.11198872 -0.12891597 0.006278485 -0.17196855
0.087889686 0.043054584 -0.06975871 0.032604713 0.007639214 -0.12375591 -0.10064865 -0.04841596
0.14282139 -0.012315035 -0.080201626 -0.074351236 -0.055151492 0.03745151 -0.035092805 -0.008609725
-0.03265279 -0.054952934 0.013062819 0.034808666 -0.024167739 0.006739936 0.030139333 -0.04349996
