outlier-interpretation-Xu/checkpoints/bUxorKVC_checkpoint.pt (torch, 110939 bytes, 5 tensors)

attn_net.hidden.weight f4 [96, 192]
000000 98 17 01 3c ca 3d 00 3e d3 89 e6 bc 06 d3 84 bb
       0.00787916 0.1252357 -0.028141892 -0.0040534763
000010 2c 2d d9 bd 45 35 98 3d f2 d5 b0 bc ca ef 65 3c
       -0.10604319 0.07432035 -0.021586392 0.014034221
000020 16 38 47 3d 36 61 11 3d bd a9 37 3d 9e 8d 98 3d
       0.048637472 0.0354931 0.04483961 0.07448886
000030 a2 e8 bb 3d c8 d5 bd 3c bc 2d 7b bd 43 2e 8f bd
       0.091752306 0.023173228 -0.061322913 -0.069912456
000040 65 bb 3b bd 5a 9e 7c bd 9c dc b2 bd e9 ce e9 3c
       -0.04583301 -0.061674453 -0.08733484 0.028541045
000050 5c fd 45 3c 02 c4 c0 bd bf dd fe 3d 71 3d c5 bd
       0.012084331 -0.094123855 0.124446385 -0.0963086
000060 62 b1 b8 bd df 56 d8 3d 63 5f a2 bd eb bf 1a 3c
       -0.09018208 0.10563444 -0.0792835 0.009445171
000070 f0 fc 57 3d 4c 88 e0 3c 4c bb b5 3d 09 67 24 bd
       0.052731454 0.027408741 0.08873615 -0.040137324
000080 38 e3 ac 3d 9f 92 05 3e 0e 89 27 3c aa a7 b1 3c
       0.08441776 0.13044213 0.0102255475 0.021686394
000090 ba 99 b5 bd 21 bc 06 3d f5 44 3b bd 7e 0f f4 3d
       -0.08867212 0.032894257 -0.04572006 0.119170174
0000a0 d6 ac 96 bd 11 5d 1e bd c2 fa bc bd f2 b5 81 bd
       -0.073571846 -0.038662974 -0.09227516 -0.063335314
0000b0 1f 76 93 3d 02 e8 d0 bd a9 db b8 3d 2c 26 a1 3d
       0.07200264 -0.10200502 0.09026272 0.07868609
0000c0 99 0d 86 3c a9 86 c4 3d d5 39 e2 bd 77 de 20 3d
       0.016363906 0.09595997 -0.11046187 0.03927466
0000d0 4d a0 9e bd 84 5a a9 3d 1c a4 9d bc bb f7 92 3d
       -0.07745419 0.082692176 -0.019243293 0.07176157
0000e0 f9 7f a8 3d 28 5b 09 3e 9f 95 8e bd 2a a2 dc 3c
       0.08227534 0.1341368 -0.06962132 0.026932795
0000f0 a1 8c d7 bd d6 17 83 bd 24 bf af 3c d5 cc 3c bd
       -0.1052487 -0.06401031 0.021453448 -0.04609378
000100 10 25 ea 3a 10 b7 3e 3c 73 30 b8 3b a8 4f b4 3c
       0.0017863829 0.011640325 0.00562101 0.02201064
000110 b0 4a ab bd 36 ce ec bb 02 97 be 3c 21 39 a2 bd
       -0.08363855 -0.0072267307 0.023265366 -0.07921053
000120 5b db a8 bc 37 ef 5b bc 43 cf 01 3c e0 85 7f bc
       -0.02061241 -0.0134237325 0.00792295 -0.015595883
000130 76 58 80 3c 98 98 6f 3c 6c 35 70 bd 1f 90 97 3b
       0.015667181 0.0146237835 -0.058644697 0.004625335
000140 af 17 9a bd b2 6d b3 3d 45 ef c2 3c b7 cc 31 3d
       -0.075240485 0.08761157 0.023795733 0.043408122
000150 0d df 2b bc 75 86 c8 bd 67 e1 a6 3c db 2e 6a 3c
       -0.010490191 -0.09791271 0.020371152 0.014293398
000160 51 f8 27 bd 78 4a 3a 3b 68 1f e3 3d 1f 16 7f 3c
       -0.041008297 0.0028425734 0.11089975 0.015569239
000170 21 17 31 bd 05 69 13 3d 5e 11 8d bd 08 a1 9d 3c
       -0.043234948 0.035988826 -0.06888078 0.019241825
000180 d0 e3 88 3c 75 96 88 3c b0 de aa 3d 9a e3 d5 bd
       0.016710192 0.016673306 0.083432555 -0.10443802
000190 ff 2a 39 3d aa 84 92 bd 88 41 d7 bd e7 f4 a5 bd
       0.04520702 -0.0715421 -0.10510546 -0.08103352
0001a0 da 5f 07 bd ea 2b 90 3c 1e 66 3a bd 14 55 18 bd
       -0.033050396 0.017599065 -0.045507543 -0.03719051
0001b0 c1 52 35 3d 5a 86 76 bd 6e 5d 89 bd 2f 97 4c 3c
       0.044268373 -0.06018672 -0.067072734 0.012487217
0001c0 db 8f 87 3d 71 17 c1 bd 10 d8 b3 b8 73 20 8d 3d
       0.06619235 -0.09428299 -8.57563e-05 0.06890955
0001d0 72 a5 02 3e 70 d6 5a 3c 11 94 fb bc 22 45 99 bd
       0.12758425 0.01335679 -0.030710252 -0.07483889
0001e0 12 5b c7 3d 35 76 40 3d 72 6c 88 3d c3 82 9c bd
       0.09734167 0.04698773 0.06661309 -0.07642128
0001f0 06 83 9a bc 89 c3 85 bd 74 9f c4 3b 28 b3 e6 3c
       -0.018861305 -0.06531436 0.0060004536 0.0281616
000200 f0 23 6a bd 2f 99 4f bd a1 ae 90 3c bb ed 30 3c
       -0.05716318 -0.050683197 0.017661395 0.010798867
000210 da 29 bd bd 6c 41 7c 3c 89 ba d9 3c f6 d0 23 bd
       -0.09236498 0.015396457 0.026578205 -0.039994203
000220 c3 cb 8d 3d a5 56 5d bd 70 ac 58 3d aa f7 af 3d
       0.0692363 -0.05403771 0.052898824 0.0859216
000230 45 0e 0a 3d b4 f4 1e bc 80 76 84 bd 2c 33 5e 3d
       0.033705015 -0.009701896 -0.064679146 0.05424802
000240 1f 6b de 3c 67 34 d0 3d db bb 4d 3c f2 91 d5 3d
       0.027150689 0.10166245 0.012556995 0.104282275
000250 a2 a3 5c 3d c9 d5 89 bd f0 d7 5d 3c 3a 18 98 3d
       0.05386699 -0.067302294 0.013540253 0.07426496
000260 2e 36 a1 bd a1 52 8d 3d 31 16 1d bd 1e 65 89 bd
       -0.07871662 0.06900526 -0.03835124 -0.0670874
000270 05 f4 8b bc 1b ba b4 3d fd e9 ae bd 49 01 9e bd
       -0.017084131 0.08824559 -0.085407235 -0.07715089
000280 1f c9 07 3d 70 83 0e 3d d8 b5 8b 3d 44 c6 e7 bc
       0.03315079 0.034793317 0.06821793 -0.028292783
000290 cf 92 76 3d 27 32 14 3d 22 be 17 3d 56 e7 bc 3c
       0.0601986 0.03618064 0.03704656 0.023059528
0002a0 9e ac ab bc ec c1 f8 bb 9b ac 02 bd 15 3b 75 bd
       -0.020956334 -0.0075914767 -0.03190289 -0.0598708
0002b0 cc f3 dc 3c 54 44 93 bd 99 85 bc bd da d9 7c 3c
       0.02697172 -0.07190767 -0.09205169 0.015432799
0002c0 ec 4e 30 bd 0a 7b 1b 3d 7b fc 89 bd 87 18 3f bb
       -0.043044016 0.037959136 -0.0673761 -0.0029158907
0002d0 ba 7f 8b 3d 40 d5 b7 3d 30 01 86 3b 70 af d1 3c
       0.06811471 0.08976221 0.004089497 0.02559635
0002e0 36 92 a1 3d ae 37 fe 3c 4e 98 7b 3a e6 40 3b 3c
       0.07889216 0.03103241 0.00095975853 0.011429047
0002f0 bb 29 26 bd 3e 8c 9e 3c 79 f2 a9 3d 12 13 55 bd
       -0.04056714 0.019353982 0.08298201 -0.05202014
000300 b8 c3 4c 3d a7 c5 dc 3d e6 46 89 3d 07 22 8f bd
       0.04999134 0.10779887 0.06702976 -0.06988912
000310 76 fd 6d bd 1c d1 f9 bb 4c 17 30 3d 35 d9 b3 bd
       -0.058103047 -0.0076238047 0.042990968 -0.08781663
000320 9d 8c 9b 3d c9 81 7d bb 9b a5 88 3d 44 79 f8 3d
       0.07595179 -0.0038682094 0.06672212 0.121325046
000330 14 0e 00 bd cc 18 8b bc 5a c7 11 bd ce 28 b7 bd
       -0.031263426 -0.016979598 -0.035590507 -0.0894333
000340 d5 7d 17 3d 12 f4 4f bc a1 84 af bd aa 4a 07 3d
       0.036985237 -0.012692468 -0.08570219 0.03303019
000350 56 39 9b 3c 5e e3 63 bd 35 15 a4 3d c2 1b 6b bd
       0.018948238 -0.055636756 0.080118574 -0.05739952
000360 1a a4 0f 3d 37 6f 83 3c 87 e7 a4 bd 8d 31 b3 3d
       0.03506861 0.016044242 -0.08051973 0.087496854
000370 1a bb ef bc cc e6 97 bc 73 b5 15 3d 44 c3 7f 3c
       -0.029264022 -0.01854267 0.036549997 0.01561052
000380 73 6b bf 3d 16 aa 87 3d 2f 39 14 3d 5c a9 83 3d
       0.09346666 0.06624238 0.036187347 0.06428787
000390 c3 64 ec bd d7 25 6f 3d b6 7f a9 3c 98 f1 e6 3c
       -0.11542656 0.058385696 0.02069078 0.028191373
0003a0 f0 3c 94 3c 58 fd ad 3d 8b cc 8f bd a2 fb 8a bc
       0.018095464 0.08495587 -0.07021435 -0.016965691
0003b0 2d 2f 0b 3c 9e dc 91 3d cf be 5f 3d 49 1f 55 bd
       0.008495134 0.071221575 0.05462533 -0.05203179
0003c0 7b 6b 75 3d 99 13 27 3d 82 6e bd bd 43 30 b3 bd
       0.059916954 0.040790174 -0.09249593 -0.087494396
0003d0 67 fe 89 bd 9a bf a5 bb ea 75 5a 3d 5b 46 1e 3d
       -0.067379765 -0.005058241 0.053335108 0.038641315
0003e0 ab 4d 22 3d 90 a8 ca 3d 84 0d dc 3c 31 58 b5 bc
       0.03962485 0.09895432 0.026861914 -0.02213678
0003f0 7a 9e f3 bd 5c e9 81 bd e6 13 90 bd ca 52 71 bd
       -0.118954614 -0.06343338 -0.07035045 -0.058916844

attn_net.hidden.bias f4 [96]
000000 e4 42 3b bd e1 a2 4f bd 12 7d e1 3b 47 80 6a 3d
       -0.04571809 -0.050692443 0.0068813646 0.05725124
000010 85 ec 63 3c a6 13 ab 3e cc aa b4 3d 1f 40 32 3c
       0.013911371 0.33413428 0.088216394 0.0108795455
000020 d9 f1 8f 3d 71 ef 9a bd 51 ef 86 be 52 a3 2e 3d
       0.07028551 -0.07565201 -0.2635446 0.042636223
000030 59 a6 9b bd 2e 8b 76 bd a1 70 52 be 08 8f ba 3e
       -0.07600088 -0.060191326 -0.20550777 0.3643725
000040 1a 05 70 3e c7 6c e3 bb 62 cc 25 3e fb 7b 1b bd
       0.23439446 -0.0069404575 0.16191247 -0.037960034
000050 82 83 80 bd dd bd 20 be 2d 64 b3 be 89 29 a8 3d
       -0.06275083 -0.15697427 -0.35037366 0.08211047
000060 47 89 91 3d a7 3e 27 bd d3 ba 8d bc da 89 a5 bc
       0.07106262 -0.040831234 -0.017300999 -0.020207334
000070 27 15 76 3e 33 6b a0 bd 74 53 d6 3b 86 b2 de bc
       0.24031506 -0.07832947 0.00654071 -0.027184736
000080 af 6c 20 3d a3 dc 95 be dc 83 83 be 80 7c b2 3c
       0.03916615 -0.29269895 -0.25686538 0.021787882
000090 c6 ce 4f 3c 81 5a b2 bd d4 20 b1 bc fa 29 01 3c
       0.012683576 -0.087086685 -0.021622099 0.007883543
0000a0 a0 94 a1 bd 10 29 21 bd 45 bf 58 bb 1f 52 a3 3c
       -0.07889676 -0.0393458 -0.003307299 0.01993662
0000b0 41 87 b1 be 22 2c db 3c 8e 64 ab 3d 79 e5 9b be
       -0.34673503 0.026754443 0.08368789 -0.3044851
0000c0 2a a2 6b 3e 25 5f c6 bd 15 b0 9b bd 8a ce 08 bd
       0.2301108 -0.09686116 -0.07601944 -0.033400096
0000d0 b8 a5 95 3d d8 52 38 3e 19 e1 fd bd fc 6e 24 be
       0.07306999 0.18000352 -0.123964496 -0.16057962
0000e0 ce 2d 06 bd c8 07 34 be bf 07 b2 bd 52 99 a5 3d
       -0.032758527 -0.17581093 -0.08692884 0.08085884
0000f0 f0 d9 f1 bd 1b c6 17 3d 5d d3 33 bd 80 66 d4 bd
       -0.118091464 0.037054162 -0.043902744 -0.10371113
000100 71 ff 28 3e 28 b7 01 bd 7e ea 07 3b d4 29 bd bd
       0.16503693 -0.031668812 0.0020739133 -0.09236494
000110 82 6e e8 bb 8c 0b 62 bc 8e b7 c3 3d 40 19 8e be
       -0.0070932517 -0.013796698 0.09556495 -0.2775364
000120 47 ee 5d 3e d7 cf bc 3d c6 0c 66 3e 29 ae 15 bd
       0.21672927 0.0921933 0.2246581 -0.036543045
000130 40 ee ce 3d 13 51 5b bd 42 ca ca 3c b6 d3 37 be
       0.10104036 -0.053544115 0.024754647 -0.17951855
000140 14 8e c2 bd 54 f3 8d 3e 18 86 0a be c9 b8 09 be
       -0.094997555 0.27724707 -0.13527715 -0.13449396
000150 54 62 0c 3e 05 d5 38 3c ea 05 22 bd f9 28 9a 3b
       0.13709384 0.011281257 -0.03955642 0.0047045914
000160 d1 f3 81 be 95 eb 90 3e d0 60 6a 3c 21 b7 99 3e
       -0.2538133 0.28304735 0.014305308 0.3002253
000170 c7 06 81 3e f2 4a 8d be 2c e2 86 bc c5 8f 51 3d
       0.25200483 -0.2759624 -0.016465269 0.0511625

attn_net.out.weight f4 [64, 96]
000000 68 ed cb 3d a2 24 ae 3b c4 c8 7a 3a be 53 2d bc
       0.09957391 0.0053144256 0.00095666596 -0.010579048
000010 43 3a b0 3d 42 9e 58 3e 79 da 52 3e c3 37 f4 3d
       0.086048625 0.2115412 0.20591153 0.11924698
000020 6b 0d de bc dc 5f 59 3c 72 11 c5 3d c6 f1 ff bb
       -0.027106008 0.013267484 0.09622468 -0.007810804
000030 ee d6 bc 3d f2 0c 44 3e 97 f4 d4 3c f5 7f c4 3d
       0.09220682 0.19145563 0.025995536 0.09594718
000040 8a 1d 46 3e f0 2e 43 3e 38 01 f1 3d 1e 46 9d 3c
       0.19347206 0.19060874 0.117678106 0.019198474
000050 2e 33 92 3c 28 89 54 3d f3 5d 20 bc 07 b0 7c bc
       0.01784667 0.051888615 -0.009788024 -0.015422828
000060 92 eb f7 bc 00 dc 07 3e e1 3d c0 3d 13 46 06 3d
       -0.030263696 0.13267517 0.093868025 0.03278167
000070 e3 c1 f0 3d 65 07 06 3e 82 3a 98 bd 62 7e e5 bc
       0.11755731 0.13088758 -0.074330345 -0.028014366
000080 6f 21 48 bd d0 61 c0 bb 5a 53 37 3d 16 55 39 3e
       -0.04886001 -0.005871035 0.044757225 0.18098864
000090 f6 63 21 bd be d3 3f bd cb e0 00 3c 13 d0 94 bd
       -0.03940197 -0.046832792 0.007866095 -0.072662495
0000a0 09 af ba bc 43 78 74 3d cd 56 9f 3d ee 57 97 3c
       -0.022788541 0.059685003 0.07780228 0.018474545
0000b0 ea c2 8d 3d ba f8 5f 3c 47 8c b4 3c 1e fb a4 bc
       0.069219425 0.013670141 0.022039546 -0.020139273
0000c0 c7 5f f7 3d c2 90 5a bd 45 37 b6 bd 5a 9a 2e 3e
       0.12078815 -0.053360708 -0.088972606 0.17051068
0000d0 81 c5 30 3c a3 18 38 3e 3a fa 35 bd 42 7b 0e 3d
       0.010789276 0.17978148 -0.044428088 0.034785517
0000e0 e9 f7 db 3d 92 51 14 3c 18 4a 11 3e ea 68 3a 3c
       0.107406445 0.009052651 0.14188421 0.0113775525
0000f0 4e 8b 5b bc f7 9b 68 bd 38 c2 6d 3a 52 c9 ff 3d
       -0.013399912 -0.056789365 0.00090697734 0.12489571
000100 f0 56 0d 3e eb 0b 96 bd b5 61 af bc 55 10 cf 3c
       0.13802695 -0.07326492 -0.021408895 0.025276342
000110 38 54 48 bc 32 3d 64 3d 92 44 31 bc f1 aa c5 3c
       -0.012227111 0.055722423 -0.010819571 0.024129363
000120 b4 be 4a 3e ea 31 41 3e c5 ac ce 3d e0 a1 1f bc
       0.1979931 0.18866697 0.10091547 -0.009743184
000130 0c eb ec 3d 78 99 bc 3d 7a 6b 0d bd b6 d7 39 3d
       0.11568269 0.09208959 -0.034526326 0.045371734
000140 54 d9 6c 3c 2c c8 f2 3d 21 ba f8 3c 41 29 7f 3d
       0.014456112 0.11854586 0.03036219 0.062295202
000150 9e 98 c0 3d 1b 06 ce 3d a2 6b 06 bd 11 15 56 3c
       0.094041094 0.10059758 -0.03281749 0.013066546
000160 0c ed 9e 3c 42 8b 28 3e 99 55 2d bd 66 72 06 3e
       0.019400142 0.16459373 -0.04231796 0.13129577
000170 6d 3c 2f 3e 8b 6f 18 3c 30 fa 2d 3d 3b 0e 32 3d
       0.17112894 0.009303938 0.042474926 0.043470602
000180 fd 7f 07 3e a8 76 20 3b c2 eb cb 3c 99 61 6f bd
       0.13232417 0.0024484787 0.024892692 -0.058442686
000190 fb 8d 22 3e ed df 8a 3e e0 91 48 3e 42 70 73 3e
       0.15874474 0.27123967 0.19586897 0.23773292
0001a0 e4 52 0a be ae 80 ac 3d 42 9b 62 3e c8 e1 53 3d
       -0.13508183 0.08422981 0.22129539 0.051728994
0001b0 26 64 21 3e 3b cb 40 3e 6a c9 86 3d 0a 19 be 3e
       0.1576086 0.18827526 0.065813854 0.37128478
0001c0 f7 4a 7a 3e 75 44 50 3e c1 56 d0 3e e8 c0 02 bd
       0.2444266 0.20338614 0.40691188 -0.03192225
0001d0 ca d0 4d 3e 93 d3 aa bd 28 01 69 bc 9b 6d b6 bd
       0.20099178 -0.08341136 -0.014221467 -0.08907624
0001e0 18 38 0c 3d 12 23 d0 3e f1 1e 64 3e ee c7 7c bc
       0.034233183 0.40651757 0.22277428 -0.015428526
0001f0 02 ab be 3e 01 df d3 3e 14 9f 9d 3d b3 e5 95 bd
       0.37239844 0.41381076 0.07696357 -0.07319202
000200 bc 4b 8a 3d 52 10 c2 3d 47 29 a5 3c 13 92 85 3e
       0.067527264 0.09475769 0.020161284 0.26088008
000210 d7 a3 26 3e f0 d7 f0 3c 97 bc 73 bb b9 e1 f4 3d
       0.16273437 0.029399842 -0.0037191266 0.11957116
000220 56 23 ed bc 69 ec 32 3e a3 26 95 3e 59 cf 40 bd
       -0.028947514 0.17472996 0.2913104 -0.047072742
000230 a7 9e a3 3d 29 77 82 3d 47 87 1e bd c0 fb 7c bd
       0.07989245 0.06370384 -0.03870323 -0.061763525
000240 5b 46 8d 3e ad ee ab 3e ad 3e ed 3d c4 4e 7f 3e
       0.2759274 0.33580533 0.1158422 0.2493239
000250 08 ff ad 3d 6f f2 81 3e 25 a0 30 3d 49 23 2b bd
       0.08495909 0.25380275 0.043121476 -0.041781697
000260 72 59 b3 3e a8 6d 8d bd e4 2e 84 3e 62 ef e4 3d
       0.3502918 -0.06905681 0.25817025 0.11178471
000270 9a a7 50 bd c1 4c 4d 3d 9b d1 2f 3e 91 8a c0 3e
       -0.050941087 0.050122026 0.17169802 0.37605718
000280 e4 cc a2 3e 1a dd 00 3d 79 5a 86 3d 97 e5 94 bd
       0.31796944 0.03146086 0.06560225 -0.07270353
000290 1f ac d5 3d 9f 33 70 3e 7a 3f de 3c ac db 57 3e
       0.1043322 0.23457192 0.027129877 0.21079892
0002a0 52 db 9e 3e 41 15 26 3e 79 48 dd 3e 56 14 d6 bd
       0.31026703 0.16219045 0.43219355 -0.104530975
0002b0 f5 42 89 3e 5e c4 94 3e 4f 7f 96 3d ae b9 d4 bb
       0.26808897 0.29056066 0.07348501 -0.0064918613
0002c0 c4 fa 6c 3e 56 72 79 3e 84 14 03 3e a4 52 a7 bb
       0.23142534 0.24360022 0.12800795 -0.005106287
0002d0 47 60 a1 3e 5e f3 a2 3e 0a 6c 99 bd 7b 8e d3 3d
       0.31518766 0.318263 -0.0749131 0.1032991
0002e0 b1 f0 4c bd 8e 30 6d 3e e3 ec af 3c 6b 39 93 3e
       -0.05003423 0.23163053 0.021475261 0.28754744
0002f0 26 3f 8c 3e ff 99 87 bb b6 45 d9 3c 2b 9d 54 3e
       0.27391928 -0.004138231 0.026522499 0.2076308
000300 05 1e ab 3d e3 46 c7 3c cf 06 02 3b 8a 71 fd 3c
       0.08355335 0.024325794 0.0019840484 0.030937929
000310 5b 58 8e bd 2f ec dd 3d a2 63 a7 3d 11 97 25 bd
       -0.06950446 0.10836064 0.081733 -0.04042727
000320 3e 36 10 3c 6f b4 a9 ba e2 db 3a be 1a cd 1e 3b
       0.008801995 -0.001294745 -0.18247941 0.0024231137
000330 42 de a4 bc dc 9d c9 bc 43 38 3b bb 1d 63 3e bd
       -0.020125512 -0.024611406 -0.002856747 -0.04648124
000340 06 42 7c 3d da ff 0b bd c3 60 ac bc 87 42 a7 3c
       0.061586402 -0.034179546 -0.021042233 0.020417465
000350 88 0c 1b be 88 c9 90 3d 29 73 72 3d b5 2e 77 3d
       -0.15141499 0.07069689 0.059191857 0.060347278
000360 7d 48 99 bc 9a 15 2b 3d 1c de 43 3d da f1 1f bd
       -0.018711323 0.041768648 0.047819242 -0.039049007
000370 61 3c 4e bd 1a 34 b6 bd 8b dd 23 bd 61 97 d0 bc
       -0.05035055 -0.08896656 -0.0400062 -0.025462808
000380 40 4f 56 3d b7 4a 8d bd 80 0b 08 3c 9f c6 a6 3d
       0.052321672 -0.06899016 0.008303523 0.08143353
000390 c7 d5 98 bd ca 9a 30 bd 2a f9 1a bd 37 85 76 bd
       -0.0746265 -0.04311637 -0.037835278 -0.060185637
0003a0 18 98 21 3c 21 a8 f9 bd 4f 32 65 be a2 b8 7f 3d
       0.009862922 -0.12190271 -0.22382472 0.06243194
0003b0 b5 85 76 bd 0c b1 2f bc c2 98 3c bd 30 16 df 3c
       -0.060186107 -0.010723364 -0.04604412 0.02723226
0003c0 d6 c6 91 bc 55 c6 52 bd e3 38 47 bd 93 ea cd bc
       -0.017795008 -0.051458675 -0.048638236 -0.025136268
0003d0 a5 eb 49 bc 13 ff 82 3c fa 06 b3 bd d6 7c 92 3b
       -0.012324248 0.01599077 -0.08741565 0.004470448
0003e0 6a dd c2 3b dd e8 ad 3d b2 30 e7 3c bb 7e a9 3c
       0.005946805 0.08491681 0.028221462 0.020690313
0003f0 15 27 70 3d c7 82 a2 bc 48 79 fb bc 6f 71 cc 3c
       0.05863102 -0.01983775 -0.03069748 0.024956433

attn_net.out.bias f4 [64]
000000 8a 24 b0 bd 5e 48 c0 3e a8 2a a7 be 02 9a 40 be
       -0.08600719 0.37555212 -0.32649732 -0.1880875
000010 80 12 3e be a0 2f 70 be 45 9a 88 be ef 5a 96 3e
       -0.18561745 -0.23455667 -0.26680198 0.29366252
000020 ea d3 1d 3e 5e 83 c8 3e f3 90 7a bd ce bb a1 3e
       0.1541287 0.39162725 -0.06117339 0.31588596
000030 99 43 69 be 09 8e 03 be 0e 14 0d 3d 64 ab 33 3d
       -0.22779693 -0.12847151 0.034442954 0.043864623
000040 1d 21 02 be 5c 2a 53 be 20 15 17 be e7 84 58 be
       -0.12707944 -0.20621628 -0.14754152 -0.21144448
000050 40 56 20 bb 67 c2 82 be f0 e4 b7 3e a3 8c e6 bd
       -0.0024465472 -0.25538942 0.35916853 -0.11257293
000060 6b e1 c1 bc 46 ba 71 be 91 10 da 3e 4a 5c 9c 3e
       -0.023667058 -0.23606214 0.42590764 0.3053916
000070 fc 87 eb 3b e4 ac 5c be f6 af 96 be f0 7e 53 be
       0.0071878415 -0.21550328 -0.29431123 -0.20653892
000080 30 49 76 bc 8e 9d cc 3e fa 28 44 be 21 14 96 3e
       -0.015032098 0.39963955 -0.19156256 0.29312232
000090 a3 00 bc 3e 58 f5 1b be bc 12 d8 be c9 43 e3 3e
       0.36719236 -0.1523031 -0.42201793 0.44387653
0000a0 2d 74 e2 bd 36 60 0b 3e c7 79 ac 3e 8b 40 2d be
       -0.11057315 0.1361092 0.3368666 -0.16919152
0000b0 04 23 8d be 83 45 81 be ad 91 c9 3d 5d cb b3 be
       -0.27565777 -0.25248346 0.098422386 -0.3511609
0000c0 51 55 96 be 19 86 5a be e6 bd aa 3e c7 cb aa be
       -0.29361966 -0.21340217 0.33348006 -0.33358595
0000d0 c2 3c ae 3d 07 bf f4 bd e5 30 b2 be b2 96 d6 3d
       0.085076824 -0.11950498 -0.3480293 0.104779616
0000e0 83 c1 39 be 1e 4e 95 3e 79 ae 53 be 60 02 6f bd
       -0.18140225 0.2916116 -0.20672025 -0.058351874
0000f0 50 eb 22 3e 49 36 9f 3e 55 fd 7d be 06 66 b4 bd
       0.15910077 0.31096104 -0.2480367 -0.08808522

linear.weight f4 [64, 40]
000000 0c a1 f4 bd b1 47 1d be 47 45 63 bc cf e5 03 be
       -0.1194478 -0.1535938 -0.0138714975 -0.12880634
000010 8f 41 e6 3d bb 40 13 bd 9e 49 64 be 7b 0f b9 bc
       0.11242973 -0.035950404 -0.22293708 -0.02259039
000020 8a 9e 90 bd 59 43 7f 3c 03 01 1a be 57 06 ad 3c
       -0.07061489 0.015580022 -0.15039448 0.021121187
000030 c8 35 1d be c5 3e 11 be 59 9e 00 be 0d 69 ec bd
       -0.15352547 -0.14184101 -0.12560405 -0.11543474
000040 4e 01 9c bd 4e d9 4c be c9 dd 83 bd 1c c7 ae 3c
       -0.07617436 -0.2000477 -0.064387865 0.021335177
000050 e4 35 29 be 77 db c6 bd 29 9d 0c be 8c ce d2 bd
       -0.16524464 -0.09709828 -0.13731827 -0.10293302
000060 39 f4 a2 3d b7 d4 03 be 86 7a d2 3c 6c e1 0b be
       0.07956738 -0.12874113 0.02569319 -0.1366021
000070 7f d1 39 be 92 ab ff bd d4 34 bb 3d 86 23 1d be
       -0.18146323 -0.12483896 0.091409355 -0.15345582
000080 93 da 2b 3d 2a e2 ca bd 7a 5d e5 bd 14 be ba bc
       0.041956495 -0.099064186 -0.1119947 -0.022795714
000090 65 de e1 bd c3 ad 49 be 91 12 12 be 7b 61 fe 3d
       -0.110287465 -0.19695191 -0.14264895 0.12420937
0000a0 e8 3f ce 3e 41 1f db be a8 e1 b6 be bf 5c 07 bf
       0.40283132 -0.42797282 -0.35719037 -0.52875894
0000b0 1e 75 7e be 4e 1e fd be 0f 65 1a 3f 66 b0 ba 3e
       -0.24849364 -0.49437183 0.60310453 0.36462706
0000c0 b8 3a b5 3e b9 03 0b 3f ad 22 d9 be b0 26 19 3f
       0.3539636 0.54302555 -0.42409268 0.5982466
0000d0 95 25 d4 3e b1 40 6d be f5 f2 d8 3e 97 93 66 be
       0.41434923 -0.23169209 0.42372862 -0.22517239
0000e0 a6 9a fb be 80 62 9b be 6d ba 12 3f b6 7a 17 3f
       -0.49141425 -0.30348587 0.57315713 0.5917162
0000f0 f0 9f c7 3e 6b a8 c0 be db f1 e1 be 36 d9 c8 be
       0.3898921 -0.37628493 -0.44129834 -0.3922822
000100 e7 1a 0c 3f 35 57 9a be bd c0 c7 3e 93 79 b6 be
       0.5472855 -0.3014466 0.39014235 -0.3563963
000110 b7 fd 1c 3f 76 9b 05 bf 4a 23 93 3e 39 1c 03 bf
       0.6132464 -0.5219034 0.2873786 -0.5121494
000120 5d 4c 17 3f af 53 d0 be 7e 82 b8 3e 3b 89 a4 3e
       0.59100896 -0.40688846 0.36037058 0.3213595
000130 86 3a 00 bf a5 ec 08 3f b5 07 f5 3e 4c 4d 20 3e
       -0.500893 0.5348609 0.47857442 0.15654486
000140 f7 9e 13 be c6 c3 07 3e ac 44 b5 bd 0c 2c 79 bd
       -0.14416109 0.13258275 -0.08850989 -0.060833022
000150 ad 66 99 bc 9f f7 4a 3d 5e 5a c1 bb 85 14 74 bd
       -0.018725717 0.049552556 -0.005900665 -0.05958988
000160 f9 20 d9 3d 93 f1 92 3d 74 63 9e ba e7 f6 f7 3c
       0.10601992 0.07174983 -0.0012084083 0.0302691
000170 f6 fd e7 bd 11 88 96 bd e3 58 09 3d 6c 93 2d bc
       -0.11327736 -0.07350171 0.033532035 -0.01059423
000180 87 a1 89 3d c3 53 a7 bd e8 ab 61 3c 52 0d 60 3c
       0.06720262 -0.08170273 0.013773896 0.013675051
000190 76 d9 1c 3d 29 92 29 be 6f 00 58 3e 7b 1c 0f be
       0.038293324 -0.16559662 0.21093915 -0.13975708
0001a0 f7 a9 0e be cb 56 0f be b7 0a 1a be de e4 08 3e
       -0.13932024 -0.13997953 -0.1504315 0.13368556
0001b0 18 4e 4d 3d 63 6c 17 3e 95 c2 b1 bc 71 32 87 3d
       0.050123304 0.1478744 -0.02169923 0.06601418
0001c0 8d 0c 82 bd f3 19 2a be 2f fa bf 3d d1 a1 28 bd
       -0.0635005 -0.16611461 0.093738906 -0.041169945
0001d0 20 21 d9 3d 2e b4 df 3d 9b ac 23 3d 19 23 c3 3c
       0.10602021 0.109230384 0.03995953 0.023820447
0001e0 95 65 40 3d 87 cd 7d bd c5 63 6e bc 5b 12 00 be
       0.046971876 -0.061963584 -0.014550154 -0.12507002
0001f0 d9 12 66 3d 91 d6 f5 bc ec 00 91 3d 04 b0 55 3d
       0.05617032 -0.03000954 0.07080254 0.052169815
000200 04 21 34 3e c3 2c b6 3d 66 3f 1b be 70 8b 77 3d
       0.1759072 0.08895256 -0.15160903 0.060435712
000210 62 07 8e 3e c1 1a 90 bd ba 60 e2 3d 0f ab d4 3b
       0.27740008 -0.07036353 0.110536054 0.0064901183
000220 da 71 e3 bd b2 9d ec bd 7e c4 04 3e e1 06 8d 3d
       -0.111057 -0.115535155 0.12965581 0.06886078
000230 5a 1a 26 3d a7 7e 02 be 5e bf 12 be 8d 6f 55 bd
       0.040552475 -0.12743627 -0.14330813 -0.052108336
000240 bb dc c1 3c 2e 9d 00 bc e4 e5 5e 3d e7 da b6 bd
       0.023664823 -0.007849975 0.05441846 -0.08928471
000250 76 34 4b 3c c6 20 d5 3c e8 bf 80 bd 02 2f e2 3b
       0.012402644 0.026016604 -0.06286603 0.0069025764
000260 f6 bf bb 3d fa 97 e2 bd e7 e1 2a bd 44 1a ff 3d
       0.09167473 -0.110641435 -0.041719344 0.12456182
000270 ef c9 42 be 47 d3 4d 3d d8 d0 3d 3e b7 3d 1c 3e
       -0.19022344 0.050250318 0.18536699 0.15257917
000280 05 4f b8 bd 1a 3d a3 3d 38 b0 04 3e 21 0a e2 3c
       -0.08999447 0.079706386 0.12957847 0.02759272
000290 a9 44 f6 3d 88 99 01 3e de 02 7c 3d f2 d2 e9 3b
       0.12024815 0.12656224 0.061526172 0.0071357423
0002a0 b7 55 f1 3c e9 47 1c 3e 7a a8 4f bd 56 73 09 3d
       0.029459817 0.15261807 -0.05069778 0.03355726
0002b0 a0 58 c4 3c 42 a1 37 be 7e de 05 3e 18 ce 41 3e
       0.023968041 -0.17932609 0.13073155 0.18926275
0002c0 94 ca c0 3d a8 55 fe bd 5e 70 13 3e f1 79 ea 3b
       0.09413639 -0.124186814 0.14398333 0.00715565
0002d0 7f b7 72 3d 46 5e 8e 3d eb b0 c9 3d 1f 59 c7 3c
       0.059257027 0.06951575 0.098481975 0.024334488
0002e0 ca fa b2 3d 53 f0 95 3d ce 44 49 3d 57 85 b0 3d
       0.087392405 0.07321229 0.049137883 0.086191826
0002f0 84 dd 32 bb 1d 54 d5 3d 24 f4 9f 3c 74 4e 36 3d
       -0.0027292678 0.10416434 0.019525595 0.044508412
000300 f5 ae 62 3d 65 13 3e bd a4 65 2b be 04 5d c3 3d
       0.055342633 -0.046405215 -0.16737992 0.09539226
000310 e8 7a 60 ba 92 62 06 be 64 79 17 3e 8f d8 67 3d
       -0.00085632363 -0.13123539 0.147924 0.05660301
000320 fd 06 1b 3e 7a 0b 33 bd 3e e5 99 bc 77 82 04 3d
       0.15139385 -0.043712117 -0.018786069 0.032350983
000330 d0 8c b6 3c 4b 72 3e bd 95 d3 18 3d c9 28 0a 3e
       0.022283942 -0.046495717 0.037311155 0.13492121
000340 ab f1 75 bd d0 b0 6e 3d fb 97 32 bb 0b 8a b4 3d
       -0.060044926 0.05827409 -0.0027251232 0.08815392
000350 04 61 71 3d 01 f8 6f bd ea ae 35 3d 8f 67 d9 bb
       0.058930412 -0.058586124 0.044356264 -0.0066346596
000360 d7 c0 c1 bc a3 cc c7 3d 79 f4 0f 3e 5e 6e 23 3c
       -0.023651524 0.09755828 0.14058103 0.009975044
000370 a6 8c bd 3d 27 26 61 3d e0 0f d8 bd 00 46 85 bd
       0.09255342 0.054968026 -0.10549903 -0.06507492
000380 dc 8c 17 3e fb 9b 41 3c 08 7e 13 3e 62 24 39 3c
       0.14799827 0.011816974 0.14403546 0.011300178
000390 10 82 ad b8 41 be cc bd c9 21 0a 3e 75 e8 1a bd
       -8.273509e-05 -0.099972256 0.1348945 -0.037819345
0003a0 05 c2 cf 3d 66 50 01 be bb ea cc bc 16 62 84 bc
       0.10144428 -0.12628326 -0.025014272 -0.016160052
0003b0 02 fc f8 bd b6 8f 71 3d a8 6c 41 3d 71 c6 f0 bc
       -0.12157442 0.058974944 0.047222763 -0.0293915
0003c0 42 87 aa 3d 11 a5 b2 bd c4 53 eb bd 48 d2 1b be
       0.0832658 -0.0872289 -0.114905864 -0.15216935
0003d0 22 d8 39 be 25 05 96 3c 9e 02 e5 3c 2d dd 83 be
       -0.18148854 0.018313 0.02795535 -0.2575468
0003e0 6e e2 12 3d 39 09 72 3c 32 c0 18 be 01 ea 8f 3c
       0.03586047 0.014772707 -0.14917067 0.017567636
0003f0 10 0a 90 be 6c bf 36 be c4 8b fe 3c bd d4 2e be
       -0.28132677 -0.17846459 0.031072505 -0.1707334
