outlier-interpretation-Xu/checkpoints/bzQSdZHP_checkpoint.pt (torch, 102235 bytes, 5 tensors)

attn_net.hidden.weight f4 [96, 192]
0.02944131 -0.0045291325 0.036949717 0.030931713 -0.0346002 -0.0007549934 0.0046971403 0.0033272933
0.036549907 0.036218375 0.052333016 -0.0563836 0.04347444 0.051775746 0.005740236 -0.048118267
0.0155264065 0.03615093 0.026970765 -0.012825618 -0.030945443 0.01816348 0.011887637 -0.0045630876
-0.039504983 -0.04582341 0.021620043 0.014685768 0.012711453 0.013712657 -0.0089129 -0.035236143
-0.0077002086 0.0463585 0.034907535 -0.043852877 0.029913506 0.023132341 -0.016498616 -0.020477617
-0.054693766 -0.046866156 0.04533313 -0.044875856 0.008720605 0.038766935 0.005249261 0.0174747
0.05690043 -0.04304174 -0.017416999 0.032547336 -0.049185824 0.01312419 -0.042146143 0.008037342
-0.008372329 -0.01669592 -0.008670045 0.0018003411 0.020156184 -0.017980415 -0.05807932 0.035258606
0.03893751 0.0144491065 0.006543869 -0.026945991 -0.03755659 -0.04640241 0.007946119 -0.017494934
-0.021997089 0.032037184 0.044462286 -0.026096122 -0.046739664 0.01830525 -0.024671806 -0.04770187
-0.011077955 0.04009669 0.021459518 0.028019797 -0.026816797 0.01706202 -0.031052258 -0.02330922
-0.035630275 -0.047748215 -0.063190885 0.020693723 0.023469266 -0.025704771 -0.0076462887 -0.01712571
0.032299034 -0.06655181 0.00469037 -0.015694816 0.035644025 -0.011955466 -0.011759279 -0.017514683
-0.0368083 -0.029562263 0.0070283203 -0.04529746 -0.018345766 -0.006161929 0.03210687 0.029422993
0.016777819 0.017121304 -0.007844896 -0.04412095 -0.007875797 0.02098012 -0.032865945 0.026873538
0.049047172 -0.03846856 -0.034533814 0.026648846 0.024989374 -0.019729722 0.0005174484 0.02266051
0.035708353 0.020525288 0.036072798 0.034216776 -0.00308197 -0.063168444 0.028781075 -0.0279727
-0.035809945 0.018713888 -0.0109537775 -0.00023737783 0.025268182 0.010911201 -0.021230107 -0.044073638
0.017882962 -0.008910626 0.044700865 0.010338759 -0.003329243 0.04258613 -0.031952992 -0.01285916
-0.011350146 -0.035448465 0.018106269 0.004100961 -0.037223525 -0.03278519 -0.04334328 -0.03192912
-0.011845409 0.008700446 0.019244665 -0.043819267 0.023437507 0.028050397 0.025630979 0.011356906
-0.054423586 -0.04491102 0.041970197 -0.036285836 -0.008198484 -0.021391673 0.018874923 0.021126535
0.023018679 -0.011020714 0.030981505 0.04111952 -0.02617325 0.050162073 -0.029982273 0.018093294
0.032424152 -0.0024501183 -0.040057093 0.035118744 0.018569658 -0.011670092 -0.049458407 -0.015210706
0.014582672 0.08975434 -0.00117235 -0.11461472 0.025367144 0.06847364 0.07293386 -0.019264383
0.05740632 -0.014949595 0.04026477 -0.07155642 -0.089329325 -0.020879459 0.0037129838 0.07000069
0.026252048 0.012790123 0.004034652 0.009978569 0.021063302 -0.019089926 0.06358766 0.033647306
0.040925376 0.06634517 -0.110021695 0.020184487 0.004577835 0.035854835 -0.0808738 0.0028020637
0.0016240971 -0.10393852 -0.07876665 0.051846698 0.013501978 -0.091123745 0.02229339 0.07046885
0.08366404 0.084317386 -0.07734776 0.02273617 0.0037263096 -0.03007573 -0.0074941693 0.002497468
-0.052713457 0.010162265 -0.028232494 0.024348427 -0.09026459 0.025553992 0.044901017 0.035195753
-0.02759566 0.025956212 0.0058449362 -0.08972364 -0.087230235 0.03201862 0.05033353 0.02562634
00000000: e72e f13c 1e69 94bb 9658 173d 8164 fd3c
00000010: f0b8 0dbd c0ea 45ba 78ea 993b b80e 5a3b
00000020: 5bb5 153d b859 143d 255b 563d 7df2 66bd
00000030: 4112 323d ce12 543d 9718 bc3b a917 45bd
00000040: 7862 7e3c ff12 143d cbf1 dc3c 8a22 52bc
00000050: 4c81 fdbc 94cb 943c 5dc4 423c f485 95bb
00000060: facf 21bd 54b1 3bbd 841c b13c 939c 703c
00000070: b343 503c 0dab 603c 6a07 12bc c653 10bd
00000080: 0852 fcbb 69e2 3d3d 34fb 0e3d 139f 33bd
00000090: 2b0d f53c 0980 bd3c 1b28 87bc adc0 a7bc
000000a0: 9206 60bd baf6 3fbd 3baf 393d bfcf 37bd
000000b0: dee0 0e3c 14ca 1e3d fe01 ac3b 1a27 8f3c
000000c0: 6d10 693d 894c 30bd 18ae 8ebc 5b50 053d
000000d0: 1377 49bd d806 573c 6fa1 2cbd 0eaf 033c
000000e0: 182c 09bc e2c5 88bc ce0c 0ebc 6cf9 eb3a
000000f0: 951e a53c aa4b 93bc 95e4 6dbd 546b 103d
00000100: f07c 1f3d f2bb 6c3c f46d d63b d7bd dcbc
00000110: f0d4 19bd 7410 3ebd 7030 023c 8951 8fbc
00000120: 3d33 b4bc 6c39 033d 161e 363d 89c7 d5bc
00000130: 1772 3fbd e4f4 953c 871c cabc 0963 43bd
00000140: 5080 35bc 6d3c 243d dfcb af3c c689 e53c
00000150: e6ae dbbc a6c5 8b3c 4e61 febc faf2 bebc
00000160: 0df1 11bd a293 43bd 396a 81bd e285 a93c
00000170: 9e42 c03c d092 d2bc b88d fabb 384b 8cbc
00000180: fe4b 043d 514c 88bd adb1 993b 6a92 80bc
00000190: 78ff 113d dce0 43bc fea9 40bc f47a 8fbc
000001a0: 4dc4 16bd 8f2c f2bc d34d e63b d489 39bd
000001b0: dc49 96bc 02ea c9bb 7e82 033d 7d08 f13c
000001c0: a371 893c fa41 8c3c e187 00bc 2bb8 34bd
000001d0: 7d09 01bc 80de ab3c 719e 06bd e525 dc3c
000001e0: b0e5 483d 3591 1dbd 5473 0dbd ae4e da3c
000001f0: 84b6 cc3c 3aa0 a1bc 60a5 073a 89a2 b93c
00000200: ec42 123d a624 a83c 12c1 133d e426 0c3d
00000210: e0fa 49bb 755e 81bd 4ac6 eb3c 0127 e5bc
00000220: 73ad 12bd de4d 993c 7977 33bc a0e8 78b9
00000230: 38ff ce3c e5c4 323c c3ea adbc 8f86 34bd
00000240: 4a7f 923c e0fd 11bc 4118 373d e663 293c
00000250: 6e2f 5abb cb6e 2e3d 24e1 02bd 3aaf 52bc
00000260: f6f5 39bc 6932 11bd 9953 943c 5b61 863b
00000270: b277 18bd c349 06bd b988 31bd 1cc8 02bd
00000280: 3f13 42bc 518c 0e3c fda6 9d3c d57b 33bd
00000290: 0400 c03c f2c9 e53c 0ff8 d13c 5112 3a3c
000002a0: 44eb 5ebd 9ef4 37bd f1e8 2b3d 75a0 14bd
000002b0: ef52 06bc 973d afbc 959f 9a3c 8e11 ad3c
000002c0: ab91 bc3c 3a90 34bc edcc fd3c f16c 283d
000002d0: 4969 d6bc bf76 4d3d 629d f5bc 6338 943c
000002e0: 30cf 043d 2a92 20bb e812 24bd acd8 0f3d
000002f0: 651f 983c ea33 3fbc e694 4abd 5336 79bc
00000300: 29ec 6e3c 20d1 b73d 8aa9 99ba 1fbb eabd
00000310: c2ce cf3c e83b 8c3d 595e 953d 57d0 9dbc
00000320: e422 6b3d 25ef 74bc acec 243d 2c8c 92bd
00000330: 4bf2 b6bd 660b abbc 8855 733b 865c 8f3d
00000340: 890e d73c aa8d 513c 1d35 843b 277d 233c
00000350: f28c ac3c 7a62 9cbc 3f3a 823d c2d1 093d
00000360: 5ea1 273d fadf 873d 0e53 e1bd f059 a53c
00000370: aa01 963b 85dc 123d 2aa1 a5bd d4a2 373b
00000380: a8df d43a b8dd d4bd 6950 a1bd 345d 543d
00000390: 6637 5d3c 169f babd a1a0 b63c f951 903d
000003a0: 0d58 ab3d 98ae ac3d 8168 9ebd 3441 ba3c
000003b0: 1a35 743b 6161 f6bc a691 f5bb 8fac 233b
000003c0: 11ea 57bd a17f 263c d547 e7bc 5a76 c73c
000003d0: a4dc b8bd 9b56 d13c 21ea 373d 6c29 103d
000003e0: 4b10 e2bc 1fa2 d43c e186 bf3b 07c1 b7bd
000003f0: c4a5 b2bd f525 033d 882a 4e3d 55ee d13c

attn_net.hidden.bias f4 [96]
-0.050674025 0.19529194 -0.07074823 0.04354211 0.015520483 -0.018686086 0.006732179 0.07595735
0.0151827345 0.06861181 0.124943644 -0.077048734 0.06855134 -0.030232482 -0.05786543 -0.09875668
-0.04836648 0.21231516 -0.12966822 0.043297276 -0.10496464 0.038646124 -5.1929383e-06 0.08202247
0.026713226 -0.1355039 -0.113046184 -0.036094654 -0.12026504 -0.0050800815 -0.08880557 0.069046415
0.048378445 0.061864708 -0.03447273 0.024136968 -0.016873192 -0.12627107 0.11884704 0.003012144
-0.0012394362 0.02724276 -0.092115186 0.064701326 -0.09819991 -0.06826184 -0.004598735 0.037149526
0.01584917 -0.074997626 0.14230357 -0.10316739 0.06456629 0.026296597 0.03283535 0.003951649
0.09118227 0.18486384 0.06836392 0.1198009 0.028947648 0.05838277 0.09115053 -0.008605689
0.023440408 0.028559308 -0.021393009 -0.034023274 0.016684521 0.03733429 -0.024466116 0.010239692
-0.031696968 -0.041107185 -0.027304936 0.0019952382 -0.12903695 -0.047239725 -0.029959142 0.0729896
-0.096261255 -0.047334593 0.08281865 0.0057111164 0.05059937 0.042265087 -0.09541874 0.013530026
-0.08719144 0.10676179 -0.063099325 -0.041952875 -0.04443428 0.018611372 -0.020412529 0.052101098
00000000: 918f 4fbd 9cfa 473e 73e4 90bd 3659 323d
00000010: a049 7e3c 9013 99bc 9c99 dc3b 878f 9b3d
00000020: 01c1 783c 5984 8c3d 74e2 ff3d bacb 9dbd
00000030: a564 8c3d 1caa f7bc 4d04 6dbd f140 cabd
00000040: ee1b 46bd 2569 593e bfc7 04be 7c58 313d
00000050: b4f7 d6bd 664b 1e3d 003f aeb6 66fb a73d
00000060: b2d5 da3c 89c1 0abe c284 e7bd fdd7 13bd
00000070: 844d f6bd d076 a6bb b2df b5bd 3568 8d3d
00000080: 7a28 463d d965 7d3d 4733 0dbd e4ba c53c
00000090: a639 8abc 344d 01be 1466 f33d 6467 453b
000000a0: 9474 a2ba 352c df3c e3a6 bcbd 2182 843d
000000b0: 091d c9bd ddcc 8bbd fcb0 96bb 1a2a 183d
000000c0: 1ed6 813c 5b98 99bd 07b8 113e 6d49 d3bd
000000d0: 553b 843d f66b d73c 5c7e 063d d67c 813b
000000e0: c5bd ba3d f24c 3d3e 6202 8c3d 2d5a f53d
000000f0: 9e23 ed3c c522 6f3d 21ad ba3d e0fe 0cbc
00000100: 1906 c03c 36f5 e93c 6440 afbc fd5b 0bbd
00000110: faad 883c d7eb 183d 2a6d c8bc 62c4 273c
00000120: aed4 01bd 0260 28bd 9aae dfbc 8bc2 023b
00000130: 4322 04be 717e 41bd e06c f5bc 927b 953d
00000140: 9f24 c5bd ebe1 41bd d39c a93d 5124 bb3b
00000150: 4941 4f3d 281e 2d3d e66a c3bd 0bad 5d3c
00000160: 6d91 b2bd eda5 da3d 383a 81bd c7d6 2bbd
00000170: b800 36bd e076 983c 2d38 a7bc f667 553d

attn_net.out.weight f4 [64, 96]
0.029019963 0.21452352 0.06920885 -0.006309876 0.0039767656 -0.053694926 0.004387201 -0.07812217
0.042917337 0.043971002 0.11632862 0.15069349 0.04467711 0.044505194 -0.15047413 -0.10674675
0.03748245 0.37573197 -0.086783186 0.028891977 -0.06499928 -0.004152201 -0.037137955 0.007242839
0.005853727 0.015870385 -0.023418974 0.07789119 -0.060694695 0.044676676 0.036525525 -0.023321984
0.083131984 -0.015471678 -0.0065318253 0.2797013 -0.033321716 -0.018450337 0.04979073 0.033424575
0.012485842 0.009215532 -0.020404816 -0.005392319 -0.05223533 0.24264133 0.17873965 0.30434
-0.0117411455 0.005516468 -0.00029869378 -0.019040577 0.11518414 0.035094775 -0.03839226 -0.13361956
0.08173247 0.23417303 -0.018145911 -0.05980254 -0.00524854 0.07402342 0.11045965 0.037244637
0.030262176 0.0077568926 0.015235299 -0.022779686 0.042206567 0.031375773 -0.007115118 0.0377879
0.021748707 -0.021233581 -0.0038559164 0.01533935 -0.06952506 0.025648048 0.009355263 0.031371996
0.09985652 -0.038925543 0.16914149 -0.00831717 0.06385749 -0.006818327 -0.023137953 -0.015992926
-0.06076801 0.06614451 -0.18974616 -0.043753315 -0.14710808 0.04886928 0.05823389 0.016561965
0.12809783 0.24150483 0.12071255 0.02640172 -0.036430825 0.023573685 -0.05781646 -0.029217748
0.004309573 0.1245329 0.31081346 0.10729546 -0.04503932 -0.0016805301 0.0032507114 -0.034605592
-0.048704483 0.1628665 -0.070156455 0.04317519 -0.026510594 -0.012682317 -0.019745816 -0.065176934
-0.01260398 -0.015604765 -0.056370296 0.021322822 -0.0040718075 -0.0077860765 0.015141064 0.112484336
0.24340788 0.004535792 0.007825651 0.13772643 -0.010427387 0.015470498 0.033772636 -0.019856593
0.02179652 -0.01877881 -0.037257414 -0.022744799 0.0751862 0.1260714 0.071913004 0.2340643
0.0019526985 0.017356105 -0.046691842 -0.015825486 0.3360989 0.016585741 -0.021021334 0.12344987
-0.052825645 0.2375295 -0.00078122737 0.27896434 0.024462214 -0.03464762 0.04134312 -0.018232582
-0.009445621 0.003777864 -0.0096340105 -0.036065433 -0.0011887304 0.01681017 -0.036345877 0.009659834
-0.018610202 0.009760031 0.010591505 -0.016448546 -0.08695823 0.037820157 -0.008049323 -0.04444366
0.06886097 0.023996674 0.21862325 0.00807829 0.07726886 0.03221032 -0.030655693 -0.018107997
-0.024537262 -0.023044964 0.12516896 -0.008718731 0.05833023 -0.00057068374 0.044719577 -0.0539307
0.0065653375 0.19566719 0.105381474 0.0036106587 -0.0003001389 -0.051874 0.030310487 0.088619545
0.043457128 0.20925908 0.25900534 0.15715492 -0.03005102 -0.0045595444 0.050109 -0.019951053
-0.10714385 0.1866844 -0.14637418 0.034103923 -0.14406809 -0.03063567 0.00895715 -0.049278684
0.0030433405 0.02893756 -0.11499853 0.024911107 -0.14288071 0.026072048 0.05223832 0.13584077
0.16912691 -0.015671838 -0.009530724 0.07743663 -0.1242087 -0.11697086 0.05821003 0.05856776
-0.0074183834 0.034167983 -0.08039838 -0.025170328 0.13520361 0.09741251 0.04090265 0.07368505
-0.04464251 -0.027507985 0.06861202 -0.15091291 0.2486511 -0.012311334 0.023141667 0.24513133
0.021111196 0.20845665 -0.05691904 0.21038824 -0.04618688 0.043981116 0.20668688 0.027285222
00000000: 46bb ed3c 0eac 5b3e 5fbd 8d3d 14c3 cebb
00000010: 874f 823b 36ef 5bbd 82c2 8f3b 84fe 9fbd
00000020: 17ca 2f3d f01a 343d b33d ee3d 654f 1a3e
00000030: 58ff 363d 144b 363d e415 1abe 0a9e dabd
00000040: 3387 193d f15f c03e 62bb b1bd deae ec3c
00000050: 581e 85bd 300f 88bb f81d 18bd 5655 ed3b
00000060: 9fd0 bf3b 9c02 823c 26d9 bfbc 6b85 9f3d
00000070: 009b 78bd e4fe 363d ca9b 153d bf0d bfbc
00000080: 1a41 aa3d ec7c 7dbc ec08 d6bb 0235 8f3e
00000090: 5a7c 08bd 2925 97bc 5df1 4b3d 35e8 083d
000000a0: 6b91 4c3c befc 163c 0028 a7bc 0db2 b0bb
000000b0: b7f4 55bd f876 783e 8707 373e 74d2 9b3e
000000c0: ef5d 40bc 7dc3 b43b 009a 9cb9 fcfa 9bbc
000000d0: aae5 eb3d 8abf 0f3d 3441 1dbd 91d3 08be
000000e0: 5a63 a73d 0ecb 6f3e bca6 94bc 82f3 74bd
000000f0: f2fb abbb 9799 973d ab38 e23d d58d 183d
00000100: 62e8 f73c 882d fe3b 7a9d 793c 779c babc
00000110: cbe0 2c3d e283 003d f025 e9bb 7cc7 1a3d
00000120: 582a b23c 0cf2 adbc 8bb3 7cbb e651 7b3c
00000130: 2863 8ebd db1b d23c d146 193c ec7f 003d
00000140: 9381 cc3d 6470 1fbd 6d33 2d3e bd44 08bc
00000150: b7c7 823d 466c dfbb ce8b bdbc 9903 83bc
00000160: e0e7 78bd c676 873d d14c 42be ad36 33bd
00000170: 80a3 16be 272b 483d a986 6e3d f5ac 873c
00000180: 142c 033e 0b4d 773e 2438 f73d 6b48 d83c
00000190: 7d38 15bd 9a1d c13c f4d0 6cbd 0f5a efbc
000001a0: 5237 8d3b 1b0b ff3d f122 9f3e b9bd db3d
000001b0: 267b 38bd 3c45 dcba e309 553b 98be 0dbd
000001c0: 5a7e 47bd 7ac6 263e 30ae 8fbd 78d8 303d
000001d0: bf2c d9bc 7ec9 4fbc fac1 a1bc 7c7b 85bd
000001e0: ec80 4ebc 21ab 7fbc 8ae4 66bd 33ad ae3c
000001f0: cc6c 85bb 5822 ffbb 3a12 783c 305e e63d
00000200: ea3f 793e fba0 943b 2937 003c 2808 0d3e
00000210: a2d7 2abc f977 7d3c 2d55 0a3d 4baa a2bc
00000220: 9e8e b23c 05d6 99bc 3b9b 18bd 4d53 babc
00000230: 39fb 993d dc18 013e 2047 933d 8dae 6f3e
00000240: b0f1 ff3a 642e 8e3c f23f 3fbd 73a4 81bc
00000250: 2815 ac3e d2de 873c ef34 acbc 49d3 fc3d
00000260: b45f 58bd ef3a 733e 48cb 4cba 6ad4 8e3e
00000270: fb64 c83c aaea 0dbd 6757 293d 7f5c 95bc
00000280: cec1 1abc 0a96 773b f8d7 1dbc 59b9 13bd
00000290: 2ccf 9bba 7bb5 893c 6adf 14bd 4844 1e3c
000002a0: 6c74 98bc 89e8 1f3c fe87 2d3c 1abf 86bc
000002b0: 2817 b2bd 4fe9 1a3d 4fe1 03bc 8e0a 36bd
000002c0: fb06 8d3d ac94 c43c c6de 5f3e ce5a 043c
000002d0: 233f 9e3d f8ee 033d a621 fbbc 3957 94bc
000002e0: 5e02 c9bc cbc8 bcbc 4b2c 003e 02d9 0ebc
000002f0: aeeb 6e3d f099 15ba e02b 373d 70e6 5cbd
00000300: 0b22 d73b fb5c 483e 3ed2 d73d cda0 6c3b
00000310: f65b 9db9 d579 54bd b34d f83c 2a7e b53d
00000320: 1a00 323d 0348 563e 599c 843e 38ed 203e
00000330: 8f2d f6bc 3b68 95bb 183f 4d3d 6470 a3bc
00000340: 3c6e dbbd 322a 3f3e 1de3 15be 8eb0 0b3d
00000350: 9686 13be a8f7 fabc 03c1 123c 72d8 49bd
00000360: c872 473b 760e ed3c 5984 ebbd 6112 cc3c
00000370: 524f 12be 0c95 d53c d9f7 553d d819 0b3e
00000380: 9b2f 2d3e 3a62 80bc c126 1cbc 1997 9e3d
00000390: 2261 febd 6b8e efbd a46d 6e3d bfe4 6f3d
000003a0: e915 f3bb baf3 0b3d e8a7 a4bd 0132 cebc
000003b0: d172 0a3e 3680 c73d 8a89 273d 30e8 963d
000003c0: 11db 36bd 6d58 e1bc 7584 8c3d ea88 1abe
000003d0: 659e 7e3e 7ab5 49bc 9893 bd3c b503 7b3e
000003e0: 63f1 ac3c a975 553e f023 69bd 0470 573e
000003f0: 742e 3dbd 8b25 343d baa5 533e 4285 df3c

attn_net.out.bias f4 [64]
0.13669252 0.5221171 0.14336936 -0.20636898 0.012069884 -0.035868235 -0.044696156 0.044583704
0.40341803 0.020994805 0.21719064 0.3879804 0.045398712 -0.025241865 0.004918897 0.048885744
0.060841296 -0.046468515 0.36223316 0.27347147 0.040805113 0.04042182 -0.04658896 0.00474428
0.010963637 0.049643036 -0.021340357 0.0052430853 -0.01338677 -0.052830666 0.22511223 0.061154712
-0.037598193 0.00032920146 -0.009154342 0.11436273 -0.15283863 0.3459777 -0.022890048 -0.04022411
0.034285747 -0.06944931 0.043648634 0.0044637653 -0.1571797 0.016777122 -0.03884 0.059019625
-0.274936 0.27867675 -0.0295032 -0.699446 0.39132658 0.043476418 0.03329392 0.053627606
-0.021302996 -0.013149177 0.40965554 0.031769756 -0.019983647 0.032827005 -0.027622206 0.15736017
00000000: 20f9 0b3e 77a9 053f 6bcf 123e 6452 53be
00000010: c3c0 453c 92ea 12bd 5113 37bd 679d 363d
00000020: cf8c ce3e 4cfd ab3c 3967 5e3e 5ea5 c63e
00000030: 00f4 393d 07c8 cebc b32e a13b 6b3c 483d
00000040: b934 793d c555 3ebd a076 b93e 7404 8c3e
00000050: 4323 273d 5a91 253d 11d4 3ebd e875 9b3b
00000060: d4a0 333c 7f56 4b3d f9d1 aebc 30ce ab3b
00000070: 2f54 5bbc f864 58bd d283 663e 5d7d 7a3d
00000080: 9000 1abd ac98 ac39 18fc 15bc 0237 ea3d
00000090: bb81 1cbe fd23 b13e e983 bbbc 09c2 24bd
000000a0: 366f 0c3d 713b 8ebd e9c8 323d c744 923b
000000b0: b7f3 20be 2d70 893c b116 1fbd 90be 713d
000000c0: 69c4 8cbe b8ae 8e3e b2b0 f1bc e50e 33bf
000000d0: f55b c83e 5414 323d 355f 083d 9fa8 5b3d
000000e0: 9f83 aebc a56f 57bc 5fbe d13e 0121 023d
000000f0: bfb4 a3bc 9c75 063d f747 e2bc 0623 213e

linear.weight f4 [64, 6]
0.13384014 -0.9361901 -0.24786447 0.4191545 1.0873239 -0.8797678 -0.05203444 -0.9172753
-0.23923695 0.41786924 1.088921 -0.89992195 0.044824116 -0.92133766 -0.26241627 0.46411824
1.105129 -0.9742428 -0.048520707 0.07798159 -8.8634435e-05 -0.04608776 -0.10964119 0.10907301
-0.12964568 0.141442 -0.01708399 0.100499086 0.13428603 -0.062424492 0.14048067 0.16817114
-0.10758904 -0.07375147 0.15958336 0.0016454556 0.04417475 -0.045871 -0.11696748 0.036114566
-0.022205414 0.0018370439 -0.026421402 -0.056419373 -0.0042246254 0.024507474 0.085047424 0.031207653
0.09028159 -0.394745 -0.118233606 0.17248607 0.644063 -0.4074164 -0.034030665 -0.029873252
0.1800048 -0.066488124 -0.12954544 -0.016448705 -0.12615503 -0.9945221 -0.2519063 0.62196743
1.1477245 -0.95081985 -0.014324475 1.0965937 0.36147377 -0.5678894 -1.2931012 0.80538535
0.009211192 -0.1319974 0.13286756 -0.077376746 -0.10057999 0.07161898 0.019166298 -0.12040368
0.029530289 -0.0057365447 -0.06855261 0.12942491 0.09954797 -0.075992614 0.07664508 -0.11318619
-0.012383275 0.011061312 -0.08280823 0.2441019 0.05461447 0.03711149 -0.09710818 0.009308657
-0.03201898 0.04296889 -0.055327438 0.085994214 0.03689736 0.10289173 -0.0074985465 -0.02770645
-0.0306235 0.027684214 -0.06928509 0.010661642 0.064747564 -0.48339775 -0.23921746 0.25792873
0.65123916 -0.5810997 0.1089203 -0.32479247 -0.21348597 0.25620136 0.34391606 -0.49272594
0.10001265 -0.08906232 -0.1329431 0.064838216 -0.05661933 -0.0799834 -0.001356412 -0.024109561
0.083713636 -0.022437762 -0.034084804 -0.03957856 -0.10350594 0.14936617 -0.00391401 0.069062375
-0.04748 -0.022299448 -0.1322409 0.04334968 0.20062882 -0.041241422 -0.0271243 0.14023978
0.009856679 0.14543636 -0.028323302 0.014348617 -0.049891658 0.041906282 0.019593924 0.14169116
-0.06379912 0.053574868 0.003135933 -0.13167799 -0.029708397 0.12213756 0.069324374 0.07042821
-0.12039379 0.042399384 -0.14803599 -0.014469661 0.08507951 0.08041418 -0.09494946 0.029419811
-0.05136849 -0.065214545 0.12731315 -0.0678313 0.109993964 0.031461183 -0.18101506 0.09493529
0.13472067 -0.0652696 -0.04296805 0.24093522 0.08004965 0.7965516 0.2946404 -0.5343431
-0.98602223 0.82008505 -0.17507389 0.12084346 -0.050674733 0.1366358 0.0888187 -0.040436763
0.0037246533 0.006571415 -0.008440415 -0.033535894 -0.07261466 0.0017263615 0.14213754 0.031902514
0.05995648 0.019330086 -0.39459026 0.05620864 -0.029954875 0.049639568 0.15185551 -0.015262213
-0.06581328 -0.044896048 -0.10166782 0.41457412 -0.024028998 0.012846105 -0.18268386 0.13071257
0.038547665 0.15928043 -0.055790886 0.04963178 -0.17680623 0.18794124 0.037508205 0.903006
0.29517868 -0.35633472 -1.0642748 0.7416383 0.004637588 0.0031735792 0.034459956 -0.06954327
-0.031002648 -0.0073307757 -0.061869506 0.05126962 -0.070310935 0.09468848 0.0492602 0.06311774
-0.046227075 0.13199474 -0.032044083 -0.05005669 0.1599049 -0.032088976 -0.21536757 0.018185018
0.07903537 0.0847551 0.09291994 -0.05701402 -0.041628398 0.08194037 0.090295255 0.041601278
00000000: 640d 093e 28aa 6fbf 2fd0 7dbe 6b9b d63e
00000010: 6e2d 8b3f 7638 61bf 1122 55bd 8ed2 6abf
00000020: 88fa 74be f5f2 d53e c361 8b3f 4961 66bf
00000030: 7e99 373d c9dc 6bbf 6d5b 86be e8a0 ed3e
00000040: de74 8d3f fa67 79bf a6bd 46bd d0b4 9f3d
00000050: 40e1 b9b8 85c6 3cbd 8f8b e0bd ac61 df3d
00000060: d6c1 04be 2cd6 103e b9f3 8bbc 77d2 cd3d
00000070: 4782 093e d3b0 7fbd 2ada 0f3e 0e35 2c3e
00000080: a557 dcbd 030b 97bd d269 233e 54ac d73a
00000090: 95f0 343d 3be3 3bbd a58c efbd deec 133d
000000a0: 21e8 b5bc f7c8 f03a b271 d8bc 0018 67bd
000000b0: ba6e 8abb e6c3 c83c 582d ae3d 31a7 ff3c
000000c0: 8ee5 b83d 041c cabe 7624 f2bd 30a0 303e
000000d0: 50e1 243f e298 d0be bd63 0bbd c0b8 f4bc
000000e0: 2e53 383e ed2a 88bd 8fa7 04be 6fbf 86bc
000000f0: c92e 01be 0099 7ebf ddf9 80be 4239 1f3f
00000100: a3e8 923f ee68 73bf 34b1 6abc 2f5d 8c3f
00000110: 1713 b93e 3361 11bf 5784 a5bf bc2d 4e3f
00000120: 8aea 163c 542a 07be 6f0e 083e b377 9ebd
00000130: e2fc cdbd f9ac 923d a402 9d3c 3496 f6bd
00000140: 81e9 f13c a0f9 bbbb 5065 8cbd f787 043e
00000150: cedf cb3d 04a2 9bbd 18f8 9c3d 29ce e7bd
00000160: 38e3 4abc 813a 353c 5c97 a9bd d9f5 793e
00000170: 6cb3 5f3d 3802 183d a7e0 c6bd 5683 183c
00000180: 5526 03bd 2600 303d 069f 62bd bc1d b03d
00000190: b021 173d e6b8 d23d 5eb6 f5bb a3f8 e2bc
000001a0: 22de fabc 01ca e23c 57e5 8dbd 2bae 2e3c
000001b0: 5f9a 843d e97f f7be 6cf5 74be 3c0f 843e
000001c0: 9cb7 263f f3c2 14bf 9b11 df3d 334b a6be
000001d0: 119c 5abe d32c 833e c415 b03e 9346 fcbe
000001e0: 6fd3 cc3d 4e66 b6bd 3c22 08be e6c9 843d
000001f0: ace9 67bd 56ce a3bd a2c9 b1ba 6a81 c5bc
00000200: 0e72 ab3d 66cf b7bc 829c 0bbd 211d 22bd
00000210: ecfa d3bd 72f3 183e 1841 80bb 9370 8d3d
00000220: 637a 42bd 55ad b6bc 296a 07be 6f8f 313d
00000230: a471 4d3e c4ec 28bd c833 debc 049b 0f3e
00000240: e87d 213c 45ed 143e 4506 e8bc 7616 6b3c
00000250: 325b 4cbd eca5 2b3d 7083 a03c 7d17 113e
00000260: 1da9 82bd 5271 5b3d 3a84 4d3b 98d6 06be
00000270: 065f f3bc 4223 fa3d f0f9 8d3d aa3c 903d
00000280: 0591 f6bd faaa 2d3d bf96 17be 2812 6dbc
00000290: 2b3e ae3d 31b0 a43d dd74 c2bd d101 f13c
000002a0: c467 52bd 348f 85bd 615e 023e 23eb 8abd
000002b0: 8444 e13d 71dd 003d 035c 39be 6f6d c23d
000002c0: 37f4 093e 11ac 85bd 44ff 2fbd b9b7 763e
000002d0: 12f1 a33d ceea 4b3f 1bdb 963e b6ca 08bf
000002e0: f46b 7cbf 18f1 513f 9246 33be c77c f73d
000002f0: 4f90 4fbd 41ea 0b3e 94e6 b53d 05a1 25bd
00000300: 5019 743b 0655 d73b ab49 0abc ef5c 09bd
00000310: ffb6 94bd 1447 e23a 818c 113e 36ac 023d
00000320: ed94 753d 215a 9e3c bc07 cabe 083b 663d
00000330: ed63 f5bc dc52 4b3d 0380 1b3e 5c0e 7abc
00000340: 1dc9 86bd ebe4 37bd 3837 d0bd 0f43 d43e
00000350: 76d8 c4bc 7878 523c 7a11 3bbe 84d9 053e
00000360: 28e4 1d3d 691a 233e fc84 64bd b14a 4b3d
00000370: b10c 35be ab73 403e 34a2 193d 672b 673f
00000380: a921 973e 8171 b6be 283a 88bf 02dc 3d3f
00000390: e8f6 973b d3fb 4f3b e225 0d3d b46c 8ebd
000003a0: 44f9 fdbc 0137 f0bb e16a 7dbd 1800 523d
000003b0: 2eff 8fbd 09ec c13d 10c5 493d e043 813d
000003c0: 9a58 3dbd a129 073e a840 03bd 3e08 4dbd
000003d0: 1cbe 233e bb6f 03bd 5189 5cbe bff8 943c
000003e0: 4cdd a13d 1594 ad3d cf4c be3d 8887 69bd
000003f0: 8a82 2abd 5ad0 a73d b8ec b83d 1a66 2a3d
