outlier-interpretation-Xu/checkpoints/cmyhMGlX_checkpoint.pt (torch, 103259 bytes, 5 tensors)

attn_net.hidden.weight f4 [96, 192]
0.08451438 -0.0095893005 0.0064710146 -0.007523465 0.046738304 0.052634623 0.025348293 0.03996462
0.0336425 -0.024955798 -0.106964044 0.05527054 0.045236424 -0.025313389 -0.063878745 -0.1020145
0.0014575245 0.009981155 -0.09094451 -0.08104633 -0.029593594 -0.09810779 0.022600321 -0.020027097
-0.10115629 0.039819602 0.033712834 0.022236284 -0.036342714 -0.06910569 -0.09774094 -0.015678141
-0.022848297 0.0004750332 -0.009863432 0.08557496 -0.049164843 -0.002132784 0.121111855 0.009976884
0.118632436 -0.04570111 -0.036837175 -0.066178426 0.11803196 -0.06809886 -0.109686725 -0.04083656
0.08668602 -0.007634046 -3.8089114e-05 -0.08142886 -0.017535025 -0.050953288 0.05650233 -0.0042454586
0.10646113 -0.011253603 -0.0063011413 0.010091952 0.06769356 0.11900283 -0.118854545 0.041145995
-0.06412551 0.0014026584 0.009199324 0.007343417 -0.053332858 -0.031215355 0.047734607 -0.008385871
0.0036337571 -0.032648347 0.066974804 0.0155087225 0.014050912 0.020007608 -0.008352019 0.057629444
-0.028690087 0.009296263 0.061567828 0.06058423 0.0044706943 0.044334725 -0.007514675 0.039151005
0.04262681 -0.024934467 0.05465953 0.022562407 0.02607549 0.031143507 0.045898564 -0.036018707
0.0045512803 -0.003073949 0.050439894 0.0106503535 -0.015175421 -0.026370984 -0.01910452 -0.024981052
-0.024442285 0.006903051 -0.10861128 0.025093125 -0.050472695 -0.014900443 0.0034843646 0.041482665
0.023074828 -0.04297972 -0.03073746 0.049055967 -0.044530094 0.032859024 0.009850455 -0.015789436
-0.06391638 0.011478964 0.027646832 -0.027254887 -0.021911277 -0.043136295 0.04389258 0.008827162
0.03434365 0.014999408 -0.0015923926 0.013905415 0.013119031 0.004183583 0.040067594 -0.013636896
-0.0053146253 -0.035930023 -0.009717645 0.00034586038 0.014409255 -0.0017214736 -0.035201415 0.005135717
0.008405851 0.008932164 0.008234877 -0.031817492 0.0008321763 -0.0072881347 -0.001431392 0.038448386
0.010427305 -0.0012704432 0.044974595 -0.003229957 -0.023613252 -0.017900443 -0.021906516 -0.014698481
-0.006231799 -0.021774013 0.010372527 0.011971734 -0.035493705 0.013031367 0.028488766 -0.0111397775
0.028985761 -0.017071929 -0.06261049 -0.000451952 0.045337066 -0.033641487 -0.050895162 -0.022354754
0.0485051 -0.0136181945 -0.0044859527 -0.014914454 -0.02084002 -0.01022172 0.029665992 0.0049372884
0.015093392 0.0039043361 0.010425953 0.004920679 0.0068661356 0.037285604 -0.011761351 0.008664853
-0.030929834 0.08626926 -0.0013981916 -0.010279462 0.047147084 0.05164744 0.06899539 -0.18464434
-0.08590989 0.13440742 0.13398056 -0.082235344 -0.10094233 -0.0052148933 0.20597556 0.12269687
-0.047517695 -0.0036431043 0.19139102 0.021038968 0.033030283 0.20692028 0.022924608 0.027568119
0.093601234 -0.18595873 -0.109444246 0.019055478 0.052798823 0.012406901 0.10567665 0.041751407
0.04296534 0.02105151 -0.0331804 -0.12432398 0.034839716 0.05242259 -0.20349526 -0.05284531
-0.17792188 0.037907068 0.016627017 0.18624504 -0.20491666 0.15518422 0.22087118 -0.039890192
-0.13469505 -0.04462126 0.02203388 0.024799833 0.010448954 -0.065645464 0.004879673 0.09907535
-0.16845474 0.059177827 0.046245452 0.00100717 -0.06491142 -0.19458172 0.19084437 -0.0994832
00000000: e015 ad3d 711c 1dbc ce0a d43b 6687 f6bb
00000010: aa70 3f3d 6797 573d 39a7 cf3c f1b1 233d
00000020: b8cc 093d 1a70 ccbc f70f dbbd 5d63 623d
00000030: d449 393d 065e cfbc dcd2 82bd faec d0bd
00000040: 680a bf3a 0088 233c 1e41 babd 9efb a5bd
00000050: 446e f2bc bdec c8bd 4f24 b93c de0f a4bc
00000060: 072b cfbd e119 233d 7816 0a3d de28 b63c
00000070: 19dc 14bd 4987 8dbd 672c c8bd 726f 80bc
00000080: 5a2c bbbc e00d f939 3b9a 21bc ed41 af3d
00000090: 1361 49bd 2ec6 0bbb 7e09 f83d 1676 233c
000000a0: 90f5 f23d 1631 3bbd 94e2 16bd 8e88 87bd
000000b0: beba f13d 6a77 8bbd 6fa3 e0bd 3d44 27bd
000000c0: 7188 b13d 0527 fabb e0c1 1fb8 2dc4 a6bd
000000d0: 9da5 8fbc 65b4 50bd fd6e 673d 7d1d 8bbb
000000e0: 4b08 da3d 0861 38bc ce79 cebb b758 253c
000000f0: eca2 8a3d c1b7 f33d 036a f3bd b488 283d
00000100: 3c54 83bd 68d9 b73a c3b8 163c 0ca1 f03b
00000110: 8e73 5abd 58b7 ffbc 5d85 433d e464 09bc
00000120: 5424 6e3b 46ba 05bd 162a 893d 4c18 7e3c
00000130: cc35 663c ffe6 a33c e8d6 08bc da0c 6c3d
00000140: 7907 ebbc 5a4f 183c 8c2e 7c3d 2b27 783d
00000150: e77e 923b 5498 353d aa3d f6bb ce5c 203d
00000160: 7399 2e3d 5e43 ccbc ace2 5f3d ccd4 b83c
00000170: 449c d53c ab20 ff3c 2200 3c3d 5a88 13bd
00000180: e822 953b 4e74 49bb 109a 4e3d d27e 2e3c
00000190: 54a2 78bc f607 d8bc 1581 9cbc 10a5 ccbc
000001a0: 303b c8bc fd32 e23b 976f debd 1990 cd3c
000001b0: 75bc 4ebd fd20 74bc f059 643b bae9 293d
000001c0: 6c07 bd3c 810b 30bd 20cd fbbc e9ee 483d
000001d0: 3065 36bd 2f97 063d ce63 213c d958 81bc
000001e0: 97e6 82bd 4412 3c3c 9c7b e23c a445 dfbc
000001f0: 477f b3bc afaf 30bd b5c8 333d cd9f 103c
00000200: edab 0c3d 14c0 753c d4b7 d0ba 8ad3 633c
00000210: 34f1 563c 7016 893b eb1d 243d 4a6d 5fbc
00000220: 4f26 aebb 5c2b 13bd c236 1fbc 9854 b539
00000230: cc14 6c3c 12a3 e1ba 5c2f 10bd 8449 a83b
00000240: b2b8 093c 3658 123c 94eb 063c 0f53 02bd
00000250: 6826 5a3a 4ed1 eebb 8c9d bbba 0e7c 1d3d
00000260: 49d7 2a3c 0085 a6ba 4837 383d b0ad 53bb
00000270: 9470 c1bc f3a3 92bc 4b75 b3bc e6d1 70bc
00000280: 1e34 ccbb 6a5f b2bc 88f1 293c 1825 443c
00000290: d961 11bd 8481 553c 4661 e93c 9d83 36bc
000002a0: 8c73 ed3c 6eda 8bbc ee39 80bd f8f3 ecb9
000002b0: 5cb3 393d a8cb 09bd 7277 50bd 5121 b7bc
000002c0: 49ad 463d d91e 5fbc e6fe 92bb c15b 74bc
000002d0: b1b8 aabc 0079 27bc 1806 f33c fac8 a13b
000002e0: 464a 773c e4df 7f3b 9ed1 2a3c a63d a13b
000002f0: 52fd e03b cab8 183d aeb2 40bc 07f7 0d3c
00000300: 9060 fdbc f0ad b03d 8643 b7ba 306b 28bc
00000310: 4d1d 413d 448c 533d 744d 8d3d 6813 3dbe
00000320: 86f1 afbd 19a2 093e 3332 093e 016b a8bd
00000330: daba cebd b2e1 aabb 42eb 523e 7f48 fb3d
00000340: eaa1 42bd 26c1 6ebb 02fc 433e ea59 ac3c
00000350: c34a 073d e9e2 533e 63cc bb3c 89d6 e13c
00000360: 01b2 bf3d f76b 3ebe 4e24 e0bd 3c1a 9c3c
00000370: 9443 583d 5146 4b3c 006d d83d 8603 2b3d
00000380: 6dfc 2f3d 3774 ac3c 2ce8 07bd 929d febd
00000390: 17b4 0e3d 12b9 563d 1061 50be 5374 58bd
000003a0: 2731 36be 7144 1b3d 6235 883c 05b7 3e3e
000003b0: acd5 51be 9de8 1e3e 0e2c 623e e663 23bd
000003c0: 80ed 09be c8c4 36bd 6580 b43c 0529 cb3c
000003d0: 1732 2b3c 2171 86bd aae5 9f3b 04e8 ca3d
000003e0: 667f 2cbe 7364 723d df6b 3d3d 0403 843a
000003f0: 47f0 84bd 6e40 47be b56c 433e d9bd cbbd

attn_net.hidden.bias f4 [96]
0.04280793 -0.28095895 -0.23756665 -0.021315843 0.25407064 -0.0027814389 -0.22567947 0.16685654
0.019793397 0.08299379 -0.020767324 0.35313624 -0.30114946 -0.24995738 0.29576534 0.13003218
-0.23201689 -0.21755649 0.3461192 -0.29003632 0.20482412 -0.33921623 -0.2685033 0.056126192
-0.07201317 -0.19709109 -0.013564298 -0.27348968 0.059189674 -0.06919992 0.011191841 -0.05925397
0.081088156 0.057423938 0.0652628 -0.31891853 -0.1827789 -0.06802894 -0.16907604 0.10496944
-0.045203388 -0.19295935 -0.2458731 -0.054922305 -0.0010841691 -0.16254316 -0.005783273 0.053485796
0.041235924 -0.21831347 0.38840842 -0.19878088 -0.002331141 0.05381871 0.08005998 -0.012675384
0.022171842 0.047463194 0.029875748 0.30409163 0.022563793 0.27466565 -0.037251852 -0.023092058
0.17478478 -0.20973279 -0.060230307 0.3361094 0.092543446 -0.14393996 0.34068897 -0.046262592
0.14076087 0.110728204 -0.10568293 0.2631977 0.23980919 0.1089879 0.054920346 0.043333814
-0.28979546 0.36193874 -0.2681428 -0.28402394 0.34282875 -0.031157486 0.1168153 0.32863545
-0.105643645 -0.23558673 0.05961845 0.30535945 0.20026478 0.012477912 -0.2032868 0.021035643
00000000: 5e57 2f3d dad9 8fbe ac44 73be 909e aebc
00000010: 8c15 823e cd48 36bb 8518 67be 71dc 2a3e
00000020: c325 a23c a6f8 a93d 3c20 aabc 46ce b43e
00000030: 4330 9abe d4f4 7fbe 8e6e 973e 2827 053e
00000040: d695 6dbe 21c7 5ebe 8936 b13e a47f 94be
00000050: 6abd 513e c0ad adbe 4479 89be 94e4 653d
00000060: a47b 93bd 3fd2 49be ca3c 5ebc d706 8cbe
00000070: df70 723d b0b8 8dbd fc5d 373c 4ab4 72bd
00000080: 8c11 a63d 5d35 6b3d 81a8 853d 4a49 a3be
00000090: 642a 3bbe c252 8bbd 4522 2dbe 38fa d63d
000000a0: 3027 39bd 2397 45be 28c6 7bbe 36f6 60bd
000000b0: ae1a 8eba b771 26be 9c81 bdbb ec13 5b3d
000000c0: 00e7 283d 918d 5fbe 78dd c63e 378d 4bbe
000000d0: 0ec6 18bb 0271 5c3d 7df6 a33d 6aac 4fbc
000000e0: b9a1 b53c c468 423d fcbd f43c e6b1 9b3e
000000f0: b4d7 b83c faa0 8c3e 6695 18bd 8e2b bdbc
00000100: c8fa 323e 31c4 56be 0eb4 76bd 8816 ac3e
00000110: 6b87 bd3d ff64 13be c96e ae3e d87d 3dbd
00000120: 9e23 103e 78c5 e23d 4b70 d8bd d9c1 863e
00000130: 8a90 753e 0c35 df3d 28f4 603d cc7e 313d
00000140: 1260 94be 0950 b93e 034a 89be 966b 91be
00000150: 4087 af3e fc3d ffbc dc3c ef3d e842 a83e
00000160: b25b d8bd a63d 71be 7a32 743d 1358 9c3e
00000170: 3612 4d3e 2870 4c3c 6a2a 50be f152 ac3c

attn_net.out.weight f4 [64, 96]
0.13206582 0.008762615 0.017114207 -0.006530259 0.3785724 0.012093514 0.00082518766 0.11228721
0.010431383 0.15340889 0.00011181459 0.5133878 -0.0066852747 0.020431092 0.38589042 0.04872872
-0.019514048 -0.012660457 0.3690401 -0.004095381 0.2821339 0.007897163 0.0009224487 0.07330374
-0.0078704925 -0.013285093 0.07553442 0.0044149067 -0.05325967 -0.027762985 -0.056161057 0.0727104
-0.023273556 -0.011860583 0.17508286 -0.0059000775 0.013917118 0.052279223 0.03094234 0.19149832
0.03287716 -0.0053650485 0.0054113986 -0.005861886 0.0017234075 -0.00070577534 0.16753398 0.057954412
0.116912015 -0.0077006198 0.53403354 -0.02354554 0.056331668 0.16964257 0.1461362 0.013260581
-0.053269796 0.0927643 0.111142464 0.33227834 0.19752057 0.39700308 0.00039702374 0.0036995579
0.08173449 -0.0015535498 -0.06609138 0.50992906 0.2524375 0.044086337 0.4471048 -0.025671503
0.057964418 0.14624172 0.07399401 0.40224662 0.13535666 0.23056424 0.12756595 0.15742636
0.0042017843 0.52722025 -0.008244695 0.00016169855 0.48617026 0.10023269 0.08251827 0.3867754
0.04749698 0.023000568 0.13624184 0.15202703 0.22860321 0.001569205 -0.0081237 0.0026022638
0.05533319 0.021098102 0.06356625 0.0068602967 0.053533096 -0.00030278368 0.02238513 0.042502176
-0.002298377 0.00461511 -0.007093698 0.025601152 -0.06790222 0.030599073 0.06803848 0.028940707
0.03689436 0.038576886 -0.096722364 -0.008119768 -0.059219506 0.038739048 -0.0036100629 -0.0055419616
-0.0073668635 -0.009232204 0.0030942787 0.04668888 0.06941992 0.00746254 0.0023356238 0.0049987473
-0.0068930313 0.0072902846 0.025746422 0.013927131 -0.0708549 0.060094252 0.00072115066 0.063571855
0.02296159 -0.0053200396 -0.15462033 -0.02235055 -0.0068690693 0.04865088 -0.0046891137 0.053649418
0.0032415253 0.062630415 0.023136748 0.048129424 0.0070462786 0.02066843 -0.0076057096 0.0014470252
0.03154902 -0.0054608453 -0.009587097 0.00209212 -0.0090593565 0.05012933 -0.004366769 -0.008190177
0.045296405 -0.0010943089 0.006772981 0.041809637 0.033068113 0.060381122 0.0031284103 -0.007293748
-0.0077326857 -0.0851939 0.04063709 0.031103186 0.050893676 -0.0276214 -0.00021432666 -0.007892746
0.05135638 0.008148102 0.03040197 -0.00052220665 -0.054568827 -0.0072920728 0.05591003 0.054015942
0.03864441 0.061014894 0.005333673 0.0306684 0.06703695 0.00026577432 0.060724143 0.0005269516
0.05782054 0.05171775 -0.0037143975 -0.0049114404 0.04205811 -0.0065454533 0.029460398 -0.021755474
-0.0011020009 -0.0060102455 0.0062789847 0.06077718 -0.011378679 0.027989395 0.038710076 0.03179778
0.006189949 0.04208923 -0.12036199 -0.051281057 -0.10027162 0.054090995 -0.019624572 -0.008366803
0.0022948394 0.004950464 -0.0053598452 0.06475705 -0.0063141827 0.007003792 0.0050165905 -0.0049763997
-0.0069757914 -0.007084704 0.06277728 0.043569345 -0.049296163 0.0014824293 -0.050564982 0.0069239307
-0.018781526 -0.0024524853 -0.17691138 -0.010283664 0.0070901117 0.053498827 -0.06561976 0.0638804
0.008202263 0.06508859 -0.08722438 0.054175135 -0.0048201038 0.04027586 -0.01498821 0.0067893015
0.044304255 -7.414119e-05 0.005128534 0.028166583 0.01817338 0.052961964 -0.0015233802 0.0068365214
00000000: 433c 073e 1291 0f3c 1833 8c3c c8fb d5bb
00000010: 3ed4 c13e e023 463c 6851 583a d6f6 e53d
00000020: 64e8 2a3c 3817 1d3e 007e ea38 626d 033f
00000030: 2610 dbbb 1b5f a73c 6e93 c53e c497 473d
00000040: eddb 9fbc ce6d 4fbc d3f2 bc3e 8c32 86bb
00000050: db73 903e 1a63 013c 7cd0 713a 4520 963d
00000060: 3df3 00bc b8a9 59bc cab1 9a3d ecaa 903b
00000070: d026 5abd 336f e3bc 2309 66bd 31e9 943d
00000080: 2fa8 bebc e452 42bc ec48 333e 7055 c1bb
00000090: a004 643c bd22 563d ca7a fd3c 2318 443e
000000a0: 33aa 063d 4acd afbb 1a52 b13b 1015 c0bb
000000b0: f6e3 e13a c803 39ba 078e 2b3e 9b61 6d3d
000000c0: 916f ef3d 7b55 fcbb 6cb6 083f 94e2 c0bc
000000d0: 09bc 663d c8b6 2d3e baa4 153e e842 593c
000000e0: 6e31 5abd 36fb bd3d a99e e33d 6320 aa3e
000000f0: d542 4a3e fd43 cb3e a027 d039 4874 723b
00000100: 6a64 a73d 7ba0 cbba eb5a 87bd b68a 023f
00000110: 7d3f 813e e093 343d ecea e43e 0b4d d2bc
00000120: 196c 6d3d 64c0 153e 2c8a 973d 45f3 cd3e
00000130: f09a 0a3e 0819 6c3e a6a0 023e 6034 213e
00000140: 1faf 893b e8f7 063f c214 07bc a08d 2939
00000150: 4feb f83e cc46 cd3d 57ff a83d 6d07 c63e
00000160: 318c 423d b06b bc3c fb82 0b3e f9ac 1b3e
00000170: f616 6a3e c8ad cd3a 4419 05bc be8a 2a3b
00000180: 0ea5 623d edd5 ac3c 062f 823d 57cc e03b
00000190: 8545 5b3d f0be 9eb9 0561 b73c c316 2e3d
000001a0: 5ea0 16bb 593a 973b 4072 e8bb 82b9 d13c
000001b0: 5210 8bbd e8aa fa3c c257 8b3d 1015 ed3c
000001c0: 8a1e 173d cc02 1e3d 6016 c6bd c708 05bc
000001d0: 2790 72bd d6ac 1e3d ce96 6cbb 5899 b5bb
000001e0: bb65 f1bb ac42 17bc 62c9 4a3b d73c 3f3d
000001f0: 082c 8e3d 5388 f43b 4411 193b 88cc a33b
00000200: f0de e1bb 57e3 ee3b 29ea d23c 9f2e 643c
00000210: 601c 91bd 6425 763d 9a0b 3d3a f631 823d
00000220: f219 bc3c ba53 aebb cb54 1ebe 8018 b7bc
00000230: ee15 e1bb 2546 473d 23a7 99bb 7ebf 5b3d
00000240: c56f 543b 6044 803d 4789 bd3c 5c23 453d
00000250: 78e4 e63b d750 a93c 5139 f9bb 1caa bd3a
00000260: 8c39 013d e4f0 b2bb 3313 1dbc f31b 093b
00000270: b26d 14bc 6a54 4d3d 1d17 8fbb 1830 06bc
00000280: b988 393d ea6e 8fba e2ef dd3b 9540 2b3d
00000290: 6e72 073d 3252 773d 0406 4d3b 6500 efbb
000002a0: 7862 fdbb 247a aebd 1473 263d 1ccc fe3c
000002b0: e375 503d 4646 e2bc e0bc 60b9 9350 01bc
000002c0: 115b 523d 9e7f 053c 8d0d f93c b2e4 08ba
000002d0: 9083 5fbd 57f2 eebb ea01 653d d23f 5d3d
000002e0: 9a49 1e3d c1ea 793d 18c6 ae3b 4c3c fb3c
000002f0: ab4a 893d a057 8b39 e1b9 783d 2023 0a3a
00000300: 3bd5 6c3d fed5 533d 406d 73bb 26f0 a0bb
00000310: 2045 2c3d 3e7b d6bb ef56 f13c 8938 b2bc
00000320: 0471 90ba 98f1 c4bb f1bf cd3b 7ef1 783d
00000330: a46d 3abc 044a e53c 758e 1e3d 643e 023d
00000340: 0ed5 ca3b c265 2c3d 5980 f6bd 160c 52bd
00000350: 355b cdbd 858e 5d3d b6c3 a0bc ea14 09bc
00000360: 0465 163b 8037 a23b a4a1 afbb 589f 843d
00000370: 34e7 cebb 1180 e53b 3662 a43b 1111 a3bb
00000380: 2e95 e4bb ce26 e8bb 6091 803d c575 323d
00000390: c6ea 49bd 134e c23a 3a1d 4fbd 24e2 e23b
000003a0: b7db 99bc e0b9 20bb 4228 35be d07c 28bc
000003b0: 2b54 e83b 9621 5b3d a763 86bd bad3 823d
000003c0: c962 063c 2b4d 853d b2a2 b2bd bfe6 5d3d
000003d0: f6f1 9dbb 4df8 243d 1c91 75bc ca78 de3b
000003e0: 6178 353d 407c 9bb8 430d a83b 9bbd e63c
000003f0: 57e0 943c a5ee 583d 28ac c7ba e604 e03b

attn_net.out.bias f4 [64]
0.023049347 -0.29315355 -0.29497766 -0.24946885 0.10058455 0.24059543 -0.2301054 -0.4151277
-0.32900336 -0.30757323 0.4405134 -0.061909016 -0.14514564 -0.23497319 0.2232282 0.07592957
-0.31850538 -0.26621047 0.47334623 0.24744888 -0.27793214 0.3550992 -0.17401959 -0.33712676
0.32955387 -0.14668453 -0.26797703 -0.33508644 0.28267163 0.26263693 0.3607075 -0.22126406
0.07256934 -0.17700447 -0.21587867 0.2856309 -0.0034650448 -0.30784398 0.35640678 -0.14421377
0.36192214 -0.00194491 -0.402159 0.08067529 0.42564958 -0.07438408 0.15734713 0.26359057
0.047681432 -0.44634324 -0.16038609 0.04317698 -0.09902628 0.0020800126 0.26756698 -0.14059097
0.22417091 -0.32615048 -0.28032312 -0.014542897 0.030422533 0.28049776 0.33084574 -0.15267871
00000000: fcd1 bc3c 3918 96be 5007 97be c374 7fbe
00000010: 46ff cd3d a65e 763e c0a0 6bbe 9e8b d4be
00000020: 2173 a8be 3d7a 9dbe f98a e13e 4f94 7dbd
00000030: 0fa1 14be d09c 70be ef95 643e f680 9b3d
00000040: 2313 a3be bd4c 88be 705a f23e 3d63 7d3e
00000050: 1f4d 8ebe 90cf b53e 3132 32be e19b acbe
00000060: 49bb a83e 7834 16be 4934 89be 7390 abbe
00000070: 56ba 903e 5978 863e a7ae b83e 0c93 62be
00000080: 3c9f 943d a940 35be 4c0f 5dbe 373e 923e
00000090: ce15 63bb ba9d 9dbe f37a b63e c6ac 13be
000000a0: dc4d b93e 5aec feba c9e7 cdbe 1639 a53d
000000b0: beee d93e ae56 98bd 9b1f 213e 58f5 863e
000000c0: 9b4d 433d 1a87 e4be 403c 24be 58da 303d
000000d0: 4ace cabd d250 083b 8afe 883e 14f7 0fbe
000000e0: 0f8d 653e 32fd a6be 8386 8fbe 5545 6ebc
000000f0: ad38 f93c 679d 8f3e 9d64 a93e cf57 1cbe

linear.weight f4 [64, 10]
0.9594466 0.99418736 -0.36324978 -0.50992715 -0.39751658 -0.69854957 -0.39836767 0.20553477
-0.05928882 -0.3556761 0.2438993 -0.0014370921 -0.072349764 0.10158797 0.10306865 -0.03201079
-0.0215987 -0.07373652 0.12049232 0.06674691 0.13976751 0.034390196 -0.023474352 0.0623649
0.038446117 -0.028380819 0.009368776 -0.016074255 0.011174204 0.018330656 -0.2547374 0.11454773
0.037320975 -0.10636164 -0.07864151 0.07438041 -0.11114848 -0.018871577 -0.1592946 -0.10392452
1.0315409 1.1844157 -0.5878537 -0.66631263 -0.6692764 -0.98452044 -0.5861513 0.031638857
0.031561375 -0.69213784 1.0252796 1.0974059 -0.6056417 -0.6522437 -0.665501 -0.89853895
-0.57606894 0.12666687 -0.27621692 -0.7595882 0.09963083 0.3868648 0.100427896 0.15900931
0.14658156 0.14180207 0.16724774 0.014689338 0.116614506 0.13309354 -0.06860036 0.06941669
0.02676001 0.06702987 0.052596197 -0.015995856 -0.12555392 -0.089739986 0.0992911 0.099091634
0.09684247 -0.11305302 -0.04223037 0.4085041 0.06495084 0.013957252 0.08072685 -0.1330726
-0.0663523 0.15637629 -0.18663858 0.33416414 0.114878155 -0.051007643 0.08834893 0.0747477
0.12450753 0.14049955 0.04874406 0.0033835284 -1.2736801 -1.1728225 0.6662782 0.8560335
0.68080217 1.1401588 0.7188568 -0.25712776 0.17518121 0.91158205 0.21110569 0.40295354
-0.15178119 0.019357082 -0.17172274 0.03575594 -0.0061620907 0.02063806 -0.069058865 -0.012696565
0.46706122 0.45184264 0.0277267 -0.113276586 -0.119346246 -0.20463605 -0.009154529 0.10573719
-0.10332474 -0.14784664 0.004890391 -0.047562636 -0.06956893 -0.12979785 0.08416331 0.02304977
-0.0066007543 -0.0062879217 -0.060554653 -0.14268193 -0.41821703 -0.552614 -0.013121242 -0.10013533
0.31303164 0.3675407 0.012062849 -0.03198812 -0.0026687225 0.053633984 -1.129326 -1.1173382
0.584561 0.59048784 0.5280491 0.8339932 0.55421853 -0.14464547 0.16140243 0.6293364
-0.16282234 -0.17881927 -0.09966964 0.0860989 -0.053380914 -0.016275624 -0.09816696 0.012054422
0.007541564 0.09481711 -0.09497409 0.3305102 -0.118722565 0.11303983 0.029750125 -0.026615258
-0.01545684 0.029052183 0.037240233 0.009361099 -0.85411847 -0.9368071 0.4542332 0.45377198
0.51310456 0.74713016 0.39448303 0.009583581 0.27151832 0.4855067 -0.7944595 -0.936439
0.325334 0.29307243 0.36937937 0.685805 0.278856 -0.1298948 -0.108587086 0.30841437
-0.2633242 0.015662491 0.032713987 -0.13693872 -0.066801764 -0.09153993 -0.042006355 0.03273582
-0.0023335814 0.02238833 -1.2362674 -1.2049761 0.4591602 0.5282793 0.6560264 0.7477459
0.76572144 -0.2683745 0.14617163 0.8380112 0.088768125 -0.03362466 0.046506826 0.026598599
-0.10659981 -0.07946741 0.021396093 0.036127865 0.011856098 0.1252891 0.030976389 -0.061431322
-0.016493568 0.095380984 -0.08381512 -0.025286267 -0.046301927 -0.061080143 -0.05448757 -0.030351711
-1.1659687 -1.2273753 0.8053622 0.756388 0.6953771 0.822882 0.7957361 -0.21136396
0.24194469 0.8275697 -0.12981208 -0.18540558 -0.06282934 -0.05347237 -0.0997909 -0.087942354
00000000: 4b9e 753f 1083 7e3f e0fb b9be 968a 02bf
00000010: 4b87 cbbe 25d4 32bf d9f6 cbbe b577 523e
00000020: d5d8 72bd 2e1b b6be bdc0 793e cf5c bcba
00000030: 1d2c 94bd 5b0d d03d a815 d33d bf1d 03bd
00000040: c2ef b0bc 2c03 97bd adc4 f63d 9bb2 883d
00000050: 371f 0f3e bcdc 0c3d 494d c0bc 5672 7f3d
00000060: ad79 1d3d e47e e8bc 7f7f 193c 28ae 83bc
00000070: 0214 373c 2c2a 963c f16c 82be 0098 ea3d
00000080: e1dd 183d 22d4 d9bd cd0e a1bd c254 983d
00000090: d0a1 e3bd 9198 9abc 201e 23be 61d6 d4bd
000000a0: 8809 843f ef9a 973f 957d 16bf 7793 2abf
000000b0: b355 2bbf 8809 7cbf 030e 16bf bf97 013d
000000c0: 8046 013d f22f 31bf 5d3c 833f cc77 8c3f
000000d0: 560b 1bbf 71f9 26bf 465e 2abf a606 66bf
000000e0: 4179 13bf f6b4 013e 4e6c 8dbe 5f74 42bf
000000f0: 400b cc3d 2513 c63e 24ad cd3d 56d3 223e
00000100: 7a19 163e 9034 113e fe42 2b3e 8dab 703c
00000110: 96d3 ee3d ac49 083e 587e 8cbd 562a 8e3d
00000120: cf37 db3c f546 893d 1c6f 573d be09 83bc
00000130: 3591 00be 99c9 b7bd 2259 cb3d 8ef0 ca3d
00000140: 5855 c63d 5788 e7bd c1f9 2cbd 7327 d13e
00000150: f204 853d f5ac 643c 1e54 a53d 2f44 08be
00000160: b7e3 87bd 1b21 203e 2f1e 3fbe 9017 ab3e
00000170: 3d45 eb3d 64ed 50bd 49f0 b43d 5215 993d
00000180: cefd fe3d 1ddf 0f3e daa7 473d 30be 5d3b
00000190: f307 a3bf 0c1f 96bf 3591 2a3f 0325 5b3f
000001a0: 0d49 2e3f b9f0 913f 0007 383f 40a6 83be
000001b0: b462 333e 715d 693f 172c 583e ed4f ce3e
000001c0: 876c 1bbe be92 9e3c 16d8 2fbe d274 123d
000001d0: 5deb c9bb 2611 a93c bc6e 8dbd 4105 50bc
000001e0: a622 ef3e eb57 e73e 1b23 e33c 8efd e7bd
000001f0: ce6b f4bd 1d8c 51be e1fc 15bc bd8c d83d
00000200: ec9b d3bd 1c65 17be 933f a03b 0ad1 42bd
00000210: 287a 8ebd bae9 04be d05d ac3d dfd2 bc3c
00000220: 244b d8bb e90a cebb 2808 78bd 361b 12be
00000230: 8b20 d6be 1c78 0dbf 7afa 56bc c013 cdbd
00000240: af45 a03e 4b2e bc3e 41a3 453c fa05 03bd
00000250: bce5 2ebb 4faf 5b3d c18d 90bf f004 8fbf
00000260: caa5 153f 362a 173f 3a2e 073f 9480 553f
00000270: 44e1 0d3f f11d 14be ae46 253e 311c 213f
00000280: e6ba 26be 661c 37be 991f ccbd 9f54 b03d
00000290: f2a5 5abd 7554 85bc c20b c9bd e97f 453c
000002a0: 391f f73b 792f c23d c781 c2bd a238 a93e
000002b0: d124 f3bd 6d81 e73d 89b6 f33c 3e08 dabc
000002c0: b03e 7dbc d8fe ed3c 3789 183d 4c5f 193c
000002d0: 82a7 5abf 97d2 6fbf 4191 e83e cd54 e83e
000002e0: d25a 033f ec43 3f3f aef9 c93e 7404 1d3c
000002f0: 7304 8b3e 5694 f83e b361 4bbf 77ba 6fbf
00000300: 2e92 a63e 970d 963e 4b1f bd3e eb90 2f3f
00000310: 37c6 8e3e 2403 05be e862 debd 7de8 9d3e
00000320: 6ed2 86be a04e 803c 1aff 053d aa39 0cbe
00000330: 5dcf 88bd 4979 bbbd db0e 2cbd ff15 063d
00000340: 00ef 18bb bb67 b73c 033e 9ebf a83c 9abf
00000350: 0c17 eb3e 503d 073f 59f1 273f 466c 3f3f
00000360: 5206 443f 6268 89be 04ae 153e e787 563f
00000370: 10cc b53d 03ba 09bd f17d 3e3d 4ee5 d93c
00000380: 0051 dabd cfbf a2bd dc46 af3c d0fa 133d
00000390: 1440 423c c94b 003e 32c2 fd3c 699f 7bbd
000003a0: 851d 87bc 1b57 c33d 43a7 abbd 2525 cfbc
000003b0: 17a7 3dbd 2c2f 7abd 5c2e 5fbd 27a4 f8bc
000003c0: 763e 95bf a21a 9dbf 382c 4e3f a5a2 413f
000003d0: 3c04 323f 65a8 523f 5cb5 4b3f cb6f 58be
000003e0: 59c0 773e 9cdb 533f 75ed 04be f6da 3dbe
000003f0: abac 80bd d805 5bbd 2c5f ccbd 1f1b b4bd
