outlier-interpretation-Xu/checkpoints/DNWMhkYz_checkpoint.pt (torch, 103259 bytes, 5 tensors)

attn_net.hidden.weight f4 [96, 192]
000000 60 10 8c bc 6a 75 43 bb 30 af 9a 3b c7 f5 11 3b
       -0.017097652 -0.0029824623 0.004720591 0.002227174
000010 9c 41 c8 bb 52 24 2d 3b d7 30 c8 3b 57 f1 e9 3b
       -0.006111337 0.0026419354 0.006109338 0.0071393657
000020 89 d6 05 3b 0e bf 13 ba ee e8 7c 3c bc 8a b6 3b
       0.0020422062 -0.00056360743 0.015436394 0.0055707376
000030 cd 43 15 3b 46 3a 76 bc 63 c5 82 bc 36 46 f1 bb
       0.0022776008 -0.015028542 -0.015963262 -0.007363106
000040 ea e9 c7 3b 98 9c e9 ba 5c ca 98 bb 2a 07 a0 bb
       0.006100883 -0.0017823158 -0.004662795 -0.0048836665
000050 4e 55 5e 3a 68 24 55 bc 22 b2 fb bb 40 ab b5 bb
       0.00084813393 -0.013009168 -0.007681147 -0.005544096
000060 66 07 c5 bb 6e 44 d2 ba 2a b8 34 3c 90 f6 d1 3b
       -0.006012845 -0.0016042122 0.011030236 0.0064075664
000070 82 86 a1 3c 3e 88 ee bb fe 7a 40 bc cb 2f 30 bc
       0.019717459 -0.007279425 -0.011748074 -0.010753582
000080 f3 b3 f6 3b 4b 70 83 3c 64 c7 9f ba a6 29 b2 bb
       0.007528776 0.016044756 -0.001219016 -0.005437094
000090 24 b8 c2 bb 2d e7 44 3b f8 87 c6 bc 7a 26 61 3c
       -0.0059423614 0.0030045018 -0.024234757 0.013742084
0000a0 91 45 fe bc 30 9d ab 3b 08 1f 13 ba b6 de 1d 3b
       -0.031039031 0.005237244 -0.0005612229 0.0024089045
0000b0 9a f4 5d bb 24 3f 17 bc 75 23 d8 bb 67 57 76 bb
       -0.0033867718 -0.0092313625 -0.0065960237 -0.0037588717
0000c0 0f 62 10 3b ec d7 e5 ba 20 fc 4b bb 9e d3 fd ba
       0.0022031104 -0.0017535663 -0.003112562 -0.0019365435
0000d0 8e 6e 56 3c 3a c5 ae 3c b0 86 db 3b 0b 0d da bb
       0.013087882 0.02133428 0.0066994056 -0.006654387
0000e0 a5 61 f5 3b 63 51 a2 3b 4a ec e2 bc c2 f2 19 bc
       0.007488447 0.0049535497 -0.027700562 -0.009396257
0000f0 b8 86 95 ba 98 f9 ac 39 00 fd 02 3c 5a 03 a6 bb
       -0.0011407947 0.00032992358 0.00799489 -0.0050663175
000100 1f 2d 3d 3a ff 9a a9 3b 6c 88 c3 3a 46 51 a6 3c
       0.00072165014 0.0051759477 0.0014917976 0.020302426
000110 64 d5 7e 3c 19 76 b1 3b 1b e2 48 bb 21 bd 0a bc
       0.015553806 0.0054156897 -0.0030652347 -0.008467943
000120 50 37 b8 3a 22 d8 ae bb d6 28 99 3b 16 7a ec 3b
       0.001405457 -0.0053358236 0.0046740575 0.007216702
000130 f5 b0 b0 3b a9 f8 ca 3b bd 1f 44 3c 64 7e 3a bb
       0.0053921887 0.0061941934 0.011970458 -0.0028456682
000140 6f a4 22 bc 30 52 e1 b8 7f af 7e bc b8 48 87 3b
       -0.009926899 -0.00010744145 -0.015544771 0.004128542
000150 0a 64 c1 3a 64 fb 35 3a ae 06 55 bb 64 b8 45 3a
       0.0014754545 0.0006942062 -0.0032505202 0.000754243
000160 14 b9 0d 3c fb 1b 4e bb e2 b7 8d ba 38 a7 cb bb
       0.008650083 -0.0031449783 -0.0010812248 -0.0062150024
000170 50 8a 27 3b 58 ef eb 39 a6 da 71 bb 94 91 70 3c
       0.0025564618 0.00045001018 -0.0036904006 0.014683146
000180 a2 28 91 bc 0e 37 9b bb 40 08 f9 3b 70 4f eb 3c
       -0.01771957 -0.0047367876 0.0075998604 0.028724402
000190 50 46 82 b9 64 39 45 3c 96 9d 9a 3b 80 3d 91 bc
       -0.0002484792 0.012037609 0.0047184927 -0.01772952
0001a0 f0 9e fd b9 3b 7f 9b 3b 65 a8 f4 bb 5a a5 90 3b
       -0.00048374338 0.0047453917 -0.0074663633 0.0044142427
0001b0 0e 3b 92 bb 9b 83 ab bb a2 0a cf 3b dc 3b ec 3c
       -0.0044626063 -0.0052341945 0.006318406 0.028837137
0001c0 be 81 e3 3b 84 5c 53 bb 42 2d 89 3b 99 21 4a bc
       0.0069429567 -0.0032251189 0.0041863034 -0.012337112
0001d0 ba 0f 4d 3c 13 29 59 bb b2 f9 fc 3b 60 bb a3 39
       0.012515957 -0.0033136054 0.0077201957 0.00031229388
0001e0 b9 ad 16 bc 37 c3 89 3b 1b da ba 3a fc c2 c7 3b
       -0.009196692 0.0042041796 0.0014255674 0.006096242
0001f0 e2 ef 9c 3a 88 69 f6 bb ee 0d 6a bb 95 1d 35 3c
       0.0011973346 -0.0075199045 -0.003571387 0.011054416
000200 c0 59 7a bc 88 ee b4 bb b4 39 28 3b 28 9e fd 3a
       -0.015280187 -0.005521599 0.002566916 0.0019349502
000210 32 d2 c6 bb c2 37 3d 3b f2 8a 30 bc 84 1c ca bb
       -0.0060675377 0.0028872346 -0.010775315 -0.00616795
000220 30 3e 5b ba f5 34 0e bc 9c d6 c9 bb a8 46 5c bb
       -0.00083634537 -0.008679618 -0.0061596166 -0.003361145
000230 ff 1b 37 bc 46 72 8c ba fc 6d 6a bc 79 ba 70 bb
       -0.011176108 -0.0010715208 -0.014308449 -0.003673224
000240 48 3c 59 3c 06 ab 38 bb bc cb f3 bb b7 5f d2 3b
       0.013259001 -0.002817811 -0.0074400585 0.0064201015
000250 12 89 7f 3a 2c bb a1 3a 88 c9 e2 b9 60 67 ad 39
       0.0009747903 0.0012339107 -0.00043256232 0.00033074152
000260 53 06 cc ba ea 57 ce bb df ce a2 3b e1 20 d1 3b
       -0.001556585 -0.0062971013 0.0049685086 0.0063820933
000270 67 48 b5 3b 76 c3 fc bb 49 18 10 bb c2 35 01 3c
       0.0055323127 -0.0077137304 -0.0021987131 0.007886352
000280 8c 0b 64 3b b0 01 2e 39 6c e5 7a 3a 22 c6 a0 bb
       0.0034796922 0.00016594562 0.00095709297 -0.004906432
000290 d2 ee d4 bb d8 31 eb b9 ec fd b7 ba b8 37 c1 bb
       -0.006498196 -0.0004485983 -0.0014037467 -0.005896535
0002a0 a6 70 6c 3b 90 f4 e3 3b 19 a0 39 bc b6 12 9f bb
       0.0036077886 0.0069566444 -0.011329674 -0.0048545254
0002b0 54 d5 cb bb 83 01 23 3b dc f3 49 3b ea fa ed 3b
       -0.006220499 0.0024872727 0.0030815518 0.0072625773
0002c0 40 c0 32 3a 36 4a b2 3a bc 0b 09 3c 1a 01 74 bb
       0.00068188086 0.0013602439 0.008364614 -0.0037232102
0002d0 32 96 45 3c 82 dd 2a bc 04 ea e5 ba 23 38 af bb
       0.012059735 -0.010428788 -0.0017541056 -0.005347268
0002e0 71 19 bc bb 26 a6 93 bb f0 e8 9c 3b e1 d6 cb ba
       -0.0057403375 -0.0045058904 0.0047885105 -0.001555171
0002f0 86 75 49 bc 88 b2 ee 3b 82 ab 4f 3b 02 1b d7 3a
       -0.012296086 0.007284466 0.003168792 0.0016411247
000300 11 ed c5 3b 5e 68 2a 3b ba 89 bf bc 0f 43 d0 bc
       0.0060402234 0.002600215 -0.023381103 -0.025422601
000310 64 63 3b bd d6 09 e2 bc c7 9b 25 bd 9c ec 3b bd
       -0.045749083 -0.02759258 -0.040431764 -0.045879945
000320 08 46 8f 3a 1b 21 82 3d b8 2b 41 3d 08 03 f6 ba
       0.0010930905 0.063539706 0.047160834 -0.0018769214
000330 67 29 12 bd 72 48 26 bc f3 96 a8 3b 06 b0 5b bd
       -0.035684016 -0.010149108 0.0051449477 -0.053634666
000340 95 8a 72 bd cc c2 f4 3d 42 9a e6 3c 96 ac 8b 3c
       -0.059214193 0.11951217 0.028149728 0.017050069
000350 bb f5 df 3c 7d 4c 08 3d 9d 7b e8 bd ce bb 05 3d
       0.027338853 0.03327607 -0.11351702 0.032649808
000360 a2 97 3d 3d a5 9e 33 bc 2c a0 7e 3c f2 03 91 3c
       0.046287186 -0.010963117 0.015541118 0.017702077
000370 4d 75 d5 3c ac ff 43 3c e3 f1 00 3d 72 d4 90 3c
       0.02605691 0.011962812 0.03148068 0.017679427
000380 56 c8 20 be b6 91 61 3b b1 5f 8a 3d d7 17 98 3c
       -0.15701422 0.0034419126 0.06756533 0.018566055
000390 f3 d6 a5 bc 70 6a f7 bc cb e7 c9 bc 59 3b 4d 3d
       -0.020244097 -0.03020212 -0.02464666 0.050105426
0003a0 27 15 d2 bc 49 c6 88 3c 28 66 fe 3c f0 90 cd 3c
       -0.025644852 0.016696112 0.031054571 0.025093526
0003b0 42 70 a0 3d 1c a5 b6 3c 1a 63 52 3d d2 81 0f 3d
       0.078339115 0.022295527 0.051364042 0.035035916
0003c0 bc 10 89 bc 37 d0 a9 3b 6d 18 47 bd 35 a0 8a bc
       -0.016731612 0.005182292 -0.04860728 -0.016922096
0003d0 4e d7 a8 bc 9d 8f 95 bd 41 97 3b 3c 58 3a 1e ba
       -0.020610478 -0.07302783 0.011449636 -0.00060359156
0003e0 ce 88 5c bd cb 37 1c 3d 02 dd 7e 3c ae d1 84 3d
       -0.053841405 0.038139146 0.015555622 0.06485306
0003f0 f6 bb c6 bc e6 fa 5b bd 72 02 a9 bd bf 2c b2 bd
       -0.024259549 -0.053706072 -0.082524195 -0.08699941

attn_net.hidden.bias f4 [96]
000000 18 0c bd 3b 43 50 3c 3e 45 45 8e be b6 9d 8f be
       0.005769264 0.18389992 -0.27787223 -0.2805001
000010 44 24 98 3c 23 ca 0f be 7e 19 cc 3d db cf 91 3e
       0.01857198 -0.14041953 0.099658 0.28478894
000020 0a b6 f7 3c a1 5e fa bc b5 9b 23 be 15 cb 01 3d
       0.03023817 -0.0305627 -0.15977366 0.031687815
000030 7d b2 7f bb 7b d8 b6 3e 1c 26 cc 3a 2a f9 aa 3d
       -0.00390163 0.35712036 0.0015575322 0.083483055
000040 1e ad 1d 3e 15 f8 bd bd 1c 1c 83 be 6b 38 a0 bd
       0.1539807 -0.092758335 -0.25607383 -0.07823261
000050 d8 06 32 bc 9f 4e 67 3d 4a d0 9c be 0e 2e 8c be
       -0.0108658895 0.056471463 -0.30627662 -0.27378887
000060 46 9f 8d bb d2 ba 8d 3e 41 6a 07 3d a8 76 b6 3c
       -0.0043219654 0.27681595 0.033060316 0.022273377
000070 25 76 82 be 68 6c 97 bd 76 5f ba bc 0a 78 3d be
       -0.25480762 -0.07393724 -0.022750597 -0.18502823
000080 2b 51 35 bd 02 b1 a3 3e 63 aa 65 bd e4 88 7c 3e
       -0.04426686 0.31970984 -0.056070697 0.24661595
000090 52 86 af bc 51 33 37 3d 9b d5 98 bc be ed 86 3e
       -0.021426354 0.044726674 -0.018656543 0.26353258
0000a0 c7 a7 d2 3e 6c ba d4 3c e2 1b 87 bb e7 6b 59 3e
       0.4114363 0.0259678 -0.004123197 0.21232568
0000b0 46 18 52 3c 4f 5e 23 3c 2b f7 2f 3d e1 b4 4a bd
       0.01282317 0.009971215 0.042960327 -0.049488906
0000c0 e1 8c c2 3c c6 aa ad bb 4a 4f 7e 3d 51 4b ff 3c
       0.023748817 -0.005299899 0.062087335 0.031163843
0000d0 ba cb 6e bb b3 0c 07 bd 67 45 26 3c 4f 3c a6 3e
       -0.0036437348 -0.032971095 0.010148383 0.32467887
0000e0 e3 b9 6b bd b4 da d4 3d 8f de 44 3d d8 f6 36 3e
       -0.057550322 0.10393277 0.04806381 0.17867601
0000f0 03 70 2c be 0b 97 8b be b2 1c a7 bd 8f c7 43 bd
       -0.16839604 -0.27263674 -0.0815977 -0.047797736
000100 29 3a 60 be 8c 97 ae 3e 2e 32 81 3c 16 1b bf be
       -0.21897186 0.34099996 0.015770998 -0.37325352
000110 74 d6 1c 3e 10 8f bc 3e 27 6b c0 bd c0 bf 8b bc
       0.15316182 0.36827898 -0.09395438 -0.017059207
000120 7d 05 b2 be e0 d3 8b bb 59 da 22 bc 37 36 7b bd
       -0.34769812 -0.004267201 -0.009939753 -0.061331
000130 81 91 f9 3d 41 3b 5e be 90 98 95 3e e8 03 48 3e
       0.12185956 -0.21702291 0.29217958 0.1953274
000140 ee 5d 80 3c 39 2b 36 3d 31 3f 89 be 33 7b 58 bd
       0.01566979 0.044474814 -0.26806024 -0.052851867
000150 f4 bd 79 3e 15 b0 38 3c 45 53 3b bd 76 e0 4d bd
       0.24388868 0.01127245 -0.04573371 -0.05026289
000160 8f 4d 3e bc b6 64 a5 bd 1a 18 99 3b ac 73 c0 bd
       -0.011615171 -0.0807585 0.0046720626 -0.09397063
000170 90 81 cd bd a1 73 21 bd 6a 45 a2 be 34 6e 5f 3e
       -0.10034478 -0.039416913 -0.31693584 0.21819383

attn_net.out.weight f4 [64, 96]
000000 c7 6d c9 3c 0a b1 1e 3f cc 0f 68 bc 3c 9b 89 3a
       0.024588479 0.6198889 -0.0141639225 0.0010498534
000010 72 d2 7a bc 56 28 51 bc 3a 49 bd 3e f0 5d 5b 3f
       -0.015308963 -0.0127659645 0.3696993 0.8569021
000020 8c 5d 0a 3e 4e b6 05 bc ba 70 a8 3c 2b c9 f0 3d
       0.13512248 -0.008161141 0.020561565 0.1175712
000030 e7 f8 6f 3d 01 07 38 3f a5 f3 a7 3d 8b 27 7d 3e
       0.05858698 0.7188569 0.082007684 0.24722116
000040 3b ec 94 3e e0 54 00 3e c3 ef 87 3b 5f 9a a9 3d
       0.2908648 0.12532377 0.004148455 0.08281397
000050 48 7c f4 bc 0a 4b 0e 3e 75 78 df bc 2a c1 d9 3b
       -0.029844418 0.13895813 -0.027279118 0.0066453414
000060 5d e4 6c 3d fe 9b f8 3e 30 8f a9 3d d3 1f 30 3e
       0.05783497 0.48556513 0.08279264 0.1719964
000070 89 4c b8 3b 85 30 3a bc db 24 21 bc e5 1b f2 3b
       0.005624358 -0.011364107 -0.009835447 0.007388579
000080 15 14 a3 3c 01 41 b3 3e 2b dd ca 3d 5e 26 12 3f
       0.019907037 0.35010532 0.09905466 0.57089794
000090 88 79 79 bc 93 06 00 3d 04 96 07 3c cd 2d 11 3f
       -0.015226729 0.03125627 0.008275513 0.5671051
0000a0 22 8f 57 3f b5 f0 f1 3d 0a 30 fb bc 13 8c e3 3e
       0.8420278 0.11813489 -0.030662555 0.44442806
0000b0 86 04 92 3c 30 09 30 bb 38 56 0f bd cb 60 7c 3d
       0.017824423 -0.0026860945 -0.034994334 0.061615746
0000c0 3e 86 1b 3e 8a c8 ab bd 33 9e 38 3e 1c 7f bd 3c
       0.15187928 -0.08387859 0.18029098 0.0231319
0000d0 00 b4 e9 3c cd ca 1e 3d 23 b3 e3 3b 9f 3d 26 3f
       0.028528214 0.038767625 0.006948845 0.64937776
0000e0 7e 62 98 3e 95 a1 4a 3e b8 b9 d6 3d 3c c4 be 3e
       0.29762644 0.19788201 0.10484642 0.3725909
0000f0 df 9b aa bb cf 60 d6 3b f4 95 c7 3a 72 0c 0f bd
       -0.0052065696 0.006542302 0.0015227185 -0.03492398
000100 e2 c7 83 bb bd 1c 41 3f fb af b6 3b d1 fa ec bb
       -0.0040216306 0.75434476 0.0055751777 -0.007232048
000110 16 3b a3 3e c1 43 3b 3f 5d 43 f1 bc c1 07 fe 3c
       0.31881016 0.7315026 -0.029451067 0.031009557
000120 4a eb c3 3a 76 6c de 3e 7e 74 9c bd 68 8f ce bc
       0.0014947441 0.43442124 -0.076394066 -0.025214866
000130 e7 43 7d 3e b5 ad 21 3c f1 93 20 3f b3 3e f3 3e
       0.24732934 0.009868075 0.6272574 0.47508773
000140 d4 24 8e ba 3c c8 49 3e 86 25 b4 3a 11 3c 1a 3d
       -0.0010844716 0.1970529 0.0013744093 0.03765494
000150 42 d3 e3 3e ff b1 85 3e de 5b f7 3b df 78 38 3e
       0.44497114 0.26112363 0.007548793 0.18014859
000160 fb 04 52 3e 97 71 41 bc 06 ea 0b bc fd f2 1e bd
       0.20509712 -0.011806867 -0.008539682 -0.03880595
000170 d6 0e ad 3d cf 27 fd bb c8 d3 33 bb 4d 9a 9d 3e
       0.08450095 -0.007725693 -0.0027439464 0.30781785
000180 f4 b4 b5 3c 54 b8 d1 3d 07 72 58 3e 80 df a3 bc
       0.022181012 0.10240236 0.21137248 -0.020004034
000190 df 16 d6 3c 79 38 33 3e c2 9e aa 3e 2b 3b c3 3d
       0.026133953 0.17502011 0.33324248 0.0953277
0001a0 16 73 da 3d f2 f4 39 3d ff 09 8d 3d 71 34 b1 3d
       0.10666482 0.045399614 0.06886672 0.086525805
0001b0 68 f8 88 3d ce 3a 0f 3b 7f 3c 73 bd ed da a1 3e
       0.06688005 0.0021855119 -0.059383865 0.3161234
0001c0 d7 94 e9 3e 3e 50 6b be c4 82 34 bd 5f 2c 02 3e
       0.45621368 -0.22979829 -0.04407002 0.12712239
0001d0 0c 5d 0d be 15 be 74 3e 53 50 8a 3c 4b c6 a0 bc
       -0.13805026 0.23900636 0.016884005 -0.019625803
0001e0 42 02 0a 3d 9a 28 63 3d 54 be 17 3e 34 05 41 3e
       0.03369356 0.055458643 0.14818698 0.18849641
0001f0 40 60 a2 3c 73 79 2f be 67 a9 5f bc 7c f2 96 3c
       0.019821286 -0.17136173 -0.0136512285 0.018426172
000200 3e d1 48 3e 50 23 8c 3d 04 77 0e be 0a 29 bd 3d
       0.1961107 0.06842673 -0.13912588 0.09236343
000210 1b f4 b2 bb 20 f0 dc bd 62 66 28 bd c1 d2 84 ba
       -0.0054612285 -0.10787988 -0.041113265 -0.001013361
000220 05 99 a6 3d b1 b7 21 3e 77 ab 27 3c 2c e8 f0 bb
       0.08134655 0.15792729 0.0102337515 -0.007351896
000230 00 43 0c 3d 48 88 79 bc 74 dc f8 3d d2 a2 e3 3d
       0.034243584 -0.015230246 0.12151423 0.1111504
000240 90 f2 df 3d 1a b4 b7 bb 10 b1 40 3e 5b ed 55 3c
       0.10934937 -0.0056061866 0.18817544 0.013057078
000250 24 b3 8d 3e c9 20 a6 3d 3c b2 b3 bb 11 48 d9 3d
       0.27675736 0.08111722 -0.0054838937 0.10609449
000260 89 5a 55 bb f2 2d c5 3e 0f ef 2a 3e 90 69 d5 3c
       -0.0032555184 0.38511616 0.16692756 0.026051313
000270 45 d9 52 3e 8c 8f 93 3e 18 7d d7 bc 8c 83 e3 bd
       0.20590694 0.28820455 -0.026304767 -0.11109075
000280 51 17 8f 3e af 94 e1 3c 2a 30 4d bc ff 15 1f 3e
       0.27947477 0.027536718 -0.01252369 0.15535735
000290 b6 17 a2 3e 6f 8e f0 3d 64 40 9e 3e f6 a3 93 ba
       0.31658715 0.11745917 0.309085 -0.0011264074
0002a0 2b 0d 39 3e e9 c0 a7 3d fb 3f 9a bd a9 f7 0a bc
       0.1807143 0.081910916 -0.075317346 -0.008481898
0002b0 59 87 ba 3e bf 9d eb 3d c5 6e 22 3d 07 ab 2f bd
       0.36431387 0.11504697 0.03965642 -0.042887714
0002c0 87 88 0e 3e 52 d9 8e 3e 5a 36 3b 3e be 2d c9 bc
       0.13919269 0.27900177 0.18282452 -0.024557944
0002d0 ba 0f 86 bd 35 0d 79 3e 29 90 38 be 69 20 dc 3d
       -0.06545968 0.24321444 -0.18023743 0.10748369
0002e0 7e a6 4b be 15 53 5b be 68 f1 66 bc 75 4b 37 bc
       -0.1988773 -0.21418412 -0.014095642 -0.011187424
0002f0 38 28 09 be 7a 55 e7 bd 63 ba 9a 3e 42 62 36 3c
       -0.13394248 -0.112956 0.30220327 0.011131825
000300 80 fe fa b9 c0 14 4e 3f ec af 29 3d 9e df 4a bd
       -0.00047873333 0.8050041 0.041427538 -0.049529664
000310 72 3e 1d bd d7 5a 09 3d 0b 0b 7a 3e 55 f2 4a 3f
       -0.03838963 0.033533897 0.24418275 0.7927602
000320 2e 92 0a 3e 14 94 cb bc ab dd 7b bd 87 d2 d0 3d
       0.13532326 -0.024850883 -0.061490696 0.10196405
000330 80 43 8f 3d 9a 7d 5a 3f 37 5d 2f 3e 32 56 5f 3e
       0.069952965 0.853479 0.17125402 0.21810225
000340 22 b3 ac 3e e5 b3 44 3e aa df 43 bd fc 4a fa 3a
       0.33730417 0.1920925 -0.047820725 0.0019095833
000350 34 ca b8 bd 1f 6c 33 3e b0 3e 38 bc 30 57 be 3c
       -0.09022942 0.17521714 -0.011245415 0.023234934
000360 72 2c d0 3e b7 27 27 3f c4 a0 74 3d 18 65 cf 3d
       0.4065891 0.65294975 0.05972363 0.10126704
000370 8d 07 14 bd 6d c3 23 bd 64 88 7d bc 17 e9 10 bd
       -0.036140013 -0.039981294 -0.015474413 -0.03537854
000380 88 71 0f 3c 46 6d 2c 3f 5e ff 39 3e bd af 29 3f
       0.008755095 0.6735424 0.18163821 0.6628378
000390 0c 3e a3 bc c2 54 4e bc 94 4c a6 bc 16 05 31 3f
       -0.019927047 -0.01259345 -0.020300187 0.69148386
0003a0 5b b7 33 3f 6d fc ee 3d 36 4d 0c bd 57 ee 18 3f
       0.70201653 0.1166924 -0.03425332 0.5973868
0003b0 63 f2 91 bb 88 98 5b ba 9a 7b 80 bd 94 19 61 3d
       -0.0044539436 -0.0008376916 -0.06273575 0.054956034
0003c0 60 01 83 3d 0d 6c f6 3c 77 b4 f4 3d 09 d5 a3 3b
       0.06396747 0.03008082 0.119484834 0.004999761
0003d0 58 2c 87 3c 6e e6 1d 3d 47 56 91 3c 47 1c 3a 3f
       0.016500637 0.038549833 0.017741336 0.726994
0003e0 ff b6 e7 3e 1e 23 7f 3e f1 9d 8e 3d 4a 51 0f 3f
       0.45256802 0.2491574 0.06963719 0.5598341
0003f0 7f e9 24 3e cb 8a 42 3e ec 1f b8 3a 86 44 0e bd
       0.16104697 0.18998258 0.0014047599 -0.034733318

attn_net.out.bias f4 [64]
000000 f2 ae c0 3d d2 6e d4 3e 98 ed f0 3e 64 36 61 3e
       0.09408368 0.414908 0.4705627 0.21993405
000010 ad 43 90 be 2c a3 b1 be 6d c1 39 be e6 50 6e be
       -0.28176633 -0.34694803 -0.18140192 -0.23273048
000020 e7 fc 3a 3d 52 c8 92 bd 67 f9 22 3c 89 6f 7f be
       0.045651343 -0.07167114 0.009947157 -0.24944891
000030 cc d5 ae be 87 96 3a 3e a8 06 e3 3e 3a fe 2d be
       -0.3414749 0.18221484 0.44341016 -0.16991511
000040 76 53 b5 be 7f bc bf 3e 44 cc 9b be 2f e5 79 3d
       -0.35415238 0.374485 -0.3042928 0.061009582
000050 fc 5e 9c be b5 9f cb 3e bf de ec 3c ba 0b 08 be
       -0.30541217 0.39770284 0.028914807 -0.13285723
000060 42 dd ce 3e 6e d2 9f be 48 ed 9a 3e 9a ac be be
       0.4040318 -0.31215233 0.30259156 -0.3724106
000070 6f 32 0e 3e e4 ef 90 be 0b d4 fb 3d 94 a6 13 3d
       0.13886426 -0.28308022 0.12296303 0.036047533
000080 f5 17 b7 3e 16 5f 53 3e 66 cd b7 bd a3 bc a5 3e
       0.35760465 0.20641741 -0.089747235 0.3237048
000090 21 9f 93 be 6b 40 94 be 5b 39 80 bd 40 84 3a 3e
       -0.28832343 -0.28955397 -0.0626094 0.18214512
0000a0 dd 68 bc 3e e5 bb 9f be 9e 16 88 be 7a 7d 10 be
       0.36798754 -0.3119804 -0.26579756 -0.14110366
0000b0 25 e7 93 be 83 f2 93 3d c0 00 cc bd 24 b3 c7 3e
       -0.28887287 0.0722399 -0.099610806 0.3900386
0000c0 ec 95 90 3e 74 8b 15 3e 1f aa 9d be 46 08 4f be
       0.2823938 0.14603978 -0.30793855 -0.20218
0000d0 22 b7 b4 be 5d f9 49 be 33 aa 8b be 05 f2 13 be
       -0.3529597 -0.19724031 -0.2727829 -0.14447792
0000e0 4d 89 0b be 6c 3c 03 bf 01 da 9d 3e 42 be 7f 3d
       -0.13626595 -0.5126407 0.30830386 0.062437303
0000f0 0c 04 a6 bd 43 d8 53 be 99 76 f3 bd c4 ff e2 bc
       -0.08106241 -0.20687966 -0.11887855 -0.02770985

linear.weight f4 [64, 10]
000000 0e 44 6c 3f 7c 7a 94 3f 0c dc 19 bf d1 c4 1a bf
       0.92291343 1.1599879 -0.6010139 -0.6045657
000010 d0 dd 36 bf ec aa 7a bf 78 e2 17 bf 97 88 b2 3e
       -0.7143221 -0.97917056 -0.5932994 0.34869835
000020 04 c1 f1 3c 19 9a 38 bf ba 64 72 bf 55 2b 84 bf
       0.029510982 -0.72110134 -0.94684947 -1.0325724
000030 65 3b 08 3f d7 ee 7d 3e 0c 3a 0d 3f ac 5a 10 3f
       0.5321563 0.24798141 0.551667 0.56388354
000040 b6 62 2c 3f a4 8d c7 be 19 e1 a1 bd ed 8e 24 3f
       0.6733812 -0.3897525 -0.07904262 0.6428059
000050 bd 62 a0 3f d8 79 7c 3f b0 36 55 bf c0 63 5f bf
       1.2530133 0.9862342 -0.8328657 -0.8726158
000060 e1 fc 1e bf d8 c4 92 bf a6 2d 39 bf 23 26 f3 3e
       -0.6210461 -1.1466322 -0.7233528 0.47490034
000070 a0 59 16 3d d1 19 3b bf bc 10 7d 3f 2d 1a 8b 3f
       0.036706567 -0.7308627 0.9885366 1.0867363
000080 f6 17 35 bf 2a bb 41 bf 4d af 3c bf c5 ab 92 bf
       -0.70739686 -0.75676215 -0.7370499 -1.145867
000090 4d e7 30 bf 97 9d f2 3e 1e d5 ba bd 37 25 54 bf
       -0.69102937 0.47385857 -0.0912268 -0.82869285
0000a0 e8 1b 1d be ac 7c 98 3d fe f7 d9 3c dc d9 1f bd
       -0.15342677 0.07445654 0.02660751 -0.039026126
0000b0 b7 ad 39 3c 44 1c 90 bd 88 4d 01 3e 0a 02 07 3d
       0.011332921 -0.07036641 0.12627232 0.03296093
0000c0 39 1d e6 bd 67 62 d3 ba 75 9a 73 3d 54 8c 43 bc
       -0.112360425 -0.0016127349 0.059473474 -0.011935312
0000d0 ba 2c cb 3e 84 8e cb bc 13 ff 29 bd 9d d3 be bc
       0.3968256 -0.02484823 -0.041503023 -0.023294264
0000e0 4f 47 d2 3d 3d 06 6e be c4 af 6b 3e db 13 3f bc
       0.10267507 -0.23244567 0.23016268 -0.011662449
0000f0 bf ec 7d 3d 12 ca 95 bd da f6 a6 3c 33 eb d5 bd
       0.061993357 -0.073139325 0.02038138 -0.10445251
000100 28 8e 1a bd b5 d8 c7 3d 9a 0a bc bd e1 51 fa bc
       -0.037733227 0.097581305 -0.091817096 -0.030556621
000110 93 f0 2d bd e1 86 09 bd 65 ed 82 bd 60 09 32 3d
       -0.042465758 -0.033575896 -0.06392936 0.043465972
000120 f5 60 96 bd d8 ba 79 bd 0d e2 72 3d f0 12 eb bc
       -0.07342712 -0.060969204 0.05929761 -0.028695554
000130 16 1d be bd 4e 1e b0 3c 8c 23 cd 3d 8d a7 85 bc
       -0.092828915 0.021498825 0.10016546 -0.016315246
000140 99 9a 8c 3d ef 2d 0a be 51 72 c9 3c e2 ba 47 ba
       0.06865425 -0.13494085 0.024590643 -0.0007619095
000150 f6 7b 92 bc cf d7 05 3d 48 75 f4 3c 70 f5 b1 bd
       -0.017881375 0.032676514 0.02984108 -0.086893916
000160 df 04 8e 3c 9d 3c c9 3d 59 4a 07 bf bc 9d 0d bf
       0.017336307 0.09826014 -0.5284782 -0.5531881
000170 98 27 49 3e 3b 81 51 3e da 2d 91 3e 12 af 74 3e
       0.1964401 0.20459454 0.28355294 0.23894909
000180 a8 b9 37 3e 83 68 6f bc c8 ac ad bc a1 de e3 3c
       0.17941916 -0.01461232 -0.021200553 0.027816119
000190 18 e5 d7 ba 34 97 0a be 67 b8 f4 bc 41 d4 ec bc
       -0.0016471474 -0.13534242 -0.029873086 -0.028909804
0001a0 fa 8f c7 bd 5f 28 4e 3d 1a 70 73 bc da a4 e1 bd
       -0.09744258 0.05033147 -0.01485827 -0.11017771
0001b0 95 3e 8c bd f4 34 b4 bb b9 51 03 3e ad b0 c6 3b
       -0.06847874 -0.0054994766 0.12824143 0.006063542
0001c0 f2 7f cb bd ac 35 4c bd f3 21 89 3d a6 ce 8e 3d
       -0.09936513 -0.049855873 0.066959284 0.06973009
0001d0 42 1a 83 3c bb b6 9a bc 0b 87 23 bc a7 4b ab bc
       0.016003732 -0.01888596 -0.009980927 -0.020910097
0001e0 41 5a 33 bd b8 0a db 3c b5 98 a6 3d ff 91 1b 3d
       -0.043787245 0.02673851 0.08134595 0.03798103
0001f0 2a 7c e4 bc 8a 2b 24 bd 0f 10 37 3d 9b 56 9f bd
       -0.027891237 -0.040080585 0.04469305 -0.077801906
000200 aa 0e da 3d fc fb cd bc d9 f5 a3 3f 63 7a 7d 3f
       0.10647328 -0.02514457 1.2809402 0.9901487
000210 66 ed 28 bf da 00 30 bf 45 b1 1e bf 82 57 7a bf
       -0.6598724 -0.687513 -0.6198924 -0.97789776
000220 75 31 2a bf 76 48 a4 3e 46 a2 fd 3c c7 02 4d bf
       -0.66481715 0.32086533 0.030961167 -0.8008236
000230 e8 d7 8e 3f e1 79 95 3f a5 34 4e bf 8e 40 46 bf
       1.1159639 1.167782 -0.8054908 -0.7744225
000240 10 a8 30 bf 4b f9 97 bf 89 7f 58 bf d9 c7 00 3f
       -0.69006443 -1.1872953 -0.84569603 0.50304943
000250 ae 52 4a 3d 9c bb 6b bf db b8 05 bd 7c 98 1b bc
       0.049395256 -0.92083144 -0.032646995 -0.009496804
000260 ec 65 4a bd 1e 86 f0 bc ab 7a c3 3c e5 c6 bd bd
       -0.049413607 -0.029360827 0.023862204 -0.09266452
000270 02 c6 bd bc a5 60 ce bd a4 68 84 bc 96 fc 24 3e
       -0.023165707 -0.10077027 -0.016163178 0.16111979
000280 08 b4 e5 bc be 67 b8 bd 90 02 26 3e 2e 93 8f bd
       -0.028039947 -0.09004162 0.16211915 -0.07010494
000290 6c 7a 48 be 4d 18 9e bd 00 c6 a1 bd 95 38 17 be
       -0.1957795 -0.07719479 -0.07899094 -0.14767678
0002a0 36 8b 40 bd 0a e8 26 be 31 7d 73 3f 83 d7 76 3f
       -0.047007762 -0.16299453 0.951129 0.96422595
0002b0 51 c6 fc be 18 e8 f4 be 68 ac 05 bf 87 f1 45 bf
       -0.49370053 -0.47833323 -0.52216196 -0.77321666
0002c0 ef 8a fd be 68 aa 8a 3e af ed 68 bd b3 de 0c bf
       -0.4952006 0.27083135 -0.056867298 -0.5502731
0002d0 b8 1f 00 3e 05 fa 10 3e 68 3a 92 39 76 84 30 3c
       0.125121 0.14157875 0.00027890806 0.010773769
0002e0 27 01 52 3c 84 f1 8e 3c ab 8f e7 3b 5c 60 53 bd
       0.012817658 0.017449148 0.007066687 -0.051605567
0002f0 33 e1 1e 3d 0c 8d 14 3d 2c 6d 7b bd c8 cd 6d 3c
       0.038788985 0.036267325 -0.06138341 0.014514394
000300 a7 11 d3 3b 6a a5 7e 3d da dd a4 bb 6c 65 9e bd
       0.0064413133 0.06216947 -0.0050313296 -0.077341884
000310 d8 c0 dc bd 9c e8 58 bd 25 62 2f 3b 61 41 1b be
       -0.107789695 -0.05295621 0.002676138 -0.15161659
000320 bb ec 57 bd 72 d6 14 bf 14 0b 91 bc e9 62 27 be
       -0.052716 -0.5813972 -0.017705478 -0.16346325
000330 35 1e f3 be 8c db d3 be 34 e9 3e be c9 09 7d be
       -0.47483984 -0.41378438 -0.18643647 -0.24710764
000340 01 6f b3 bd 2c da cb be 38 8b 9c 3f 55 c3 a1 3f
       -0.08761407 -0.3981489 1.2229986 1.2637736
000350 e9 3e 35 bf d1 0f 39 bf 39 e1 3a bf 0b 43 95 bf
       -0.7079912 -0.7228976 -0.7299991 -1.1661085
000360 aa 59 50 bf ce 12 d5 3e 45 de 58 3e a1 2d 31 bf
       -0.81386817 0.4161591 0.21178539 -0.6921025
000370 ea ec a3 bf a5 3e a4 bf cc 16 01 3f 01 d4 32 3f
       -1.2806675 -1.2831618 0.5042541 0.6985474
000380 ac 45 2d 3f b9 72 51 3f 86 90 42 3f df b4 55 be
       0.67684436 0.8181568 0.76001775 -0.20869778
000390 06 ec 8a 3e 8d a0 66 3f 92 3a 35 be a8 98 61 be
       0.27133197 0.9008873 -0.17698124 -0.2203089
0003a0 cd c9 b5 3d a6 3f 7f bd 94 ef ad be 2c a2 7e be
       0.08876381 -0.06231656 -0.33971846 -0.24866551
0003b0 ee 15 80 bd c6 d4 dc bd fb b4 71 3d 5f 8f a7 be
       -0.06254183 -0.10782771 0.059010487 -0.3272657
0003c0 ed 53 96 3f 3f 74 a3 3f 22 1e 31 bf 0b a3 3e bf
       1.1744362 1.276985 -0.69186604 -0.74467534
0003d0 24 5a 41 bf 96 3d 87 bf db f8 3f bf 13 76 4b 3e
       -0.7552817 -1.056567 -0.749891 0.1986926
0003e0 01 b4 e0 bd ae fd 2e bf 15 75 d6 3d a7 32 19 be
       -0.10971833 -0.68355834 0.104715504 -0.14960729
0003f0 15 20 77 bc 06 71 e6 bd 03 38 1e bd d2 90 29 3e
       -0.015083333 -0.11252026 -0.038627636 0.16559151
