outlier-interpretation-Xu/checkpoints/ERPXuTxZ_checkpoint.pt (torch, 103259 bytes, 5 tensors)

attn_net.hidden.weight f4 [96, 192]
000000 c8 94 04 bc 40 14 2f 3d d4 ad 14 bd 52 38 7d bc
       -0.008092113 0.04274392 -0.036298588 -0.015455322
000010 a1 a5 f4 bc e7 f0 d0 3c 1b 69 8e bd 8f e2 6f bc
       -0.029864134 0.025505496 -0.06953641 -0.014641418
000020 d4 ad 4d bd 08 d0 1d 3d 52 62 1e 3c 94 e9 ab 3c
       -0.050214604 0.038528472 0.009666996 0.020985402
000030 ad c2 ae 3d dc a6 94 bd a2 75 29 3d 2f e9 a2 bd
       0.08533225 -0.072583884 0.04137195 -0.079546325
000040 95 2f 81 bd 67 d0 b5 3c 86 7a 54 bd fd b9 ad 3c
       -0.06307904 0.0221941 -0.05187466 0.02120685
000050 80 cc dd 3c 9c a5 8f 3d ef d4 1a 3d 3b 8d e6 3c
       0.027075052 0.07014009 0.037800726 0.028143516
000060 21 08 b0 3d 9b 12 e4 3c f0 a4 98 3d fa bd 46 bd
       0.085953005 0.027840903 0.07453334 -0.04852102
000070 a9 ee 89 bb 70 d6 8c 3d fb 69 c3 3d d9 e1 4a bc
       -0.0042093587 0.06876838 0.095416985 -0.012382948
000080 54 2d 96 3d 43 ca 2c bd 95 07 a9 bc f1 48 05 3d
       0.073328644 -0.04218508 -0.020633498 0.032540265
000090 9a 09 9c 3c 5a 2a 3f 3b 2d c7 10 3b 82 a8 2a bd
       0.019047547 0.002916953 0.0022091374 -0.041664608
0000a0 54 9e 7b bc d0 15 56 b9 47 1f 43 3d 64 12 a7 3d
       -0.015357573 -0.00020416756 0.04763725 0.081578046
0000b0 c0 9d 59 3d 85 b7 bb bc f1 38 dd 3c ee 1e 45 bb
       0.053128958 -0.022914657 0.02700469 -0.003007825
0000c0 8a 92 86 3d 8d 11 fa 3b 06 94 f4 3b 7a 3a a1 3d
       0.06570919 0.0076314867 0.007463935 0.07872482
0000d0 59 8e b3 3c 4a ad 81 bb 8f 66 20 bd 33 a2 d5 3c
       0.021918463 -0.0039574252 -0.039160307 0.02607832
0000e0 89 02 ec bc 57 85 22 bd 38 92 ff 3c 9e 27 97 3d
       -0.028809803 -0.039677944 0.031197652 0.07380603
0000f0 05 5f 9c 3d 82 25 15 3c da 22 81 bb 38 66 25 bd
       0.07635311 0.009103181 -0.003940922 -0.040380687
000100 b8 1a 09 bd af 76 9f 3c 75 9a f1 bc ad b3 85 3d
       -0.033472747 0.019465772 -0.029492596 0.06528411
000110 29 8d c6 3c 86 20 88 3c 0f 65 e9 bc 64 34 e1 bc
       0.024237232 0.01661707 -0.028490571 -0.027490802
000120 c2 ea 3f bd 10 f1 f2 3b c6 8c 74 bc 0a 10 32 3d
       -0.046854742 0.007413991 -0.014926141 0.043472327
000130 9e f6 00 bd 48 b0 82 bc 90 f7 f4 bb be 20 55 3b
       -0.031485192 -0.015953198 -0.007475801 0.0032520737
000140 ae d0 da ba f3 91 a7 bc 4e c2 41 bd 78 bf cb 3c
       -0.0016694271 -0.020455336 -0.047304444 0.024871573
000150 9f fd ae 3c 2a ec 94 bc 79 c9 6f 3c c4 e6 07 3c
       0.02136117 -0.018179018 0.014635437 0.008294765
000160 63 3b be 3b c6 84 18 3d 4f 25 db bb 38 8d d6 bc
       0.0058054193 0.037235998 -0.006687797 -0.026190385
000170 46 48 7b 3a 34 a9 b2 bc 9b ac 69 3c 93 cd 1b bc
       0.000958566 -0.021809198 0.014262344 -0.009509462
000180 67 db e7 bc ec 7d 8e bc 69 d1 49 bd 6e bc be bb
       -0.028302861 -0.017394029 -0.049271975 -0.0058208024
000190 13 cd 81 bd ac 8e 80 3d 28 d0 6d 3d 54 f5 a3 39
       -0.06337943 0.062772125 0.05805984 0.00031272566
0001a0 07 7d ab bc fe bc 8e 3c d1 ec 01 3d 94 7e 8c bd
       -0.020933641 0.017424103 0.031719986 -0.0686008
0001b0 b2 08 95 bc 67 cb da bb 8e 89 70 3d 75 c8 5d bd
       -0.018192623 -0.0066770795 0.058724932 -0.05414625
0001c0 94 cf 70 3d de 67 64 bd 10 ac 08 bd 07 ff 31 bd
       0.058791712 -0.055763118 -0.033367217 -0.043456104
0001d0 cf ac bb 3b 94 16 39 3d 7e 39 17 bc 11 62 e9 bc
       0.0057273875 0.045187548 -0.009230016 -0.028489145
0001e0 d8 f2 84 3c db bf 20 bc b7 cc 35 3d d5 f4 5f 3d
       0.016229078 -0.009811367 0.044384684 0.05467685
0001f0 67 31 88 bc 38 4b b6 bb 99 22 3f 3d 8e 00 62 bd
       -0.01662512 -0.005563166 0.046663854 -0.05517631
000200 24 66 c4 3b 54 3b c3 3a 06 7e 99 bc d3 62 61 bc
       0.0059936214 0.0014895 -0.01873685 -0.013756472
000210 c8 1c 39 bc 1f 56 8f bb b2 da 96 3c 38 e1 91 bc
       -0.011298366 -0.00437428 0.018414829 -0.017807588
000220 97 b5 7b bd 65 d1 1f 3d 1a e2 64 ba 61 49 a7 bc
       -0.061452474 0.039018054 -0.00087312015 -0.020420732
000230 f0 69 06 3d 8e 66 9a bc d9 c7 56 3c 96 78 0f bb
       0.032815874 -0.01884773 0.013109171 -0.0021891943
000240 94 d0 0d bd 4a 3d 84 3d a7 e0 44 bd 10 9b 05 bd
       -0.034622744 0.064570025 -0.048065808 -0.032618582
000250 b4 59 b5 3c 46 82 15 3d 91 45 50 bc 87 a4 c1 3b
       0.0221375 0.03650119 -0.012711898 0.0059095058
000260 b0 d0 3e b9 af 19 14 3d 1f a0 cf 3c cd 1f 10 bd
       -0.00018197554 0.036157306 0.025344906 -0.035186578
000270 df 8b 4c bd 19 d3 c7 bb 2c 66 54 3a 2f 1d 77 bd
       -0.04993808 -0.006098163 0.0008102383 -0.060330566
000280 42 ba 1d bc 73 d2 f9 bc 6b cb 00 bd 83 40 79 3b
       -0.009626927 -0.030495858 -0.031443994 0.0038032837
000290 7e bf ac bc c0 cf ac 3c 77 46 2f 3c 5c 63 1d bd
       -0.021087404 0.021095157 0.0106979525 -0.038424835
0002a0 42 56 25 3c c5 56 5d bc b3 a8 b2 3c 32 95 82 3c
       0.010091366 -0.013509457 0.021808958 0.015940282
0002b0 cb 5a 14 3d 44 5d de 3a 24 00 94 3b 51 24 86 3c
       0.0362194 0.0016965051 0.0045166183 0.016374739
0002c0 e0 60 52 ba f8 85 22 3c 0e 24 f6 3c 7f 60 e5 3c
       -0.00080253 0.009919636 0.03004649 0.028000114
0002d0 4b 95 27 3d f1 e4 6d 3c 23 48 22 bd cc 60 9f 3a
       0.04091386 0.014519916 -0.039619576 0.0012159585
0002e0 bc e2 fd 3b 86 28 ee 3c fc 45 23 3d 98 ce 9e 3c
       0.007747976 0.029072057 0.039861664 0.019385621
0002f0 d4 ef a0 3c ac 18 0e 3b 26 20 92 bc 6c 81 27 bd
       0.019645609 0.0021682186 -0.017837595 -0.04089491
000300 9d 4d 43 bd 91 31 3e be 92 19 8d 3d c9 ef 95 3d
       -0.04768144 -0.18573596 0.06889643 0.07321126
000310 e9 59 3b 3e ca 67 55 be e6 3f 25 3d 38 8d 05 bd
       0.18296017 -0.20840374 0.04034414 -0.03260538
000320 6a 26 66 3e bc 58 6b be e3 3e 6f 3c 59 56 2b 3d
       0.22475591 -0.22983068 0.014602396 0.041830394
000330 24 57 29 be 73 89 2c 3e ee ce a0 bd 91 50 c4 3d
       -0.16537148 0.16849308 -0.07851969 0.09585679
000340 9d b1 ed bb b8 88 80 be 4b a4 2d 3d e8 d1 81 bd
       -0.007253839 -0.25104308 0.04239301 -0.063388646
000350 ca 80 5a be 3c 7e 3d be 2d b5 81 bd 2c 51 13 bb
       -0.21338192 -0.18505186 -0.06333385 -0.0022478802
000360 aa 1b 05 be d2 8a 6d be bf 89 de bd b2 da 75 3e
       -0.12998834 -0.23197487 -0.10866117 0.24009207
000370 da 8f 68 3e f6 86 b2 3c 59 2f 11 be 59 31 79 3e
       0.22711125 0.02179287 -0.14178218 0.24335231
000380 54 85 c1 bd 6c 6a e3 3d e8 54 4a 3e 21 f5 a8 bd
       -0.094492584 0.11104283 0.19758952 -0.0824988
000390 60 85 5d 3c 72 b1 8e bd 48 d9 bf 3c 6c f9 5b 3e
       0.013520569 -0.06967439 0.023419037 0.21481866
0003a0 f3 f7 c2 bc ab 11 45 3d 1c 64 ef bd 6e 27 3a be
       -0.023799872 0.048112553 -0.11689016 -0.18179104
0003b0 77 d9 ec bd 77 e8 55 bc fd 29 59 bd d6 20 18 bd
       -0.115649156 -0.013055912 -0.05301856 -0.03714069
0003c0 30 e9 01 be ea f5 16 3b 92 27 01 bd 74 b1 13 be
       -0.1268661 0.002303476 -0.031531878 -0.14423162
0003d0 46 fc 8b be 44 ab 42 bb 61 2a 28 3e 87 d4 4f bd
       -0.27340907 -0.0029704133 0.16422416 -0.05073979
0003e0 81 a8 05 bd 89 87 e5 3c 02 f3 0e be 92 42 38 bd
       -0.0326314 0.02801873 -0.13959888 -0.04498536
0003f0 04 e4 26 be 8f bb ab bc ed b3 2a 3d 94 ae 2e 3e
       -0.16297919 -0.020963458 0.041675497 0.17058784

attn_net.hidden.bias f4 [96]
000000 79 8c 4e 3d 92 e9 a8 3e f8 8e 60 be 76 dd 2e be
       0.050426934 0.329907 -0.21929538 -0.17076668
000010 c2 b1 2d be 68 dc d2 3b 53 ed 87 be dc 98 8b 3e
       -0.1696234 0.006434966 -0.26548252 0.2726506
000020 cd b0 92 3e b6 1e 25 be 0f c4 5a 3e 09 3f 20 3d
       0.28650513 -0.16124997 0.21363853 0.039122615
000030 f8 5f 55 3c 89 33 7c be 67 b2 9f 3e f2 b2 b2 bd
       0.013023369 -0.24629034 0.31190798 -0.08725537
000040 a7 7a 8f 3e c5 e6 15 3e 88 aa 14 bd 22 da eb bd
       0.28023264 0.14638813 -0.036295444 -0.11516215
000050 1d 5c 4e 3d aa 6d e4 bb f1 a8 68 be c3 5a 17 be
       0.050380815 -0.006971081 -0.22720696 -0.14780717
000060 7e e4 92 3e e0 c8 f2 bd 70 aa 63 bd 48 0d 73 bd
       0.2868995 -0.1185472 -0.055582464 -0.059338838
000070 46 cc 0c 3d fb 55 32 3c 06 a6 9e bd 09 d8 e0 bd
       0.034374498 0.010884757 -0.0774651 -0.109787054
000080 b4 d2 b5 bd c0 cd 82 3c fa 4e b5 3c 0d 6f a9 bc
       -0.08878079 0.01596725 0.022132386 -0.020682836
000090 b2 b1 45 be a1 6d b0 bd c0 1b ff bd e4 9a b2 3b
       -0.19306067 -0.0861466 -0.12456465 0.0054505933
0000a0 b5 c3 09 bd 3a 8b 90 bb 6a 96 4c 3d f0 8b b1 3c
       -0.033633906 -0.0044111283 0.049948134 0.021673173
0000b0 cd 33 88 be 26 2e 80 bd 31 67 4e bc 7d b6 99 3e
       -0.2660202 -0.06258802 -0.012597845 0.3002204
0000c0 cd 89 25 3e 69 9a a0 bd 93 aa ae 3c b0 a7 3e be
       0.16165848 -0.078419514 0.02132157 -0.18618655
0000d0 02 76 f4 bb b6 22 96 bd a7 ab 81 be 8a 34 5c 3e
       -0.0074603567 -0.07330839 -0.25326273 0.21504417
0000e0 d7 61 54 be c0 c4 08 be d1 28 35 3d 57 f3 2c bc
       -0.20740448 -0.13356304 0.04422838 -0.010556064
0000f0 4a 2a 08 3c 8b 45 89 be 51 33 6e bc 6e 34 8a 3e
       0.008310864 -0.2681087 -0.014538602 0.26993126
000100 ac 46 5b bd a8 17 5d 3e d6 f1 80 3c b0 aa 11 3d
       -0.053534195 0.21591055 0.015740316 0.03556317
000110 a8 3b 32 be b0 81 2d b9 11 31 93 bd e6 e9 be bc
       -0.1740557 -0.00016546878 -0.07187093 -0.02330489
000120 f4 e8 a5 3e a2 60 46 3e 2e 8c 55 bd b0 95 4c 3c
       0.32404292 0.193728 -0.05213564 0.01248686
000130 5a 83 53 3d 4e 22 d4 bd a0 1c 4c be 93 a1 66 3d
       0.05163894 -0.103581056 -0.19932795 0.056306433
000140 f4 ec 36 3e 8b 73 bd 3c b6 2c 31 3e 52 56 c5 3c
       0.17863828 0.023126384 0.17302212 0.024089012
000150 41 d2 84 3c 33 1a 4f bd 0d c4 67 3d df 17 82 bd
       0.016213538 -0.050562095 0.056583453 -0.06352209
000160 b4 a2 9d 3c e2 54 42 be 6e 05 6e be 8a b6 6c 3d
       0.019242622 -0.18977693 -0.23244259 0.05779127
000170 aa 5c 7d bd 33 ed a3 bd b4 39 a8 ba 66 08 a9 bd
       -0.06185595 -0.080042265 -0.001283458 -0.08253555

attn_net.out.weight f4 [64, 96]
000000 c0 ae 58 bb c9 18 b4 3c 1f 89 10 3d d6 9b ad 3a
       -0.0033063143 0.021984475 0.03528702 0.0013245295
000010 29 06 27 bc 8e b1 a0 bb 82 e2 8c 3d 6f e2 56 3b
       -0.01019434 -0.0049039787 0.068791404 0.0032788774
000020 a2 b9 bd 3c 79 4a f0 ba 64 91 14 bd e8 ef 4e be
       0.023159806 -0.0018332741 -0.036271468 -0.20208704
000030 9c e6 d9 bb 94 96 30 be d5 7b ef bc 0d ec 97 3b
       -0.0066498052 -0.17244941 -0.029233852 0.0046362937
000040 61 7c 5e bd 5b 71 2c be 6b 90 3b bb 78 17 a1 3c
       -0.054317836 -0.16840117 -0.0028620015 0.019664511
000050 f9 32 1e 3d 1a 8e 1c bc 93 56 83 3d 5d b2 8a 3c
       0.03862283 -0.009555364 0.06412997 0.016930753
000060 d8 3a 57 3c 40 52 ac bb e1 a6 33 3c 8f f4 c8 3a
       0.013136588 -0.0052588284 0.01096508 0.0015331673
000070 2c 91 c3 bc 50 1a d6 3b 92 86 fa 3c 1c b1 58 be
       -0.023872934 0.0065338984 0.030581746 -0.21161312
000080 1c 5a 78 be 08 ac 03 bc 16 40 d6 bb fb 40 09 3d
       -0.24253124 -0.008036621 -0.0065384014 0.033509236
000090 5c 14 82 bd c2 73 08 bd ea c9 1e be 98 f8 d8 bb
       -0.063515395 -0.03331352 -0.15506712 -0.0066214316
0000a0 92 aa b6 3b 23 f3 1d 3d d7 03 67 be fd f5 e7 3b
       0.005574533 0.03856195 -0.22560059 0.0070788846
0000b0 59 1e b9 3c bc e2 eb bb 0b 03 d4 bb 64 f3 42 be
       0.022597479 -0.0071986597 -0.0064700893 -0.19038159
0000c0 fc d3 d1 3c f9 cb de bb 96 23 56 3d 9f fe 5e be
       0.025613777 -0.006799218 0.05228003 -0.21776818
0000d0 4d 8a 04 bc 88 8f 6a bb 0a da 37 3d 15 5e c2 bc
       -0.008089614 -0.0035791118 0.044885673 -0.023726502
0000e0 07 32 ef bd 25 a8 18 3d f5 c4 cd bc 58 ec 05 ba
       -0.11679464 0.03726973 -0.02511833 -0.00051087653
0000f0 87 34 b6 bb 31 e5 17 3d 87 f4 ff 3c b5 b6 8d 3b
       -0.005560461 0.03708381 0.03124453 0.004324759
000100 3f 89 08 3c 56 42 61 be 04 88 c8 bb 20 d3 fd 38
       0.008333503 -0.21997961 -0.00611973 0.00012103305
000110 e8 bd 99 bd 34 52 03 bc f1 8d 73 3c ec 74 2f bb
       -0.07506925 -0.008015204 0.014865384 -0.0026772572
000120 ca 99 14 3d 86 6a d5 3c 32 99 c7 3c fd ca 08 bc
       0.036279477 0.02605177 0.024365041 -0.008349177
000130 00 a2 8d bd 65 e4 02 be 25 27 3e be 0a 33 ea 3b
       -0.06915665 -0.12782438 -0.1856962 0.0071471976
000140 d1 c6 13 3d 82 92 d1 bb 02 f8 26 3d f0 e1 0c 3b
       0.036078278 -0.006395639 0.040763862 0.0021496974
000150 18 d5 08 3c bf a1 b8 bb 44 7c 15 3c 19 f1 2f 3d
       0.008351587 -0.005634516 0.0091238655 0.042954538
000160 53 f2 9a bd 11 15 82 be a8 5d 0d be 40 56 bf 3c
       -0.07565751 -0.25406697 -0.13805258 0.023356557
000170 90 ab bb 3b a7 56 8c 3c 45 cd 5c bc e8 0c e4 3b
       0.005727239 0.017131163 -0.013476674 0.0069595464
000180 30 42 0a 3c 61 53 c8 3d 51 8a 9a bc b7 77 13 bd
       0.008438632 0.09781528 -0.018864783 -0.03600284
000190 45 a9 4d bd b8 9e 01 3e 67 04 ee bc aa 2a 8d 3d
       -0.050210256 0.12658203 -0.029054834 0.06892903
0001a0 4c bf c1 3d ee d1 d9 bc f1 0c 94 3c a1 11 3d 3e
       0.09460315 -0.02658936 0.018072577 0.18463756
0001b0 00 e6 c7 bb cb d1 03 3e 38 17 15 3e e4 3c 62 bb
       -0.006100416 0.12872998 0.14559639 -0.0034521157
0001c0 0f 57 cf 3d 11 d9 36 3e 86 62 c2 bc 52 ba 35 bd
       0.10124027 0.17856242 -0.02372862 -0.044367142
0001d0 40 45 53 3b c2 0b 6e 3d 99 f8 03 bd 0c df d3 ba
       0.003223732 0.058116682 -0.032219503 -0.0016164496
0001e0 00 69 51 3d 7a 16 de bc 48 60 73 bd 1c 46 89 bb
       0.051125526 -0.027110327 -0.059417993 -0.004189266
0001f0 6b 0e 91 bc 72 74 e3 3b 60 8e 55 3b c4 a3 26 3e
       -0.01770707 0.0069413716 0.0032586083 0.16273409
000200 22 71 34 3e 92 9f 09 3d cc fb cd bb a4 5c 75 bc
       0.17621282 0.033599444 -0.00628612 -0.0149757005
000210 56 b5 50 3d 43 fd 99 3c 8b 3d c7 3d c8 64 c8 3b
       0.050954185 0.018797522 0.09728535 0.0061155297
000220 78 b1 b7 3c e3 fe 03 bd 49 69 54 3e 09 3c 01 3c
       0.02242349 -0.0322255 0.20743288 0.007887849
000230 d5 27 cb bc a8 5d a6 3c 53 07 09 bc f3 15 0a 3e
       -0.024799267 0.02030833 -0.008363563 0.13484935
000240 a3 71 2a 3c e2 63 e1 3b a8 6e e7 bb 01 52 27 3e
       0.01040307 0.006878362 -0.007062752 0.16339876
000250 1a 53 5e 3c 4f f3 b5 3b 78 b0 39 bd 04 6f 4a 3d
       0.013569618 0.0055526863 -0.04533431 0.04942228
000260 74 f2 e8 3d 6e ef e9 3b 14 01 9b 3d f6 09 90 3b
       0.11374369 0.007139138 0.07568565 0.0043957187
000270 9e 1c ed bb 6a e0 20 bd fc 41 65 bb 5d 20 b5 3c
       -0.0072360775 -0.039276518 -0.0034981957 0.022110159
000280 d6 d6 90 bc c9 93 3d 3e 7e 6a d7 3b 0b d5 b6 3d
       -0.017680567 0.18513407 0.006573974 0.089273535
000290 2b 07 6e 3c 3a ae 85 bb 4d 94 59 bc ae dc 8c 3b
       0.014528076 -0.0040796073 -0.013279987 0.004298768
0002a0 b9 6e 0a 3e 77 b3 4b ba f0 c5 a4 bc c0 d6 01 bc
       0.135188 -0.0007770578 -0.020113915 -0.007924736
0002b0 fd d2 dd 3c a3 54 89 3d 11 7f 08 3e b6 8f 33 3d
       0.027078146 0.06705596 0.13329722 0.043838225
0002c0 2e 0d 22 bd 82 7b 90 bb 85 91 13 3d 18 96 c5 bc
       -0.03956335 -0.0044092545 0.03602745 -0.024119422
0002d0 9f e1 84 3d d9 9e 6a bb fd bb 00 3d 04 1e 8d 3b
       0.06488346 -0.0035800247 0.03142928 0.0043065567
0002e0 e4 0f f3 bb 5c 24 4c 3e 85 f7 a7 3d 89 8a 3c 3d
       -0.007417666 0.19935745 0.082015075 0.046030555
0002f0 38 c4 67 bc f1 73 99 bc 4e 96 a0 3d a8 2b 4d bc
       -0.014145903 -0.018732043 0.07841168 -0.0125226155
000300 b6 50 79 bb f8 38 d5 3c 8f 0e 1f 3b d7 f7 96 3c
       -0.0038042492 0.026028141 0.0024270152 0.018428726
000310 6b 32 ec 3c cc 04 10 bc f1 de 67 bc be 72 ed bc
       0.028832635 -0.008790206 -0.0141522745 -0.028985377
000320 93 c9 b3 3c 2c c5 2e 3d ec cd 1d 3d c3 60 37 bd
       0.021946704 0.042668507 0.03852646 -0.044770014
000330 f0 b1 a4 39 ef 61 9b bd b3 2f 2a 3d ef 69 d4 3b
       0.0003141309 -0.07587039 0.041549396 0.006482355
000340 b5 d9 3c 3c c4 06 20 bd 48 c6 91 bc da b0 43 3d
       0.011526515 -0.039068952 -0.017794743 0.04777608
000350 c3 28 a1 3b 62 c5 8f bc c2 93 99 3c 1b 4c ce 3c
       0.0049181893 -0.017550174 0.018747214 0.025182774
000360 ff 2b ca 3c f4 2a 80 39 e1 53 0f 3d bc 45 b4 3b
       0.024679182 0.00024446065 0.034992103 0.005501477
000370 1f e2 f9 bb ba 0b 66 bb af a4 0c bc 10 e6 ab bd
       -0.0076258327 -0.0035102204 -0.0085841855 -0.0839349
000380 50 8e a2 bd 6e f2 23 bc 8f e5 ce 3b 1e c2 1c 3d
       -0.079373 -0.01000653 0.0063139866 0.038271062
000390 46 a8 66 3d c1 03 f5 3c 43 bd 3d bd de 55 bb 3b
       0.05631282 0.029909017 -0.046323072 0.0057170233
0003a0 29 90 1a bc 77 c0 19 3d 5c 0c 08 be 56 8f f2 3b
       -0.0094337845 0.037537064 -0.13285965 0.007402341
0003b0 a0 ee 84 3d 42 cc 8a bb b0 3f 51 3b bc 28 b7 bd
       0.064908266 -0.004235775 0.003192883 -0.08943316
0003c0 40 b4 9f 39 7e 64 13 bc 5e a4 76 bc 89 18 9f bd
       0.0003046114 -0.008996127 -0.015053837 -0.077683516
0003d0 4a ec cd bc e4 f9 9e 3b 3d 09 0e 3d 82 cd e9 3a
       -0.025137085 0.0048515666 0.03467678 0.0017837735
0003e0 2d 81 ca bc f4 00 f2 bb 51 00 c1 bc 46 3c 15 bb
       -0.024719799 -0.0073853675 -0.023559721 -0.0022771521
0003f0 68 41 cb bb a0 24 30 bc d8 71 1f 3c 70 db 90 b8
       -0.0062028654 -0.01075092 0.009731732 -6.9073285e-05

attn_net.out.bias f4 [64]
000000 4e 8f d3 be 87 8d 9f 3e 03 58 8c be e6 3a 4c be
       -0.4132027 0.31162664 -0.27410898 -0.19944343
000010 3c df c3 be c8 be c2 3e 9a a0 f4 3d f9 9e 0a bd
       -0.38256252 0.3803618 0.11944695 -0.033843014
000020 10 e0 f6 be 38 f7 ac 3e 44 0e ca bd 8a 6d 0b be
       -0.4821782 0.33782363 -0.09866002 -0.13616005
000030 37 c5 d6 3e 75 78 86 3e 14 7c 53 3d bb 24 81 3e
       0.41947338 0.26263776 0.051632002 0.25223336
000040 df 11 d9 3d 8f 44 b9 3e e8 50 84 3d 70 17 1d be
       0.10599112 0.3618512 0.06460744 -0.15340972
000050 bd 62 e2 3e 63 d1 30 3e f1 c5 9f be 6e c6 27 3d
       0.44215956 0.17267375 -0.31205705 0.04096072
000060 8b a6 9e 3e d2 75 a7 3d 80 66 9d b9 54 0f bd 3e
       0.30986437 0.08176769 -0.00030021742 0.36925757
000070 5a 9b 83 3e 0c 6b ef bb 19 64 8b 3e cb 8a 2b 3e
       0.2570446 -0.007306462 0.27224806 0.16752164
000080 3f 15 af 3e 26 b6 91 be 3f 52 6f be 8a d0 89 be
       0.34195897 -0.2845928 -0.23371218 -0.26916915
000090 62 82 8e be 40 03 85 be f6 0e ad be e4 51 91 3e
       -0.2783385 -0.25979042 -0.33800477 0.2838279
0000a0 f8 0b 23 be 31 d1 cd bd e7 00 6e be 7c f5 6e 3e
       -0.15922534 -0.10049666 -0.23242532 0.23335832
0000b0 24 77 bb 3e 65 ab 82 bd 03 df 0f be 45 3f 11 be
       0.36614335 -0.06380347 -0.14049916 -0.14184292
0000c0 8b f7 53 3e 8e 21 b6 3e b8 46 17 bd 69 28 f0 3e
       0.20699899 0.35572475 -0.036932677 0.4690583
0000d0 ec 11 c6 3e 9a 4c 0a bc 74 0d 8c be 5a 98 b6 be
       0.38685548 -0.008441115 -0.27354014 -0.3566311
0000e0 a3 99 34 be 58 4e a4 be 56 b4 92 be 39 6a 74 bb
       -0.17636733 -0.32091022 -0.2865321 -0.003729476
0000f0 47 2f 9a 3e 3b 5d 43 be 29 12 86 be 51 d3 1a bd
       0.30114195 -0.19078533 -0.2618573 -0.037799183

linear.weight f4 [64, 10]
000000 66 4d 0a 3e 01 72 a3 bd b2 df 99 3d 64 14 35 bd
       0.13506088 -0.07980729 0.075133696 -0.0442089
000010 5f a3 66 3d f3 fa bd 3d 83 66 7f bd 3c 0e cf 3c
       0.056308147 0.092763804 -0.062353622 0.025275342
000020 c0 bd f7 3d 26 72 f2 bc 9a 74 d3 be 58 30 eb be
       0.12096739 -0.029595446 -0.41299897 -0.4593532
000030 2e 03 44 3d a9 d4 11 3e f1 47 9a 3d 70 c2 77 3e
       0.047854595 0.1424128 0.07533253 0.24195266
000040 23 5d 5f bd bf 8c 1e be f1 11 bd 3d 51 da 6c 3d
       -0.05453218 -0.15483378 0.09231938 0.05782539
000050 85 e3 0c be 0e af 52 3e d5 67 a6 3d 75 91 30 3d
       -0.13758667 0.2057459 0.08125273 0.04310747
000060 64 9a 9d 3d 93 40 2c bd ab ad a1 3c 88 59 7e ba
       0.07695463 -0.04205377 0.019736132 -0.0009702672
000070 da af fa bd e4 54 8e 3d 56 3b 46 bd 06 10 28 3e
       -0.12240572 0.06949785 -0.04839643 0.16412362
000080 de b3 ff bd 66 ac ac bd e0 03 cd bc 40 af 00 be
       -0.12485479 -0.0843132 -0.025026262 -0.12566853
000090 1f c2 cd 3d ce 8c dd bd d2 d2 0d 3b af e9 00 be
       0.10046791 -0.10817872 0.0021640551 -0.12589143
0000a0 99 16 35 bd d2 c6 8d be 38 4a e4 bd 90 a9 0a be
       -0.044211004 -0.2769075 -0.111469686 -0.13541245
0000b0 61 f1 9a bd 70 5e 69 bd 79 2c 7d bc 8b ba f0 bd
       -0.075655706 -0.05697483 -0.015452498 -0.1175433
0000c0 f6 6c d8 bd 7a ea 14 bd 56 30 39 bf 17 16 48 bf
       -0.10567658 -0.036356427 -0.7233938 -0.78158706
0000d0 89 8d 36 3d a1 2a c4 3e 56 d3 d9 3e 8d d1 08 3f
       0.044568572 0.38313773 0.4254405 0.5344475
0000e0 09 fd 96 3e 97 dc 9b be ec 27 7c 3e 0e 3b 96 3e
       0.29489926 -0.30441734 0.24624604 0.2934193
0000f0 1d a7 70 3f 08 21 99 3f ab c2 b3 be ce 33 fb be
       0.94004995 1.1963205 -0.35109457 -0.4906296
000100 65 be 3a bf 02 3c 42 bf 6e 81 15 bf ed da d3 3d
       -0.7294677 -0.75872815 -0.5840062 0.10344491
000110 82 1a 27 be 5e 3b 29 bf 0f fa 35 bc a6 e8 0a 3e
       -0.16318706 -0.6610621 -0.011106982 0.13565311
000120 91 df c8 3b b3 4b 86 3d c5 17 93 3c 62 51 d8 3c
       0.006130167 0.06557407 0.01795567 0.026405994
000130 31 6a 4c 3d 89 bd dd 3d 3a 9e 41 3d d8 d6 c9 3c
       0.04990596 0.108271666 0.047270037 0.024638578
000140 03 81 f9 3b f0 12 3b 3f 72 40 b4 3e 07 fa 6d 3f
       0.0076142563 0.7307577 0.35205418 0.92959636
000150 0f 33 2c 3f dd a0 78 3e 3e 99 22 3f 79 a2 61 3e
       0.6726541 0.24280114 0.6351508 0.22034635
000160 58 fd 80 3f 6c b4 6b 3e fe 3f a0 bf c5 07 91 bf
       1.0077314 0.23018044 -1.2519529 -1.1330496
000170 25 86 0b 3f 70 1b 27 3f e3 b3 44 3f 49 dc 3b 3f
       0.54501563 0.6527624 0.76836985 0.73383003
000180 e3 2a 29 3f 9f 68 d7 be f3 66 90 3e b5 93 54 3f
       0.66081065 -0.42072007 0.28203544 0.83037883
000190 27 b0 85 bd 08 ef 8a bd 17 2d 8b 3d 41 5b 3f bd
       -0.06527739 -0.06783873 0.067957096 -0.046717886
0001a0 4d 84 07 be 18 ae 8e bd 71 0e 89 bc dd 30 d8 bc
       -0.13234062 -0.069667995 -0.016730519 -0.026390487
0001b0 97 04 19 bc be 80 8c bd 1a 21 2b 3e e4 e6 b5 bd
       -0.009339473 -0.06860493 0.16711846 -0.088819295
0001c0 fd a8 53 3d c0 30 76 bd 26 ca 30 3c 7a 4f e8 3d
       0.05167483 -0.060105085 0.010790383 0.11343284
0001d0 83 22 17 bd 8e df 92 bc 0f 08 d0 3d 52 61 97 3d
       -0.036898147 -0.017928865 0.10157787 0.07391609
0001e0 ef ac 52 bf e9 0f 8f bf c8 4f ee 3e c4 43 f6 3e
       -0.82295126 -1.117673 0.46545243 0.48098576
0001f0 e1 46 2a 3f 8b 8b 5f 3f d0 bb fe 3e 86 6e 65 bc
       0.665144 0.873223 0.49752665 -0.014003402
000200 91 0c f3 3d ee 5c 30 3f 37 b4 8f 3f 74 94 96 3f
       0.11867631 0.688918 1.1226872 1.1764054
000210 c2 1d 07 bf 58 e9 f8 be c3 4a 22 bf 94 4e 68 bf
       -0.5277978 -0.48615527 -0.6339533 -0.907449
000220 42 41 27 bf be 9c 99 3d 3c e3 92 be e1 25 4a bf
       -0.6533395 0.07500599 -0.2868899 -0.7896405
000230 5c 8d e1 be e1 9b fb be 1c 2d b9 bc bd 72 cb 3c
       -0.4405316 -0.49142364 -0.022604518 0.024834985
000240 09 00 76 bb 16 e8 43 3e f5 e3 2b 3e e0 22 8e bd
       -0.0037536642 0.19131503 0.16786177 -0.06940246
000250 3d d3 b2 bc 10 e7 da 39 7e ec 96 3f 97 b9 80 3f
       -0.021829242 0.00041752355 1.1790922 1.0056638
000260 05 8d f2 be 0b da 12 bf ae c5 21 bf f6 69 3e bf
       -0.47373214 -0.5736396 -0.6319226 -0.74380434
000270 13 82 09 bf 2f 1c 72 3e 53 2a bd be 52 7a 15 bf
       -0.537141 0.23643564 -0.36946353 -0.5838977
000280 46 27 80 3f 3a 8d 85 3f c6 77 b1 be 6a 5d f2 be
       1.0011985 1.0433724 -0.34661692 -0.47336894
000290 7f a3 24 bf c6 82 2c bf 86 ca ec be 49 7a 90 3d
       -0.64311975 -0.67387044 -0.46248263 0.07054574
0002a0 af 77 8d be 70 d4 1a bf f5 b5 9b bf b0 b9 98 bf
       -0.27630374 -0.60480404 -1.2164904 -1.1931667
0002b0 90 a4 21 3f 6c 8c 3b 3f 66 f9 62 3f c9 27 8b 3f
       0.6314173 0.7326114 0.886618 1.0871516
0002c0 6f 1e 27 3f 44 39 0a bf 35 88 ba 3d ec 85 4d 3f
       0.6528081 -0.5399363 0.09108011 0.80282474
0002d0 ca 43 e9 3d 3f 28 0c bc 33 a4 97 bd ef 7e db 3d
       0.11389883 -0.008554517 -0.074043654 0.1071757
0002e0 22 40 1c 3c 91 6b d3 3d b3 b9 a4 3b 73 e7 da 3d
       0.009536775 0.10323251 0.00502702 0.10688677
0002f0 be 66 ea 3d b3 de 40 3c 10 83 14 bd 37 a8 46 3e
       0.11445378 0.011771846 -0.036257803 0.19400106
000300 8e 0b 23 bb 27 06 1f 3e b4 eb 05 3e ed 16 4e 3e
       -0.0024878713 0.1552969 0.13078195 0.20125933
000310 a6 32 ae bd 22 e1 48 bd 04 b1 0d 3d 41 c6 ac bc
       -0.08505754 -0.04904283 0.034592643 -0.021090629
000320 d9 6e 66 bf 49 92 85 bf fa c8 80 3e 90 c5 10 3f
       -0.9001289 -1.0435268 0.25153333 0.56551456
000330 ce 38 26 3f 66 ca 45 3f e9 6d 11 3f 67 d1 5c bd
       0.6493043 0.7726196 0.56808335 -0.05391064
000340 ea ec cb 3e 0b e0 0e 3f c1 11 9e bf fe b9 8a bf
       0.3982919 0.5581061 -1.2349168 -1.083801
000350 02 d2 f1 3e 42 c8 20 3f da 64 3e 3f 1d 10 59 3f
       0.47230536 0.6280557 0.7437264 0.8479021
000360 f0 19 11 3f 99 f2 d7 be b8 4e cf 3d 96 82 22 3f
       0.566802 -0.42177275 0.10122436 0.6348051
000370 70 34 8e 3e 47 76 22 be 05 17 bf bc 5d cb 97 3d
       0.27774382 -0.15865432 -0.023326406 0.07411835
000380 4a 1a 16 3d 9b 06 bb 3d a8 5a 8c 3d 9c 93 d4 bd
       0.036646165 0.09132119 0.06853229 -0.10379717
000390 35 6a bf 3d 1d bf 27 bd 68 cc 98 bc 4e a3 78 3d
       0.09346429 -0.040953744 -0.018652156 0.060702614
0003a0 2b 8b a8 bd 41 cc 2a be 31 2f 8b 3d 7f 62 e8 3c
       -0.08229669 -0.16679479 0.067961104 0.02836728
0003b0 93 60 f6 3d 66 45 fe bb b8 d6 89 bd 22 d5 fa bc
       0.12030139 -0.007759738 -0.067304075 -0.030619208
0003c0 92 d2 8c bf 64 be 94 bf 1d 1e fe 3e 84 ca 17 3f
       -1.1001761 -1.1620603 0.4963235 0.5929339
0003d0 55 dd 31 3f 47 e9 64 3f eb 42 37 3f 49 fa 59 be
       0.6947835 0.8941845 0.71586484 -0.21286882
0003e0 32 2b e3 3e 6b 68 51 3f f4 48 82 be cf 1c cc be
       0.44368893 0.81799954 -0.25446284 -0.3986573
0003f0 a2 86 72 3d 4f 02 26 3e d4 3c 11 3e 81 5f 3e 3e
       0.059210427 0.16211818 0.1418336 0.1859112
