outlier-interpretation-Xu/checkpoints/evYfATrQ_checkpoint.pt (torch, 103259 bytes, 5 tensors)

attn_net.hidden.weight f4 [96, 192]
000000 66 f1 c7 3d 78 e2 2c be f8 ee 40 be 1d 9e e3 bd
       0.0976284 -0.16883266 -0.1884116 -0.11114142
000010 da a8 57 3e 3c 29 43 3e 9d 58 f3 bd 8a 73 39 be
       0.21060506 0.19058698 -0.11882136 -0.18110481
000020 de 27 4f 3e c2 a1 15 3e df 32 23 3e a6 e3 24 3e
       0.20230052 0.14612487 0.15937375 0.16102466
000030 0b 02 07 3e 3c 2f 47 3e 81 59 15 be 5d 4a 85 bd
       0.13184373 0.19451612 -0.14584924 -0.06508324
000040 d8 e0 0a be bc 75 17 3e d0 15 64 3e f3 fe 30 3e
       -0.13562334 0.14791006 0.22273946 0.17284755
000050 c6 60 38 be bc 79 20 be bc 98 14 be 66 73 10 be
       -0.18005666 -0.15671438 -0.14511389 -0.14106521
000060 26 06 19 be c1 95 d1 bd 33 f2 fe bd 98 37 5c 3e
       -0.14943752 -0.102336414 -0.124485396 0.21505582
000070 b8 67 e4 3d a6 e6 ac bd 04 3e 43 be 2e 06 50 be
       0.11152595 -0.0844243 -0.19066626 -0.20314857
000080 a4 79 04 3e 2f 73 05 be b0 9f ed 3d 88 54 fa 3d
       0.12937027 -0.1303222 0.116027236 0.12223154
000090 2c 3d 5d be 9c be 32 be 9c 41 c5 bd 26 88 36 bd
       -0.21605366 -0.17455524 -0.096316546 -0.044563435
0000a0 50 c3 ff 3d 55 c5 b7 3d 3a 54 04 be ca 91 5e 3e
       0.12488425 0.08973185 -0.12922755 0.21735302
0000b0 aa 21 c4 3d 19 72 20 3e 4f d6 de bd 22 9b f5 bd
       0.095767334 0.15668525 -0.1088072 -0.1199248
0000c0 6f 59 0f 3e 45 98 07 3e aa a6 39 3e a2 ef 2d 3e
       0.1399896 0.1324168 0.18129984 0.16985944
0000d0 d4 e3 36 be 62 52 16 3e 07 2f 8c 3d 43 52 14 be
       -0.17860347 0.14679864 0.06844907 -0.14484505
0000e0 5e 60 04 3e 03 cd 56 3e be b5 0e 3e 58 f6 2e be
       0.12927386 0.20976643 0.13936517 -0.1708616
0000f0 44 65 28 3e 22 fd 06 3e 4a cc 04 3e 2e 60 38 be
       0.1644488 0.131825 0.12968555 -0.1800544
000100 6e f4 ee 3d 46 90 c6 3d de 09 0b be a5 35 a6 bd
       0.11667715 0.09695487 -0.13577983 -0.08115701
000110 bb 48 0e 3e 7b 15 e7 3d 41 f2 c7 bd db 55 21 3e
       0.13894932 0.11283394 -0.09763003 0.15755408
000120 bb b1 0f 3e 86 50 0d 3e 86 d1 5d 3e 74 0b bd 3d
       0.14032643 0.13800249 0.21661958 0.092307
000130 08 78 11 be 3c 13 fd 3d 82 a5 4d be 3b 60 24 be
       -0.14205945 0.12357184 -0.20082667 -0.16052334
000140 76 25 c9 bd 3a 5f 16 3e 9d 90 be bd 40 3c 14 bc
       -0.09821598 0.14684764 -0.093049265 -0.009047568
000150 06 99 c3 bd 8c b1 7e bd 37 3f ff 3d d2 8a 6f 3d
       -0.09550671 -0.06218104 0.12463229 0.058482
000160 9a c8 e6 bd 2d 87 c8 3d ca e2 13 3e 36 00 13 3e
       -0.112687305 0.09791408 0.14441982 0.14355549
000170 9b dc ed bd e5 ef e9 3d 64 e0 1e bd 49 d9 38 be
       -0.11614343 0.114227094 -0.038788214 -0.18051638
000180 6c 72 1f be 43 c6 c6 bd 1c 1c dd 3d 81 5a 89 bd
       -0.15570992 -0.09705784 0.10796377 -0.067067154
000190 68 35 88 bd 3e 08 44 3e d0 09 d3 3d 9e d1 9e 3c
       -0.066508114 0.19143769 0.10304606 0.019387063
0001a0 e7 43 1d be d2 73 eb 3d bf fd 02 be f2 52 26 3e
       -0.15357934 0.114967 -0.12792109 0.16242579
0001b0 56 da 4d 3e 19 e4 1d be 6a 2f 67 3d e3 38 12 3e
       0.2010282 -0.15419044 0.056441702 0.14279513
0001c0 0b 28 1b 3e 18 4a fe 3d 15 96 c2 3d b3 7c a4 bd
       0.15151994 0.12416476 0.09501282 -0.08031597
0001d0 08 f0 e9 3d c1 ae 06 be db 5c 07 be 66 ab 15 3e
       0.114227355 -0.13152601 -0.13219015 0.14616165
0001e0 69 11 4d 3e ce 67 e1 3d 14 dd 42 be b1 ad 9e bd
       0.20026173 0.11006127 -0.19029647 -0.07747973
0001f0 e3 57 05 3e ce 05 3e 3e 9d 1b fa 3d 17 1c c4 bd
       0.13021807 0.18556902 0.12212298 -0.0957567
000200 b2 24 3e 3e 34 53 09 be 80 e7 42 be 66 d7 1c be
       0.18568686 -0.13410646 -0.19033623 -0.15316543
000210 1f 19 38 3e f2 6d f3 3d 90 82 16 be a4 2d f9 bd
       0.17978333 0.11886205 -0.14698243 -0.121669084
000220 8a c9 c6 3d ee 0e 06 3e d7 90 0a 3e 32 a5 49 3e
       0.09706409 0.13091633 0.13531815 0.19691923
000230 8e 7e bc bd c6 30 38 3e b3 8f 03 be 0d 10 1a 3e
       -0.09203826 0.17987356 -0.12847786 0.15045185
000240 b1 25 11 be 1c 23 19 3e b2 a9 c5 3d d6 21 a0 3d
       -0.14174534 0.149548 0.096515074 0.07818954
000250 50 e0 6b 3c 06 3a 18 be cf f5 5a bd 9e 5d f8 bd
       0.014396742 -0.14865884 -0.053457078 -0.12127231
000260 85 9d 1f be e4 2d c3 bd 56 1c d8 bd e9 99 2c 3e
       -0.15587433 -0.09530237 -0.1055228 0.16855587
000270 36 c3 da 3d ef 15 fe bd 2e b2 f6 bd 22 21 0f be
       0.10681765 -0.12406527 -0.12045704 -0.13977483
000280 84 2b 16 3e 34 6d 20 be 82 12 13 3e ce fd 22 3e
       0.14665037 -0.15666658 0.14362529 0.15917131
000290 8a 8a 4c be 2c f9 26 be e8 74 93 bd cc 59 bf bd
       -0.19974723 -0.16305989 -0.072000325 -0.09343299
0002a0 66 9b 55 3e e6 a0 1e 3e e6 f2 3b be 24 04 f7 3d
       0.20860061 0.15491065 -0.18354377 0.12061337
0002b0 dd 49 eb 3d f7 d0 e3 3d 64 ce e5 bd 30 6e 34 be
       0.11488698 0.11123841 -0.112210065 -0.17620158
0002c0 2c 87 12 3e b7 aa 0a 3e 29 b1 16 3e 26 07 3e 3e
       0.14309376 0.13541685 0.14716019 0.18557414
0002d0 ad 03 0b be b8 bc e0 3d f6 4c f7 bd b4 5f db bd
       -0.13575621 0.10973495 -0.12075226 -0.10711613
0002e0 da 3f e6 3d 9f 32 3b 3e a1 d3 14 be 88 0f 3c be
       0.112426475 0.18281029 -0.14533855 -0.183653
0002f0 63 49 44 bd 95 07 fe 3d 8c 46 46 3e d4 fa 1d be
       -0.04792155 0.1240379 0.19362849 -0.15427715
000300 ff 0c 56 3e 50 26 63 be d0 a1 0e be 45 e6 ec bd
       0.20903395 -0.22182584 -0.13928914 -0.11567358
000310 2a 5b 2e 3e 4f ef 4d 3e 6e db 2d be 02 95 50 be
       0.17026964 0.2011082 -0.16978237 -0.20369342
000320 b1 da 3d 3e 17 44 34 3e 88 49 1f 3e ef c3 0d 3e
       0.18540455 0.17604099 0.15555394 0.13844274
000330 60 0d 2b 3e da df 4b 3e f2 75 cb bd 77 b6 cc bd
       0.16704321 0.19909611 -0.09934606 -0.0999574
000340 12 1b 0f be 2e 13 35 3e 7e db 61 3e 9b 1b 12 3e
       -0.1397517 0.17683098 0.22056386 0.14268343
000350 f6 9f 39 be f8 ff e9 bd ff f1 f6 bd a0 91 33 be
       -0.18127427 -0.11425775 -0.12057876 -0.1753602
000360 22 6a 4e be f0 5e cd bd cb e3 2c be 74 08 e1 3d
       -0.20157674 -0.100278735 -0.16883771 0.109879404
000370 a6 4e bf 3d 14 ad 54 be 6f 20 47 be 2c 77 46 be
       0.09341173 -0.20769149 -0.19445966 -0.19381398
000380 12 1c d0 3d 72 9f ef bd ad 4e 59 3d f2 48 04 3e
       0.10161604 -0.11700334 0.053053547 0.12918451
000390 14 36 45 be 20 51 1a be 57 d8 c1 bd d7 f2 4c 3d
       -0.1925891 -0.15070009 -0.09465092 0.050036278
0003a0 72 16 04 3e c4 c7 60 3e e8 f4 0b be 30 08 53 3e
       0.12899187 0.21951205 -0.13667643 0.20608592
0003b0 e0 a2 08 3e 0f 84 42 3e fc e8 29 be 48 55 34 be
       0.13343382 0.18995689 -0.16592783 -0.17610657
0003c0 38 a4 f9 3d cd ff 61 3e 88 e7 c2 3d 18 c7 44 3e
       0.12189525 0.22070237 0.09516817 0.19216573
0003d0 22 27 4e be b2 48 b6 3d 26 31 b2 3d 0e 10 4c be
       -0.20132115 0.08900584 0.087007806 -0.19928
0003e0 10 9b 05 3e e9 8f d5 3d 8e 6c 00 3e b8 11 04 be
       0.13047433 0.10427839 0.1254141 -0.12897384
0003f0 f6 55 1b 3e 8e 55 01 3e 3e c7 3c 3e 50 ef f9 bd
       0.1516951 0.12630293 0.1843538 -0.12203848

attn_net.hidden.bias f4 [96]
000000 00 1e 50 3e d5 e0 4f 3e 2b a9 6b 3e 94 7f 58 3e
       0.20323944 0.2030061 0.23013751 0.21142417
000010 c2 9a 60 3e 53 76 74 3d 99 bc 3e 3e fd 09 3d be
       0.21934035 0.059683155 0.18626632 -0.18460841
000020 72 b4 46 be 20 7d 0d be 64 e5 58 be 08 9c 61 be
       -0.19404772 -0.13817263 -0.21181256 -0.22032177
000030 5d 43 9e 3d 07 13 64 3e f8 63 1c be 58 ec ff bd
       0.07727692 0.22272883 -0.1527251 -0.12496251
000040 50 f6 51 be 70 1f 71 3c b4 6b 10 be 9c ab 34 be
       -0.20504117 0.014716968 -0.14103585 -0.17643589
000050 f3 12 3c 3e a6 f9 a7 3d 3a 2c 5d 3e 84 63 30 3e
       0.18366604 0.082019135 0.21598902 0.17225462
000060 f2 86 df bd d4 4b 04 3e c4 5d 69 3e 06 60 29 3e
       -0.10914411 0.12919551 0.22789675 0.16540536
000070 e4 f0 08 3e cc 79 5c 3c 7f 4e 01 be b5 5a da bd
       0.13373142 0.013456773 -0.126276 -0.10661832
000080 21 21 30 be be eb e6 3c a6 5c a0 bc 73 61 54 be
       -0.17200138 0.028188583 -0.019575428 -0.20740299
000090 40 42 bd bd d5 0e 10 be e3 80 0d bd c8 4b 21 3e
       -0.09241152 -0.14068158 -0.034546744 0.15751565
0000a0 35 de 0e be 30 5c 6a be dc 91 36 be 13 d3 f3 bd
       -0.13951953 -0.22886729 -0.17829078 -0.119054936
0000b0 f8 68 a0 3c 66 eb fa bd 88 5a 1f 3e 9d 34 a2 bd
       0.019581303 -0.1225193 0.15561879 -0.079201914
0000c0 6c 85 43 3e ac 90 63 3e ea db 8e 3d d7 04 f8 bd
       0.19093865 0.22223157 0.06975539 -0.12110298
0000d0 ce d8 24 be 56 da 6e 3e 7a 8d d9 3d d2 f7 64 be
       -0.1609833 0.23325476 0.10622688 -0.22360161
0000e0 5a b3 44 be a4 79 d7 3d 70 e9 89 3d 0a 4a 04 be
       -0.19209042 0.10521248 0.06733978 -0.12918869
0000f0 b4 f1 d3 3d 3e 2f f7 3d c4 ce 19 be 18 21 dd bd
       0.103488356 0.120695576 -0.15020281 -0.10797328
000100 f2 34 1c 3e c9 0b e3 bd fc 35 17 3e 80 1e c6 3d
       0.15254572 -0.11086232 0.14766687 0.09673786
000110 20 40 11 be ce ed 1a be 54 47 04 3e 1f 41 49 be
       -0.14184618 -0.15129778 0.12917835 -0.19653748
000120 1b 6d 3b be ac fd 08 bd 0e 12 1d be 6d ef 25 be
       -0.18303339 -0.033445045 -0.15338919 -0.16204615
000130 02 f6 fa 3d 80 bf 0e 3c 68 c5 a8 3d 64 4f f7 bd
       0.122539535 0.008712649 0.08240777 -0.120756894
000140 50 da 1f bb f6 8a ae bd ed 59 34 3e 10 52 f6 3d
       -0.00243916 -0.085225984 0.17612429 0.12027371
000150 81 66 6d 3e ec 2e 4f 3e e4 85 b3 3d 29 69 d4 3d
       0.23183633 0.20232743 0.08765772 0.1037162
000160 e4 60 06 3c 8a fa b4 3c c3 cb f1 3d 2f 12 1f 3e
       0.008201811 0.022092123 0.118064426 0.1553428
000170 98 4b 2b be 70 f9 1f 3e 98 a3 f8 3c 0f e4 20 3e
       -0.16728055 0.15622497 0.030351445 0.15711997

attn_net.out.weight f4 [64, 96]
000000 42 63 3a be a5 9a d3 bd c5 3d 1b be be 15 1c be
       -0.18201926 -0.103322305 -0.15160282 -0.15242669
000010 99 da f0 bd 50 b7 ba bd 16 97 0a be 3e a8 9c bd
       -0.11760444 -0.09116995 -0.13534197 -0.07649277
000020 92 f3 88 3d e4 ae b1 bd a6 ad d2 bd 94 45 84 3d
       0.06687082 -0.08675936 -0.10287027 0.064585835
000030 56 d0 9d bd 76 57 20 be 68 34 20 bd d0 92 81 bd
       -0.077057526 -0.15658364 -0.03911248 -0.063268304
000040 94 d9 b5 bd 3a a8 bf 3c 80 19 8f bd 40 5b 7c bc
       -0.0887939 0.023395646 -0.069872856 -0.015402615
000050 ea 92 94 3b 07 dd df bd af 94 20 be de a6 d9 bd
       0.004534115 -0.109308295 -0.15681718 -0.106275305
000060 e0 a5 c6 bd 38 00 15 be 1c 39 1d be 93 6e 77 bd
       -0.09699607 -0.14550865 -0.15353817 -0.060408186
000070 52 a3 19 bd d0 e6 5b bd 08 c1 8a bd 1a a1 db bd
       -0.03750927 -0.053686917 -0.06775099 -0.10724087
000080 95 a5 ed bd f0 7b 9c bd 4e f6 d3 3c 29 ae d6 bd
       -0.11603848 -0.07640827 0.025874283 -0.10482437
000090 ea 86 8a bd a8 28 ae bd 80 5e eb 3c 9a fe c2 bd
       -0.06764014 -0.08503848 0.028731585 -0.09521218
0000a0 24 25 98 bd 79 89 2f be c0 09 0e 3d e0 df d1 bd
       -0.07428959 -0.17142285 0.034677267 -0.10247779
0000b0 56 cd 6a 3d d0 3b 00 be 39 ed 23 be ce e6 66 bd
       0.05732473 -0.12522817 -0.16008462 -0.056372456
0000c0 ce 8c c4 3c e2 51 0d be 4a bd 0b 3d cc 62 82 3d
       0.023992922 -0.13800767 0.034116067 0.063665
0000d0 97 97 c8 bd 2c f8 c4 bc 08 c4 0c 3d f1 e9 ef bd
       -0.097945385 -0.024044119 0.034366637 -0.11714543
0000e0 38 6b e2 bd 5c c7 f6 3c 52 2b f9 bc aa f1 2a be
       -0.110556066 0.030124359 -0.030416165 -0.1669375
0000f0 00 50 1f bc 86 14 c5 bd d6 78 36 be d8 1d b6 bd
       -0.009723663 -0.09623055 -0.17819533 -0.08892411
000100 af 69 45 bd 2d fe b5 bd 10 92 2c be 58 9a 52 3c
       -0.04819649 -0.08886371 -0.16852593 0.012854181
000110 5e cc 4c bd 19 21 08 be 07 0f fc bd f8 cf b9 bd
       -0.049999587 -0.13293876 -0.12307554 -0.0907287
000120 ef 5e 02 be 18 1f 81 bd 44 ed f0 bc e2 20 9f bd
       -0.12731527 -0.06304759 -0.029410012 -0.07769944
000130 ee 2c 01 be 4b 88 94 bd 1a cc 92 bd 89 84 8a bd
       -0.12614796 -0.07252558 -0.071678355 -0.0676356
000140 16 50 77 3d 3c 74 7f 3c 9e 57 d3 bd 10 01 d7 bb
       0.06037911 0.015591677 -0.10319446 -0.006561406
000150 1e 46 a0 bc 76 10 6c bd 62 c8 14 be 56 56 0e be
       -0.019564684 -0.057632886 -0.14529565 -0.13900122
000160 d6 6e 8b bd be fa 8a bd 3a c2 01 3d 64 70 c8 3c
       -0.0680825 -0.067861065 0.03167937 0.024467655
000170 a2 ec dd bd 53 a9 6f 3d 1c e0 8b bd a0 d0 95 ba
       -0.1083615 0.05851109 -0.06829855 -0.0011429973
000180 b2 dd 63 3e aa 2a 80 3e 72 f4 54 3e 4d 5e 80 3e
       0.22252539 0.2503255 0.20796373 0.25071946
000190 51 ac be 3d 98 0d ba 3c ea db 91 3e b4 df f1 3d
       0.093102105 0.02271156 0.28488094 0.11810246
0001a0 88 4e 2e 3e 30 ce 2a 3e 3f 97 6f 3e e2 18 cb 3d
       0.17022145 0.16680217 0.2339754 0.099168554
0001b0 80 fd e0 3c bc 83 dd 3d 29 5e a3 3d 00 11 f8 3d
       0.027464628 0.10816142 0.07976944 0.121126175
0001c0 69 42 b8 3d b8 fd cf 3c e0 48 d7 3d cb cb ca 3d
       0.08997042 0.025389537 0.10511947 0.09902152
0001d0 e2 bf 3d 3e 86 cc 37 3e b3 9a ce 3d c2 c5 80 3e
       0.18530229 0.17949113 0.100881 0.25150877
0001e0 ce 07 f8 3d f7 08 ce 3d 64 38 81 3e 65 fc 85 3e
       0.121108636 0.10060304 0.25238335 0.26169124
0001f0 36 97 a9 3d ec d8 3f 3e 4a 1a bb 3d e4 d9 8e 3d
       0.08280794 0.18735093 0.091358736 0.06975153
000200 a8 b8 0f 3e 12 6b 10 3e 74 2a d3 3c 4a 21 03 3e
       0.14035285 0.14103344 0.02577708 0.12805668
000210 33 e7 2a 3e ba 9c ef 3d 22 bd a7 3d fc b1 29 3e
       0.16689758 0.11699815 0.08190371 0.16571802
000220 a9 c5 b4 3d 5a 9b bd 3d cc 31 e3 3d 7d a4 b9 3d
       0.08826763 0.092581466 0.110934824 0.09064577
000230 92 66 cc 3d da b1 80 3e 0a fb 7d 3e 00 57 eb b9
       0.09980501 0.2513569 0.24802795 -0.00044887513
000240 04 bd 69 3e 20 0a 61 3e 83 1d 40 bd e8 14 75 3d
       0.2282601 0.21976519 -0.046903145 0.05983439
000250 80 f7 53 3e 23 65 dd 3d 98 b2 ba 3d 8c 0f 53 3e
       0.20699883 0.10810306 0.09116095 0.206114
000260 57 ce 46 3e 64 8b 0c 3e d8 f2 85 bc 74 32 3b 3e
       0.1941465 0.13725048 -0.016351148 0.18280965
000270 e2 46 36 3e 2c e4 90 3e 5b 54 ca 3d ff a4 48 3e
       0.17800477 0.2829908 0.09879371 0.19594191
000280 2c 47 8b 3e 96 57 ba 3d b6 14 fd 3d 83 5e 29 3e
       0.27202737 0.09098737 0.12357466 0.1653996
000290 c4 27 b3 3d 70 88 21 3e 0e b6 1b 3e 21 b4 21 3e
       0.08747819 0.15774703 0.15206167 0.1579137
0002a0 ce df 01 3e ac 3e 89 3d 9a 64 85 3d 45 7e ba 3d
       0.12683031 0.06701407 0.06513329 0.09106115
0002b0 2a 48 77 3e be 42 24 3e a8 98 ea 3d 02 a7 a0 3d
       0.24148622 0.16041085 0.11454898 0.07844354
0002c0 97 22 8a 3d bc e9 8b 3d 65 ab ee 3d e9 58 2a 3e
       0.06744879 0.06831691 0.11653785 0.16635479
0002d0 72 04 90 3e 02 51 04 3e 34 02 63 3e b0 a9 e8 3d
       0.28128392 0.12921527 0.22168809 0.1136049
0002e0 d4 08 c4 bc 77 0b c9 3d 16 45 63 3e c0 ac e9 ba
       -0.02392999 0.0981664 0.22194323 -0.0017827973
0002f0 f5 5e 5d 3e db f8 07 3e 4c 43 b3 bc 4e 93 31 3e
       0.21618254 0.13278525 -0.021882676 0.17341349
000300 7f 83 b1 bd 14 7e cf bd 9f a9 85 bd 7b 84 e0 bd
       -0.08667659 -0.10131469 -0.06526493 -0.10962769
000310 74 15 55 bd 4a 07 19 bd 84 ad d1 bc 2f f2 64 3d
       -0.052022412 -0.037360467 -0.025595434 0.055895027
000320 19 e9 6a bd d7 de ae bd 81 b9 09 be 67 c0 8b bd
       -0.057351205 -0.08538597 -0.1344967 -0.06823807
000330 5a c5 2c bd 85 3e ff bd 28 b4 35 bd 1e c5 cf 3c
       -0.042180397 -0.124630965 -0.044361264 0.025362547
000340 7a f9 9e bd 38 7b 8c 3d 6c 05 80 bd ae 86 91 bd
       -0.07762428 0.068594396 -0.06251034 -0.07105766
000350 92 54 46 bd 40 04 85 bd a8 11 d4 bd 4a a6 11 bd
       -0.048420496 -0.06494951 -0.1035493 -0.035558976
000360 ec 9b bf bd 30 79 c5 bd dc 71 93 bd 41 6c a6 3d
       -0.093559116 -0.09642255 -0.07199451 0.081261165
000370 4e bb 8c 3d 08 02 15 3d e4 a0 67 bd 0a 43 b0 bd
       0.06871663 0.03637889 -0.05654992 -0.08606537
000380 e3 ca eb bd 60 7c c0 3c a0 29 bd bc b0 18 6c bd
       -0.11513307 0.023496807 -0.023091137 -0.05764073
000390 f9 c9 1d 3d 27 2f 9a bd 0e 1b c4 3c 16 89 a2 bd
       0.038522694 -0.07528525 0.023938682 -0.07936303
0003a0 79 39 24 bd cf 6b ee bd 52 ff cc 3c 4e a1 c6 bd
       -0.040093873 -0.116416566 0.02502409 -0.09698735
0003b0 30 e5 c0 bc fa 42 b9 bd ca 4e 8e bd 42 76 1a bd
       -0.023546785 -0.09045978 -0.069486216 -0.037710436
0003c0 e0 83 54 bd 6a b1 a0 bd b0 6d c2 3c 04 cb 8d bd
       -0.05188358 -0.07846339 0.023733944 -0.06923488
0003d0 84 02 95 bd be 89 a6 bd 82 0a 99 3d 5c a1 d4 bd
       -0.072758704 -0.08131741 0.07472707 -0.10382339
0003e0 12 a7 80 bd aa 37 8f bd 78 5e c0 bc a6 26 d8 bd
       -0.06281866 -0.06993039 -0.023482546 -0.105542466
0003f0 26 ed 65 bd cd de 97 3d 1b c9 f6 bd 80 6d 95 bd
       -0.056134365 0.07415543 -0.120500766 -0.07296276

attn_net.out.bias f4 [64]
000000 86 a9 7c be 55 02 d0 3d e7 a9 36 be 70 8e 64 be
       -0.24674043 0.10156695 -0.1783825 -0.2231996
000010 b2 94 9e bd ae 23 27 be c4 99 18 3e e6 38 26 3e
       -0.07743205 -0.16322204 0.14902407 0.16232643
000020 61 41 9b 3d 6f 86 a9 bd a7 28 a2 bd a2 dc a6 bd
       0.075808294 -0.08277594 -0.0791791 -0.08147551
000030 ec 7d 20 be 5e aa 3f be b0 9c 44 be 63 95 c9 bd
       -0.15673035 -0.18717334 -0.19200397 -0.098429464
000040 54 1a e4 bd 3a 6c ad 3d 52 68 bf 3d 40 f2 cb 3d
       -0.11137834 0.08467908 0.093460694 0.09958315
000050 58 d1 81 be ee 3c 58 be 5a 5c c0 3d c7 a9 57 be
       -0.2535503 -0.21116993 0.09392615 -0.21060859
000060 c6 63 71 3e 5e a0 2e 3e b4 8a 33 be 60 ab 01 be
       0.23573217 0.17053363 -0.1753338 -0.1266303
000070 6b 84 24 be 20 cc a1 bd 2d f0 86 be d5 3e 07 be
       -0.16066138 -0.07900262 -0.26355115 -0.13207562
000080 fa b2 35 be 76 34 c3 bd 9d c7 3f be 8c 86 eb 3d
       -0.17744055 -0.095314905 -0.1872849 0.11500272
000090 5a 8b 08 3e ec bb 16 3e 87 65 59 be 92 9d 10 be
       0.13334408 0.14720124 -0.21230136 -0.14122608
0000a0 c6 63 e9 bd 39 ca 63 be 17 67 7c be de 2e 1f 3e
       -0.113959834 -0.2224511 -0.246487 0.15545222
0000b0 cc 48 ae 3c 58 c4 18 be d4 4d 64 3e 06 78 5a 3e
       0.021274947 -0.14918649 0.22295314 0.21334848
0000c0 1e 30 44 be 3a 94 1d be 72 bf ed bd ba d5 82 3e
       -0.1915898 -0.15388575 -0.11608781 0.25553685
0000d0 34 ff 41 3e 15 d1 3d be b2 db 02 3e 54 15 20 3e
       0.18945009 -0.1853679 0.1277912 0.15633136
0000e0 da 7f 81 3e c9 e2 a9 3d af 16 0c 3e b0 58 7a be
       0.25292856 0.08295209 0.13680528 -0.24447894
0000f0 08 a7 3f be e9 7c 8c 3d 27 fd 87 bd 38 eb 2e be
       -0.18716061 0.06859762 -0.06640082 -0.17081916

linear.weight f4 [64, 10]
000000 8d b6 80 3d 40 75 8b 3b 52 22 0f bd c9 34 d6 bd
       0.06284819 0.0042559206 -0.03494484 -0.10459287
000010 a9 6f 55 bc 04 21 40 3c f3 83 59 be 04 0f 81 3c
       -0.01302711 0.011726622 -0.21241741 0.01575423
000020 fc c6 98 bc 65 9a 57 be d3 e1 ed 3e 8a 65 16 bd
       -0.01864957 -0.2105499 0.46461353 -0.03671793
000030 40 00 3f 3b 32 fc 79 3d da 66 a3 be 0c dc 6b be
       0.0029144436 0.061031528 -0.31914407 -0.2303316
000040 e8 77 b0 3e 48 6d ad be b7 b2 c7 3d 09 df e7 3e
       0.3446648 -0.33872437 0.09750884 0.4528735
000050 40 0d 3f 3c 14 9a f4 bd d1 bd 99 bd fc b0 82 bd
       0.011660874 -0.119434506 -0.07506908 -0.06381413
000060 74 ef ad 3d 49 a9 c5 3d 74 73 85 bd f0 5e 51 bc
       0.08492938 0.09651429 -0.065161616 -0.0127789825
000070 14 40 86 3c d8 a2 89 3d 2f 3a cc be 34 2a b6 3c
       0.016387977 0.06720513 -0.3988814 0.02223692
000080 10 ae eb 3c e2 da bc 3d ce 59 88 be b8 25 6c bd
       0.028769523 0.09221436 -0.26631016 -0.05765316
000090 df e0 2c be 87 5a 99 3d 6a 08 ee bd cd 89 8c be
       -0.16882657 0.0748797 -0.116226986 -0.27448884
0000a0 38 71 0a be c2 98 99 3d 95 0a 90 3d 72 78 20 3d
       -0.13519752 0.07499839 0.07033268 0.039177366
0000b0 8f 92 87 3d d1 21 5d 3e 80 ea 4b ba a8 63 2e 3e
       0.06619751 0.21594931 -0.00077787787 0.17030203
0000c0 e5 9e bf bd fa 26 fe bc 9c af 99 bc a0 fc 25 bb
       -0.093564786 -0.031024445 -0.018760495 -0.0025327578
0000d0 ec f5 c2 3c 50 32 23 3e 06 23 d2 3d da 4c 2c 3e
       0.023798905 0.15937161 0.102605864 0.16826192
0000e0 2e 09 67 3d f6 92 91 3e 9d ac 4e bd f4 8c c9 3d
       0.05640524 0.28432435 -0.050457586 0.09841338
0000f0 b9 96 ba 3e d7 00 cc bd 5d 68 04 be 24 8d 48 3e
       0.36443117 -0.09961098 -0.12930436 0.19585091
000100 5e 72 8b be 71 b8 ef be 4a 0a db bd c2 3b 15 be
       -0.27235693 -0.46820405 -0.10695322 -0.14573577
000110 af eb a3 bd 9e 13 89 3e 10 17 97 bb 2e 2b d8 3d
       -0.080039375 0.2677278 -0.0046109036 0.10555111
000120 7c b1 c9 bd fe 15 f6 3d 66 2d de be 4f 57 89 be
       -0.098483056 0.120159134 -0.4339401 -0.26824424
000130 88 6b 8e 3d 68 7b ff be 5c 54 b5 bc a0 2b 7d 3e
       0.06954104 -0.4989884 -0.022134952 0.24723673
000140 40 5e ca be f9 30 84 be 0d 9a 00 bd 74 3a 84 bd
       -0.39525032 -0.25818613 -0.031396914 -0.064564615
000150 4b 7a 51 3e b0 86 f1 bc 86 43 96 3d c9 ef 18 3e
       0.20456807 -0.02948317 0.07337098 0.14935221
000160 69 26 89 3d 0f 95 50 be 76 3f 12 be 38 f2 de 3c
       0.06696779 -0.20369361 -0.14282021 0.027215108
000170 78 b9 30 3e b6 a7 de bd 0e 68 d5 3e 42 8a b4 3e
       0.1725825 -0.10871832 0.4168095 0.35261732
000180 72 4d 0f be 94 78 8e 3d 7c bb 4c 3e ed ae b1 3d
       -0.13994387 0.06956592 0.19993395 0.086759426
000190 62 7e 15 bd 60 6c 95 bc e2 3c fb 3d 27 25 43 be
       -0.03649748 -0.018240154 0.12267472 -0.19057141
0001a0 7a ab 47 3e 84 13 bd 3e e8 23 6b 3d 48 4a a3 bc
       0.19499007 0.36928952 0.05740729 -0.019932881
0001b0 2c 8c 4d bd 3b 06 bc bd 38 c6 74 3d 8c 4c 4f 3e
       -0.050182506 -0.09180876 0.05975935 0.20244044
0001c0 25 28 8a 3d 88 7c 2a 3e cf cb 4c 3d 66 45 2e 3e
       0.06745938 0.16649067 0.049999055 0.17018661
0001d0 bc 03 bc 3c d0 74 95 3e ca 82 48 bd 40 c1 db ba
       0.022951 0.29190683 -0.048952855 -0.0016765967
0001e0 c2 96 ae be 78 a6 e4 bd e0 80 87 3c 62 e0 dd bd
       -0.34099394 -0.11164564 0.016540945 -0.10833813
0001f0 ce 3d 96 3e b0 fa 01 be 48 3e f6 bd 22 73 7d 3e
       0.29344028 -0.12693286 -0.12023598 0.24750951
000200 e3 ea 57 3e ab 0c 19 bd 14 18 89 3d 4c 83 18 bd
       0.21085696 -0.037365597 0.06694046 -0.03723459
000210 e6 ad 39 3e b8 ff 7b 3c f2 f7 df 3d fd 76 40 3d
       0.18132743 0.015380792 0.10935964 0.046988476
000220 52 e3 81 be 8b ef 3e 3e 70 9b 89 bd 4d 57 93 bd
       -0.25368744 0.18646066 -0.067191005 -0.07194386
000230 72 53 9b be 88 51 51 3c 8b fb 4a be ec d1 ad be
       -0.303371 0.012775786 -0.19822519 -0.3394922
000240 bf 4e e9 3d 3c ae 28 3d 74 fe 68 be 04 d8 c8 bd
       0.11391973 0.041181788 -0.22753316 -0.09806827
000250 44 05 39 be d5 d2 aa be bc 9c 56 be a0 d9 36 bc
       -0.18068415 -0.33363977 -0.20958227 -0.011160284
000260 65 1a 4b be d0 7f 95 be 14 f0 15 bd a7 83 af bd
       -0.19834287 -0.29199076 -0.03660591 -0.085700326
000270 40 75 9d 3b 7f 12 19 bd 82 30 79 be 87 30 c4 3d
       0.004805237 -0.037371155 -0.2433491 0.09579568
000280 5c c3 9e be 04 9b 09 be 26 04 76 be d0 16 96 be
       -0.31008422 -0.1343804 -0.2402502 -0.2931428
000290 28 51 48 3c 14 8c 0b 3e 72 52 d2 3d 54 f5 12 be
       0.01222638 0.13627654 0.102696314 -0.14351398
0002a0 44 50 9c 3c 2a 79 2f be f8 78 24 3d 7a 25 98 bc
       0.019081242 -0.17136064 0.040154427 -0.018572558
0002b0 ec e5 aa 3d 73 a0 39 be 7a 65 30 3e 78 b8 3a 3c
       0.08344635 -0.18127613 0.1722621 0.01139652
0002c0 af f0 78 be 00 2d 7e 3b d4 53 a3 be 16 db 9f be
       -0.24310564 0.0038784146 -0.31899893 -0.31221837
0002d0 02 62 9a be c3 8b dd 3e d6 eb 36 3e cc e9 0d 3d
       -0.301529 0.43270692 0.17863402 0.034646794
0002e0 92 9e c7 3e 99 02 f8 3e 36 b1 f7 be ca 94 d2 3e
       0.38988167 0.48439482 -0.4837739 0.41129142
0002f0 2c c3 ce 3c 9d c4 3a be bf 34 91 be c6 27 52 3e
       0.02523955 -0.18239065 -0.28360555 0.20522985
000300 f4 ff 8e 3e 92 ee 21 be 7e 4b cf 3e 6d 3a dd 3e
       0.27929652 -0.15813664 0.40487283 0.43208638
000310 88 b2 5a bc 6f 15 1a 3e 60 a9 d1 3c 2a a6 5a be
       -0.013348229 0.15047239 0.02559346 -0.21352449
000320 a8 18 4f 3d ad 07 12 be aa 32 84 bd 8d c6 2d 3e
       0.050560623 -0.1426074 -0.06454976 0.16970272
000330 98 06 9a bd 10 b4 04 3d 18 8c ac be 93 19 b5 3e
       -0.07520789 0.032398283 -0.33700633 0.35371074
000340 de f6 ad 3e 64 2b 9d 3d 55 4d 3a 3e a9 bf 97 bd
       0.33977407 0.07674292 0.18193562 -0.07409603
000350 a8 e2 4a 3e ee 7c 33 bd e9 5c 31 3e 3e bc 02 3d
       0.19813025 -0.043820314 0.17320599 0.031917803
000360 90 fa 6b 3b d0 66 9e bd 6b a0 a9 bd 74 94 16 bd
       0.0036007501 -0.07734454 -0.082825504 -0.03676267
000370 d8 e7 9e 3d e5 73 dd bd 80 2e 7f 3c a6 44 f4 bd
       0.077590644 -0.10813121 0.015575051 -0.11927156
000380 1c fa fb be a6 96 a1 bd b5 83 b7 3e 30 57 c3 be
       -0.49214256 -0.07890062 0.35842672 -0.38152456
000390 5e 74 27 3d 4c 38 af 3e 88 f1 38 3c 22 7e 41 3d
       0.04088246 0.3422264 0.011288054 0.04723943
0003a0 d8 4c ac bd 18 6d 72 3c 46 ff c8 3c 06 ef cc 3d
       -0.08413094 0.014796518 0.024535786 0.100065276
0003b0 d1 14 b5 3d ea 82 a6 bd 4a 51 14 be 35 72 e5 bd
       0.08841861 -0.081304386 -0.14484134 -0.11203424
0003c0 e2 ed fb 3e 06 cc c9 be 80 77 b4 bc de ef d7 bd
       0.49204928 -0.3941347 -0.022029638 -0.10543798
0003d0 86 1b 4a be 3a 0d be be 73 b9 98 3e e1 14 af be
       -0.19737062 -0.37119466 0.29828987 -0.34195617
0003e0 a0 ba d9 3d fa f4 4f 3e 54 7d ce 3e aa 46 83 be
       0.10631299 0.20308295 0.40329993 -0.2563985
0003f0 e2 20 94 be ee 21 df 3c d9 43 8d bd 31 3b db be
       -0.28931338 0.027237859 -0.068977065 -0.42818597
