outlier-interpretation-Xu/checkpoints/FOIBxAKj_checkpoint.pt (torch, 103259 bytes, 5 tensors)

attn_net.hidden.weight f4 [96, 192]
0	0xbb88436e	-0.004158429
1	0xbc36975f	-0.011144488
2	0x3bdeaa3d	0.0067951963
3	0x3aa5a31c	0.0012637111
4	0x3b3b94ff	0.0028622744
5	0xbbbd1610	-0.0057704523
6	0x3baa1a51	0.0051911254
7	0x3b4a4ef7	0.003086982
8	0x3a285a38	0.0006422135
9	0x3c2f46e8	0.010698058
10	0x3b89ce7f	0.0042055245
11	0x3be12e15	0.0068719485
12	0x3b6e5dd6	0.0036371849
13	0x3b9436ba	0.0045231255
14	0x3bf1755a	0.0073687257
15	0xbb408ad2	-0.0029379618
16	0x3b9bdae8	0.0047563203
17	0x3bc2b1ae	0.005941591
18	0xbb642048	-0.003480928
19	0x3b00c8a8	0.001965085
20	0xbbc25ba0	-0.0059313327
21	0xbb3da680	-0.0028938353
22	0xbba6f07e	-0.005094587
23	0x3be314f4	0.006929988
24	0xbb1ef8fa	-0.0024257288
25	0xbb80630e	-0.0039180582
26	0xbb3cf06e	-0.002882983
27	0xbbd8458d	-0.006600088
28	0x39dfa808	0.00042659068
29	0xb8b20a00	-8.489564e-05
30	0xbbda93bd	-0.006670444
31	0xbba3769b	-0.004988504
32	0xbbd24cf0	-0.006417863
33	0xbb1a1f3c	-0.0023517152
34	0x3a19a140	0.0005860515
35	0xba600f40	-0.00085471943
36	0xbc187202	-0.009304525
37	0x3b9553c0	0.004557103
38	0xbb369142	-0.0027857576
39	0x3b993751	0.0046757837
40	0xbbaddf86	-0.005306187
41	0x3ba10778	0.0049142204
42	0x3b680ae2	0.0035406877
43	0xbbf973c4	-0.0076126773
44	0xbaa19a00	-0.0012329221
45	0x3b6ae9f5	0.0035845016
46	0x3bab0f74	0.005220348
47	0x3a121af8	0.00055734767
48	0xbbb3aa4e	-0.0054829484
49	0x3b18eef8	0.0023335796
50	0xbc7b2328	-0.015328206
51	0x3a50c98c	0.0007964603
52	0xba16fad8	-0.00057594245
53	0x3aad1e12	0.0013207814
54	0xbc233bc2	-0.009962978
55	0x3b200260	0.0024415478
56	0xbaa547aa	-0.0012609859
57	0x39c28490	0.0003710133
58	0x3ba99a82	0.0051758895
59	0x3b78431e	0.0037881802
60	0xbafc4886	-0.0019247688
61	0x3bd1f5e2	0.0064074853
62	0x3b30eb2b	0.002699564
63	0xbb636f78	-0.0034703892
64	0x3a5bd790	0.00083863083
65	0xbb96a845	-0.004597696
66	0x3b09945d	0.0020992972
67	0x3ba99e90	0.005176373
68	0xbac464c8	-0.0014983648
69	0xbb903155	-0.004400412
70	0x3be3e5a3	0.006954865
71	0x3bf2338e	0.0073913997
72	0x3bb20fe0	0.0054340214
73	0x3be53ae4	0.0069955457
74	0xbb55bea7	-0.0032614858
75	0x39d1c0e0	0.0004000729
76	0x3b91468e	0.0044334596
77	0x3a940068	0.0011291625
78	0xbbaeb1fc	-0.005331276
79	0xbafa04c8	-0.0019074911
80	0xbbbc4436	-0.005745436
81	0xbbd7f888	-0.0065909065
82	0xbb616dd2	-0.0034397733
83	0xbba9b923	-0.0051795407
84	0x3bbc8466	0.005753088
85	0xba20b738	-0.00061308173
86	0xbb510e86	-0.0031899526
87	0x3bcaee4a	0.006192957
88	0xbc074022	-0.008255037
89	0x3a75cae0	0.0009376239
90	0xbbdc7aa4	-0.006728487
91	0xbbbccb76	-0.005761559
92	0x3bbcb6be	0.0057590893
93	0xbb8e36a5	-0.00434001
94	0xba9ffcd4	-0.0012206086
95	0x3aeb1984	0.0017936681
96	0x3b702850	0.0036645122
97	0xbc61e418	-0.013787292
98	0x398f2ed8	0.00027309987
99	0x3ba1e4ee	0.0049406206
100	0xbbe5cfbd	-0.0070132897
101	0xba4b0af0	-0.0007745465
102	0x3b5a82c2	0.0033342098
103	0x3b261c6a	0.0025346526
104	0x3bb51dac	0.005527219
105	0x3b940822	0.004517571
106	0x3b768b53	0.0037619665
107	0x3bddc0d3	0.006767371
108	0x3b94ca58	0.004540723
109	0xbb2d0c14	-0.0026404904
110	0x3b94bd44	0.004539164
111	0xbba08cba	-0.0048995884
112	0x3bb0d210	0.005396135
113	0x3bd8f573	0.0066210567
114	0xbbdd0278	-0.006744679
115	0xbbb00a82	-0.0053723464
116	0xbb8499ed	-0.0040466697
117	0x3bd2688a	0.0064211534
118	0xbb54c139	-0.0032463802
119	0xb90ec100	-0.00013614073
120	0x3992d640	0.0002800692
121	0xbbc1cbaf	-0.0059141736
122	0xbb10d676	-0.0022100485
123	0xbb9c56a2	-0.0047710696
124	0x3b87796c	0.0041343477
125	0xba8a05d0	-0.0010530297
126	0xbbec84bc	-0.0072179716
127	0xbbdeb292	-0.0067961896
128	0xbbe3d0fe	-0.006952404
129	0xbb66ca8f	-0.003521595
130	0xbbbec6ff	-0.005822062
131	0xbb66e61a	-0.0035232366
132	0xbb584e97	-0.0033005828
133	0xbbdd4e58	-0.006753724
134	0x3be3faa7	0.0069573703
135	0xbbb05914	-0.0053817127
136	0x3bc55b43	0.006022842
137	0xbbb47025	-0.0055065327
138	0x37bc0600	2.241414e-05
139	0xbab4e834	-0.0013802112
140	0x3bc461ab	0.0059930882
141	0x3bb72ab5	0.005589808
142	0xbb6ec336	-0.0036432273
143	0x3ba15d4a	0.004924451
144	0xbb822c0d	-0.0039725364
145	0x3c24575f	0.0100305965
146	0x3b867ea0	0.0041044503
147	0xbbd6a51e	-0.006550445
148	0xbb2c78fb	-0.0026317227
149	0x3c5762ca	0.013146112
150	0x3ba52fd0	0.0050411
151	0xbb8d638c	-0.0043148454
152	0x3b5d9d1a	0.0033815564
153	0x3b7692f7	0.003762422
154	0x3a469250	0.0007574903
155	0x3809e580	3.2877084e-05
156	0xbb8abf52	-0.004234233
157	0xbbc15102	-0.0058995495
158	0x3a3fef50	0.0007321732
159	0x3b3d2bb9	0.0028865172
160	0x3ade75fa	0.0016972416
161	0xbc44da14	-0.0120148845
162	0xbb9efcd9	-0.004851919
163	0xbb2249f4	-0.0024763318
164	0x3b4c44be	0.0031168903
165	0xbb1a360a	-0.0023530745
166	0x3bbf8704	0.0058449525
167	0xb8bcfb40	-9.0113375e-05
168	0x3a9c65f0	0.0011932235
169	0x391d31c0	0.0001499122
170	0x3b944184	0.0045244116
171	0xbbf1676e	-0.007367066
172	0x3bdfe4be	0.006832688
173	0xbab7aad4	-0.0014012703
174	0xbb86cbac	-0.004113635
175	0x3bd8d2e2	0.006616936
176	0xbb7724d7	-0.0037711167
177	0xbbbff09c	-0.0058575403
178	0xbbab8594	-0.0052344296
179	0x3a8371b0	0.0010028388
180	0x3bce149c	0.006289078
181	0x3beb6058	0.007183116
182	0xbb35f846	-0.002776639
183	0x3bafabb2	0.005361044
184	0x3b2de584	0.0026534507
185	0x3af4c018	0.0018672971
186	0x3be1b2dc	0.006887777
187	0xbbde87f0	-0.0067911074
188	0xbbdb0e92	-0.0066850865
189	0x3bd7d238	0.0065863393
190	0xbab3216e	-0.0013666579
191	0xbc22224e	-0.009895874
192	0xbd0ca551	-0.034337346
193	0x3c41d5f8	0.011830799
194	0x3ba4cee2	0.005029545
195	0x3c1de161	0.009636254
196	0xbc015a2a	-0.007895032
197	0x3ba19c54	0.004931966
198	0x3b078bd9	0.002068272
199	0xbb13a21a	-0.002252704
200	0x3c1e67a0	0.009668261
201	0xbbd6eea6	-0.006559211
202	0x3b4cc2e3	0.0031244091
203	0x3c07fa65	0.008299445
204	0x3c095824	0.008382831
205	0xbc0e8e9c	-0.008700993
206	0x3b9dc006	0.0048141507
207	0xbd67e902	-0.056618698
208	0xbd38f643	-0.04515673
209	0xbc4c8d47	-0.012484855
210	0x3b7ec194	0.0038872706
211	0x3bc568e6	0.0060244678
212	0xbbd17033	-0.006391549
213	0xba811308	-0.0009847591
214	0xbc9dcd28	-0.019262865
215	0x3ba24ec7	0.0049532386
216	0x3d5c8cfb	0.053845387
217	0x3b6c8782	0.003609151
218	0x3bbca033	0.005756402
219	0x3d40b644	0.047048822
220	0x3d6e5b2b	0.058192413
221	0x3c04e817	0.008111975
222	0x3bc63bd2	0.0060496116
223	0xbc4e3a9c	-0.012587216
224	0xbcb1a5fc	-0.021685593
225	0x3d5436d6	0.051810108
226	0xbca90b37	-0.02063523
227	0xbc4fb768	-0.012678005
228	0xbd6c7796	-0.057731234
229	0x3d81917b	0.06326576
230	0x3b7cff2a	0.0038604238
231	0xbc00b040	-0.007854521
232	0xbd43d79d	-0.047813047
233	0x3d5d77bd	0.05406927
234	0xbc932be8	-0.017965272
235	0x3c8931b4	0.016747333
236	0xbb815ec0	-0.0039480627
237	0xbd747914	-0.05968578
238	0xbd697ab5	-0.05700179
239	0x3ca54ece	0.020179179
240	0x3ba6b93e	0.0050880006
241	0x3beb3770	0.0071782395
242	0xb8e1ffe0	-0.000107764965
243	0x3d584b1e	0.052806012
244	0xbbb351c3	-0.0054723932
245	0x3d153c14	0.036434248
246	0x3d6ac87b	0.0573201
247	0xbae2a29c	-0.0017290893
248	0x3c969182	0.01837993
249	0xbb5d219e	-0.0033741961
250	0x39e1db30	0.00043078652
251	0xbd3c7a28	-0.046014935
252	0xbd4cf39e	-0.05003702
253	0x3baf1a34	0.0053437
254	0xbd66701e	-0.056259267
255	0x3b56d801	0.0032782557

attn_net.hidden.bias f4 [96]
0	0xbc9f3bf4	-0.019437768
1	0xbb534eac	-0.0032242937
2	0x3e0d841c	0.13819927
3	0xbc312569	-0.010812142
4	0xbe0589f7	-0.1304091
5	0xbeabfb7c	-0.33590305
6	0xbea4b35e	-0.32168096
7	0xbb3098b2	-0.0026946482
8	0x3ccfaf18	0.025352046
9	0xbb755cf5	-0.003743944
10	0x3e46e890	0.19424653
11	0x3d00588f	0.031334456
12	0x3e097d7d	0.13426776
13	0x3d627786	0.055289768
14	0x3c28703d	0.010280666
15	0xbd85f802	-0.06541444
16	0xbe8cd80f	-0.2750859
17	0x3e7e89e2	0.24857286
18	0xbc50168e	-0.01270069
19	0x3e9df56d	0.30851308
20	0xbeb11e82	-0.34593588
21	0x3eaa95a1	0.33317283
22	0x3d1107b5	0.03540774
23	0x3c403fcc	0.01173396
24	0x3e77c17c	0.24194902
25	0xbca0c265	-0.019623945
26	0x3e572c12	0.21012905
27	0x3ea11ab5	0.31465688
28	0xbe52f446	-0.20600995
29	0xbd5c01fd	-0.053712834
30	0x3d2a1f88	0.041533977
31	0xbecaa9f9	-0.39582804
32	0xbdb27ff7	-0.087158136
33	0x3d52fffc	0.051513657
34	0x3ecf78ec	0.40521944
35	0x3e3aebb8	0.18253982
36	0x3e86b680	0.2631111
37	0xbd9eb9dc	-0.077502936
38	0xbe4b8ce4	-0.19877964
39	0xbea5c689	-0.32378033
40	0x3d1ca86b	0.038246553
41	0x3c4b999f	0.012426763
42	0x3d8c22b2	0.06842555
43	0xbe21cdc0	-0.15801144
44	0xbc0dcdad	-0.008654994
45	0x3e9d6dbd	0.30747786
46	0x3b35e3c6	0.0027754172
47	0xbd05a092	-0.032623835
48	0x3d6e4980	0.058175564
49	0x3b29aefa	0.0025891648
50	0x3c87b18a	0.01656415
51	0x3d75b810	0.05998999
52	0xbcc161b2	-0.023606155
53	0xbe98d371	-0.29848817
54	0xbcd86d70	-0.026419371
55	0x3d0222dd	0.03177153
56	0xbd930c67	-0.071801
57	0xbe922d65	-0.28550258
58	0xbe9e036a	-0.3086198
59	0x3d85e997	0.06538694
60	0xbea8d142	-0.3297215
61	0x3c6673d7	0.014065704
62	0xbe809282	-0.25111777
63	0xbea0ec8d	-0.31430474
64	0xbe32c988	-0.1745969
65	0x3e5e6134	0.21716768
66	0xbe10d4a1	-0.14143611
67	0x3e8b5859	0.2721584
68	0x3ea63a8e	0.3246655
69	0xbc24c5ef	-0.010056957
70	0xbd57fd10	-0.052731574
71	0x3e9df42c	0.3085035
72	0xb9466d82	-0.00018923546
73	0xbe9cb23f	-0.3060474
74	0xbc97e36c	-0.01854106
75	0xbeb4fc47	-0.35348722
76	0x3db7dda8	0.089778244
77	0xbe095001	-0.13409425
78	0x3dee455a	0.116343215
79	0xbdc07c30	-0.09398687
80	0xbd6b1a12	-0.05739791
81	0xbd18cc55	-0.03730424
82	0x3ea8d304	0.32973492
83	0xbc9b03e2	-0.01892275
84	0xbde60a88	-0.112324774
85	0x3d455e49	0.04818562
86	0x3e81b3f7	0.25332615
87	0x3e47f4cf	0.19526981
88	0xbd25b8f5	-0.040459592
89	0x3be29a06	0.0069153337
90	0xbe2172ea	-0.15766492
91	0xbca99d4c	-0.020704888
92	0x3d6b34dc	0.057423458
93	0xbe0f4a02	-0.13993075
94	0x3eb2f6f8	0.34954047
95	0xbdd9f876	-0.10643093

attn_net.out.weight f4 [64, 96]
0	0x3bcbf81e	0.0062246462
1	0xbd609d13	-0.054837298
2	0x3eac2c42	0.33627516
3	0xbd3186bb	-0.04334138
4	0xbd759cc8	-0.05996397
5	0x3d2d62f4	0.042330697
6	0xbd1a5661	-0.037680034
7	0xbd19a92c	-0.03751485
8	0xbd879ac8	-0.06621319
9	0xba3ebc68	-0.00072759995
10	0x3ed5799c	0.41694343
11	0x3bde0c9c	0.0067764055
12	0x3e8cd071	0.27502778
13	0xbd765cfe	-0.060147278
14	0xbd0ae00e	-0.03390508
15	0x3e76e2e4	0.2410999
16	0xbc58db0a	-0.013235817
17	0x3ee5b97f	0.44868085
18	0x3c54137c	0.012944099
19	0x3efca496	0.4934432
20	0x3d604db4	0.054761603
21	0x3f0c258b	0.54744786
22	0xbdc1383c	-0.09434554
23	0xbd992f33	-0.07479706
24	0x3ee6d0af	0.45081088
25	0xbc92355c	-0.01784771
26	0x3eec8196	0.46192616
27	0x3f073579	0.5281597
28	0xbd3c40a2	-0.045960076
29	0x3ecc8b10	0.39949846
30	0x3eec75cc	0.46183622
31	0x3e052d56	0.13005576
32	0x3cb464c9	0.022020714
33	0xbd903654	-0.07041612
34	0x3f0fb12b	0.5612971
35	0x3ef563ac	0.47927606
36	0x3eeeb1a3	0.466199
37	0x3e448211	0.19190241
38	0xbd3dd29d	-0.046343435
39	0xbd103345	-0.035205144
40	0xbd49b78e	-0.049247317
41	0xbd61d889	-0.055138145
42	0xbc88338e	-0.016626146
43	0x3b82b1af	0.0039884667
44	0x3e3a22ce	0.1817734
45	0x3f00f90e	0.5038003
46	0xbdc8bdf1	-0.098018534
47	0x3e035192	0.12824085
48	0xbd279025	-0.04090895
49	0x3d950a2b	0.0727733
50	0x3d0fd126	0.03511157
51	0x3e4d4392	0.20045307
52	0x3d669d9c	0.05630265
53	0xbd26590a	-0.040612258
54	0x3e8d667c	0.27617252
55	0xbd71f214	-0.059068754
56	0x3db4747d	0.08811281
57	0xbd11fa39	-0.03563902
58	0x3c7e1b04	0.015509371
59	0xbdab2aa1	-0.0835774
60	0xbc38914a	-0.011265108
61	0xbc5e3a35	-0.013563682
62	0xbd3a4bb9	-0.04548237
63	0xbc60a920	-0.013712198
64	0xbcc1e99b	-0.023670962
65	0x3ee9b79f	0.45647904
66	0x3bf43fff	0.007453918
67	0x3f0c7561	0.54866606
68	0x3f01f183	0.5075914
69	0x3c97947a	0.018503416
70	0x3e8e7e64	0.27830803
71	0x3f0a9caa	0.541453
72	0xbd1c4b34	-0.038157657
73	0x3d349957	0.04409155
74	0x3d80203d	0.06256149
75	0x3e252b4b	0.16129796
76	0x3ec32ebc	0.38121593
77	0xbd1c4f11	-0.03816134
78	0x3eab0446	0.33401698
79	0x3d1b0a5d	0.03785168
80	0x3ec8dc25	0.39230457
81	0x3ed66e59	0.41881064
82	0x3f004f30	0.5012083
83	0xbbd50e7c	-0.006501971
84	0xbc668148	-0.014068909
85	0xbd8ddcbf	-0.069268696
86	0x3ef377ec	0.4755243
87	0x3eaad1ae	0.33363098
88	0x3e434ee2	0.1907306
89	0xbd9b762c	-0.07590899
90	0xbd475773	-0.048667382
91	0x3c9a3bd3	0.018827355
92	0xb83abd00	-4.4521876e-05
93	0xbc01cff5	-0.007923116
94	0x3effcd5b	0.4996136
95	0x3df82290	0.12115967
96	0x3c0f2e20	0.008739024
97	0x3c2c9276	0.010532966
98	0x3dcf5203	0.10123064
99	0xb9d35184	-0.0004030579
100	0xbbba576b	-0.0056866906
101	0x3bbe5746	0.0058087436
102	0x3b0ab422	0.0021164496
103	0x3cba2220	0.02272135
104	0x3d8bfd5f	0.06835436
105	0x3c9ce43d	0.019151801
106	0x3d13d92e	0.03609579
107	0x3da8c6d4	0.082410485
108	0x3d438f0f	0.047743853
109	0x3d53165c	0.051534995
110	0x3d39d14d	0.04536562
111	0xbd70ef0b	-0.05882172
112	0xbc46b715	-0.012128611
113	0x3e751d18	0.2393688
114	0xbbc50746	-0.00601283
115	0x3ea513e7	0.32241747
116	0x3bb3701b	0.0054760105
117	0x3e5fa90a	0.21841827
118	0x3d45b233	0.048265647
119	0x3cd702de	0.026246484
120	0x3dbd11f5	0.09231941
121	0x3c1a47ed	0.0094165625
122	0x3e526ef1	0.20550133
123	0x3e98f7b1	0.29876474
124	0xbc527687	-0.012845642
125	0x3db70f36	0.08938448
126	0x3e355c09	0.1771089
127	0xbcc47a82	-0.023984198
128	0x3bf1f053	0.007383385
129	0x3d21dc40	0.039516687
130	0x3ec2bdd7	0.3803546
131	0x3e22ea5b	0.15909712
132	0x3df8a947	0.12141662
133	0x3cf30a02	0.029667858
134	0xbbcce100	-0.006252408
135	0x3bf80442	0.007568867
136	0x3d0a99f3	0.033838224
137	0x3cde330b	0.027123949
138	0x3dadd0fb	0.084871255
139	0xbb59eecc	-0.0033253906
140	0x3a028248	0.000497852
141	0x3ea01702	0.31267554
142	0xbc3cb02c	-0.011516612
143	0x3d9179f3	0.07103338
144	0x3d7269e7	0.059183028
145	0x3da9362d	0.08262286
146	0x3d5f65d4	0.05454047
147	0xbb770459	-0.00376918
148	0xbb311833	-0.002702248
149	0x3ba92e7b	0.0051630116
150	0xbd4a8a48	-0.04944828
151	0x3d3d09ca	0.046151914
152	0xbcfbaef1	-0.030723067
153	0xbb93278c	-0.0044907983
154	0x3c22cc6e	0.009936435
155	0x3d2f1245	0.042742033
156	0x3bffe273	0.0078089773
157	0x3d4cedd3	0.050031494
158	0xbbf6b802	-0.0075292597
159	0x3c577552	0.01315053
160	0x3a906ce9	0.0011018786
161	0x3da065e4	0.07831934
162	0xbbe33d4e	-0.0069347983
163	0x3e81a504	0.2532121
164	0x3ea77aa9	0.3271077
165	0x3a381208	0.000702173
166	0x3df07b13	0.117422245
167	0x3ea05ad4	0.31319296
168	0xbcc16756	-0.023608845
169	0x3b4d72b1	0.003134888
170	0xbd19c387	-0.037539985
171	0x3bffa7cd	0.007801986
172	0x3e2f06a9	0.17092384
173	0xbcc8c4aa	-0.02450784
174	0x3d8bc7fb	0.068252526
175	0x3bf8f666	0.0075977324
176	0x3e1c1225	0.15241297
177	0x3e0d0e4e	0.13774988
178	0x3eb1ca45	0.34724632
179	0xbba2fe05	-0.004974129
180	0x3bfa0f9e	0.0076312562
181	0x3d75015d	0.059815753
182	0x3db5feb8	0.08886474
183	0x3d9d1da8	0.07671672
184	0xbcad31d4	-0.021141924
185	0x3c482565	0.012215947
186	0xbcbf4ab8	-0.023351058
187	0xbca7dc84	-0.020490892
188	0x3d397a2d	0.04528253
189	0x3c239230	0.009983584
190	0x3e5e1afd	0.21689983
191	0xbb678504	-0.0035327086
192	0x38747d00	5.829055e-05
193	0xbbe86acc	-0.0070928093
194	0xbb667e42	-0.003517047
195	0xbbd3776d	-0.0064534456
196	0x3bad86ab	0.0052955947
197	0x3c4d1817	0.0125179505
198	0x3d150836	0.036384784
199	0xbba5eaaf	-0.005063377
200	0xbc079d76	-0.008277288
201	0xbb6d2961	-0.0036187994
202	0x3cb79e56	0.022414368
203	0xbbbff169	-0.0058576358
204	0xbaffbbcc	-0.0019510924
205	0xbcbeb658	-0.023280308
206	0x3c4a6658	0.012353502
207	0x3d1aac94	0.03776224
208	0x3c9aa7c9	0.018878834
209	0x39002720	0.00012221606
210	0x3b89115e	0.0041829785
211	0x3d83df8f	0.06439125
212	0xbc6ccdf5	-0.014453401
213	0x3d36ccb7	0.044628825
214	0xbc057c75	-0.008147349
215	0xbb286dd4	-0.0025700228
216	0xbae4c378	-0.0017453274
217	0x3bc6a90e	0.0060626334
218	0xbd2426c7	-0.040076043
219	0x3d85c4e0	0.065316916
220	0xbbf1fc08	-0.007384781
221	0x3d326b19	0.043559168
222	0xbc4bcac2	-0.012438478
223	0xbaa6fc70	-0.0012740027
224	0x3c55c2df	0.013046949
225	0xbbf4980f	-0.007464416
226	0x3bf96809	0.007611279
227	0x3d53cdf9	0.051710103
228	0x3c13b4f7	0.009015313
229	0x3bcc48a8	0.0062342472
230	0xbc479265	-0.012180899
231	0xbb9b3b82	-0.0047373185
232	0x3ba8553a	0.005137113
233	0x3b6d430e	0.0036203298
234	0x3d32510d	0.043534327
235	0xbbf1fc73	-0.0073848306
236	0x3d5bd856	0.05367311
237	0x3bcfa248	0.006336484
238	0x3bce19ad	0.006289682
239	0x3c8466f1	0.016162368
240	0xbc257574	-0.010098804
241	0x3caf0892	0.021366391
242	0x3c7cb1d7	0.01542326
243	0x3b222792	0.0024742824
244	0xbbb296b9	-0.0054500964
245	0xbc1b8485	-0.009492044
246	0xbb6478a1	-0.003486194
247	0xbbbe5064	-0.005807923
248	0x3b310f14	0.0027017044
249	0x3bae2fb8	0.005315747
250	0x3d18d218	0.037309736
251	0x3bc9e708	0.0061615743
252	0x3d3288f7	0.04358765
253	0x3bdf9054	0.006822625
254	0x3d25273c	0.04032062
255	0x3c82aa9b	0.015950492

attn_net.out.bias f4 [64]
0	0x3ea8628e	0.3288769
1	0xbcbb182e	-0.022838678
2	0xbe496300	-0.19666672
3	0xbe4a9bdc	-0.19786018
4	0xbd5d4ea1	-0.054030064
5	0xbea2ec7e	-0.31821054
6	0x3ec0c6d8	0.37651706
7	0xbeaeea72	-0.34163243
8	0x3d0cc012	0.03436286
9	0xbe8d7b4f	-0.2763314
10	0xbe80510a	-0.25061828
11	0xbe85dbb5	-0.26144186
12	0x3d162a4f	0.036661442
13	0x3ea542ce	0.3227753
14	0xbe3a0d29	-0.18169083
15	0x3ed1d838	0.40985274
16	0x3ef5652d	0.47928753
17	0xbe064396	-0.1311172
18	0xbe9f0644	-0.31059468
19	0xbe4a3cb2	-0.19749716
20	0xbe1471e9	-0.14496578
21	0xbd5a34a8	-0.053272873
22	0x3e72440c	0.2365877
23	0xbe91d4b9	-0.28482607
24	0x3dc07912	0.09398092
25	0x3dd934a1	0.10605741
26	0x3d180862	0.03711737
27	0x3ebcff16	0.36913365
28	0x3e9f9a34	0.31172335
29	0xbef86d76	-0.48521012
30	0xbe07f017	-0.13275181
31	0xbe7ca37c	-0.2467174
32	0xbe6b42c6	-0.22974691
33	0x3e121027	0.14263974
34	0xbe9934e0	-0.29923153
35	0x3d1bba18	0.03801927
36	0x3e4c8371	0.19972016
37	0x3ede8979	0.43464258
38	0xbea16a29	-0.31526306
39	0xbe45046c	-0.19239968
40	0xbcb56d4d	-0.022146845
41	0x3e22b099	0.15887679
42	0xbe94a7ca	-0.29034263
43	0xbe1bd67e	-0.15218541
44	0xbdd1169d	-0.10209391
45	0x3ec1d620	0.37858677
46	0x3ea67ffd	0.32519522
47	0x3ee9fc44	0.45700276
48	0x3d532f8c	0.051559016
49	0xbd886a7a	-0.06660934
50	0xbef055a4	-0.4694034
51	0x3e156212	0.14588192
52	0xbe92c0b8	-0.28662658
53	0x3dc58806	0.09645085
54	0x3ef7cc09	0.48397854
55	0xbeab0984	-0.33405697
56	0x3d15ff2e	0.03662031
57	0x3ccf2b0a	0.025289077
58	0xbe9ca519	-0.3059471
59	0x3e8c6642	0.27421767
60	0x3c5f31e9	0.013622739
61	0xbe7d0940	-0.2471056
62	0x3e0d1ce1	0.13780548
63	0xbe10569a	-0.14095536

linear.weight f4 [64, 10]
0	0x3ef48303	0.47756204
1	0x3eb160b4	0.3464409
2	0xbea0c437	-0.313997
3	0xbf1c1276	-0.6096567
4	0x3f145236	0.57937944
5	0xbf82aac6	-1.0208366
6	0xbf4efff2	-0.8085929
7	0x3e39a28d	0.18128414
8	0xbf88864c	-1.0665984
9	0xbf5efd43	-0.87105197
10	0xbde3f38c	-0.11130437
11	0xbe164a55	-0.14676793
12	0x3e2d8a5b	0.1694731
13	0x3e7e8ac7	0.24857627
14	0xbd3228b1	-0.043495838
15	0x3f115117	0.5676436
16	0x3edd4a60	0.43220806
17	0xbd0b3dca	-0.033994474
18	0x3f0e6f03	0.5563814
19	0x3edc31ae	0.43006653
20	0xbd1032da	-0.035204746
21	0xbce82350	-0.02833715
22	0xbdd67e2c	-0.10473284
23	0x3dc7063e	0.097179875
24	0x3db78581	0.08961011
25	0xbcb08316	-0.021546882
26	0x3e00a394	0.125624
27	0x3b29cf51	0.0025910924
28	0xbd42beb5	-0.047545154
29	0xbd0d81b2	-0.034547515
30	0x3e6b883a	0.23001185
31	0x3e1b29f9	0.1515273
32	0x3d6b9bfd	0.05752181
33	0x3df72ab7	0.12068694
34	0x3eaab662	0.33342272
35	0x3bb87bf4	0.0056300107
36	0xbc092feb	-0.008373241
37	0x3d657a9c	0.056025133
38	0xbbfb39dc	-0.0076668095
39	0xbccdb054	-0.025108494
40	0x3e19adf5	0.15007766
41	0x3d8da500	0.06916237
42	0xbdbf4da9	-0.093409844
43	0x3d0433bd	0.032275904
44	0x3dbe8782	0.0930319
45	0x3de7ebad	0.113242485
46	0xbe1f8022	-0.15576223
47	0x3d748aa4	0.05970253
48	0x3d523aa5	0.05132546
49	0x3e1e24fb	0.15443794
50	0x3ceb7d6c	0.02874633
51	0x3e0f1b4b	0.13975255
52	0x3ec703ea	0.38870174
53	0xbd99100c	-0.07473764
54	0x3f8bbf7d	1.0917813
55	0xbe5e5b5e	-0.21714541
56	0xbe94fdc9	-0.29099873
57	0x3ee2355c	0.44181335
58	0x3f83be9b	1.0292543
59	0xbeea48df	-0.4575872
60	0x3d6f7e41	0.058470014
61	0x3e26c747	0.16286956
62	0xbdc73d80	-0.09728527
63	0xbde359c6	-0.11101107
64	0xbdad37a6	-0.0845788
65	0x3cd0e07d	0.02549767
66	0x3cc6b47c	0.024255984
67	0x3d62fe0c	0.05541806
68	0x3e29ac0c	0.16569537
69	0xbdb3b919	-0.08775539
70	0xbe12eace	-0.14347383
71	0x3d90998d	0.070605375
72	0x3d0217fa	0.031761147
73	0xbe81c65e	-0.25346655
74	0x3f067bbb	0.5253255
75	0x3d12cfc1	0.03584266
76	0xbe5442d9	-0.20728625
77	0x3e822c59	0.2542446
78	0x3f019577	0.5061869
79	0xbe5ffda4	-0.218741
80	0x3c63564a	0.013875553
81	0x3d32de83	0.043669235
82	0x3e09a2a9	0.13440956
83	0x3de212a7	0.11038714
84	0x3e4fbf03	0.20287709
85	0x3c468e9a	0.01211896
86	0x3c344d38	0.0110047385
87	0x3e27a08a	0.16369835
88	0xbd3f0329	-0.046633873
89	0xbd2d0967	-0.042245295
90	0x3daddebf	0.08489751
91	0xbdf15124	-0.117830545
92	0x3e48db63	0.1961494
93	0x3dcbe1d9	0.099551864
94	0x3ea784f1	0.32718614
95	0x3da0389a	0.07823296
96	0xbe396e69	-0.18108524
97	0x3e4bc2c9	0.19898523
98	0x3e8d385d	0.27582064
99	0xbe30f5ab	-0.17281215
100	0x3d8bebca	0.068320826
101	0x3e481ca3	0.19542174
102	0xbdda53ad	-0.10660491
103	0x3cddaa55	0.02705876
104	0x3d53fac4	0.05175282
105	0xbd0a13d9	-0.033710334
106	0xbd9f340e	-0.077736005
107	0x3e16b36e	0.14716884
108	0xbcdbcbff	-0.026830671
109	0xbd8ff147	-0.07028442
110	0x3d112900	0.03543949
111	0x3e3a5812	0.18197659
112	0x3df31226	0.11868696
113	0xbd95305b	-0.07284614
114	0x3f238e93	0.63889426
115	0x3d195ef1	0.03744406
116	0xbeb84049	-0.35986546
117	0x3e557f2f	0.20849298
118	0x3f6914bc	0.91047263
119	0xbefe65e4	-0.4968711
120	0xbcaeabaf	-0.0213221
121	0x3dbfe31f	0.09369492
122	0x3e00b3d1	0.12568595
123	0x3dca82c0	0.0988822
124	0x3e30ec72	0.17277697
125	0xbd1e2026	-0.038604878
126	0xbc2c0872	-0.01050006
127	0xbd0931ae	-0.033494644
128	0xbd2f0367	-0.042727854
129	0x3dad938c	0.08475408
130	0x3f16c3c3	0.5889246
131	0x3ef1a856	0.47198743
132	0xbe2a8ea0	-0.1665597
133	0xbf3294ad	-0.6975811
134	0x3f1144f4	0.5674584
135	0xbf51dc5c	-0.81976867
136	0xbf3dc318	-0.74125814
137	0x3ec09c27	0.37619135
138	0xbf7e45d0	-0.99325275
139	0xbf9633f8	-1.173461
140	0x3c91a87c	0.017780535
141	0xbd9f1d6c	-0.07769284
142	0x3c3bdbde	0.011465995
143	0x398fc4a5	0.00027421597
144	0xbcf8bce3	-0.030363506
145	0x3d1d6d52	0.038434334
146	0xbcc971db	-0.024590423
147	0x3d771678	0.060324162
148	0x3daa1dbf	0.08306455
149	0xbd2fb8a8	-0.04290071
150	0x3f0ef1a3	0.5583746
151	0x3f038b2a	0.5138422
152	0xbed4f08d	-0.41589776
153	0xbf421528	-0.7581353
154	0x3f0b0e5d	0.5431879
155	0xbf884086	-1.0644691
156	0xbf2bf5da	-0.67172015
157	0x3ef48639	0.47758654
158	0xbf866a38	-1.0501165
159	0xbf8c620a	-1.0967419
160	0x3e80741a	0.25088578
161	0x3e783fcd	0.24243088
162	0xbe83f5a2	-0.2577334
163	0xbef94db7	-0.48692104
164	0x3ea21ef8	0.31664252
165	0xbf25f4c1	-0.6482659
166	0xbf103919	-0.56337124
167	0x3b9de790	0.004818864
168	0xbf3248e0	-0.6964245
169	0xbf396843	-0.72424716
170	0xbe5321f8	-0.20618427
171	0x3d13d590	0.03609234
172	0xba733aee	-0.00092784956
173	0xbc6bc3e6	-0.014389968
174	0xbed48f6c	-0.41515672
175	0xbb2d3e62	-0.0026434888
176	0xbd4eb9d2	-0.05047018
177	0xbd44d656	-0.04805597
178	0xbd88a331	-0.06671751
179	0xbdbd71f3	-0.0925025
180	0x3e1dd3c9	0.15412821
181	0x3b3d4608	0.0028880853
182	0x3d9f72f1	0.07785595
183	0xbdabd910	-0.08391011
184	0x3e463e4a	0.19359699
185	0xb8662780	-5.487306e-05
186	0xbdd00eff	-0.1015911
187	0x3caef79e	0.021358307
188	0xbd69f1ba	-0.057115294
189	0x3d639f95	0.05557211
190	0x3e3633a4	0.17793137
191	0x3d9d3332	0.0767578
192	0x3c7d9a7a	0.015478725
193	0xbadba772	-0.0016758277
194	0xbd4dc93f	-0.05024075
195	0x399434fc	0.00028268236
196	0xbda25fec	-0.07928452
197	0x3cf6ea6d	0.03014108
198	0x3d29402b	0.04132096
199	0x3e053eac	0.13012189
200	0xbe698716	-0.22805437
201	0xbba8f0da	-0.005155665
202	0x3c2674e7	0.010159708
203	0xbd862267	-0.065495305
204	0xbe78e766	-0.24307021
205	0xbe1d74e9	-0.15376629
206	0xbd427d0b	-0.04748253
207	0xbdba964b	-0.09110697
208	0xbde20609	-0.11036307
209	0xbdee4184	-0.1163359
210	0xbd89e08a	-0.067322806
211	0xbd08225e	-0.0332359
212	0x3da3c0e5	0.07995776
213	0xbd007570	-0.031361997
214	0x3e9f04af	0.3105826
215	0xbb8c1538	-0.0042749904
216	0xbd5dcbf7	-0.054149594
217	0xbcacb6dd	-0.02108329
218	0x3e3c2165	0.18372114
219	0xbe47ae4d	-0.19500084
220	0x3f10f6b7	0.56626457
221	0x3e221f69	0.15832295
222	0xbec5e05f	-0.38647744
223	0xbf1a46de	-0.60264385
224	0x3ef0d9c4	0.47041142
225	0xbf8a5e83	-1.0810093
226	0xbf43f5ec	-0.7654712
227	0x3e4d7d83	0.2006741
228	0xbf831dff	-1.0243529
229	0xbf218e85	-0.6310809
230	0xbbfb11a6	-0.007662016
231	0x3da765d3	0.08173718
232	0xbe4a3c44	-0.19749552
233	0x3e26834d	0.16261025
234	0xbe1981ed	-0.14990969
235	0x3d4edba3	0.05050243
236	0x3deba7ac	0.1150659
237	0xbcf05e95	-0.029341975
238	0xbe20cb33	-0.15702514
239	0x3c907bdd	0.017637188
240	0xbed9026a	-0.42384654
241	0xbecf3190	-0.404675
242	0x3ec52f0e	0.38512462
243	0x3f3846c7	0.71983
244	0xbefdde5e	-0.49583715
245	0x3f615200	0.8801575
246	0x3f5bae35	0.85812694
247	0xbdb24473	-0.08704462
248	0x3f814a0e	1.0100725
249	0x3f53cab7	0.82731193
250	0x3da62c44	0.08113912
251	0x3cc99ad0	0.024609953
252	0x3dd684dc	0.1047456
253	0xbe79ce29	-0.2439505
254	0x3dca5811	0.098800786
255	0x3d449d16	0.04800137
