outlier-interpretation-Xu/checkpoints/GFPEhTHn_checkpoint.pt (torch, 103259 bytes, 5 tensors)

attn_net.hidden.weight f4 [96, 192]
00000000: 80c7 603e 249b 6f3d 5ba8 18be b8e1 453e
00000010: 9d97 6a3e c847 55be 0d80 8ebe 7fde a3bd
00000020: 2028 073d f25f 47be 41b6 743e 36d8 4c3e
00000030: 7942 e93c 05cb a83e 85cb 27bb 051f 5bbe
00000040: 1979 9e3e 73c2 3d3d 18d2 bdbe 64d7 a5be
00000050: 2d1b 07bd 0995 06be a213 99bc b899 c8bd
00000060: 592c 82be 1673 9abe 0ea9 3dbc 2817 66be
00000070: ad14 c8be 6318 5d3e 54cf 8e3e c5a3 913e
00000080: f8f5 5dbe f93e 8b3e 8fa2 babe 0af3 a83b
00000090: 541a e5bb 2ecc 203c a67f 8ebe da23 5a3e
000000a0: e233 a0be ba66 fc3b 7cc2 93be a3c5 ab3e
000000b0: 7667 afbe feea b6bc b329 1ebd a54e 0cbd
000000c0: 1d87 553e e96d 86be 9e78 a0be f060 1abd
000000d0: c987 4a3e 9e17 de3c 0d15 85be d822 16bd
000000e0: 8243 4ebd 85e0 573e a8b8 b23e 688c 843b
000000f0: 1e2f b53d 7c32 84be 45ad aabe 8613 b1bd
00000100: 107a 283d c032 bebd 400b 0ebd 5fa0 c33d
00000110: dd6e 85bd 6722 04be d1e1 0ebe 3480 55bd
00000120: 7975 1ebc fee6 ad3a 479a 413e 2cfe 43bd
00000130: 7ac8 9cbc dd9e 4c3e b1c1 77bb 34fc 963b
00000140: 0efb 9bbc 58c1 263d a83f 38be 9062 f1bd
00000150: 100f 2eba 68dd 86bd a8c1 0b3b 1ec8 abbb
00000160: 1779 64be 559c 06bd 5565 043d 0a39 47bd
00000170: 2a42 81be 1906 e33d 909f 983c 1888 7cbd
00000180: f1dc 5c3c b849 f73a 19c7 2fbe 6fec 34bd
00000190: ee88 58be 8949 6c3d 9cb5 1abe 380d 4abd
000001a0: 0c5a feba 2690 1dbb e42f 14be 1b9d 483e
000001b0: 143b 6dbd 41fb 30bd 0845 de3d 860b 0f3d
000001c0: f78b 8d3d bd38 12bc 7faa dc3c 73f5 8d3c
000001d0: 419b 803e 746b bbba d3ac 763d 0292 5ebd
000001e0: 2573 5bbd c932 b2bd b25c 133e cd26 42bd
000001f0: c860 8b3c 3e71 56be 4e99 5bbd 029f 6cbe
00000200: 1239 303e b59d 19bd e0c0 4c3c ca25 9c3d
00000210: 7e3f ee3d c531 88bd 3134 5cbe b49d e93b
00000220: 0a9c f23c 6bfe 7dbd c702 753e 95df 313d
00000230: 4910 7cbc 123e 963e 6a57 273b 70f3 00be
00000240: 9b96 5b3e ec8a 19bd 4a55 99be 9a18 98be
00000250: f61a 72bd 9603 113d 6a71 013d 02b8 083d
00000260: f5b0 55be 2daf 3dbe e2c3 c23a 6214 43be
00000270: 66ee a1be 6d0e 1e3e 70ce a63d 952b 233e
00000280: 3c1d 76bd ba48 113e 6ad3 84be eef8 293d
00000290: 1e59 2c3c 4fa8 cd3d b532 7ebe c17a e43d
000002a0: c2bf 6cbe 1fbc 5c3b e8c6 67be efc1 993e
000002b0: e0c7 65be d7b9 0dbd 53c7 363d 34de 83bc
000002c0: 7410 fd3c cd61 79be 0cfb 68be 8378 193d
000002d0: a375 233e db97 36bd 70b0 9abb 3451 afbd
000002e0: e9c0 32bd 1ada 30bd caac 683e 012d e53c
000002f0: e2e8 623d c3b1 16be 4b9a 74be ab4f 00bd
00000300: ae08 f0bb 2840 dbbb 3b7b 343c 9fa9 af3b
00000310: cbd1 963c ba66 d7bc 7150 d0bb 9c3e e9bb
00000320: c93f a5bb 0c7b 9dbc 27da 133b ddda 953c
00000330: 9e87 423b ee3d f03c fc3e 0cbc 7c29 853c
00000340: b4d6 b93c 0890 28bc 4ec6 debc f8c7 ddbc
00000350: 5f4d 173c e1ec d5bc 5f1d 6bbb dc9a dbbb
00000360: bad6 25bb c7f8 b8bc 6034 48bb ff50 39bc
00000370: b25f a2bc 9c45 cb3b b157 f43c 52c6 cc3c
00000380: 28c2 bcbb 34ff 643c 3cbc b3bc e002 bbbb
00000390: a6a9 58bb 63a1 7bbb ac38 b0bb e05e 9db9
000003a0: 4e80 c8bc b882 f4ba 3dab f5bc f642 dc3c
000003b0: de8e f5bc 18b9 c43b ff71 38bc ab82 013c
000003c0: f81b bc3c 7f2a 14bc 1f20 dabc e0c1 eeb9
000003d0: db3a a5bb 449d f03a c0c3 ccbc 73c5 0dbc
000003e0: f062 0e3c ca2f b23c 01ed e03c 0b7c 903c
000003f0: d520 bb3b d9aa 9abc d375 d7bc 66f3 f83b
0.21951103 0.058497563 -0.14907973 0.19324386 0.22909398 -0.20828164 -0.2783207 -0.08001422
0.03299725 -0.19470194 0.2389765 0.20004353 0.02847408 0.32967392 -0.0025603485 -0.21398552
0.30951765 0.04632802 -0.3707435 -0.32390893 -0.0329849 -0.1314279 -0.01868612 -0.097949445
-0.2542446 -0.3016593 -0.01157595 -0.22469771 -0.39078274 0.21591334 0.27892554 0.2844526
-0.21675861 0.27196482 -0.36452147 0.0051559256 -0.006991664 0.009814305 -0.27831763 0.21302739
-0.31289583 0.0077026756 -0.28859317 0.33549222 -0.34258622 -0.02232885 -0.038613986 -0.03425469
0.20852323 -0.2625573 -0.31342024 -0.037690103 0.1977836 0.02711087 -0.25992623 -0.036654323
-0.05035735 0.21081741 0.34906507 0.004045058 0.088468775 -0.25819767 -0.3333532 -0.08646302
0.041132033 -0.092870235 -0.034678698 0.09552073 -0.06515286 -0.12903748 -0.1395333 -0.052124217
-0.009671562 0.0013267694 0.18906508 -0.04784982 -0.019138563 0.19982477 -0.0037804658 0.0046077017
-0.01904061 0.04071173 -0.17993033 -0.117863774 -0.0006639818 -0.06585199 0.0021325145 -0.0052423617
-0.22311817 -0.032863934 0.0323232 -0.04863838 -0.25245792 0.110851474 0.018630773 -0.061653227
0.013480411 0.0018866574 -0.17165793 -0.044170793 -0.21145985 0.057687316 -0.15108341 -0.049329013
-0.0019405498 -0.0024042218 -0.14471394 0.19591181 -0.05791767 -0.043208364 0.108530104 0.0349231
0.06911462 -0.00892466 0.026936768 0.017328953 0.2511845 -0.0014298991 0.06022341 -0.054338463
-0.053576607 -0.08701093 0.14390829 -0.047400285 0.017013922 -0.20941636 -0.053613 -0.23107532
0.1720927 -0.037503917 0.012497157 0.07624395 0.11633204 -0.06650118 -0.21504284 0.0071293954
0.02961542 -0.06201021 0.2392684 0.043426115 -0.015384742 0.2934423 0.002553428 -0.12592864
0.2144417 -0.037486 -0.29947883 -0.2970627 -0.059107743 0.03540381 0.0316023 0.03337861
-0.20868285 -0.18523856 0.0014859403 -0.19050744 -0.31627196 0.1543519 0.081448436 0.15934594
-0.060086474 0.14187899 -0.25942546 0.041497163 0.010519294 0.10041868 -0.2482403 0.11156226
-0.23120025 0.0033681465 -0.2263447 0.30030772 -0.22439528 -0.03460106 0.044623684 -0.016097166
0.030891635 -0.24353714 -0.22752017 0.037468445 0.15962844 -0.044578414 -0.00472074 -0.0856041
-0.043641005 -0.043176748 0.22722164 0.027975561 0.055397876 -0.14716248 -0.23886983 -0.031325977
-0.0073252534 -0.0066909976 0.011015709 0.0053607966 0.018410584 -0.026294101 -0.0063572456 -0.0071180593
-0.005043004 -0.019223712 0.002256045 0.018292839 0.0029682885 0.029326405 -0.0085599385 0.016255133
0.022685386 -0.010288246 -0.027194168 -0.027072892 0.009234755 -0.02611393 -0.003587566 -0.0067018103
-0.002530499 -0.022579564 -0.0030548796 -0.011310815 -0.019821022 0.0062033664 0.02982697 0.02499691
-0.00576045 0.013976861 -0.021940343 -0.00570713 -0.0033060103 -0.0038395755 -0.0053778496 -0.0003001606
-0.024475243 -0.001865468 -0.02998888 0.026887398 -0.029975351 0.00600351 -0.011257648 0.007904689
0.022962555 -0.009043335 -0.026626645 -0.00045539346 -0.0050424165 0.0018357416 -0.024995685 -0.008653033
0.008690581 0.021751303 0.027456762 0.017637273 0.005710701 -0.018880295 -0.0263013 0.0075973747

attn_net.hidden.bias f4 [96]
00000000: 25cf ac3e 123c 443c 5016 c23e 7038 393d
00000010: fe91 80bd 1ec8 aebe 4008 bdbe 13d6 9dbe
00000020: 210c dcbe 186d a8bb 7391 9b3c cd59 413c
00000030: 8851 ebbc 1f3a af3e 4560 b33e 4406 213c
00000040: 4871 95be 727e c43d 5ffc 933d 4d8d 61bc
00000050: 4a69 6cbe b491 9cbd 82e7 a43e b74b d83e
00000060: 089d 6139 5f11 c83e 2e1e 363e 1a78 ad3e
00000070: cb12 a63b a5d9 86be e3d2 00bd 9a17 ab3e
00000080: b1ac 67bc 913f 5cbd 313c 76bd 08bc 173d
00000090: 755d 7d3d 7edc 6dbd c4d2 923e 81ae d5bd
000000a0: 54cc dbbd 26cb 80be a5b0 623e 26ba 7bbb
000000b0: 0140 8a3d a8f5 b2be 944c d7bb 1e5c dbbd
000000c0: 14a9 3c3d 1c0e 98be 61ce 9d3e 7821 dfbe
000000d0: 8a2c 49bd 2662 863e 2859 053a b6bc f53b
000000e0: 7667 793c dc32 a7bb 7bde 83bd 3427 0f3d
000000f0: a1b0 213b 9b73 553d 2e76 babe 1ccd 84bd
00000100: e741 2e3d 698c 6e3e 06d7 b8be 1c61 c7bc
00000110: e178 8fbe a71a 143e 92b6 b13e 37a0 9d3e
00000120: 27e2 4fbe d8cc b33e 87e8 ce3c c59b bbbd
00000130: b312 afbe 8b96 6e3d 54fd 92bc b6f6 b03c
00000140: 0743 afbe 6eb6 c3ba ca2e 213d a0dc bbbe
00000150: c6b9 db3d 4ba3 c03e ff21 843e 1672 1bba
00000160: a4b4 b8be f269 ba3e b226 7fbd 6304 ba3d
00000170: 30c0 febb 5621 113c d9f0 cdbb c51c afbc
0.3375179 0.0119772125 0.37907648 0.04521984 -0.06277846 -0.34137052 -0.36920357 -0.30827388
-0.42978004 -0.005139958 0.018990254 0.011801195 -0.0287254 0.3422403 0.35034385 0.009828154
-0.2918799 0.0959443 0.0722587 -0.013766599 -0.2308704 -0.07644978 0.32207876 0.42245266
0.00021516171 0.39075753 0.1778495 0.33880693 0.0050681583 -0.26337925 -0.031451117 0.33416444
-0.014140294 -0.05377156 -0.060115997 0.037044555 0.061856706 -0.058071606 0.28676426 -0.104336746
-0.10732332 -0.2515499 0.22137697 -0.0038410514 0.06750489 -0.34953046 -0.006570408 -0.10710929
0.046059683 -0.29698265 0.30821517 -0.43580222 -0.04911474 0.26246756 0.00050868327 0.0074993027
0.015222421 -0.0051024985 -0.06438919 0.034949496 0.002467193 0.052112203 -0.3641829 -0.06484434
0.042543318 0.2329575 -0.3610155 -0.024338298 -0.2802191 0.14463292 0.34709603 0.30786297
-0.20301114 0.3511722 0.025257362 -0.0916057 -0.34193954 0.058249038 -0.017943062 0.021602016
-0.34230825 -0.0014931688 0.039351262 -0.3669176 0.10728793 0.37624583 0.25807187 -0.0005929781
-0.36075318 0.36408955 -0.062292762 0.09082868 -0.0077743754 0.008858046 -0.006284815 -0.021376023

attn_net.out.weight f4 [64, 96]
00000000: 92eb a93d 9248 03bc 9083 8b3d 2dfe e4bb
00000010: 3af5 9e3b cc69 dbbb e35a 9cbc 4bee 013c
00000020: eb9f 3dbb 822d 903b d2fa e23b 2654 363b
00000030: 6d61 993c da5c 603d bf5e 663d 97cf 663b
00000040: 9783 ffbb 0873 b53c 16b3 d7bb f9bb 783d
00000050: fe3e c43b c8a9 b43b cf53 803c a08f 9c3d
00000060: 0acb 04bc 2d03 5c3d faaf c2bb 82bc 4f3d
00000070: 2f35 913b b9df 403b 3208 f93b 20fa 6b39
00000080: 960c 3a3c 50e1 3d3a f4b5 543c 024b d03b
00000090: 16c3 2bbc 822d 873b c64c 113c fd7a 573c
000000a0: 7151 363c b359 31bc a53a c53c 12ba b5bb
000000b0: 985e e2ba a369 093c f724 febb 1084 d1bb
000000c0: 1cdc 773b 1f66 0fbc df3c 783d 8c61 ff3b
000000d0: 2aa6 e5ba 2e04 d13c 7273 43bc 1ac6 ddbb
000000e0: d5e6 8fbb 6637 b7bb ba7a 8d3a b2b2 6b3b
000000f0: 5ee4 793b 82f5 a1bb 58c4 cdbb 241f a83c
00000100: 703b 943d 9aab b63c dc3e 1abc 200b 863b
00000110: 5f22 a93c 7cfe e13c bab6 fb3c d9a8 e43c
00000120: 5dc1 ff3b 3443 f43c e010 13bb 2fec f9bb
00000130: 5770 ba3c b8e0 8e3a 9ca1 b1ba f9e5 0f3b
00000140: 444c 883c 4f87 103c 68c0 9a3c 08d2 d93b
00000150: 7cf2 c33c 1a29 763d 8a9d f73a 9afe f63a
00000160: a460 e13b 973a 7a3d 14b0 513d 6604 393d
00000170: d42b bdbb 01f6 d73b 5f0d 153d 270a 3dbb
00000180: ef4e 7ebc 206a d53b 5f33 2cbb f981 133c
00000190: 886a 73ba c0ce cdb9 c122 243c ed45 98bc
000001a0: 97d1 27bd 255c febb fc46 f43b ef9b 19bc
000001b0: de3c 4e3d 0229 7e3b 2d15 5bbc 22ea b93c
000001c0: 4475 cc3c f600 223c 42a4 25bc c742 e8bc
000001d0: 6f5e 843c 6b6f b3bb 01c2 b2bb bd5b d2bc
000001e0: 1a26 4b3b f684 88bd a48b 763d a3fe 2e3d
000001f0: a1d6 8abb 4c1b 683c 44b5 25bc 7f7e 4bbc
00000200: 7ba0 e63c a4c1 b0bb ea4b 933d 4beb 513b
00000210: 26b1 2f3b 9b90 023c 5ab1 113b e58b 5fbd
00000220: 78ca dd3b a804 953a 6456 853d eaf8 75bb
00000230: fd20 903b 82bc 21bc a4f7 b53b 6072 24ba
00000240: ba59 663b d934 08bb 8ef0 433d 95d8 7ebd
00000250: 9eb5 0abb 3f5a 84bc 5d90 62bc 3838 cb3a
00000260: 2e2e f43b 01e9 83bb 306b d6bb 5849 c63a
00000270: 08f6 84bb b03a 5d3b 08cb 71bd 482c 7fbd
00000280: f7fe 48bd a05f c43c 9c2a d9bb 8475 643d
00000290: 7873 29bd e53d 9e3c 128d b1bc 7f23 783c
000002a0: 3a5f d03b 48c7 93bd 5562 983b cc97 ac3a
000002b0: e6ab 013c 3566 0dbc 9654 bbba b4f4 1b3b
000002c0: cafe 41bd 8c9b ae3b dd58 dc3b d842 ad3a
000002d0: c2e9 11bd d6db c6bc 2e19 dc3c 94c8 363a
000002e0: fab6 14bd 469f e73c cfaa 863c b7bd 993c
000002f0: 58f2 e03b ce2a 493b 6ab1 483d c8b0 b03a
00000300: 90d8 e93a 4923 853b a9dc 4e3d 70b6 a03b
00000310: fb17 5dbb 16df df3b 01ce 993c 4848 cc3a
00000320: 6cae 973b dc31 973b e75a dabb 26e5 d93b
00000330: 8ec2 87ba 8c68 b03a 02b9 14bc 3151 fe3c
00000340: 5b82 d23a c290 2a3d a1fc d13b 85ad 483d
00000350: 4c7d dbba dca5 a53b b926 643d 3269 723d
00000360: c85a 31ba ac71 05bd 7edc b83b 99fb 0a3d
00000370: 3e52 e5bb 40f5 83bc cf99 ba3b cdd4 1f3d
00000380: da67 62bc f669 c2bb c464 063d f029 513b
00000390: c8c7 42bb a369 8dbb 2921 573c 7860 ebba
000003a0: 38a4 e93b 088c acbc 7d67 a23c 6e41 19bc
000003b0: 9a50 dcbb 5c85 ef3a 48f0 9f3a c41b 7bbb
000003c0: 0be1 053c 4c81 663c 9816 2e3d 0f4e 16bc
000003d0: fe0a 3bbb c35e 1dbb d66f 853b c3c0 48bb
000003e0: e0ba a138 4871 a3ba 031d 563b c28e 803b
000003f0: 0b97 16bc b0e3 1a3c 65c5 ca3c fe39 c6bb
0.082968846 -0.008012908 0.06812203 -0.006988308 0.0048510106 -0.0066959616 -0.019086307 0.007930349
-0.002893443 0.004399956 0.006926873 0.0027821152 0.018723214 0.05477605 0.0562427 0.0035218948
-0.007797669 0.022149578 -0.006582628 0.06072614 0.0059889546 0.0055134036 0.015664963 0.07644582
-0.008105049 0.053713966 -0.005941388 0.050716884 0.004431389 0.0029430224 0.007599854 0.00022504525
0.01135554 0.0007243352 0.012982834 0.006356598 -0.010483524 0.004125298 0.008868402 0.013151881
0.011127816 -0.010824609 0.024075815 -0.005545863 -0.0017270623 0.008387002 -0.0077558714 -0.006393917
0.0037820404 -0.008752375 0.060604926 0.007793611 -0.0017520834 0.025514688 -0.01192938 -0.0067680003
-0.004391531 -0.005591321 0.0010794022 0.0035964665 0.0038130502 -0.004942597 -0.0062795095 0.020522662
0.07237899 0.022298623 -0.009414401 0.0040906817 0.020646272 0.027587168 0.03072678 0.027912544
0.007805033 0.029817201 -0.0022440478 -0.007627032 0.022758646 0.0010900712 -0.0013552192 0.0021957143
0.016637929 0.008821323 0.018890575 0.006647352 0.023919336 0.06009779 0.0018891555 0.0018844188
0.0068779755 0.061091032 0.05119331 0.04517021 -0.005773047 0.0065906052 0.036389705 -0.0028845163
-0.015521749 0.006512895 -0.0026275737 0.009003156 -0.0009285589 -0.00039254688 0.010018052 -0.01858803
-0.040971365 -0.0077624493 0.007454751 -0.009375556 0.050351016 0.0038781767 -0.013371748 0.022694651
0.02495826 0.009887924 -0.010109963 -0.028352154 0.01615831 -0.0054759285 -0.005455256 -0.02567851
0.0030998052 -0.06665985 0.060191765 0.04272331 -0.0042370115 0.014166664 -0.010114018 -0.012420296
0.028152695 -0.0053941775 0.07192214 0.0032031115 0.002680847 0.007969047 0.0022230954 -0.054576773
0.006768521 0.0011369186 0.06510618 -0.0037532398 0.0043984638 -0.009871604 0.0055532027 -0.0006273147
0.0035148696 -0.0020783453 0.047836833 -0.062218267 -0.0021165381 -0.016156314 -0.013828364 0.0015504425
0.007451794 -0.004025579 -0.0065435395 0.0015128059 -0.0040576495 0.0033756904 -0.059031516 -0.06229809
-0.04907128 0.023971379 -0.006627394 0.055776134 -0.041369885 0.019316623 -0.021673713 0.015145182
0.006359008 -0.07215744 0.004650394 0.0013167798 0.007914519 -0.008630325 -0.0014292176 0.0023796977
-0.047362126 0.005328601 0.0067244605 0.0013218774 -0.03562332 -0.024274748 0.026867475 0.00069726375
-0.036307313 0.02827419 0.01643887 0.01876722 0.006864827 0.003069568 0.04899732 0.0013480419
0.001784103 0.004063044 0.050503407 0.0049045607 -0.0033736217 0.006832014 0.018774988 0.0015585506
0.004628947 0.004614098 -0.0066636684 0.006649631 -0.0010357664 0.0013458892 -0.009077312 0.031044574
0.0016060577 0.041641958 0.0064082895 0.048993606 -0.0016745715 0.0050551724 0.05570099 0.059182353
-0.00067655416 -0.03257911 0.005641519 0.03393135 -0.0069983294 -0.016108155 0.005694605 0.039021302
-0.013818705 -0.0059330417 0.03281094 0.0031915866 -0.002972113 -0.0043155714 0.013130465 -0.0017957827
0.007130172 -0.021062866 0.019824738 -0.009353979 -0.0067234756 0.0018273997 0.0012202347 -0.003831611
0.00817133 0.014068913 0.042502016 -0.009173884 -0.0028540487 -0.0024012781 0.00407217 -0.0030632473
7.7118864e-05 -0.0012469674 0.00326711 0.003923268 -0.009191285 0.009453699 0.024752328 -0.0060493937

attn_net.out.bias f4 [64]
00000000: 66e1 263d fd06 103e 2058 b3b9 226e 39be
00000010: e384 8d3e b3d3 4b3c 1f68 89be eb4a f33c
00000020: c753 8ebe 4d49 163e 559f 93be 80fb 55bd
00000030: 4d71 12bc 4e4b bb3e 49e4 a6be 3eeb 803e
00000040: 3e76 923c 5885 a7bd 1d71 fa3e 9af8 aa3e
00000050: 0383 4abe 281d 88bc 4b5c 73be aa44 9b3d
00000060: cc47 95be 0f3a 833e 9adf 11bc a6e8 43be
00000070: 098f bb3e 603b 853c a1a9 c23e 4dce 6d3e
00000080: 535c 05bf 5f54 b43e 1634 d33e 10ea b4be
00000090: c6bb 1b3d d88b abbe c868 96be c213 ee3a
000000a0: 3174 ec3e c543 87be 97cf be3e d63f bd3e
000000b0: c3b4 c13e cac6 a9be 9556 aebc 39b1 21be
000000c0: 8e82 c33e 2212 9bbe e97d ad3e ba8f 60be
000000d0: 34ee 64be b04e 89be 82a5 d33e d39d b4be
000000e0: 1110 2fbe 84a9 af3e 9fe4 b13e 51d3 ca3b
000000f0: 9da9 91be 12cf 583d 43d3 d43e 69f5 b8be
0.0407423 0.14065166 -0.000342072 -0.18108419 0.27640447 0.01244061 -0.2683725 0.02969881
-0.27798292 0.146764 -0.28832498 -0.052241802 -0.008938146 0.3658089 -0.32596043 0.25179476
0.017878648 -0.0817973 0.48914424 0.33392793 -0.1977654 -0.016615465 -0.23765676 0.07581456
-0.2915634 0.25630233 -0.008903408 -0.19131717 0.36632565 0.016263664 0.38020042 0.23223229
-0.52094 0.3522062 0.41250676 -0.35334826 0.03802087 -0.3350513 -0.29376817 0.0018163847
0.46182397 -0.26418892 0.37267753 0.36962765 0.37833223 -0.33159477 -0.02128152 -0.15790261
0.38185543 -0.30287272 0.33885124 -0.21929827 -0.22356492 -0.26817846 0.4133721 -0.3527666
-0.17095973 0.34309018 0.34744737 0.0061897417 -0.28449717 0.052931853 0.4156743 -0.36124733

linear.weight f4 [64, 10]
00000000: a963 b4bd b7f6 51be 389c c0bd 6039 04be
00000010: eb1a 19bc 7c81 1d3c 0d69 b3bd e863 623d
00000020: 1b00 2c3e e6f7 3bba b61d 1a3c bb25 803d
00000030: 17b0 ce3d 3d4c f4bd 9a31 55bc 6a6f ecbd
00000040: d59b 64be d5b7 f93d 94c7 c03e c640 dabd
00000050: c889 6b3e 79d9 8c3e afa2 633e c76c 483e
00000060: bc5b 383e 0bc5 393e 7b00 bd3d 8277 3a3e
00000070: 1c00 07bd 1ef0 2f3d 90df 5a3d 9c6c 903e
00000080: 66d0 8d3d ad8d 69bd 7f47 ee3e b96b 4f3e
00000090: 16b2 a63d e26d aa3e 83d3 573e 98e2 c1bd
000000a0: e811 91be 13cb 54be 4c5a 513e df77 1f3f
000000b0: 6cab 58be 5450 583f a69d 203f 7a89 1fbe
000000c0: dd11 583f eb8e 393f 18e4 fc3e 7631 a23e
000000d0: ad6c edbe 4c19 32bf ff57 c23e 1d2e 37bf
000000e0: 1532 46bf 8a74 8f3e 224e 86bf af1c 47bf
000000f0: 9149 20bd c018 b3bd 3e1a 7ebd 25ea ff3b
00000100: 5763 6fbe e945 ecbd 3309 e1bd ecae b9bc
00000110: 3795 853b b33c 673e fed4 013c 6ba8 beba
00000120: 99dc 2b3e 0cfe bc3c 482a d8bd 7285 16be
00000130: 697e b13c 110a 98bd 07bf 303b a6e4 edbb
00000140: 9ef2 89bd 0654 4b3d afbb 213e 5eb2 833d
00000150: f2a6 1c3e 64ec 11be 613c 09be ddf0 733e
00000160: c1b0 e63d 608c d5bd 107f f53e 7d00 ef3d
00000170: 1aea 04bf f43a 40bf 37d6 88bd f9a0 58bf
00000180: f417 39bf f4f8 a23e 93a9 62bf 2491 5cbf
00000190: c115 cdbd e343 0fbd ea0b 31be 4d31 36be
000001a0: 5881 2d3e 7b78 b7bd 5796 ddbd 6c83 8bbd
000001b0: 0ab7 cb3e 3160 40be d459 9a3d 0c3a 94be
000001c0: aa89 143e 85ee 1c3e a050 803a 5343 dc3e
000001d0: 6c40 ad3e 217c 063e c73f fa3e e498 113f
000001e0: 7988 4fbd 198e 09be b978 2f3c d6b3 3e3e
000001f0: 9212 7fbe 72a1 e8bd 4c63 933d 5416 2dbe
00000200: 6d2e 4ebe 442a a13d 153d 18bf b05e 00bf
00000210: 05e7 2a3f 8f37 7b3f 9464 03bf cdf5 893f
00000220: cadf 7f3f 142e a8be 83d9 8b3f 7c2d 1d3f
00000230: 8091 9ebe d075 aebe 2c50 f5be 3299 d53c
00000240: 7cee d2be 1d7a 1f3d 0a93 b6bd bc0e d6be
00000250: 28f8 afbe e00f a83e 37c1 5fbe ede6 4abe
00000260: 2fd0 8bbd 4429 a43e 74ac 3ebe 91d0 d33e
00000270: 7ff3 a53e 7e5f fc3d 047b 043f b8f3 053f
00000280: 7b7f edbe e618 aebd 0b5d a63e 8726 203f
00000290: b300 b6bd 123a 433f 5192 2c3f 7639 56be
000002a0: a0d0 3c3f 2cbe 183f b73c 99be 6a91 d1be
000002b0: 30b8 58be f8dc 5ebe d5d5 afbe b46b 1dbe
000002c0: 6c34 32be 1b74 c5be 62db 9abd 4bed 7c3d
000002d0: 6f2a 2a3f 9ab6 053f 3b43 16bf 1167 54bf
000002e0: c758 023f fc5d 58bf 61d3 70bf dc7c c23e
000002f0: ce6a 82bf 0ba8 8ebf 4799 1a3f 4910 f03e
00000300: 3271 2abf 4e13 43bf 501b d73e 6150 8dbf
00000310: ab90 7fbf 08c7 a93e f2c8 85bf 5cf6 7abf
00000320: aae9 223c caac e73d b95e 6c3d 19a0 3c3d
00000330: 5981 82bc c404 d03d a17d 063e ebdf 203d
00000340: f099 753b 5ffd 123d 71b8 563e 457a 8a3e
00000350: 536e b2be 94d5 1ebf 4bab 383e b42c 6dbf
00000360: f54f 27bf 905c 7f3e 3239 6dbf c682 3dbf
00000370: 5bf9 df3b c44c 40be a99f 33be 7772 843e
00000380: 8b82 8bbe 778c e3bd 33f8 853e 5363 76be
00000390: fa0b e3be 00df 8c3e 20a4 29bd b8fa 4ebe
000003a0: af39 0abe 600d 32be 2e6a 5ebe d620 8fbe
000003b0: bb89 0dbe 43f6 30be e8c3 40be fbad 1abe
000003c0: 853a 753e 0f59 963e 88a2 813d 4804 483e
000003d0: 26fa b33e 646a 9f3e f0c5 25bb 0eae 383e
000003e0: fc10 ac3d fd3d fbbd 5a67 b53e c259 8d3e
000003f0: eb09 c6be f2b2 c3be 32a2 11bd 6c69 11bf
-0.08808071 -0.2050427 -0.09404796 -0.12912512 -0.009344797 0.009613391 -0.08760271 0.05527106
0.16796915 -0.00071704236 0.009406498 0.062571965 0.1009218 -0.11928604 -0.013012314 -0.11544688
-0.2232507 0.12193266 0.37652266 -0.10656886 0.23001778 0.27509668 0.22230028 0.19572745
0.18003744 0.18141572 0.09228607 0.18209651 -0.03295909 0.042953603 0.053435862 0.28207862
0.069245145 -0.05701988 0.46538922 0.20255937 0.08139436 0.3328696 0.21076779 -0.094670475
-0.28333974 -0.20780592 0.20444602 0.62292284 -0.21159142 0.8449757 0.6274055 -0.15579787
0.8440226 0.724837 0.49392772 0.3167836 -0.46371976 -0.6956985 0.3795776 -0.7155474
-0.7742017 0.280186 -1.0492594 -0.7777814 -0.03913266 -0.08744955 -0.062036745 0.0078098946
-0.23377739 -0.11536772 -0.10988083 -0.022666417 0.0040766257 0.22581749 0.007924316 -0.0014546042
0.1678337 0.023070358 -0.105549395 -0.14699343 0.021666722 -0.07423795 0.002696933 -0.007259923
-0.06735729 0.049640678 0.15794252 0.06430505 0.1529806 -0.14250332 -0.13401939 0.23822351
0.11264182 -0.10427165 0.47948503 0.11670015 -0.5191971 -0.75089955 -0.06681483 -0.84620625
-0.72302175 0.3183056 -0.8854 -0.86158967 -0.10013915 -0.03497685 -0.17289701 -0.17792244
0.16943872 -0.08958527 -0.10819691 -0.06812176 0.39788085 -0.18786694 0.075366646 -0.28950536
0.1450564 0.15325363 0.0009789653 0.43020114 0.33838212 0.13133289 0.48876783 0.5687392
-0.05066726 -0.13433112 0.010709935 0.1862329 -0.24909428 -0.11358918 0.07196674 -0.16903049
-0.20134898 0.0786939 -0.59468204 -0.5014448 0.6675876 0.9813165 -0.51325345 1.0778137
0.9995085 -0.32847655 1.0925754 0.6139753 -0.30970383 -0.3407426 -0.4791273 0.026074026
-0.41197574 0.038934816 -0.08914764 -0.41808116 -0.34369016 0.32824612 -0.2185105 -0.19814654
-0.06826817 0.32062733 -0.18620473 0.4137006 0.32412335 0.12322901 0.51750207 0.5232501
-0.46386322 -0.08500843 0.3249286 0.6255879 -0.08886852 0.76260483 0.6741076 -0.20920357
0.73755836 0.5966518 -0.29929134 -0.40931255 -0.21164012 -0.2176398 -0.34342828 -0.15373117
-0.1740281 -0.38565144 -0.07561375 0.061749738 0.66471 0.5223175 -0.58696336 -0.82969767
0.50916713 -0.8451841 -0.9407254 0.37985885 -1.0188844 -1.1145033 0.6039013 0.46887425
-0.6657897 -0.7620133 0.42013025 -1.1040155 -0.9983012 0.3315966 -1.0451949 -0.98032165
0.009943405 0.11312254 0.057707522 0.04605112 -0.015930818 0.10157159 0.13133861 0.039276045
0.0037475787 0.035886165 0.20968796 0.2704641 -0.34849796 -0.62044644 0.18034093 -0.92646337
-0.6535638 0.24937654 -0.926654 -0.7402767 0.0068351454 -0.18779284 -0.17541374 0.2586858
-0.27248034 -0.11110776 0.26165923 -0.24061327 -0.44345075 0.27513885 -0.041416287 -0.20212829
-0.13498567 -0.17387915 -0.21720192 -0.2795474 -0.13822071 -0.17281441 -0.18824732 -0.15105431
0.23948105 0.2936482 0.063298285 0.19532883 0.35151786 0.31135857 -0.0025294982 0.18035147
0.08401677 -0.12267683 0.35430413 0.27607542 -0.38679442 -0.38222462 -0.035555072 -0.56801486
