outlier-interpretation-Xu/checkpoints/HlbSFtPG_checkpoint.pt (torch, 103259 bytes, 5 tensors)

attn_net.hidden.weight f4 [96, 192]
-0.0035914686 0.0067123827 -0.001312969 0.007943001 0.0059257178 0.013619814 0.0010071313 -0.004629375
-0.006790857 0.00077840313 -0.0063875644 0.0009676586 -0.0027969726 0.0005981608 0.010861567 -0.0032621857
0.0067248694 0.03136887 -0.012598293 0.0068196217 0.0027937852 0.00087790063 -0.022293707 0.010818953
0.0064276573 -0.0033610952 -0.0012188721 0.012529912 -0.003010727 -0.006321936 0.013088444 0.0050410153
0.0054531116 0.00047605648 0.00012013118 -0.012255449 0.0118185105 2.2382475e-05 0.010464999 -0.016106099
0.006719839 0.0017544068 -0.0029691462 -0.0016814037 -0.035663456 0.0035491814 -0.004887013 9.8331366e-05
-0.01090369 0.029292054 -0.0023333277 -0.005399213 0.0021228655 -0.0046000523 -0.0054551675 -0.0008122012
-0.0066958982 -0.032988302 -0.0067306915 -0.0027839304 -0.003799093 -0.00037697633 0.0086678425 -0.009677134
-8.6281914e-05 0.00088634994 -9.452924e-07 -0.0057963184 -0.00641717 -0.005159887 0.004019992 0.0059844744
0.00675412 0.0049546803 0.0054824706 0.0066387462 0.0062187305 0.00086696097 -0.005126432 -0.0045475205
-0.005354595 0.0020620488 0.0019643332 -0.0044466117 -0.0070921886 0.0054194382 0.0057081804 0.0037542675
-0.004282199 0.0059316717 -0.0058828755 0.00429632 0.0015217378 0.0020765418 0.005679753 0.0021444652
-0.004895033 -0.006742182 0.0038226321 0.0062475405 -0.0044201007 -0.0023933738 0.005894447 -0.0037359186
-0.0002893256 0.0039686775 -0.00285685 -0.0035090027 -0.003963179 0.0065135895 -0.0062503153 0.003518744
0.004358658 0.0055161244 -0.004550107 0.0057539013 -0.0051215137 -0.0063923406 -0.0062643047 -0.008784473
0.0001114239 -0.0029984335 -0.004249112 -0.0062606605 -0.0035441075 -0.0024858976 -0.005912411 -0.00094679976
-0.0052823517 0.0037561913 0.0015856223 -0.0067807087 -0.0059170723 -0.0028630304 -0.00051891035 -0.007522194
0.00023302343 0.003292812 0.012372932 0.0024792524 -0.0038421466 0.0024563512 -0.0052186013 0.0048058773
-0.0010046479 0.0057398933 0.001087496 0.0035347643 -0.006162635 0.0029510187 0.0047983536 -0.007398828
0.003659702 0.0063524507 -0.0044163414 0.005499795 0.0059735533 0.003275944 -0.010875067 0.0068065994
0.005396747 -0.004697095 -0.008099871 -0.0030078948 0.0022490183 0.0006035003 0.0040280786 -0.0029675825
-0.001080103 0.006708338 -0.0019971738 -0.0032076628 0.0033808444 0.0011326238 -0.00564283 0.007303847
-0.0011485266 -0.003077689 0.00026063994 -0.0011231196 0.0068935715 -0.004682283 -0.0068357107 0.011689402
0.0059155496 0.008946206 -0.007041029 -0.0011233063 -0.006828806 0.0037901178 -0.0018149978 -0.0014091115
0.005435282 -0.0065115765 -0.006189863 -0.0029283098 -0.00056974776 0.01464259 -0.005443438 0.0061779246
0.0072951466 -0.027032427 -0.0044749654 -0.0043235915 0.0037807531 -0.020718182 0.003614522 0.01203906
0.00614879 0.0011497571 0.01672135 0.00045880815 -0.0054671643 -0.0066083875 -0.0025121823 -0.014421456
0.00052387663 -0.006680092 0.020652724 -0.018860383 -0.0065309475 0.006889153 0.0060865283 0.0068461234
0.00079660956 0.016828204 -0.009544989 -0.0063685197 -0.018917043 -0.0009498368 -0.022773126 -0.004261629
-0.006470857 0.005509359 -0.0028963306 0.008698478 -0.024959046 0.003083708 0.004662956 -0.014762855
0.014725942 0.0030006035 0.009548711 -0.005080846 -0.002233527 0.0075307 -0.0009358602 0.014055409
-0.006868533 0.0027857674 0.007020888 0.0083224755 -0.006295175 0.007114093 -0.01354247 0.019078461
00000000: d85e 6bbb 8cf3 db3b ee17 acba 5c23 023c
00000010: 862c c23b a425 5f3c b801 843a 03b2 97bb
00000020: d685 debb c00d 4c3a c64e d1bb 78aa 7d3a
00000030: 6a4d 37bb e4cd 1c3a b7f4 313c 65ca 55bb
00000040: 4b5c dc3b a57c 003d 1269 4ebc 2277 df3b
00000050: f017 373b ea22 663a 4ba1 b6bc fa41 313c
00000060: 199f d23b d245 5cbb 90c2 9fba 434a 4d3c
00000070: 9e4f 45bb 3e28 cfbb ea70 563c 1a2f a53b
00000080: 04b0 b23b 3897 f939 f0ee fb38 14cb 48bc
00000090: 6da2 413c 00c2 bb37 6375 2b3c f0f0 83bc
000000a0: 1832 dc3b 20f4 e53a 0296 42bb 8c62 dcba
000000b0: d813 12bd 6299 683b 3d23 a0bb 4037 ce38
000000c0: 64a5 32bc e4f5 ef3c beea 18bb e2eb b0bb
000000d0: c61f 0b3b 09bc 96bb 43c1 b2bb e6e9 54ba
000000e0: 4469 dbbb be1e 07bd 228d dcbb 9a72 36bb
000000f0: 34fa 78bb e8a4 c5b9 9103 0e3c d88c 1ebc
00000100: 40f2 b4b8 f059 683a 00c0 7db5 0bef bdbb
00000110: 2047 d2bb 4514 a9bb 23ba 833b 6919 c43b
00000120: aa51 dd3b df5a a23b 4ca6 b33b d789 d93b
00000130: 7ec6 cb3b c444 633a a1fb a7bb 5e03 95bb
00000140: 9975 afbb 7023 073b 0bbc 003b e2b4 91bb
00000150: 9765 e8bb 8b95 b13b b00b bb3b 280a 763b
00000160: b051 8cbb 785e c23b 23c5 c0bb 25c8 8c3b
00000170: 0c75 c73a 9716 083b 391d ba3b 288a 0c3b
00000180: 8366 a0bb 86ed dcbb 2085 7a3b 2bb8 cc3b
00000190: 7ed6 90bb 26da 1cbb 3526 c13b 50d6 74bb
000001a0: a0b0 97b9 ae0b 823b fd39 3bbb 4cf7 65bb
000001b0: 8edd 81bb f36f d53b 72cf ccbb ba9a 663b
000001c0: 13d3 8e3b 9bc0 b43b 1019 95bb 398b bc3b
000001d0: 5fd2 a7bb d776 d1bb cc44 cdbb c0ec 0fbc
000001e0: 40ac e938 5e81 44bb 233c 8bbb 3a26 cdbb
000001f0: 4244 68bb 71ea 22bb e6bc c1bb a832 78ba
00000200: 9417 adbb 6f2a 763b a8d4 cf3a b530 debb
00000210: 00e4 c1bb aea1 3bbb 7c07 08ba bd7c f6bb
00000220: c057 7439 38cc 573b d7b7 4a3c f47a 223b
00000230: 86cc 7bbb bcfa 203b cd00 abbb 9f7a 9d3b
00000240: 64ae 83ba b715 bc3b 508a 8e3a 81a7 673b
00000250: eeef c9bb e165 413b 823b 9d3b de71 f2bb
00000260: 9cd7 6f3b 3828 d03b f5b6 90bb a037 b43b
00000270: ccbd c33b 38b1 563b 562d 32bc e509 df3b
00000280: 32d7 b03b 17ea 99bb 52b5 04bc 1a20 45bb
00000290: 4464 133b 3834 1e3a f9fd 833b c67b 42bb
000002a0: 3e92 8dba 9ed1 db3b 04e3 02bb a737 52bb
000002b0: 2891 5d3b 8c74 943a 7de7 b8bb 1c55 ef3b
000002c0: 288a 96ba 0eb3 49bb 80a6 8839 a435 93ba
000002d0: 78e3 e13b d66d 99bb 19fe dfbb e884 3f3c
000002e0: 3ad7 c13b 1c93 123c 6fb8 e6bb e83b 93ba
000002f0: 2dc4 dfbb a063 783b 38e5 edba f0b1 b8ba
00000300: 731a b23b 105f d5bb 56d4 cabb e3e8 3fbb
00000310: 205b 15ba 79e7 6f3c de5e b2bb 3070 ca3b
00000320: 200c ef3b 1c73 ddbc bba2 92bb eaac 8dbb
00000330: 83c6 773b 2db9 a9bc 9ee1 6c3b 7a3f 453c
00000340: ca7b c93b 72b3 963a 36fb 883c 308c f039
00000350: e625 b3bb 2c8b d8bb 6da3 24bb f847 6cbc
00000360: c454 093a ace4 dabb e72f a93c 1781 9abc
00000370: 8f01 d6bb 67be e13b 8071 c73b 7255 e03b
00000380: 90d3 503a 4ddb 893c 9662 1cbc 04af d0bb
00000390: eaf7 9abc 78fe 78ba b58e babc 23a5 8bbb
000003a0: 7c09 d4bb da87 b43b 5dd0 3dbb 1084 0e3c
000003b0: ea76 ccbc 0918 4a3b b6cb 983b e7df 71bc
000003c0: 1445 713c c6a5 443b 3272 1c3c 3a7d a6bb
000003d0: 5d60 12bb 17c4 f63b 8454 75ba a848 663c
000003e0: 6e11 e1bb 6c91 363b 7a0f e63b fe5a 083c
000003f0: c147 cebb 561d e93b 3ce1 5dbc 6f4a 9c3c

attn_net.hidden.bias f4 [96]
0.009107111 -0.0038099645 -0.15424557 -0.19792444 0.018153906 -0.0038658422 0.050620124 -0.17293388
-0.33406422 -0.28735724 0.010712701 0.0222527 0.03565247 0.35383457 0.17332844 -0.0037483762
0.07041846 0.10140355 0.032272182 0.13983789 0.14886248 0.00082762033 0.18625382 0.020048928
0.02840096 0.30162805 -0.017659029 0.25196007 -0.09335367 0.11253327 -0.19996668 0.037612274
0.013334472 0.12607844 0.027434133 0.24850541 -0.014094228 -0.04367639 -0.07142407 -0.22803834
0.36366618 -0.25033465 -0.28744182 -0.020766312 -0.27895376 0.30091724 -0.041184835 0.016646916
-0.24884643 0.099720806 -0.01711368 -0.009599111 -0.108960755 0.19748506 0.053475298 0.21517058
-0.21433206 -0.12596352 -0.058649637 -0.102061436 0.058342878 -0.06367575 -0.055384874 0.29043266
0.015349723 -0.05038962 0.011479986 -0.1047363 -0.037263125 -0.062118996 0.15287237 -0.13938157
0.0646565 -0.29329658 -0.0058230585 0.24928933 0.055017542 0.033337727 -0.26378098 0.0112557225
-0.04746011 0.29197147 0.0068871384 0.0017907438 -0.19996247 -0.27650765 0.041655418 0.06005335
-0.2016399 0.21509488 -0.016402977 -0.081530005 0.21012948 -0.039564945 -0.1483037 0.2416145
00000000: fe35 153c 99b0 79bb 8df2 1dbe b4ac 4abe
00000010: 80b7 943c 125a 7dbb 0c57 4f3d 9415 31be
00000020: 770a abbe 7d20 93be 5384 2f3c 4b4b b63c
00000030: 5308 123d ce29 b53e 037d 313e 51a7 75bb
00000040: 8e37 903d aaac cf3d d62f 043d aa31 0f3e
00000050: 686f 183e a9f4 583a 52b9 3e3e a63d a43c
00000060: 21a9 e83c fe6e 9a3e aba9 90bc e900 813e
00000070: 3530 bfbd d877 e63d 11c4 4cbe 540f 1a3d
00000080: d478 5a3c b51a 013e 8cbd e03c 3478 7e3e
00000090: 7aeb 66bc 04e6 32bd c846 92bd e282 69be
000000a0: 7432 ba3e dd2b 80be 932b 93be 1d1e aabc
000000b0: 07d3 8ebe d311 9a3e 6eb1 28bd 1d5f 883c
000000c0: 99d1 7ebe 6c3a cc3d fd31 8cbc 9745 1dbc
000000d0: d126 dfbd 8639 4a3e ea08 5b3d ad55 5c3e
000000e0: dd79 5bbe 95fc 00be 9a3a 70bd 9605 d1bd
000000f0: f1f8 6e3d 6e68 82bd 40db 62bd 97b3 943e
00000100: 687d 7b3c 5965 4ebd 8d16 3c3c fc7f d6bd
00000110: 38a1 18bd 7d70 7ebd 938a 1c3e 0bba 0ebe
00000120: a16a 843d f82a 96be 5bcf bebb b445 7f3e
00000130: 135a 613d 248d 083d 4d0e 87be ec69 383c
00000140: 8865 42bd 497d 953e 81ad e13b 64b7 ea3a
00000150: f6c2 4cbe 6992 8dbe df9e 2a3d 80fa 753d
00000160: b17a 4ebe d541 5c3e 895f 86bc 34f9 a6bd
00000170: 2f2c 573e da0e 22bd eddc 17be cb69 773e

attn_net.out.weight f4 [64, 96]
0.0064049116 -0.006348799 -0.008039633 0.03259953 0.009844106 0.0058388473 0.07142988 0.027047632
0.044415694 -0.0045999903 -0.0244363 0.0070155943 0.001898774 0.14670943 0.040549904 -0.002470879
0.0043863403 0.0027762055 -0.0091247875 -0.0014537876 0.03972964 -0.0022356263 -0.008839335 -0.0030509674
0.0002528797 0.06460121 0.0059266863 0.055219747 0.05531558 -0.0014048419 0.00024359243 -0.0044293758
0.010292615 -0.016477166 0.007606666 0.07715817 0.011522269 -0.027359478 -0.020948341 0.04561038
0.10309285 0.040186085 -0.013610147 -0.030935114 0.0053891307 0.07686321 -0.015083773 -0.02028435
-0.013785136 -0.0104107745 0.06837214 0.012934559 -0.012121346 0.052981485 -5.003996e-06 0.009773655
-0.0079048155 -0.0043421183 0.008551044 -0.0004767573 -0.004280638 -0.008472566 -7.18385e-05 0.095019646
0.0010059259 -0.03573582 -0.0035651163 -0.00658028 -0.00042689824 -0.038806766 0.088759266 0.05577655
0.06311914 0.033899773 -0.000599102 0.1405405 0.012365737 -0.0022182926 -0.005699141 -0.0067765117
-0.01903145 0.034031756 -0.005543001 0.0018569748 0.009122501 0.0023111785 -0.0026097535 -0.004037872
-0.018799275 -0.028126087 -0.008430192 0.030295834 0.04768671 -0.02491707 0.037072737 0.025057936
0.0018812411 0.008061036 0.037754938 0.07298577 -0.035691705 -0.03061515 -0.09854424 0.046672232
0.048678946 0.0083743585 0.01815741 -0.007174039 -0.04739685 -0.30353305 -0.032950446 0.02863772
-0.08139645 -0.021613337 -0.07401464 -0.0065821037 -0.031207407 -0.06094127 -0.060683757 -0.04257827
-0.034964476 -0.17447555 -0.016182635 -0.07371701 0.05912189 -0.013702836 -0.0041726297 -0.07480639
-0.06873243 -0.024995176 -0.016885782 -0.23720337 -0.034771297 0.020662077 0.017090373 0.07982758
-0.22745089 0.04579716 -0.0009610895 0.057105675 0.039239738 -0.21943112 -0.0022896477 0.06325158
0.032719485 0.013384914 -0.027349543 0.018865429 -0.010299657 -0.100828044 -0.050681718 -0.09510688
-0.011610603 0.048286084 0.059350494 0.036324833 -0.04003761 -0.00910041 0.010348563 -0.21956348
-0.04526729 0.009618613 -0.006526905 -0.015294916 0.00062629953 -0.06567597 -0.034908857 0.04713652
-0.10100037 0.05636403 0.000591194 -0.22353232 -0.06302311 0.0410612 -0.0086238105 0.00046413438
0.05047037 -0.19610019 -0.065282084 -0.014219391 0.04151225 0.042234983 -0.06417062 -0.060032003
0.020767724 -0.049219575 0.0050861053 0.07076931 -0.06564153 -0.035384584 0.028063191 -0.12981622
-0.013889141 -0.17683549 -0.21827203 -0.3007194 -0.04903259 -0.19051567 -0.71406645 -0.24456744
-0.25866637 -0.06718576 -0.43679956 -0.047798995 -0.19880491 -0.8814989 -0.76550275 -0.083696455
-0.260851 -0.6434031 -0.25625312 -0.7473657 -0.82136965 -0.21442498 -0.69493157 -0.28095675
-0.079487935 -0.87138134 -0.4412624 -0.8102034 -0.2709917 -0.69733626 -0.077459626 -0.1148057
-0.30989265 -0.7086792 -0.08500208 -0.77445275 -0.07406613 -0.32417676 -0.41112176 -0.2640828
-0.9506148 -0.33394778 -0.16273692 -0.49534026 -0.19975424 -0.97214025 -0.26605028 -0.3734787
-0.21289563 -0.5600397 -0.38784143 -0.6686494 -0.081832305 -0.8406438 -0.18792288 -0.89653254
-0.03636908 -0.20006599 -0.5558527 -0.27677384 -0.19318709 -0.16283259 -0.3684064 -0.96231484
00000000: 4be0 d13b 9609 d0bb aab8 03bc 1687 053d
00000010: 2c49 213c cd53 bf3b d449 923d ff92 dd3c
00000020: 3bed 353d 84bb 96bb a32e c8bc 12e3 e53b
00000030: 48e0 f83a ff3a 163e a817 263d 78ee 21bb
00000040: 4abb 8f3b 00f1 353b 2280 15bc 048d beba
00000050: 8cbb 223d 9683 12bb dcd2 10bc bdf2 47bb
00000060: f094 8439 a44d 843d a634 c23b 1a2e 623d
00000070: 9792 623d ac22 b8ba d86c 7f39 4c24 91bb
00000080: 5ba2 283c 1ffb 86bc 5741 f93b 1a05 9e3d
00000090: e6c7 3c3c fc20 e0bc db9b abbc f3d1 3a3d
000000a0: 5822 d33d 2a9a 243d 18fd 5ebc a36b fdbc
000000b0: 4e97 b03b 756a 9d3d ee21 77bc 5d2b a6bc
000000c0: 0ddb 61bc f491 2abc b106 8c3d 79eb 533c
000000d0: 9c98 46bc 1d03 593d 00e8 a7b6 ae21 203c
000000e0: 3383 01bc 5448 8ebb ae19 0c3c 48f5 f9b9
000000f0: 9844 8cbb 84d0 0abc 00a8 96b8 a999 c23d
00000100: 46d9 833a b95f 12bd baa4 69bb 649f d7bb
00000110: 50d1 dfb9 d8f3 1ebd 6bc7 b53d f475 643d
00000120: 9c44 813d 7dda 0a3d 0e0d 1dba d9e9 0f3e
00000130: a999 4a3c c660 11bb dcbf babb 800d debb
00000140: d8e7 9bbc e264 0b3d 10a2 b5bb bc65 f33a
00000150: 8b76 153c 2477 173b 6608 2bbb 2050 84bb
00000160: f000 9abc ae68 e6bc ca1e 0abc f82e f83c
00000170: 2453 433d e21e ccbc 95d9 173d 4d46 cd3c
00000180: fa93 f63a 6f12 043c eca4 1a3d 9079 953d
00000190: 7731 12bd a0cc fabc 90d1 c9bd 622b 3f3d
000001a0: 9363 473d 9b34 093c d9be 943c 3314 ebbb
000001b0: 3323 42bd af68 9bbe 0cf7 06bd a799 ea3c
000001c0: 2fb3 a6bd 740e b1bc fd94 97bd b0ae d7bb
000001d0: ada6 ffbc 8e9d 79bd 888f 78bd 8d66 2ebd
000001e0: e936 0fbd b8a9 32be 7291 84bc f2f8 96bd
000001f0: cc29 723d dc81 60bc 8eba 88bb 1834 99bd
00000200: 97c3 8cbd afc2 ccbc 0d54 8abc 71e5 72be
00000210: 596c 0ebd 8443 a93c 1c01 8c3c a47c a33d
00000220: e3e8 68be ce95 3b3d a0f1 7bba a4e7 693d
00000230: d9b9 203d 8db2 60be ea0d 16bb 0b8a 813d
00000240: de04 063d 664c 5b3c 260c e0bc ac8b 9a3c
00000250: e4bf 28bc ef7e cebd a297 4fbd 65c7 c2bd
00000260: 663a 3ebc a1c7 453d 8119 733d 59c9 143d
00000270: 7afe 23bd e319 15bc 058d 293c 40d5 60be
00000280: 326a 39bd 6397 1d3c a6df d5bb 8797 7abc
00000290: 402e 243a 1f81 86bd 97fc 0ebd 3912 413d
000002a0: 48d9 cebd f8dd 663d 5cfa 1a3a a8e5 64be
000002b0: 4312 81bd ca2f 283d e24a 0dbc 1057 f339
000002c0: 05ba 4e3d 7dce 48be 9db2 85bd 73f8 68bc
000002d0: c008 2a3d 97fe 2c3d e36b 83bd 1ee4 75bd
000002e0: 1321 aa3c 779a 49bd 58a9 a63b 80ef 903d
000002f0: 116f 86bd 6def 10bd c7e4 e53c 8bee 04be
00000300: 488f 63bc 5d14 35be b482 5fbe e5f7 99be
00000310: 66d6 48bd 8a16 43be 0fcd 36bf e36f 7abe
00000320: eb6f 84be b098 89bd 31a4 dfbe e1c8 43bd
00000330: 8493 4bbe e9a9 61bf fdf7 43bf 0c69 abbd
00000340: 438e 85be 11b6 24bf 9c33 83be 5c53 3fbf
00000350: 4845 52bf 3992 5bbe 09e7 31bf 90d9 8fbe
00000360: 92ca a2bd d912 5fbf 25ed e1be 7d69 4fbf
00000370: 6dbf 8abe a184 32bf 27a3 9ebd 401f ebbd
00000380: 40aa 9ebe 006c 35bf 9215 aebd 8942 46bf
00000390: fcaf 97bd 7ffa a5be 8d7e d2be dc35 87be
000003a0: 7e5b 73bf 34fb aabe 82a4 26be 3d9d fdbe
000003b0: 608c 4cbe 2fde 78bf be37 88be 9a38 bfbe
000003c0: 5001 5abe c35e 0fbf 2793 c6be 9b2c 2bbf
000003d0: b297 a7bd 6f34 57bf db6e 40be 2883 65bf
000003e0: bff7 14bd 19de 4cbe 5d4c 0ebf 4db5 8dbe
000003f0: d6d2 45be 96bd 26be c39f bcbe 445a 76bf

attn_net.out.bias f4 [64]
-0.011404707 -0.15485168 -0.48276547 -0.08726616 0.20668446 0.032171167 -0.17948702 -0.15912026
-0.28990042 0.005145572 0.38161007 -0.073621064 -0.1551938 0.23809023 0.3222604 -0.2090298
-0.24051896 0.36692548 0.23286748 0.05878152 -0.098134845 0.26823667 0.20812908 0.18543997
-0.0739009 -0.2531729 0.42975888 0.44570285 -0.29308322 -0.32216263 0.30452684 -0.22690074
-0.2865604 -0.27766895 -0.20065549 0.33737108 0.32816422 -0.4038154 0.36319646 -0.17186971
-0.24562755 0.0023980169 -0.26075676 -0.0038320818 0.36157942 -0.005203125 -0.13962156 0.24428062
0.29978362 0.2266487 0.020017419 -0.42564797 -0.27275455 0.19927244 -0.038016427 0.34772444
-0.2791662 0.38120258 -0.21837205 -0.18338153 -0.23461519 -0.26000348 -0.3526442 0.1357619
00000000: cfda 3abc 7091 1ebe 092d f7be 9ab8 b2bd
00000010: 17a5 533e eac5 033d 72cb 37be 6cf0 22be
00000020: d46d 94be 309c a83b 6562 c33e a4c6 96bd
00000030: 20eb 1ebe edcd 733e 51ff a43e e80b 56be
00000040: 9a4a 76be a8dd bb3e d074 6e3e e4c4 703d
00000050: ecfa c8bd 5156 893e ca1f 553e fae3 3d3e
00000060: 5b59 97bd e19f 81be 5b09 dc3e 2a33 e43e
00000070: 010f 96be 80f2 a4be f1ea 9b3e ab58 68be
00000080: 0bb8 92be a02a 8ebe a278 4dbe e7bb ac3e
00000090: 2405 a83e e4c0 cebe e3f4 b93e 9dfe 2fbe
000000a0: ca85 7bbe 0c28 1d3b e981 85be aa23 7bbb
000000b0: f020 b93e fa7e aabb f4f8 0ebe b324 7a3e
000000c0: 3d7d 993e 9916 683e 92fb a33c 88ee d9be
000000d0: 7ca6 8bbe 130e 4c3e 1db7 1bbd f008 b23e
000000e0: dfee 8ebe fc2c c33e ec9c 5fbe 5ec8 3bbe
000000f0: f73e 70be 2d1f 85be c88d b4be 2b05 0b3e

linear.weight f4 [64, 10]
-0.20499903 0.0890748 -0.12183318 -0.09022849 -0.1334956 -0.09985473 -0.10584415 0.09945186
-0.14122605 -0.04435885 -0.0562822 0.21051031 0.09001376 0.15558206 0.83337885 0.20497467
-0.46172562 0.41872162 1.0245209 -0.7333675 -0.3213715 0.6048579 -0.2568476 0.48655382
-0.3144251 0.21346 -0.1097119 -0.27936593 0.17663024 -0.52759624 0.25800842 -0.0421708
0.09003278 -0.3011634 0.028163046 -0.4979395 -0.35527718 -0.10687845 -0.3665129 -0.2803586
-0.1533592 0.18110535 0.018827073 0.06105324 0.17219906 -0.042267296 -0.1464429 0.13865395
0.052657787 -0.007595551 0.47279194 0.23194048 -0.22806048 -0.56406367 0.34969458 -0.5566265
-0.6305353 0.09617257 -1.0313331 -0.8247671 -0.064429864 -0.12588334 -0.048860196 -0.09597234
0.02161292 0.015594647 0.0025965755 -0.06318286 -0.10895033 0.025902051 -0.05346403 -0.09211577
-0.11235269 -0.003359223 0.19100933 -0.037990425 0.08156679 -0.08496718 -0.16249381 0.09035144
0.09788144 0.009914006 0.08221386 0.009721583 0.17589583 -0.071692176 -0.10752694 0.031593297
0.513695 -0.39358243 -0.3403301 -0.43078843 0.4719555 0.5671107 -0.3197457 0.9166691
0.58227193 -0.19095314 0.8147594 0.83530456 -0.6343596 -0.52768344 0.5800781 0.84955156
-0.57200557 0.8846347 0.8489684 -0.3033539 1.0016049 0.9396718 -0.013892631 -0.09962234
-0.10435831 0.03653575 -0.057635915 0.039116398 -0.019174527 -0.07228427 -0.4070281 0.25486147
-0.06410459 0.009854335 -0.01651226 -0.12215313 -0.049645003 -0.077740915 0.10964937 -0.04432793
-0.079057716 -0.005679615 -0.5769352 -0.21149386 0.41565958 0.60324967 -0.45359057 0.65155786
0.4794834 -0.28414586 0.85434663 0.76165634 -0.38570952 -0.18655172 0.6412151 0.6894572
-0.51415974 1.0324835 0.78232735 -0.22205336 0.7969035 1.0354309 -0.2785639 0.0327757
-0.04092376 -0.044441495 0.016925883 -0.046444044 0.00520995 -0.18849808 -0.072475605 -0.026034318
-0.11439053 -0.013890561 -0.09259391 -0.15497386 -0.1647921 0.13100289 0.20030484 -0.031520527
-0.32709247 0.146155 0.7296367 0.21784686 -0.6622126 -0.9201683 0.41116953 -0.7664718
-0.74409294 0.37917542 -1.0571804 -1.1557676 0.7438898 0.42943504 -0.6167291 -0.65972155
0.55102164 -0.6684077 -0.5772845 0.33630824 -1.0448407 -0.96954983 -0.09358966 -0.03656294
-0.22087288 -0.21514621 -0.4497994 -0.044011373 0.19234738 -0.2711842 -0.8590018 0.638369
0.02771814 -0.17442107 -0.13970976 -0.009693563 -0.048649147 -0.026241243 -0.13251771 -0.021345964
-0.0031755585 -0.025051683 -0.22584413 -0.062496174 0.24038866 0.38349238 0.029298551 0.54874563
0.29074737 0.02942337 0.6168329 0.4921118 -0.76971275 -0.35691977 0.5861297 0.8007336
-0.6103882 0.9526161 0.57588303 -0.38864562 1.030318 0.99123967 -0.67659545 -0.3557344
0.48804373 0.6759383 -0.53072435 0.7545123 0.7969506 -0.11865086 1.1067685 0.9768992
-0.15769458 -0.027049305 0.029439379 -0.057264484 -0.33881876 0.07663924 0.3431232 -0.08981076
-0.19991101 -0.1994318 -0.18526335 -0.07679453 -0.16991927 0.1479061 -0.20621553 -0.1131119
00000000: 44eb 51be d96c b63d ad83 f9bd b7c9 b8bd
00000010: 12b3 08be a380 ccbd d1c4 d8bd 6bad cb3d
00000020: 909d 10be a0b1 35bd 2a88 66bd 0490 573e
00000030: 2259 b83d e750 1f3e 5158 553f e1e4 513e
00000040: 4d67 ecbe ae62 d63e 8023 833f f9bd 3bbf
00000050: ce8a a4be f8d7 1a3f 8781 83be 951d f93e
00000060: 54fc a0be 4295 5a3e a2b0 e0bd 0d09 8fbe
00000070: 8fde 343e 8c10 07bf ae19 843e 4abb 2cbd
00000080: 1b63 b83d 1732 9abe 30b6 e63c edf1 febe
00000090: e4e6 b5be 17e3 dabd 94a7 bbbe 2a8b 8fbe
000000a0: 320a 1dbe ae73 393e 3c3b 9a3c f612 7a3d
000000b0: f354 303e 7920 2dbd 21f5 15be 4dfb 0d3e
000000c0: b1af 573d 1ae4 f8bb c911 f23e ce81 6d3e
000000d0: b088 69be 7a66 10bf 2b0b b33e 137f 0ebf
000000e0: c36a 21bf 20f6 c43d b902 84bf f023 53bf
000000f0: cef3 83bd 90e7 00be a121 48bd 258d c4bd
00000100: 940d b13c b180 7f3c 4f2b 2a3b 0466 81bd
00000110: 5a21 dfbd 8a30 d43c 19fd 5abd 31a7 bcbd
00000120: 2b19 e6bd 6926 5cbb f397 433e d99b 1bbd
00000130: 7d0c a73d 4603 aebd c764 26be 2d0a b93d
00000140: 1076 c83d 5b6e 223c bd5f a83d 4647 1f3c
00000150: 091e 343e 59d3 92bd 1637 dcbd f967 013d
00000160: 8481 033f a383 c9be bf3f aebe 4d90 dcbe
00000170: 27a4 f13e 2b2e 113f b5b5 a3be d3aa 6a3f
00000180: c60f 153f 3889 43be 1294 503f 85d6 553f
00000190: 6465 22bf 4316 07bf 0080 143f 367c 593f
000001a0: f56e 12bf 6b77 623f fe55 593f 3451 9bbe
000001b0: 9734 803f 558e 703f eb9d 63bc cc06 ccbd
000001c0: cfb9 d5bd 83a6 153d a313 6cbd 8438 203d
000001d0: e613 9dbc c609 94bd fd65 d0be 347d 823e
000001e0: 4449 83bd 1474 213c b844 87bc 6c2b fabd
000001f0: 8f58 4bbd a136 9fbd d98f e03d 3491 35bd
00000200: 03e9 a1bd 101c babb 06b2 13bf d991 58be
00000210: 55d1 d43e 926e 1a3f 063d e8be 7fcc 263f
00000220: d97e f53e 917b 91be 76b6 5a3f e9fb 423f
00000230: b87b c5be 6a07 3fbe ac26 243f 4480 303f
00000240: f99f 03bf 6b28 843f 9b46 483f f561 63be
00000250: de01 4c3f 0089 843f ed9f 8ebe d03f 063d
00000260: ac9f 27bd 4908 36bd 26a8 8a3c 1c3c 3ebd
00000270: 3ab8 aa3b a405 41be 176e 94bd ec45 d5bc
00000280: 9545 eabd 3c95 63bc e0a1 bdbd 78b1 1ebe
00000290: 43bf 28be 9f25 063e b61c 4d3e ab1b 01bd
000002a0: aa78 a7be a8a9 153e 79c9 3a3f 3f13 5f3e
000002b0: c486 29bf 2690 6bbf d084 d23e 7f37 44bf
000002c0: e07c 3ebf 4823 c23e b051 87bf 31f0 93bf
000002d0: 906f 3e3f e9de db3e f5e1 1dbf 83e3 28bf
000002e0: c10f 0d3f c41c 2bbf ebc8 13bf 9830 ac3e
000002f0: 57bd 85bf 6b34 78bf f0ab bfbd 05c3 15bd
00000300: 802c 62be 4a4f 5cbe 1b4c e6be 4545 34bd
00000310: b6f6 443e a8d8 8abe 8be7 5bbf 276c 233f
00000320: 2711 e33c 709b 32be 1310 0fbe c0d1 1ebc
00000330: 5444 47bd e0f7 d6bc b9b2 07be bbdd aebc
00000340: 081d 50bb 3039 cdbc af43 67be fdfb 7fbd
00000350: 7228 763e 1d59 c43e 8403 f03c 987a 0c3f
00000360: d7dc 943e 4709 f13c c3e8 1d3f 14f6 fb3e
00000370: e50b 45bf 30be b6be 990c 163f e1fc 4c3f
00000380: 6742 1cbf a6de 733f 126d 133f 8ffc c6be
00000390: 76e1 833f e2c1 7d3f 5c35 2dbf d222 b6be
000003a0: dee0 f93e 4b0a 2d3f 8ddd 07bf b827 413f
000003b0: f404 4c3f 39ff f2bd 97aa 8d3f 1116 7a3f
000003c0: b07a 21be 8196 ddbc da2a f13c 2a8e 6abd
000003d0: a779 adbe 09f5 9c3d d8ad af3e b4ee b7bd
000003e0: 79b5 4cbe da37 4cbe adb5 3dbe 7346 9dbd
000003f0: 51ff 2dbe b274 173e 2a2a 53be 36a7 e7bd
