outlier-interpretation-Xu/checkpoints/jFpmhISq_checkpoint.pt (torch, 103259 bytes, 5 tensors)

attn_net.hidden.weight f4 [96, 192]
000000 10 af 3b 3c ee 11 b8 3b bc 17 12 3d eb e6 ac 3c
       0.011455312 0.0056173718 0.035667166 0.021106204
000010 5b f7 d4 3c 2b 3e 2a bd 8e 55 52 3c 94 f9 ac bc
       0.025996855 -0.041563194 0.012837781 -0.021115102
000020 e2 0b 45 3c 22 80 66 bc c7 56 f4 bc 14 80 92 3b
       0.012026759 -0.014068635 -0.029826535 0.0044708345
000030 42 93 88 bb cf ef 8e bb ac c3 e5 3c 89 7b 15 bd
       -0.004167945 -0.0043620835 0.028047405 -0.036494765
000040 94 63 54 3c b6 17 42 3c d2 96 05 bb 54 d0 0c bd
       0.012963194 0.011846473 -0.0020384085 -0.034378365
000050 6b 90 a1 3c 0e b9 de bb c6 ab 0f 3d 59 24 c3 bc
       0.019722184 -0.0067969626 0.035075925 -0.023821043
000060 eb 3c f6 3b 78 85 84 3c c0 68 29 bb f4 fb b8 bb
       0.007514586 0.016176924 -0.002584979 -0.0056452695
000070 b0 d6 44 bc fc a2 43 bc bb 48 78 3b 92 99 bf b9
       -0.012014076 -0.011940714 0.0037885148 -0.00036544778
000080 57 d3 c7 3b aa 59 2c 3c 10 48 1d 3d 0d 56 1d 3c
       0.0060981917 0.010519424 0.038398802 0.009603036
000090 25 b8 a2 bb 40 b2 4c bc 97 f4 be 3c 30 8a ec bc
       -0.0049657994 -0.01249367 0.023309989 -0.028874487
0000a0 09 d3 45 3c a7 0e 88 3c ab 11 3b bc 80 df 60 ba
       0.0120742405 0.01660855 -0.011417787 -0.0008578226
0000b0 ef 61 71 bc 94 8a 09 bd 1e ea 33 bc 63 5a 03 3d
       -0.014732822 -0.033579424 -0.010981111 0.03206862
0000c0 b8 e6 4d bd b0 a4 61 3c 48 c3 8e b9 8e 8e d1 3a
       -0.05026886 0.013772175 -0.00027229846 0.0015987919
0000d0 c5 d4 06 bd ad 78 59 bc ee 33 0b bd 3a 87 13 ba
       -0.032917757 -0.0132734 -0.03398507 -0.00056277553
0000e0 14 d9 02 bd 40 06 27 bc 7f f7 d6 3b e1 ca d4 bc
       -0.031945303 -0.010194361 0.0065602656 -0.025975646
0000f0 c9 07 85 3c c7 b7 65 bc b8 cc a9 bc 1f 71 35 bc
       0.016239064 -0.014020867 -0.0207275 -0.011074333
000100 b0 3c cf 3c 7d a7 3a 3c 8e 7a 86 bc 22 61 03 3c
       0.025297493 0.011392471 -0.01641586 0.008018764
000110 b3 e3 b3 3c 30 f6 54 bd 3d 11 fd 3b c0 a6 6a 3c
       0.021959161 -0.051992595 0.007723002 0.014321983
000120 be 7b 25 bc d9 42 17 bd fe 21 95 bc b1 c7 a0 3c
       -0.010100303 -0.036928985 -0.018204685 0.01962647
000130 2f 74 14 3d 19 ed 5a bd e0 1d 3d bc c3 35 79 bd
       0.036243614 -0.05344877 -0.011542767 -0.060842287
000140 ae 65 55 ba 5c c0 09 3c 43 94 3a 3d a0 b6 30 3c
       -0.00081404566 0.008407678 0.04555155 0.010785729
000150 0a 92 11 3c ff 57 af 3c 59 72 16 3c 20 02 fb 37
       0.008884916 0.021404264 0.009182536 2.9922521e-05
000160 61 55 a5 3c b3 7a 08 3d 50 4a 9c bb 02 ed 07 bc
       0.020182313 0.03332014 -0.004769601 -0.008296253
000170 1a 1d a2 3c e9 6f bc bb c0 d7 34 bd 82 a1 24 3c
       0.019789267 -0.0057506454 -0.044151068 0.010048272
000180 18 d0 e8 b9 38 49 01 bc 46 66 49 bc 32 3b f2 bb
       -0.0004440553 -0.007890992 -0.01229245 -0.0073923105
000190 1c 3f 7c 3c 5f 95 2a bd 12 4e ef 3b e9 af f2 bc
       0.015395906 -0.041646358 0.007303008 -0.029624896
0001a0 6c 50 0c bd 93 b7 57 3c 44 6f 0c bd 00 f0 12 b8
       -0.034256384 0.013166326 -0.0342858 -3.503263e-05
0001b0 11 56 06 3c d7 92 4f 3c c9 ad 9a 3c 4f 14 05 bc
       0.008199231 0.012669287 0.018881695 -0.008122518
0001c0 c4 de db bc 60 2f f2 3b 28 59 fd 3b e9 6d 8e bc
       -0.026839621 0.0073909014 0.0077315755 -0.017386394
0001d0 4a ab 49 bd 43 b7 de 3c b4 83 95 ba 75 6f 05 bd
       -0.04923562 0.027186995 -0.0011407048 -0.032576997
0001e0 8d 56 0a 3b c5 df ba 3c 97 cc ff bc ce ca e3 bb
       0.0021108717 0.02281178 -0.031225486 -0.0069516664
0001f0 12 65 91 3c 19 f0 64 3b f6 01 9a bd d1 2b 17 3c
       0.01774839 0.0034933148 -0.07519905 0.009226755
000200 ad 1b e2 3b f8 38 70 3b 47 ef 4c bb 5b 54 9d 3b
       0.006900272 0.003665505 -0.003127055 0.0048013157
000210 71 77 c1 bc 18 a0 8f 3c 90 ba 62 3c 56 d1 34 3c
       -0.023616524 0.017532393 0.013838425 0.011036238
000220 16 51 8f 3c 92 3d d4 3b 28 bf aa b9 3c 24 87 3c
       0.01749472 0.0064770663 -0.0003256735 0.01649677
000230 04 23 82 bc 91 71 e7 3b 61 11 b5 bc 51 4b 3f bd
       -0.015885837 0.0070630987 -0.022103013 -0.046702687
000240 cb 7e 82 3c 8e af f7 bb 46 ac 6c bb dc 9f b3 ba
       0.0159296 -0.0075587695 -0.0036113425 -0.0013704258
000250 6a d7 bc bb 1c d6 c0 3c 52 cf a0 bc 44 a3 d3 bc
       -0.005762984 0.023539595 -0.019630108 -0.025834687
000260 8a 43 43 bb 74 4c 33 3b 9e ca 11 3c f6 37 0a bd
       -0.0029794895 0.0027358802 0.008898405 -0.033744775
000270 dd 4f 74 bc ea ed 09 bc 8d 2f 92 3c 87 2f ad bb
       -0.014911619 -0.00841854 0.01784494 -0.0052852067
000280 cb 6f ce 3c dc b6 32 3b 29 37 30 3c 65 dd 3a 3c
       0.025199791 0.0027269637 0.010755339 0.011405324
000290 1d ea 7e 3b 52 62 b5 3c 86 77 a0 3c 76 3e 41 ba
       0.0038896867 0.02214161 0.019588243 -0.0007371673
0002a0 4a 1f b1 ba fa a5 87 3b 6a a9 f1 ba f6 ac 10 3c
       -0.0013513353 0.004139659 -0.001843733 0.0088303
0002b0 d8 51 8a 3b e2 c1 1c 3c 7c 58 80 3b 8e 1d 32 bc
       0.0042211823 0.00956771 0.003916798 -0.010871304
0002c0 4a 90 8a bc 56 ad 8c bc 94 66 7a bc b8 1c a2 bc
       -0.016914506 -0.017172497 -0.015283246 -0.019789085
0002d0 a8 bd f4 bc 99 93 2f 3b 01 d9 bb 3b 79 bf e1 3b
       -0.029875591 0.0026790856 0.005732656 0.0068892804
0002e0 64 54 19 3c 28 ba 00 3c e1 0d f9 bc bc d6 07 bc
       0.009358499 0.007856883 -0.030402126 -0.008290943
0002f0 22 5e 0b bb 12 75 d5 3c 2c 87 b4 ba 80 ae a4 bc
       -0.0021265824 0.0260568 -0.0013773195 -0.02010274
000300 28 03 86 39 59 27 f6 3c 0e a1 94 3c f9 47 1c bc
       0.00025560823 0.03004806 0.018143203 -0.009538644
000310 69 e4 1b 3d ce 5c f6 bc e2 20 56 bb e4 09 36 3d
       0.038059626 -0.03007355 -0.0032673408 0.044443026
000320 fd 0e e0 3c cd 66 6d 3d de d3 5a bd aa 64 22 3c
       0.027350897 0.057959367 -0.05342471 0.0099116955
000330 d5 f5 72 3c 99 a8 bc bc 96 2b 41 3c e4 15 ee bb
       0.014829119 -0.023029612 0.011790177 -0.007265793
000340 b0 49 cd bb 04 16 a2 bc 7c 4d c2 3b fc 6c 71 bb
       -0.0062648878 -0.019785888 0.005929647 -0.0036838641
000350 b6 d8 e8 ba ac a8 6e 3c db ce 6e bd 59 47 96 bc
       -0.001776478 0.014566582 -0.05830274 -0.018344568
000360 87 36 8e 3c 93 53 ae bc f4 3d 0f 3c 08 93 32 bc
       0.017359985 -0.021280086 0.008742798 -0.010899313
000370 f6 cb 65 bb 45 b6 25 bc c6 06 5c 3b 19 e7 90 3c
       -0.0035064197 -0.010114257 0.0033573373 0.017688321
000380 62 3f 3b 3b f9 2a 86 bb 8c 81 0f 3d 67 b5 c4 3c
       0.0028571715 -0.004094478 0.035035655 0.02401228
000390 0f 9c 1e 3d e0 54 6d b9 57 57 c5 bc 48 90 30 bd
       0.038723048 -0.000226337 -0.024089498 -0.043106347
0003a0 b0 7b 91 3c 04 09 25 3c 3a fc 48 bd 68 09 4e 3b
       0.017759174 0.01007295 -0.049068667 0.0031438712
0003b0 eb 60 e5 3b 6d dc 62 3c 73 83 83 3b e6 aa 32 3c
       0.007000079 0.013846499 0.0040134727 0.010905003
0003c0 42 5d bf bc d9 00 b9 3c e0 2e 4c bc 42 ca 8d bb
       -0.023359898 0.022583412 -0.012462348 -0.0043270895
0003d0 f9 dc 00 bd 93 9c 6b bc 77 9c 3c bd f0 a6 3b 3b
       -0.031460736 -0.014380592 -0.046047654 0.0028633438
0003e0 84 31 14 bb 46 07 48 3c 40 08 03 3c 99 2f c4 3b
       -0.0022612521 0.012208765 0.007997572 0.0059871194
0003f0 fe 75 3f 3d 45 89 0f bc fc 02 b4 3c c0 c1 83 39
       0.046743385 -0.008760755 0.02197408 0.00025130622

attn_net.hidden.bias f4 [96]
000000 f2 6d b9 3b 67 98 a1 bc ea 7b 33 bd 1b f5 9c bd
       0.0056588585 -0.019725991 -0.043819346 -0.07663938
000010 58 c5 ad 3d cf 47 3c be 7c 4a 76 be a5 be 63 3e
       0.08484906 -0.18386768 -0.24051851 0.22240694
000020 89 18 8b be d5 e8 2d 3c 8c 15 5f be ee a2 36 3e
       -0.27167156 0.0106145935 -0.21785563 0.1783559
000030 8d 5f 8d be 17 56 46 3e 6a 6b 6a be 62 f6 bc 3d
       -0.27611962 0.19368778 -0.22892538 0.09226681
000040 89 d3 f3 bc ed a4 55 bc 4f e2 8b 3e db 89 b3 ba
       -0.029763954 -0.01303981 0.27321097 -0.00136977
000050 f1 96 33 bc 8e 67 e7 bc 49 36 bc 3c 4d 7a 9e be
       -0.01096128 -0.02824762 0.022975104 -0.30952683
000060 e6 02 12 bb 12 ef 6f bb f2 29 88 bd f6 3e 93 3d
       -0.002227956 -0.0036611003 -0.066486254 0.07189743
000070 5d 17 bf 3b f1 75 b1 bd 85 a7 87 be a1 3e 01 bd
       0.0058316425 -0.08665074 -0.26494995 -0.03155387
000080 42 4f 22 3d b1 70 15 3c d5 df ad bc 99 5a 83 be
       0.039626367 0.009121106 -0.021224895 -0.25655058
000090 74 6d d1 bc 58 fe ab 3d 6a 23 83 3e 07 e4 26 be
       -0.025564887 0.083981216 0.25612956 -0.16297923
0000a0 b0 b6 a3 bd 72 91 29 3e d8 64 e7 3b c8 e6 20 be
       -0.07993829 0.16559389 0.007061582 -0.15713036
0000b0 c5 4c 1e 3c be 52 10 3d df f7 4b 3e 04 14 a7 3b
       0.009661858 0.03523516 0.19918774 0.0050988216
0000c0 0e 48 46 3c c4 25 b8 be 01 07 98 bd cf b5 55 3c
       0.01210214 -0.35966313 -0.07423211 0.013043835
0000d0 47 c9 7c bc 4a 19 d2 bd f7 b4 6d 3d 3d 2a ad 3e
       -0.015428848 -0.1025873 0.05803391 0.33821288
0000e0 8c 9d cb bd ac e5 bd 3e 38 a9 0a bc 6f 69 61 bd
       -0.09942159 0.37089288 -0.008463196 -0.05503219
0000f0 36 23 6c be 13 19 c4 bd b1 e6 b3 3d fa 5d 3f bd
       -0.23060307 -0.09575095 0.08784235 -0.046720482
000100 25 ed 0b bd ae be bd bd 38 15 da bc cf 96 56 bd
       -0.034161706 -0.09264885 -0.026621446 -0.052389916
000110 f4 cd ee 3d 87 46 a4 3d 33 56 91 3e 98 2b b8 3d
       0.11660376 0.080212645 0.28386077 0.0899269
000120 fb e4 bc 3d e3 55 d1 bd ac a9 b1 3d bb 41 3f 3e
       0.09223362 -0.1022146 0.086749405 0.18677418
000130 28 88 08 bd 7e 6c 99 3e a1 45 06 3c 58 f3 61 bd
       -0.033332974 0.29965585 0.008195312 -0.05516371
000140 50 db 91 3e e8 bc 2b 3e cf 78 d8 bd 55 3d ab bc
       0.28487635 0.16771281 -0.105699174 -0.020903269
000150 7e cb fc 3c c0 8d 43 bb 40 b0 b6 3d fc 3e 8c bd
       0.030858751 -0.0029839128 0.08920336 -0.06847951
000160 28 e9 ca bd 56 62 02 bc fa 49 d1 3d e4 12 d9 3d
       -0.09907752 -0.007958015 0.10219188 0.10599306
000170 ad 50 26 3e b6 8d 6b 3d 98 e4 1e 3b 20 d2 7a bd
       0.16241713 0.057508193 0.002424514 -0.061235547

attn_net.out.weight f4 [64, 96]
000000 56 86 12 bb 9d 07 b8 bc 1a 96 63 bc 44 ef bf 3c
       -0.0022357902 -0.022464568 -0.0138907675 0.02342952
000010 74 8c ef 3a 39 03 b8 bb ae ce 61 3b ea aa 2e be
       0.0018276111 -0.0056156185 0.0034455466 -0.17057386
000020 37 19 dc bd 3c e1 3d bb 78 2a bb 3b 74 75 80 bd
       -0.10746997 -0.0028973361 0.00571185 -0.062724024
000030 20 6e 4d 3d 98 8a 97 bc 66 e7 ee 3c b3 5e 98 bc
       0.05015385 -0.018498704 0.029163074 -0.018599844
000040 72 26 e4 bb 09 76 b7 bc e6 cc 82 bd 8f 48 de bb
       -0.006962591 -0.02239515 -0.063867375 -0.006783552
000050 a8 35 03 3a 20 3c 54 3b 80 54 ac bb 4b 67 e7 bc
       0.0005005249 0.003238447 -0.0052590966 -0.028247496
000060 7f 66 ac bb 07 25 ae 3c 60 9c 64 ba 8c 29 5c bd
       -0.005261242 0.02125789 -0.00087208115 -0.05375056
000070 b8 34 cf ba 11 02 5d bc e0 6f 7c bd 5b 4c ae 3b
       -0.0015808558 -0.013489262 -0.06163013 0.005319161
000080 67 fe 2e 3d fe ba 68 bc 0f 6e 92 3d e4 c4 0c 3c
       0.042723086 -0.014204739 0.07149898 0.008591864
000090 11 8d ce bb 59 65 10 bd 34 25 cd bb be 11 ea 3c
       -0.0063034375 -0.035252903 -0.0062605385 0.028572913
0000a0 52 1d 52 3c 61 b1 65 3d 4e 5f e7 bb f4 69 b6 3c
       0.012824373 0.056077365 -0.0070609218 0.02226732
0000b0 a6 5f 6e bc 9e 03 66 bc 63 f5 fe ba 83 eb 5d 3d
       -0.014549172 -0.014038948 -0.0019451793 0.05417968
0000c0 b6 50 c0 bc 07 22 0d 3d e3 51 b6 bb 94 12 9d bc
       -0.023475986 0.03445628 -0.005563961 -0.019173898
0000d0 f0 6b 58 bc 70 1c 13 bd 6e e8 75 3c fd a9 89 bd
       -0.013209328 -0.035915792 0.015009029 -0.06721876
0000e0 66 84 9c bb 06 51 2f be a8 ab d8 ba 54 8c 0b bc
       -0.0047765253 -0.17120752 -0.001653065 -0.008517344
0000f0 10 31 5d bb 64 22 59 bc c2 91 50 be da 85 c3 bb
       -0.0033751167 -0.013252828 -0.20368102 -0.005966884
000100 e4 32 4c 3b aa 61 75 bb 9b d9 a0 bc 2c 8a 79 bb
       0.0031158263 -0.0037442246 -0.019635012 -0.0038076742
000110 77 f4 0c bc 0c 4b 31 bd ab d1 52 bc 82 0e 6e bd
       -0.008603207 -0.04328446 -0.012867372 -0.058119304
000120 24 b9 c6 bd 62 16 5c 3b 6f c2 fa ba 11 e5 36 3d
       -0.097032815 0.0033582677 -0.0019131432 0.04465205
000130 e9 58 3b 3b 3e cb ab bb 22 8c 7e 3b b5 9b 6d bd
       0.002858693 -0.005242734 0.003884085 -0.058009822
000140 92 06 e7 bd 84 c1 00 be 12 05 83 bc 46 19 99 3c
       -0.1128055 -0.1257382 -0.015993629 0.01868881
000150 b1 68 15 bd 33 68 7a 3c da 9b 6c bc 2a 0a d7 3c
       -0.036476795 0.015283632 -0.014441455 0.026249964
000160 ed f7 21 3d 33 45 e9 bb 37 bd 75 bd ce 2e 0e 3d
       0.03954308 -0.007118845 -0.059994902 0.034712605
000170 ce 2c 32 3d b1 36 02 bd 2c 7a 26 3c c2 4c 19 bc
       0.04349976 -0.03179044 0.010160964 -0.009356679
000180 c2 ba 01 3d a8 da a7 3b 0e f8 e6 3b 72 71 34 3c
       0.031672247 0.0051225014 0.0070486134 0.011013376
000190 57 62 a4 3c 78 f2 71 3b 87 62 4b bb bd 42 b4 3b
       0.020066423 0.0036918204 -0.0031034069 0.00550112
0001a0 64 88 f3 3b ed ec f3 bb 30 7d 4c ba 48 e5 e3 3c
       0.0074320305 -0.0074440152 -0.0007800637 0.02781929
0001b0 a0 34 ab 3b aa 89 13 3c 5e d6 81 bc 4e 29 f3 3c
       0.0052247792 0.00900499 -0.015849289 0.029682782
0001c0 56 a0 53 3c a9 7a b5 bb c9 1c 65 3d bf 5b c5 bb
       0.012916645 -0.005538304 0.055935655 -0.0060229
0001d0 5b b1 b9 3c 5c b8 4c 3c cd 2e db bb 48 1a 18 3a
       0.022667577 0.012495127 -0.0066889287 0.0005802256
0001e0 72 5b c0 3b 74 11 b6 bb 5e 31 0c bc 67 95 8a bb
       0.005870276 -0.00555628 -0.008556692 -0.004229236
0001f0 6d f4 e0 bb fd 7a 9c bb 23 a3 ba bb 02 df 85 3a
       -0.0068650753 -0.0047754035 -0.005695717 0.0010213556
000200 cc e9 6a 3a 70 0c 76 ba cc 6d 47 ba 08 ed df bb
       0.000896123 -0.00093860086 -0.00076076086 -0.0068336762
000210 d6 65 af 3c 75 1a 8b bb 34 ee 60 3d f8 77 b2 bb
       0.021410864 -0.0042450973 0.05491467 -0.0054464303
000220 fc 08 25 bb 21 19 16 3d 4e 9e 7f 3c e6 6e c5 bb
       -0.0025182357 0.03664506 0.015601708 -0.006025183
000230 bd c0 7a bb b4 5f eb 3b a9 0e f3 3c 72 ad e9 3c
       -0.0038261854 0.0071830396 0.029670076 0.028525088
000240 51 8a 16 bc 28 0a 82 3a f5 f9 d7 3c 3c a8 df bb
       -0.009188251 0.000992124 0.026364306 -0.006825475
000250 46 51 26 bb c0 92 6e bb 44 ef cc bb c3 66 0a 3d
       -0.0025378033 -0.0036403388 -0.0062541086 0.033789407
000260 fa 80 26 3c 3e 5a 3a 3d 11 2b e3 3b 0d 51 56 3b
       0.010162586 0.045496218 0.006932624 0.0032702119
000270 d9 aa f1 bb a4 97 d1 bb 61 a1 ba 3b df aa fa 3b
       -0.007375103 -0.006396251 0.0056955074 0.007649764
000280 db 71 37 3d 92 00 e4 3b f6 25 d5 bb e4 dd cf 3c
       0.044786315 0.006958076 -0.0065047694 0.02537436
000290 a6 cd b0 bb 9f 5b 15 3c a9 09 1b 3d 6b 69 e3 3b
       -0.005395609 0.009116082 0.03785101 0.006940057
0002a0 56 c2 06 bc d7 44 d9 bb e4 76 28 3c e9 ac 5b 3c
       -0.008225044 -0.006630521 0.010282252 0.013407924
0002b0 d2 36 56 bb 91 4e 05 3d 89 c0 02 3c f1 06 e8 bb
       -0.0032686484 0.03254563 0.007980474 -0.0070809056
0002c0 ea a1 1e bc ef c9 18 3d c9 9f f2 bb 52 b3 1a 3d
       -0.009682158 0.037301954 -0.007404302 0.03776867
0002d0 82 60 db bb 66 3e 95 bb b7 f2 94 3c 4f 15 3d 3b
       -0.0066948542 -0.0045545576 0.018182142 0.0028851812
0002e0 c9 f1 40 3c f4 aa a4 bb 00 0a a5 38 e1 a8 d5 3b
       0.011776396 -0.005025262 7.869676e-05 0.006520376
0002f0 74 ed 64 3c 02 f8 03 bb 48 78 1a bb 46 e2 f4 3b
       0.013972629 -0.0020136838 -0.0023570228 0.007473263
000300 9c 9f 80 3e d2 b2 ce bd 77 25 20 3d 38 3f ab 3e
       0.25121772 -0.10092701 0.03909823 0.3344667
000310 f3 da c9 3e bd c2 c2 bc e1 32 06 bd d9 e0 ed 3e
       0.39424857 -0.0237745 -0.032763366 0.46460608
000320 e8 87 49 3e 58 ae 62 3b a7 0c 93 3d d3 34 fa 3e
       0.1968075 0.003458878 0.071801476 0.48868427
000330 5c 21 c2 bc df 5f a1 3e e7 43 98 3d fe 91 9b 3e
       -0.023697548 0.31518456 0.07434826 0.3038482
000340 a7 6f b0 3d 0b 49 27 3e c8 44 e7 3e 2e a1 56 bc
       0.08615046 0.16336457 0.45169663 -0.013099952
000350 e5 8a 59 3e 01 0a 6f 3e 54 44 fc 3c 28 66 58 3e
       0.2124439 0.2334366 0.0307943 0.2113272
000360 29 06 22 bd 40 03 84 3d 01 83 82 3e 7a 70 16 be
       -0.039556656 0.064459324 0.25490573 -0.14691344
000370 38 27 85 bd 5b 4e 4c 3d 85 66 14 3e ad 51 3f 3e
       -0.06501621 0.049879413 0.14492233 0.186835
000380 21 85 7d 3e 7e 6a 8a ba 93 fe 67 3e 3e 21 ba 3d
       0.24757816 -0.0010560302 0.22655706 0.09088372
000390 43 c9 09 3e 89 98 8d 3a 09 4b c4 3e 18 ba e2 3c
       0.13455682 0.0010802905 0.38338497 0.027676627
0003a0 16 df ae 3e f4 86 c8 3e 61 9b 69 3e e6 ca 7d bc
       0.34154576 0.3916546 0.22813179 -0.015490269
0003b0 b6 97 04 3e 8c b0 a8 3d 6f 95 cc 3e 82 9f ba 3e
       0.12948498 0.08236799 0.3995776 0.3644982
0003c0 48 df 4f 3d 8c 0a 4e 3c b1 52 06 3e 29 c7 31 3e
       0.050750047 0.012575757 0.13117482 0.1736113
0003d0 44 98 3b 3c 8e 86 35 3c 8c 2a 7f bd 19 f1 b5 3e
       0.011449877 0.011079444 -0.062296435 0.35535505
0003e0 db 60 6e 3e 20 dd de 3e f7 92 43 3c cb 20 4d 3e
       0.23279135 0.4352808 0.011936895 0.20032041
0003f0 f8 c7 d1 3d 19 02 60 3c a9 5a 89 3e b6 27 e2 3a
       0.10243219 0.013672375 0.2682698 0.0017254266

attn_net.out.bias f4 [64]
000000 7c 58 b1 be c3 66 8f 3d 7a 82 e9 3e 00 3c b1 bc
       -0.3463782 0.07002022 0.45607358 -0.021635056
000010 ac 1c b1 3e b2 f9 a9 3e 29 8f 1f be 19 99 77 3e
       0.34592187 0.33198315 -0.15581955 0.24179496
000020 1e 64 03 3d de 65 a4 3e 5a 52 b3 3e 53 ed a0 be
       0.0320779 0.32108968 0.35023767 -0.31431064
000030 24 ed 97 be 01 4a f3 3c c2 6d d4 3e 2a 78 bc bc
       -0.2967311 0.029698374 0.4148999 -0.023006517
000040 d8 76 9a be 3e 86 81 be 34 72 46 be d7 ee 94 be
       -0.30168796 -0.2529773 -0.19379503 -0.2908847
000050 66 a3 ab 3d 61 d7 9c be c6 b8 9a 3e 7a a9 0c be
       0.08380775 -0.3063307 0.30219096 -0.13736525
000060 ea 70 fd 3d 74 39 7f 3e 69 b8 7f 3e 19 95 4d be
       0.12375052 0.2492426 0.2497269 -0.20076407
000070 c6 bb be be 2f 83 aa bc 37 8d bf 3e 63 ff 0e be
       -0.37252635 -0.020814506 0.37412426 -0.1396461
000080 58 6e 9d be 9b 72 9e 3e ff 6e 58 be 46 8a 93 be
       -0.30748248 0.30946812 -0.21136092 -0.28816432
000090 19 b7 f7 3d 06 75 8c be 0e 9a a8 be c6 00 a8 3e
       0.1209547 -0.27433032 -0.32930034 0.3281309
0000a0 a1 f0 73 3e 5a 77 cb 3e 1f 2a 64 3d ad 38 52 be
       0.23822261 0.39739496 0.055704232 -0.20529433
0000b0 50 6e b5 3e 75 79 06 be ae f4 a9 3e 1c 8f 9a 3e
       0.35435724 -0.1313227 0.33194488 0.3018731
0000c0 7b 97 16 3c e5 bd a1 3e f1 14 4f be 3d dc 86 be
       0.009191389 0.3159019 -0.20222832 -0.26339903
0000d0 86 23 03 bf fa 1f df be e4 15 8f 3e fa 4a 79 be
       -0.5122608 -0.43579084 0.2794639 -0.24345008
0000e0 59 2d cb 3b b6 37 b2 be cc 7b 84 be 56 ae 7c be
       0.006200474 -0.3480813 -0.258757 -0.24675879
0000f0 15 9a e1 3e 6d c9 9d be 99 53 c7 3e 4d b6 54 be
       0.44062868 -0.30817738 0.38930967 -0.20772667

linear.weight f4 [64, 10]
000000 bd fe 94 3e 19 36 b5 be 84 b2 f1 bd 34 11 a6 bd
       0.291006 -0.35392836 -0.11801627 -0.0810875
000010 23 09 9d bd d7 85 97 3d 38 d4 d6 bd 56 c8 65 3d
       -0.07667758 0.07398575 -0.10489696 0.05609926
000020 a5 b3 fd bc 50 64 0b be 6d 2c ad bd 49 86 75 bd
       -0.03096945 -0.13612485 -0.08455739 -0.059942517
000030 7a 50 6f bb a5 e6 25 bc 93 f1 65 3d 74 30 1f bd
       -0.0036516474 -0.010125791 0.056138586 -0.038864568
000040 a1 ea b4 bd 75 2d 9e bd d9 5d 48 bd 6d c0 89 bc
       -0.088338144 -0.07723514 -0.048917625 -0.016815389
000050 10 ee 9f bf f0 7c 8c bf 02 a4 1c 3f 60 f0 51 3f
       -1.2494526 -1.0975628 0.61187756 0.8200741
000060 41 0e 6a 3f ae ff 92 3f 74 79 2c 3f e5 22 1f bf
       0.91428 1.1484277 0.6737282 -0.6216262
000070 92 3b 1c be 23 17 46 3f 46 41 8d bc 9c 67 ba 3d
       -0.152571 0.77379054 -0.017243039 0.09101793
000080 68 37 91 3d 67 ab 1a bd 64 34 b0 3d 83 c4 f3 3c
       0.07090646 -0.03776112 0.08603743 0.02975679
000090 a0 2c 44 bd 8a f4 3e 3d 24 2f 08 3e e1 69 81 3d
       -0.04789412 0.04661993 0.13299233 0.06319023
0000a0 a4 c6 8c bf 02 9d 9f bf ef 33 1b 3f 6b 6c 2e 3f
       -1.099812 -1.246979 0.6062612 0.6813418
0000b0 59 e9 39 3f 68 77 6d 3f 55 de 40 3f 0f 63 1d bf
       0.72621685 0.92760324 0.7533925 -0.61479276
0000c0 c5 4c 4c bd 77 76 4c 3f 11 02 95 3f 46 4a a4 3f
       -0.0498779 0.79868263 1.1641256 1.2835166
0000d0 be e9 21 bf b7 9e 4c bf a7 c3 4c bf 1d 58 69 bf
       -0.6324729 -0.7992968 -0.7998604 -0.91150075
0000e0 57 0c 40 bf bf 15 1e 3f 55 d3 01 3d b6 b5 51 bf
       -0.7501883 0.6175193 0.031695683 -0.81917894
0000f0 b5 c2 7f 3d 86 84 ea bc d6 ad 36 bd d3 02 93 3d
       0.062441546 -0.028627645 -0.044599377 0.07178273
000100 d3 25 95 bc cc 2c 52 3c 45 0b 10 3c d2 68 d1 bc
       -0.018206513 0.012828063 0.008791749 -0.025562678
000110 01 cd 94 bd e6 62 09 bc 27 a5 34 bf 28 27 3d bf
       -0.07265664 -0.008385396 -0.705645 -0.7388787
000120 cc 25 c9 3d b1 61 4e 3e b4 55 ea 3d bf e3 9f 3e
       0.09821662 0.20154454 0.11442128 0.31228444
000130 40 ac 8a 3d 6e fa 4a be a2 53 1e 3d 09 ba 45 3e
       0.06771135 -0.19822094 0.038653977 0.19309248
000140 c5 c4 28 bf 6c d1 52 bf 04 6a 22 3e f4 47 bf 3e
       -0.65925246 -0.823508 0.15860754 0.37359583
000150 36 4a b7 3e 18 76 c4 3e fd b7 69 3e 06 15 91 be
       0.35798806 0.38371348 0.22824092 -0.28336352
000160 a8 17 01 3e 7d c7 31 3e 53 41 80 bf 7c b7 8d bf
       0.1260668 0.17361255 -1.0019935 -1.107162
000170 fe ec 1a 3f 3e 28 34 3f 7a 12 58 3f bb 24 90 3f
       0.6051787 0.70373905 0.84403193 1.1261209
000180 3a 15 38 3f f7 ff b5 be be c2 7c bd 6f cc 18 3f
       0.7190739 -0.35546848 -0.061709158 0.5968694
000190 e0 19 8a 3f c8 d9 94 3f d3 9d 27 bf c7 b0 39 bf
       1.0789146 1.1628962 -0.65475196 -0.72535366
0001a0 5d ce 4f bf 92 ab 6b bf 7d 11 3a bf 29 56 ea 3e
       -0.8117426 -0.9205867 -0.72682935 0.4576886
0001b0 34 f6 e8 bc 4f ab 4d bf b2 f7 c2 bd bd 1b 99 3d
       -0.028437711 -0.8033952 -0.095199004 0.07475994
0001c0 de 3d c5 bd 2d 26 6d be d4 a4 ea bd 9e f1 63 bd
       -0.09630941 -0.23159094 -0.1145722 -0.055650346
0001d0 9c 96 38 bd ac 34 f8 bd 17 02 ab 3d 45 81 29 be
       -0.045065507 -0.12119421 0.08350008 -0.16553219
0001e0 75 0b 80 3b b1 66 58 be a0 e0 6e 3c 1a 37 df bd
       0.003907616 -0.21132924 0.014579922 -0.10899182
0001f0 df 81 9f bd 74 b9 86 3d 37 66 9f 3c a6 24 9a 3c
       -0.07788443 0.06578341 0.01945792 0.018816303
000200 80 08 c3 3d 0b b3 cf 3c 60 72 36 3e 70 70 80 bb
       0.095231056 0.025353929 0.17817068 -0.0039196536
000210 36 a6 bc 3c 67 85 96 bd 09 0a 5f bd 17 e8 f2 3c
       0.023028474 -0.07349663 -0.05445293 0.029651685
000220 29 9a ba 3c 16 a5 cb bd e0 e0 3b bd 17 7d 49 3c
       0.022778587 -0.09943597 -0.045868754 0.01229789
000230 fb ce 95 bf ed b8 91 bf 80 35 12 3f be ae 27 3f
       -1.170379 -1.138456 0.57112885 0.6550101
000240 35 8d 27 3f 42 57 67 3f ee 18 62 3f 9f 56 f4 be
       0.6544984 0.9036752 0.8831929 -0.47722337
000250 95 f6 f2 bc c3 89 0a 3f f0 3f c4 bd 0d b9 1b 3c
       -0.029658595 0.5411646 -0.095825076 0.009504569
000260 b6 f1 18 bd 84 9c 08 3d bc 07 f0 3c fc 0d 65 bc
       -0.03733989 0.03335239 0.029300563 -0.013980385
000270 24 c6 02 bd ff 17 b1 bd 36 fe ce bd 00 c4 d6 3d
       -0.031927243 -0.08647155 -0.10107081 0.10486603
000280 b5 46 09 3e 91 b5 e9 bd 8c 0c e6 bc 0c 9f 70 3d
       0.13405879 -0.11411584 -0.028082155 0.05874543
000290 90 35 17 bd b3 ea 8a 3d ef b1 8e bd 3b 2c d5 3b
       -0.036916316 0.067830466 -0.06967532 0.006505517
0002a0 d9 2d 00 3e 80 c8 2e b9 1a f3 a2 3c 6c 35 1c 3e
       0.1251749 -0.00016668625 0.01989131 0.15254754
0002b0 c6 d4 92 bd 9b 36 f8 3b d9 20 58 bd 83 e2 4c 3c
       -0.071694896 0.007574869 -0.0527657 0.0125051765
0002c0 5a c7 30 3e f7 09 00 be 4b 62 ee 3d 39 86 6a 3c
       0.17263547 -0.12503801 0.11639842 0.014314228
0002d0 0c 96 e7 3e f3 37 1c 3f 38 4d 49 be b8 c1 be bd
       0.45231664 0.6102287 -0.19658363 -0.09314293
0002e0 a5 f5 70 be 94 50 1f be 39 2b 83 be 13 dc 80 3e
       -0.23531206 -0.15558082 -0.25618914 0.25167903
0002f0 66 b1 4a 3d 72 07 05 be 5e eb 30 3e e6 72 35 3d
       0.049485587 -0.12991121 0.17277285 0.04429903
000300 2a 0b ce 3c 1c 64 c3 bc 0c 24 16 bd 0c f2 08 3e
       0.025151808 -0.023851447 -0.03665547 0.13373584
000310 3e 91 a9 3d 26 90 4a bd 8b 1f a3 3b f7 d3 01 3e
       0.08279656 -0.049453877 0.0049781254 0.12678514
000320 69 00 2b bd 3c 1d 34 be 8c 68 0f bd c8 46 11 3d
       -0.041748438 -0.17589277 -0.035011813 0.035467893
000330 a3 ee d3 3d 9f 52 19 be 2e f5 88 bd cf 87 ff 3d
       0.10348251 -0.14972924 -0.06687389 0.12477075
000340 0b b8 26 3e 9c 61 56 3d 52 bf 01 3e 70 ef bf be
       0.16281144 0.05233918 0.12670639 -0.37487364
000350 5b 38 57 be 3f 72 99 3d a8 a1 e8 bd f7 7b c1 bd
       -0.21017592 0.07492494 -0.113589585 -0.094474725
000360 17 ba b5 bd ba b6 4c 3e 2f 35 5c bd e2 76 c0 bd
       -0.088733844 0.1999158 -0.053761657 -0.09397675
000370 0f 94 6e 3f 69 14 9d 3f d8 e2 24 bf e5 32 41 bf
       0.9319467 1.2271854 -0.64408636 -0.75468284
000380 65 a6 4e bf ab 6c 67 bf f6 32 30 bf be 97 f9 3e
       -0.8072265 -0.9040019 -0.6882776 0.48748583
000390 2b 68 b3 bb 79 ee 22 bf da c9 b6 3d 80 0b 2f 3e
       -0.0054750643 -0.6364513 0.08925219 0.1709423
0003a0 00 04 c5 3c e0 b7 4a 3e cc 20 90 3d fc 59 8b 3d
       0.024049759 0.19796705 0.070375055 0.068042725
0003b0 3c 71 46 3e f0 8c 5e 3d a2 0d 47 bd e4 4c 0b 3e
       0.19379133 0.054333627 -0.048596986 0.1360355
0003c0 ec b8 90 3f f5 63 84 3f 8a ea 12 bf cc 64 29 bf
       1.1306434 1.0343004 -0.5738913 -0.6616943
0003d0 4c f2 16 bf 41 4e 73 bf c8 0b 2b bf 08 d6 f8 3e
       -0.58963466 -0.9504128 -0.6681485 0.48600793
0003e0 93 5f ef 3d 08 c0 17 bf 38 d8 a0 3e e4 00 e5 3e
       0.11688151 -0.5927739 0.31414962 0.44727242
0003f0 aa f6 ed bc d8 e4 be bc 5a c9 39 be 36 e4 07 3d
       -0.029048283 -0.02330248 -0.18143216 0.033176623
