outlier-interpretation-Xu/checkpoints/kjFwLbEg_checkpoint.pt (torch, 105819 bytes, 5 tensors)

attn_net.hidden.weight f4 [96, 192]
00000000: d35b 8e3d 8a84 533d 84a8 40bc c8eb 77bd
00000010: 9e40 a13d 289c aabb 6adb 02bd def4 65bd
00000020: e43a b43c bab0 9f3d 09b1 553d 888b b7bc
00000030: 6c40 09bd 1c3d 113d 64a7 df3c ffa0 b13c
00000040: d082 c33b 3a32 8e3d c370 733d 62cc 5a3d
00000050: c262 9b3c 6ce4 633d ed09 33bd 70bb 833b
00000060: 6a37 c6bd c962 3bbd 8e91 2a3d a7b9 533d
00000070: ae7c cd3c 74d1 a73c 804e 47bd c055 29ba
00000080: 654f b43d 0195 883c 91ea 673d 4453 9ebc
00000090: e2bf afbc 5049 96bb 2c1d 993d 78c2 8f3b
000000a0: 46f7 903d 08f5 8d3b 55eb 623d 7aee d3bd
000000b0: e4fc 963d 1e94 94bc 0413 563d 7463 2bbd
000000c0: 99be 9f3d ffdc 853d 5d95 763d 15e3 96bd
000000d0: 61bb 8b3d 7b09 84bc 808d 59bd a516 49bd
000000e0: f445 d6bc 4776 7c3d 5ab2 b0bd 2f82 c03d
000000f0: 4856 1f3c 66c0 b2bc ecd0 afbc 3e5f 54bd
00000100: b0a7 00bc 1f9e 85bd 5915 9b3d eb80 13bd
00000110: 3f0d 6bbd 7ccc 9c3d 287c c4bc bd3a 2b3d
00000120: 50c5 c83b 3c82 36bc 52c6 ac3d 166e b1bc
00000130: c329 873d f05a 973c 0015 fd3a d636 b83c
00000140: b64a cabc 2241 49bc 5a1e bc3c aa3d bfbc
00000150: 302b f23b d4c3 273d 29f3 a3bc 90c1 c5bc
00000160: a1d3 29bd 11d0 7c3d e4a5 24bd 3642 49bd
00000170: 04d1 393c a80f 9dbc 5cba a93c 842c 2dbd
00000180: 5cad 843d c07d 5a3b 5567 933c 1013 5e3b
00000190: 1248 11bc 0ced a9bc fc7c 503d 3244 fb3c
000001a0: 70db 06bc 3024 813d bc03 60bc ddec 883d
000001b0: a861 ccbc 980c bf3b caae c83c ba1a cfbc
000001c0: 4f1a 6abd 2a4a 323d 2e57 0b3d 7e34 37bd
000001d0: 9099 87bd 3585 94bc e1d4 8a3c 666f 64bd
000001e0: 517d 61bd 1630 5dbc 7eb5 3f3d c543 ca3c
000001f0: 35f8 74bd 821d 143d d087 05bd ae6c a33c
00000200: 46f7 443d 569e 8bbd 8c49 3ebd 1c0a 8f3d
00000210: cb17 833d 0fe5 bc3d 144a e5bb eee0 6d3d
00000220: 00e8 523d 2677 983d 904f 1fbd 1385 9bbc
00000230: 991e 983d 86c5 3ebc c022 e33c 24bf d4bc
00000240: 68a0 983d fa93 88bd f823 3c3d a048 49bb
00000250: 12aa 0abd 0787 a2bd 7895 513d be36 a73d
00000260: eb67 04bd cc7a 93bd 2649 1bbd 71b0 b0bc
00000270: 0c48 a3bd 80fa 9a3a 4cf2 ad3d 4c3d 9f3d
00000280: 3a12 a2bd c2f3 ec3c 3803 2a3d f888 933d
00000290: 08b1 8bbd 97ac 36bd 223d 81bd 52d2 54bd
000002a0: 7541 91bd a6fd 42bd ba15 26bd 123d 213d
000002b0: 8665 843c ec6c b53c 9059 013d 625c 9cbc
000002c0: 5808 bbbc 6a39 413d a107 89bd 716c 613d
000002d0: bd5e 7cbd b2fa 2cbd eaa1 34bd b408 763d
000002e0: a2f2 2c3c 72c5 093c ae74 80bd 0db7 0a3d
000002f0: ed17 923d e1d5 60bd 86e3 54bd f617 2e3d
00000300: 9f8b f13d 48e2 b3bc 1de5 413d 0a80 00be
00000310: 45be e33d 8298 943d 4faa 50bd d4d0 fd3d
00000320: a59f 4c3d 2ff7 773d 8c64 68bd aed2 36bd
00000330: aab3 8e3d b8aa dabd a09c 323a c3d9 b13d
00000340: 25a5 e6bd 9779 3fbd 385f c83d 72ca fd3d
00000350: b452 e0bd f10b 923d 5273 f3bd fb43 82bd
00000360: edc8 49bd ebb1 a0bd d49e da3d 7943 7b3d
00000370: a029 cdbd 62ba b23d 40c5 80bc ffb3 da3d
00000380: 1675 ae3d a64b b2bd 40ff e73d fac1 943d
00000390: 274c bcbd 5fe6 833d 327d cb3d 8fab a4bd
000003a0: f346 ac3d 98f9 dd3d fac8 333d a807 1abd
000003b0: afa0 ec3d e0b8 4e3d 5cc1 403d adb7 07be
000003c0: 0e8f 533d 3c38 a8bd a298 cb3d 72df dabd
000003d0: c505 5abd b571 87bd 97a0 84bd d5ac 923d
000003e0: 425c 58bd 8ef5 a73c b2fd b9bd 821f b83d
000003f0: 47fa 783d b25e 50bd 46d3 d7bd 74e7 4bbd
0.06951108 0.05164007 -0.011758927 -0.060527593 0.07873653 -0.0052066036 -0.03194753 -0.056141727
0.022000737 0.0779738 0.052170787 -0.0224054 -0.033508703 0.03545867 0.027301498 0.021683214
0.005966522 0.06943174 0.05943371 0.05341757 0.01896799 0.055637762 -0.043710638 0.004020147
-0.09678538 -0.045748506 0.041642718 0.051690724 0.025083866 0.020485617 -0.048658848 -0.0006459616
0.08804206 0.016672613 0.056620184 -0.019326814 -0.021453802 -0.0045863762 0.07476267 0.004387196
0.07078414 0.0043321885 0.05540021 -0.1034822 0.07372454 -0.018137034 0.05226423 -0.041842893
0.078000255 0.06536292 0.060201038 -0.07367531 0.06822849 -0.016117802 -0.05311346 -0.04909386
-0.026156403 0.061636236 -0.08627768 0.093998305 0.009725161 -0.021820258 -0.021461926 -0.051848643
-0.00785248 -0.065243 0.07572431 -0.036011618 -0.05738568 0.0765619 -0.023984984 0.041804064
0.006127037 -0.011139449 0.08436264 -0.021658938 0.06599762 0.01847598 0.0019308627 0.022487085
-0.024693828 -0.012283595 0.022963692 -0.023344833 0.0073904023 0.04095824 -0.020013409 -0.02414015
-0.04146159 0.061721865 -0.040197268 -0.04913541 0.011341337 -0.019172505 0.020718746 -0.04227878
0.06478378 0.0033339113 0.017993608 0.0033885874 -0.008867281 -0.020742916 0.050900444 0.030672166
-0.008231029 0.0630573 -0.013672765 0.06685803 -0.02494891 0.0058303587 0.024497408 -0.025281299
-0.057153996 0.04352776 0.034018688 -0.044727795 -0.066210866 -0.018129924 0.016947212 -0.0557703
-0.05505115 -0.013500234 0.046803944 0.024690518 -0.05980702 0.036160953 -0.032600224 0.019949283
0.04808738 -0.068173096 -0.04645686 0.0698435 0.064010225 0.09223377 -0.006997356 0.058075838
0.051490784 0.07444601 -0.038894236 -0.018984353 0.07427711 -0.011643773 0.027726531 -0.02597005
0.0745247 -0.06668849 0.04593274 -0.0030713454 -0.033853598 -0.07935911 0.051167935 0.08164738
-0.032325666 -0.07201156 -0.037911557 -0.021568509 -0.07972726 0.0011823922 0.0849348 0.07775363
-0.07913633 0.028924827 0.041506976 0.07203859 -0.068208754 -0.04459819 -0.06310488 -0.05195839
-0.07092563 -0.04760518 -0.040548064 0.03936488 0.016161691 0.022146665 0.031579554 -0.01908702
-0.022831127 0.047173895 -0.06690908 0.05503506 -0.061613787 -0.04223127 -0.044099726 0.060066894
0.010555895 0.008408891 -0.06272255 0.033865977 0.0713347 -0.05489147 -0.051974796 0.04250332
0.11794209 -0.021958485 0.04733764 -0.12548843 0.111202754 0.07255651 -0.05094367 0.123933464
0.049956936 0.060538467 -0.056736514 -0.044634514 0.06967862 -0.10677093 0.00068135 0.08684113
-0.112619676 -0.046746816 0.097837865 0.12392129 -0.10953274 0.07131184 -0.1188723 -0.063606225
-0.049263883 -0.07846435 0.10674825 0.061343644 -0.10017705 0.08726956 -0.015719056 0.10678863
0.08518426 -0.08705835 0.11327982 0.072635606 -0.091942124 0.06440424 0.099359885 -0.08040535
0.0841197 0.10838622 0.043892838 -0.037604958 0.115540855 0.05046928 0.047059402 -0.1325366
0.0516501 -0.08213851 0.09941222 -0.1068715 -0.05322816 -0.06613485 -0.064759426 0.07161871
-0.05282236 0.020502832 -0.09081592 0.08990385 0.060785558 -0.05087156 -0.10538344 -0.049781278

attn_net.hidden.bias f4 [96]
00000000: ec10 013d b9c4 fcbc 24ff 0fbd 3abf 83be
00000010: c7a7 50be 20ee 413e f896 8b3e cb89 66bd
00000020: 5a66 73be 4c1b 36bc 0f22 1b3d 8264 2d3d
00000030: 2bc2 81be 4dfb 1e3e 5b0a d6bd 15b4 9b3d
00000040: 6557 6c3e 5265 3dbe bdf6 953e c086 6c3e
00000050: 62fc 2ebe ae5a 64be e850 a8be 186b 74be
00000060: f408 803d 6ad7 7dbd 8324 263e e6b1 0e3e
00000070: 8a17 1bbe 57df 9dbd be17 09bd 4d0b 523d
00000080: b457 9b3e b184 83bd ee58 65be 1f70 673d
00000090: 40fc 8f3b 22ef 7dbe 20a4 273e 4a32 95bd
000000a0: cc42 903d 32af 72bc 7ad7 a3bc 214e 67bd
000000b0: 447a 73be 362a c73c c807 0d3e 0a31 bc3d
000000c0: a876 a33d d7d9 7b3d 9455 72bd 23cd aa3d
000000d0: 248d 24be 7031 2dbd 6a99 993d f0a2 d3bc
000000e0: 8d06 78be c55d 7b3e 5c86 683d 3ad9 62bd
000000f0: a0b1 7f3e 6ee0 973d c4b4 78be 84a4 67be
00000100: 22c0 873d 06c4 e7bd 990d 6c3e 0406 62bd
00000110: a4e6 6abe 394a ba3d ca27 aa3d 1e9e 8a3e
00000120: b328 2c3e f8a9 6e3e 829e 65be 1646 a13d
00000130: ca18 88be a487 debd 8bd7 e5bd f8a7 20bd
00000140: 631f 1dbe 8c42 073d a7d0 a0bd 52c6 6cbd
00000150: 5f91 783e 906e 183d a229 d93d 79b9 463e
00000160: 1ce6 a93d 968a 9c3c 6072 bd3d 108a 02bd
00000170: 9ece b03c 758d b03e 03cc 843e 3319 893e
0.03151028 -0.030855523 -0.03515543 -0.25731832 -0.20376502 0.18938494 0.27263618 -0.056283753
-0.23769513 -0.0111149065 0.037874278 0.04233218 -0.2534345 0.15525551 -0.10451194 0.07602707
0.23080213 -0.18495682 0.2928981 0.23098278 -0.17088464 -0.22300217 -0.32874227 -0.23868978
0.06251708 -0.061973013 0.16224866 0.1393505 -0.15145698 -0.07708614 -0.033469908 0.05128031
0.3034035 -0.06421793 -0.22397205 0.05650341 0.004394084 -0.24798253 0.16371202 -0.072849825
0.070439905 -0.014812278 -0.020000208 -0.056470994 -0.2377711 0.02431212 0.137725 0.09189041
0.07981616 0.061487045 -0.059163645 0.08339908 -0.16069466 -0.042283475 0.074999645 -0.02583453
-0.24221249 0.24547489 0.05676876 -0.055382945 0.24970102 0.074158534 -0.24287707 -0.22621351
0.06628443 -0.113166854 0.23052062 -0.05518152 -0.22939545 0.09096188 0.083083704 0.2707376
0.168124 0.23307025 -0.22423747 0.07874696 -0.26581413 -0.10865715 -0.11222752 -0.039222687
-0.15344004 0.03302245 -0.07852297 -0.05780632 0.24274205 0.037214816 0.10603644 0.1940669
0.08295843 0.019109052 0.09250331 -0.031869948 0.021582898 0.34482923 0.259369 0.26777038

attn_net.out.weight f4 [64, 96]
00000000: 3022 6c3b c657 8f3e a845 933e 0933 5a3e
00000010: e8e4 5a3e 26ff c33e 79de 123f cacf 8c3d
00000020: 3ed6 963e d2ac 723e 241d 163e d47b b83e
00000030: d15a 5d3e b37b d43e c87b 013e c04f c3bb
00000040: 9d28 c83e 7e78 383e 4f92 f03e c4e1 ea3e
00000050: b0b7 4f3b b6a4 1a3e 59bf 533e 8c6e 3a3e
00000060: 18ab c53e 51c7 493d 7222 a23e ce38 db3e
00000070: ebd4 ed3d 0c24 e03c 4b21 003d 75df 8d3e
00000080: 91c2 f73e 2225 afbc 0cdb 5e3e 5e96 0d3d
00000090: df4a b33e ec2e a63d 61eb ab3e a62f a83e
000000a0: 180e 133d 4a94 34bc 0e68 9dbc 29c4 9fbc
000000b0: 1724 c83d 2eef 443d a731 f13e 325c 2b3e
000000c0: ea99 b53e fd44 79bd 72a7 623d fbde 9e3e
000000d0: 8e99 4a3e a958 073d 906b bcbb 4da7 493e
000000e0: 621b e03d b591 eb3e 0bbe 4e3e 82e4 803e
000000f0: c7bc e63e f3b8 7c3e 2c2d 4c3e 7db3 a73e
00000100: b2de b63e 5a5e 13bd 578b fb3e f6d0 f43d
00000110: 0f63 923e 50ee 0d39 c076 a3bb 9e6d ce3e
00000120: 9063 ea3e 4095 f53e 4e21 b23e 58c8 15bc
00000130: e680 6e3e c0f3 713e 4018 1d3c b458 ac3e
00000140: ac4f 943e ff10 903e d8bf ce3d 326d 7b3e
00000150: 5a2e da3e 5aad 943e 11e2 803e 1acd e23e
00000160: cad7 903e 1130 863e 4546 943e d295 bbbd
00000170: b121 ffbc 425e 053f dc21 ce3e bb46 fb3e
00000180: 0415 043d 0e31 a6bd 4037 7a3c d044 2e3c
00000190: 0ec5 093d 6862 1e3c 2d6c 3cbd 53df 323d
000001a0: 1a70 d9bc a008 60bc 8cfb 9c3d 34c7 babc
000001b0: a9e4 92bd 4aa4 d4bd f02f b93c 901c 95bc
000001c0: 9e5c a1bd faaf eebc 4ac1 4abe 0df9 3dbe
000001d0: 4566 2ebd 6c32 2e3d 045c 6e3c 40c7 2a3b
000001e0: 9066 96bb 89cf 4f3d 5dd1 a0bd 6683 a3bd
000001f0: eb21 4b3d 4762 233d 0663 0cbd e1a5 133d
00000200: b4cd 3fbe b46a 1ebd a0bb 053d 3cca 1e3c
00000210: fc2c bfbd b002 10bd 0664 b8bd 5bd4 673d
00000220: 772e 853c f275 80bc f8dc 9f3c b24f 3f3d
00000230: 8f9e 2fbd b6c9 8e3c 6cac e9bd 44a0 c93c
00000240: 7bdf 11be e0b9 0ebd a61d f6bc 4e40 5dbd
00000250: 503a 3ebd a493 653c 4440 823c cfc0 8dbd
00000260: 7a19 023d 6072 b1bc c4b5 08bd f5b2 d9bd
00000270: f605 82bd 5c33 32bc 82f6 453d 54fd 42bc
00000280: 119a 06be 0c55 37bc 8a52 70bd 2371 0a3d
00000290: ca35 43bd b1b7 33bd 03c5 a9bd 0f8e 1abe
000002a0: 6adc 4dbe 8220 24be 8070 efbd 5223 27bd
000002b0: 8d67 703d 42ee 85bd 97e7 80bc aaae b63c
000002c0: 4008 233d 8a7e 3cbc 6211 9dbc a5ca 213d
000002d0: 485e 3bbc 8c06 9ebd 33bd ddbd b399 24be
000002e0: ad09 0fbe 98ae b93b 49aa debd 7ca5 0cbd
000002f0: 93de 1ebd 5a3f 54be 984e 32bd 0b9e 95bd
00000300: 3688 3cbd 1cbc da3c c927 393d 9ab9 203d
00000310: 85ef 873d 9c4f 2e3d 6ba4 433d 40bc 073c
00000320: e0a5 98ba 13f9 2c3d b51f 90bc cf2b f73c
00000330: 36a3 aa3d d8ac 54bc 2c73 453c f15b 383d
00000340: 96f5 1abd 49fd 293d c4d8 eb3c adf7 923d
00000350: cdd7 303d 3dc8 1b3d 8369 353d 0cc3 873b
00000360: 1483 273d 00f2 e53b ffc8 ad3d 8a61 c33d
00000370: bf18 043d 7613 bf3c 389e 793c 71fa 3fbd
00000380: 6f05 973d 0011 f9bc 8e9a c53d a45b 2cbd
00000390: 1a95 ef3c 780e b0bb ec14 c23c a310 643d
000003a0: bc52 333c d4f0 47bc 6e5f 2c3d 23c8 8abc
000003b0: 049c 343d 4245 023d e172 013e e6e4 003d
000003c0: e410 443d 26c8 efbc efd0 343d 3d27 28bd
000003d0: cd5f 21bd 20dd 193d b25d b8bc 946e 523d
000003e0: 9e93 c7bc 0d9f 0f3d 38bf 203d 8ee2 df3c
000003f0: 7708 ca3d a12f 6e3c 90d0 5d3c d879 51bd
0.003603112 0.27996653 0.2876408 0.21308531 0.21376383 0.382806 0.57370716 0.0687557
0.2946033 0.23698738 0.14659554 0.36031973 0.21616675 0.41500625 0.12644875 -0.0059604347
0.39093485 0.18014714 0.46986625 0.4587537 0.003169518 0.15101895 0.20678462 0.18206233
0.38607097 0.04926235 0.31666905 0.42816776 0.116128765 0.027360938 0.03128175 0.27709547
0.4839063 -0.021380011 0.21763247 0.03456723 0.3501806 0.081144184 0.33578017 0.32848853
0.035902113 -0.011021683 -0.019214656 -0.019502716 0.097725086 0.048079662 0.47108194 0.16734388
0.3546899 -0.060856808 0.05533547 0.31029496 0.19785139 0.033043537 -0.005750127 0.19692726
0.10942723 0.46009603 0.20189683 0.25174338 0.450659 0.24679928 0.19939107 0.32754126
0.35716778 -0.035978653 0.49129745 0.11953919 0.285912 0.00013535586 -0.0049885213 0.40318006
0.45779085 0.4796543 0.34791034 -0.009142004 0.23291358 0.2362814 0.009588301 0.33661425
0.28967035 0.28137967 0.10095185 0.24553373 0.42613488 0.29038507 0.25172475 0.44297105
0.28289634 0.26208547 0.2895986 -0.09159435 -0.031143995 0.5209695 0.40260208 0.490774
0.032246605 -0.08114825 0.015271962 0.010636523 0.03363519 0.009667017 -0.046001602 0.04367001
-0.026542712 -0.013673931 0.07665166 -0.022800066 -0.0717252 -0.10382898 0.022605866 -0.018202096
-0.078789935 -0.029136647 -0.19800296 -0.18552037 -0.042578 0.042528555 0.014548305 0.0026058704
-0.004589863 0.05073503 -0.07852433 -0.07984047 0.049592894 0.039888646 -0.034274124 0.036046866
-0.18730813 -0.03867598 0.032649636 0.009691771 -0.09334752 -0.035158813 -0.09003453 0.056599002
0.016257508 -0.01568124 0.019514546 0.046706863 -0.042875823 0.017430168 -0.1140984 0.024612553
-0.14245407 -0.034845233 -0.030043434 -0.054016404 -0.04644233 0.014012251 0.015899785 -0.06921541
0.031762578 -0.021660984 -0.03337647 -0.106298365 -0.06348793 -0.010876503 0.04833079 -0.011901218
-0.13144709 -0.01118971 -0.058672465 0.0337993 -0.04765872 -0.043876354 -0.0828953 -0.15093254
-0.20103613 -0.16028026 -0.116913795 -0.04080517 0.058692504 -0.06539585 -0.01573543 0.022300083
0.03980279 -0.011504779 -0.019173328 0.039499898 -0.011436053 -0.077160925 -0.108271025 -0.16074257
-0.13968535 0.005666565 -0.10872323 -0.034337506 -0.038786482 -0.20727292 -0.043531984 -0.07305535
-0.04602834 0.026701026 0.045203958 0.039239503 0.066374816 0.04255639 0.047764223 0.008284628
-0.0011646114 0.042229723 -0.017593244 0.030172257 0.08331911 -0.012980662 0.012051385 0.045009557
-0.037831865 0.041501317 0.028789885 0.07176147 0.043174554 0.03803276 0.044290077 0.0041431244
0.04089649 0.007017374 0.084856026 0.095400885 0.032250162 0.02332471 0.015235476 -0.0468697
0.07374083 -0.030403614 0.096486196 -0.042079583 0.029245902 -0.0053728186 0.023691617 0.05567993
0.010945018 -0.012203414 0.042083196 -0.016941136 0.0440941 0.03180433 0.12641479 0.031468295
0.04786767 -0.029270243 0.044144567 -0.041053046 -0.039398003 0.037564397 -0.022505615 0.051374987
-0.024362382 0.035063792 0.03924486 0.02732971 0.09864896 0.014537723 0.013538495 -0.05114159

attn_net.out.bias f4 [64]
00000000: bfa5 bb3e 4079 6ebe 85f2 13be 32d0 bb3e
00000010: 06b5 a43e 4d60 5dbe 4ea5 6ebe 94b4 883e
00000020: 467a 76be 5b4c 69be 8539 76be 2abd 83be
00000030: 0bc1 86be 652e 793e a53f cabd d8a8 31be
00000040: 45d4 8a3e 8649 27be d0c4 5fbe 2788 b5bd
00000050: 8337 28be 4740 b73e 4808 823e f0cf 403d
00000060: d121 9f3e 5e3a 663e 635c c13e 123f 4b3d
00000070: 4675 843e 9754 b6be edb8 c3bd babb 843e
00000080: a434 8bbe 420a 88be 128c 713e 8d69 40be
00000090: a263 af3e 7630 a5be f2d4 f3bc 7696 9bbe
000000a0: d32d 8a3e f554 bb3e 0669 d2bd a5ba 983e
000000b0: 08dc 9c3c 65f1 bc3e c040 70be 5804 933e
000000c0: 7d34 94be 3154 613e a917 8dbe 00a2 2bb9
000000d0: afdb a3be 8485 80be aabb 41be fa21 58be
000000e0: c5a1 5abe c80b 97be 5254 58be 950d 9d3e
000000f0: 7713 bb3d 08ac 83be 7d3d 81be 7576 45be
0.36649892 -0.2328844 -0.14447983 0.36682278 0.3216936 -0.21618767 -0.23305246 0.2670027
-0.24070081 -0.22783034 -0.2404538 -0.25730258 -0.26319155 0.24334104 -0.098754205 -0.17349565
0.27115074 -0.1633664 -0.21852422 -0.088638596 -0.16427426 0.35791227 0.25396943 0.047073305
0.31080487 0.22483203 0.37765798 0.049620695 0.25870723 -0.35611412 -0.09556756 0.25924474
-0.271886 -0.26570326 0.23588589 -0.18790264 0.342557 -0.32263535 -0.029764626 -0.3038823
0.26988086 0.36588255 -0.10273938 0.29829898 0.019147888 0.3690292 -0.234622 0.28714252
-0.28946295 0.22004773 -0.27557114 -0.0001636818 -0.32003543 -0.25101864 -0.18919244 -0.21106711
-0.21350773 -0.29501176 -0.21125916 0.30674425 0.09134572 -0.25717187 -0.25242224 -0.19283469

linear.weight f4 [64, 20]
00000000: af61 2dbf 1440 ef3e afa8 efbe 4043 353f
00000010: b663 d2be 8088 213f 0693 353f 9865 683e
00000020: c1dc 3cbf d753 e73d fe13 1a3f 2c17 233f
00000030: 947e e5be 7712 15bf aee0 1fbf 00e9 0abf
00000040: a108 0bbf 1e42 1ebf f95a 1e3f 5587 27bf
00000050: 881e 5abb c6c6 bcbe 91d0 e6bd 19f0 51be
00000060: da65 a4be 5f88 80bd 50cd 5cbd c44b 1dbe
00000070: 0085 c8ba af05 1abe a1b2 93bd 762a 80be
00000080: cc22 c3bd d52e 9ebe 5349 f1be a326 603b
00000090: ed78 51be f95a 9fbe cedc f0be 182d a33e
000000a0: 40e9 a93a 98ab d73b 22c6 263d bac8 8d3d
000000b0: 227c 023d 800b 133e 82d5 093c d0d5 58bd
000000c0: 520c ba3d 2b3d 67bd 926a c63d cfaf 013e
000000d0: fff7 bb3d 80f1 34bb e6bb d43d 1afd 873d
000000e0: d55a ec3c 4aa3 a73d 2576 1c3d 72c3 c93c
000000f0: b743 2c3f 3c96 a4be b470 1e3f 9e48 0dbf
00000100: b8a7 2c3f ff35 01bf 4a43 30bf b153 60bc
00000110: 01ab 373f 7265 afbe 0137 cabe a4f8 b3be
00000120: deac de3e e789 0b3f c97b fa3e 5b50 b53e
00000130: d18e d63e 36e1 383f c828 13bf b486 1b3f
00000140: 1ea9 0cbf deaa 283f c45e 0bbf e1ac 333f
00000150: e845 2bbf d088 b53e 0e9f 113f dad3 363e
00000160: d6e2 c9be 15f4 043e 2324 003f bfd6 3d3f
00000170: 8dc8 1ebf 8e70 11bf ac93 24bf 9524 2bbf
00000180: a159 1cbf 1170 fbbe b0c9 c33e 46a3 1abf
00000190: 5a28 433c 9a01 e2bd 84a6 4b3c 5c9b b9bd
000001a0: 0864 b3bc d2bc a23c d3cf 7fbd 9688 93bd
000001b0: 53a0 98bc 9fd2 0bbe e60a a1bd 0bf1 cabc
000001c0: 54e6 3e3c 106d 9c3b 769f 4ebd 8db7 623d
000001d0: 33f7 aebd e159 afbc c6e2 61bd 7e62 bfbc
000001e0: 0890 1bbe e484 8bbd 8810 a6bd e0e7 59be
000001f0: 60a1 543e 795d 8dbe a3cc 41be 8a72 653e
00000200: 5e1d 2dbe cec4 e0bd 7ed3 75be 81c9 323e
00000210: 7207 11be 1013 793e be94 2d3e 67cf 28be
00000220: bf52 2abe bf1b 053e ce66 2b3e b739 5ebe
00000230: b310 bbbe f88f 093f 7cff 27bf d937 173f
00000240: abf4 cabe 4e6d be3e d6e5 203f b771 87bc
00000250: ec98 0abf 3b14 793e 4e12 113f a933 e33e
00000260: a7ad 0ebf 4b97 0abf 646f c4be 58bc 19bf
00000270: 9e43 ebbe 99d9 dcbe b2f7 813e 86bc 39bf
00000280: 3efd 2dbd e278 8bbc 7d47 1cbe e6ff 193e
00000290: e966 8cbd b866 9cbd 5782 ce3c d908 983c
000002a0: 04eb 94bd 8036 9bba 00b3 00bd 8046 783d
000002b0: 3260 cfbd aca5 90bd 9db5 8c3d 488a baba
000002c0: be38 8fbd 7c40 ebbd 4b8b 96bd f2e5 24be
000002d0: d864 433e ea47 a63e e0ca b83d 5b11 b83e
000002e0: 1446 943e 7409 5a3c 00ff 4d3a 057c a13e
000002f0: 8b94 d5be a3e7 663d 22c1 483d 24a0 453e
00000300: 0322 933b 5784 723e 200d cb3d 9eac 653d
00000310: 60d8 d03e adf8 9a3e d4a4 c53e 14c3 41bd
00000320: fffa fa3d e39d 0fbe 97f6 a53d ced0 f23d
00000330: c34d a5bc a571 90be 605b c13a 071f 5e3e
00000340: f117 13be 5048 5a3d f8ee a1bc c83a 32be
00000350: d08c 023e 68b9 103e 1ddd 66be 529a 7f3d
00000360: 2dcf 1b3e 29c9 15be c089 5f3c 227d 58be
00000370: 3a37 0fbe e3be e2bc 9132 35be 1e14 083d
00000380: 6dcf 933d 4834 833d b3cf 11bd 3f9d 50be
00000390: 434a 823e f41e f7bc 6e6f 043e c691 1abd
000003a0: 8d48 443d 5a9b 80be 92c9 813d 79be 1cbe
000003b0: ee87 44bd 7628 073e 0a1e 1cbe caeb 1b3e
000003c0: a788 a13d d00a ef3d 52ef 373e 0c8b 4f3e
000003d0: 8a78 8bbe 2e54 013d 10b7 693c 1fe0 2f3e
000003e0: e96e 483d 3052 af3b 340f 323e 1162 183e
000003f0: 2cf9 973d 156a 303e 5a6c 043e e69f e23d
-0.6772718 0.46728575 -0.46808383 0.7080574 -0.41091698 0.6309891 0.70927465 0.22695005
-0.73774344 0.11295288 0.60186756 0.6370723 -0.44823134 -0.582313 -0.6245221 -0.5426178
-0.5431004 -0.61819637 0.61857563 -0.65440875 -0.0033282358 -0.36870402 -0.1127025 -0.20501746
-0.32108957 -0.06276011 -0.05390674 -0.15360934 -0.0015298426 -0.1504123 -0.07211805 -0.25032395
-0.09528121 -0.30895105 -0.47126254 0.0034202717 -0.20456286 -0.31124094 -0.4704346 0.3187034
0.0012963191 0.006581735 0.040716298 0.06923051 0.031856664 0.14359856 0.008412721 -0.052938282
0.09084381 -0.05645482 0.096882954 0.12664722 0.09178161 -0.0027609766 0.10387401 0.06640072
0.028851906 0.08185442 0.03819861 0.024629328 0.67290825 -0.3214587 0.6189072 -0.5518893
0.6744342 -0.50473017 -0.68852675 -0.013691829 0.71745306 -0.34257084 -0.3949509 -0.35150635
0.43491262 0.545073 0.48922566 0.3541287 0.41905835 0.72218645 -0.574841 0.60752416
-0.5494555 0.6588572 -0.54441476 0.7018567 -0.66903543 0.35455942 0.56883323 0.17854252
-0.39430875 0.12983735 0.5005514 0.741558 -0.62024766 -0.5681237 -0.6428783 -0.66852695
-0.6107426 -0.49108937 0.38239813 -0.60405385 0.011911476 -0.11035462 0.012429837 -0.090628356
-0.021898285 0.019865427 -0.062454056 -0.07203786 -0.018631136 -0.13654564 -0.07863407 -0.024773141
0.011651594 0.0047737435 -0.050445043 0.05535083 -0.08543243 -0.021405162 -0.05514791 -0.023362394
-0.15191662 -0.06812456 -0.08108622 -0.2127986 0.20764685 -0.27610376 -0.18925719 0.22406974
-0.16905734 -0.109750375 -0.24006459 0.1745968 -0.14162996 0.24323678 0.16951272 -0.16485368
-0.16633128 0.12998866 0.16738436 -0.21701704 -0.36536178 0.53735304 -0.65624213 0.5906959
-0.39639792 0.37192768 0.628507 -0.016533716 -0.5413959 0.24324124 0.56668556 0.4437535
-0.5573372 -0.54137105 -0.38366234 -0.60053015 -0.45950025 -0.43134764 0.2538429 -0.7255329
-0.04247784 -0.017025415 -0.15261646 0.15039024 -0.06855566 -0.076367795 0.025208635 0.018558906
-0.07271388 -0.0011841804 -0.031420708 0.06061411 -0.1012577 -0.070628494 0.068705775 -0.0014231885
-0.069932446 -0.11486909 -0.07350787 -0.16103342 0.19081438 0.3247674 0.0902307 0.3595074
0.28959715 0.013307918 0.00078581274 0.31539932 -0.41714892 0.05637325 0.04901231 0.1929937
0.0044901385 0.23683296 0.09914613 0.056072824 0.4079008 0.3026785 0.38602316 -0.04730518
0.12254905 -0.14025073 0.08103674 0.118562326 -0.020178681 -0.28211704 0.0014751963 0.21691523
-0.14364602 0.05329162 -0.01976727 -0.17405236 0.12749028 0.14133227 -0.22545286 0.06240303
0.1521575 -0.14627518 0.013643682 -0.21141484 -0.13985911 -0.027678913 -0.17695071 0.03322231
0.07217298 0.06406456 -0.035598468 -0.20372485 0.25447282 -0.030166127 0.12933132 -0.037736677
0.047920752 -0.25118524 0.063372746 -0.15307035 -0.047981195 0.13199028 -0.15245834 0.15226665
0.078873925 0.11671984 0.17962387 0.20267886 -0.27240402 0.03157442 0.014264837 0.17175339
0.048933897 0.0053503737 0.17388612 0.1488116 0.07420573 0.17227967 0.12931958 0.110656545
