outlier-interpretation-Xu/checkpoints/KPDumMnf_checkpoint.pt (torch, 105819 bytes, 5 tensors)

attn_net.hidden.weight f4 [96, 192]
0	0x3d6ddefa	0.058073975
1	0xbc132dd5	-0.008983095
2	0x3c81e6bc	0.015857093
3	0x3d9015b2	0.07035388
4	0xbc8e17dc	-0.017345361
5	0xbb64cd05	-0.003491224
6	0xbd903606	-0.07041554
7	0xbd073d2a	-0.033017315
8	0x3d4d33df	0.050098296
9	0x3d81999c	0.06328127
10	0x3ce5ab06	0.028035652
11	0xbd8a8426	-0.067634866
12	0xbc17b390	-0.00925912
13	0xbcb52af0	-0.0221152
14	0xbd2ef1c0	-0.04271102
15	0x3d349c7a	0.04409454
16	0xbd9e9458	-0.07743138
17	0x3d4f0abb	0.050547343
18	0xbda627c7	-0.08113056
19	0x3d9b78fd	0.07591436
20	0xbd011660	-0.03151548
21	0x3d870b60	0.065939665
22	0xbd46338f	-0.048389014
23	0x3d743412	0.05961997
24	0xbd59c883	-0.05316974
25	0x3aea8e10	0.0017895121
26	0xbc4ddd5f	-0.012564986
27	0x3cc416c1	0.023936631
28	0x3d2c95d8	0.04213509
29	0xbd0df0bb	-0.034653407
30	0xbc6b93cf	-0.014378502
31	0xbd7c84b6	-0.06165
32	0xbd74c069	-0.05975381
33	0x3ae0b30a	0.0017143202
34	0xbce48217	-0.027894063
35	0xbd1dc57a	-0.038518406
36	0xbad32966	-0.001611036
37	0xbcb80893	-0.022465026
38	0xbd9c5d84	-0.07635024
39	0x3db6e929	0.089311905
40	0xbd4e372c	-0.050345585
41	0x3d97b2bb	0.07407137
42	0x3d34c88d	0.044136573
43	0x39771138	0.0002356217
44	0xbc779358	-0.015110813
45	0x3bf6941d	0.0075249807
46	0xbcd32740	-0.025775552
47	0x3d368505	0.04456045
48	0x3d0acb58	0.03388533
49	0x3d309df6	0.043119393
50	0xbb97da71	-0.0046341945
51	0xbd01cc08	-0.03168872
52	0x3d37fe93	0.044920515
53	0xbc392c96	-0.011302134
54	0xbd424ff8	-0.047439545
55	0xbd92f647	-0.0717588
56	0x3d9d23fa	0.076728776
57	0xbd928495	-0.07154194
58	0xbd5dd92a	-0.054162182
59	0xbd97f2e0	-0.074193716
60	0x3d5a82b3	0.0533473
61	0xbd4e7d9a	-0.05041275
62	0xbd0d4363	-0.034488093
63	0x3d2d082a	0.042244114
64	0x3d20e958	0.039285034
65	0xbd94ac18	-0.07259387
66	0xbd9f583c	-0.07780501
67	0x3bdd4228	0.006752271
68	0xbd813d7a	-0.06310554
69	0xbd9337e7	-0.07188397
70	0xbd6fd26e	-0.05855029
71	0x3d1945b2	0.037419982
72	0xbc831354	-0.016000427
73	0x3d2ec8db	0.04267202
74	0x3da691f5	0.08133308
75	0xbca17aea	-0.01971193
76	0x3d7c674e	0.061621957
77	0xbca87072	-0.02056143
78	0xbda4288d	-0.08015547
79	0xbd7dcecd	-0.0619648
80	0x3c2a0a6d	0.010378462
81	0x3d545c55	0.051845867
82	0x3ce48eaa	0.027900059
83	0xbcc56e40	-0.024100423
84	0x3c1adb62	0.009451719
85	0x3ced45ae	0.02896389
86	0x3c2f19d6	0.010687312
87	0xbd6c45a7	-0.057683613
88	0x3d94ca67	0.07265168
89	0x3d632081	0.05545092
90	0xbd56385e	-0.05229985
91	0xbb724388	-0.0036966521
92	0xbc07407d	-0.008255121
93	0xbd93eb51	-0.072226174
94	0x3d3d4154	0.04620488
95	0x3bb5adcd	0.0055444003
96	0xbda04621	-0.07825876
97	0xbcc1634b	-0.023606917
98	0x3bf1b044	0.007375749
99	0x3d7c8c8f	0.061657485
100	0x3d2b2ca2	0.041790612
101	0xbcf20a4f	-0.029545931
102	0x3d51e582	0.051244266
103	0xbd36f36d	-0.044665743
104	0xbc355b14	-0.011069078
105	0x3d812224	0.0630534
106	0x3d0b6f16	0.034041487
107	0xbd55cd11	-0.05219752
108	0xbb83a702	-0.0040177116
109	0x3d9da03c	0.07696578
110	0x3bfc0d94	0.0076920483
111	0xbcc830c0	-0.024437308
112	0xbd79d602	-0.06099511
113	0x3c4b5d50	0.012412384
114	0x3c86e280	0.016465425
115	0xbb0fc9ac	-0.0021940274
116	0x3da9f1b2	0.08298053
117	0x3ce4b90a	0.027920265
118	0x3d575d51	0.052579228
119	0xbc90fee1	-0.01769966
120	0x3d9ea3f4	0.07746115
121	0x3d8e03cd	0.06934319
122	0x3c0c7678	0.008573167
123	0xbd317a0b	-0.04332928
124	0x3cb6a80c	0.022296928
125	0xbcca9891	-0.024730952
126	0xbb8ffce0	-0.0043941587
127	0x3d91afb2	0.07113589
128	0x3c927fa6	0.017883133
129	0xbd56f19c	-0.05247651
130	0xbd6cd909	-0.05782417
131	0x3d776410	0.06039816
132	0xbcaeb0d4	-0.021324553
133	0xbd703920	-0.05864823
134	0xbdb0f8fb	-0.08641239
135	0xbd11fa3e	-0.03563904
136	0xbb1ccecc	-0.0023926971
137	0x3d752a47	0.059854772
138	0x3d986fae	0.07443176
139	0x3cb30aa2	0.021855656
140	0x3d2d91f7	0.04237553
141	0x3c3c372a	0.0114877615
142	0xbd191f16	-0.03738316
143	0xbd12f4cb	-0.035877984
144	0x3d0d0b7e	0.034434788
145	0x3d4dce66	0.050245665
146	0xbaf4a586	-0.0018665052
147	0xbcac16ad	-0.021006906
148	0x3bdd30fb	0.0067502237
149	0x3ccc1d46	0.024916302
150	0xbd7ef559	-0.0622457
151	0xbda41a43	-0.080128215
152	0xbc80eaf2	-0.01573703
153	0x3d179030	0.037002742
154	0xbce01704	-0.027354725
155	0x3c003e5b	0.007827367
156	0x3d132bdc	0.0359305
157	0xbd2d1702	-0.04225827
158	0xbc3870b3	-0.011257338
159	0x3cbd31f8	0.023095116
160	0xbd316fb4	-0.04331942
161	0x3a8fc698	0.001096922
162	0xbd67bb01	-0.056574825
163	0xbaa323d6	-0.0012446593
164	0x3d7ebd34	0.062192157
165	0x3be6c25f	0.007042214
166	0xbd397d39	-0.045285437
167	0xbc912330	-0.017716974
168	0xbcde8a66	-0.027165603
169	0x3d55eee9	0.052229796
170	0xbcf7c259	-0.03024404
171	0xbd284b43	-0.0410874
172	0x3d8953fc	0.06705472
173	0x3cfc334f	0.030786185
174	0x3c976e42	0.018485192
175	0x3c530058	0.0128785
176	0xbc8209c2	-0.015873794
177	0xbce273c2	-0.027643088
178	0xbc90a413	-0.017656362
179	0x3d5625d6	0.052282177
180	0x3d757f1d	0.059935678
181	0xbd973bd0	-0.07384455
182	0x3bb28303	0.0054477467
183	0xbd4c849a	-0.049931146
184	0x3d53eb6c	0.051738188
185	0xbd0c0bfe	-0.034191124
186	0xbd498f84	-0.049209133
187	0xbd834716	-0.06410043
188	0xbbb2ad27	-0.0054527703
189	0x3d8681a5	0.065676965
190	0xbb435dad	-0.0029810474
191	0x3d7755d8	0.0603846
192	0xbdd92bc3	-0.1060405
193	0x3d986c3f	0.07442521
194	0xbd5bcaee	-0.053660326
195	0xbda522c0	-0.08063269
196	0x3d91e0f7	0.07122987
197	0x3daa6095	0.08319203
198	0x3d6a066e	0.057135038
199	0x3da861a9	0.08221752
200	0xbdce6a28	-0.100788414
201	0x3c7b1668	0.015325166
202	0xbd3db68f	-0.04631668
203	0x3d66c80b	0.05634312
204	0xbd83a928	-0.06428748
205	0x3bd2d0d6	0.0064335866
206	0x3dc14c47	0.09438377
207	0x3d736637	0.05942365
208	0x3d9149ce	0.07094155
209	0xbd5df8ee	-0.054192476
210	0xbd6ff1bc	-0.058580145
211	0xbdbb5850	-0.09147704
212	0x3d5e9837	0.054344382
213	0xbd705e61	-0.058683757
214	0xbcffe7b6	-0.031238418
215	0x3cda0494	0.026613511
216	0x3d9c1f40	0.07623148
217	0xbd9cb388	-0.0765143
218	0x3cbf074c	0.02331891
219	0x3cdef796	0.027217668
220	0x3c97a210	0.018509895
221	0x3d8d5b0c	0.069021314
222	0x3db36a18	0.0876047
223	0x3cc22894	0.02370099
224	0x3db04510	0.086069226
225	0x3d8ef876	0.06980984
226	0xbd60c247	-0.054872777
227	0xbc0189d5	-0.007906397
228	0x3dad178b	0.08451756
229	0x3da7c9d4	0.081927925
230	0xbd933aa8	-0.07188922
231	0x3d2f842f	0.04285067
232	0xbce0b93d	-0.027432078
233	0xbd6d4cc4	-0.057934538
234	0x3d178b62	0.03699816
235	0x3d7e57e1	0.062095527
236	0xbdaa9a7e	-0.08330248
237	0xbd52107e	-0.05128526
238	0xbc80939e	-0.01569539
239	0xbd79e979	-0.061013673
240	0x3c1c4a38	0.0095391795
241	0xbd012788	-0.03153184
242	0xbc2108c2	-0.009828748
243	0xbdd4a9de	-0.10383962
244	0x3bdc5116	0.0067235334
245	0x3d344c49	0.044018064
246	0x3d371acb	0.044703286
247	0x3d99024f	0.074711435
248	0xbd08282b	-0.033241432
249	0x3ba3ef8a	0.0050029205
250	0x3c68c9b4	0.014208246
251	0xbda5c6b3	-0.080945395
252	0x3c3f4fcf	0.011676743
253	0xbd6a36b4	-0.057181075
254	0x3be9e833	0.007138276
255	0xbd14ab46	-0.03629615

attn_net.hidden.bias f4 [96]
0	0xbe0a9db0	-0.13536716
1	0xbccbbcca	-0.024870295
2	0x3dde3eaa	0.10851796
3	0x3db81d0a	0.08989914
4	0xbccdf0c3	-0.025139218
5	0x3da01016	0.07815568
6	0x3daa8c64	0.08327559
7	0xbd9b0d48	-0.075708926
8	0xbd90353c	-0.07041404
9	0xbd233f4d	-0.03985529
10	0xbe3dd59e	-0.1853852
11	0xbe958cb4	-0.2920891
12	0x3d8deb06	0.06929593
13	0x3eadda4b	0.33955607
14	0x3dd308b0	0.103043914
15	0xbdb82462	-0.089913145
16	0x3ce5e694	0.02806405
17	0xbd0cf5a4	-0.03441395
18	0xbe81035f	-0.25197884
19	0xbe8bc0b2	-0.27295452
20	0xbc5de973	-0.013544428
21	0xbcd4eb3e	-0.025991078
22	0x3e4d3a12	0.20041683
23	0xbcd1ba9d	-0.02560168
24	0xbc915c26	-0.017744135
25	0xbe813b6e	-0.25240654
26	0x3e377b50	0.17918134
27	0x3e3cd5f7	0.18440996
28	0x3d683b3f	0.056697126
29	0xbe9f8c13	-0.31161556
30	0x3ca78cde	0.020452913
31	0x3d350097	0.044190016
32	0xbe295059	-0.16534556
33	0x3dd39978	0.10332006
34	0xbe206fa8	-0.15667593
35	0xbe43499d	-0.1907105
36	0xbe492e82	-0.19646648
37	0x3d2fc433	0.04291172
38	0x3d5e8e9b	0.054335218
39	0xbec41b7a	-0.38302213
40	0x3d794e76	0.06086584
41	0x3d318ecc	0.043349072
42	0xbea06d15	-0.31333223
43	0x3dac5dc1	0.0841632
44	0xbd944095	-0.072388805
45	0xbebe2c9f	-0.37143418
46	0x3db2aab4	0.08723965
47	0x3dd9c455	0.106331505
48	0xbccb7ff9	-0.024841296
49	0xbd393e84	-0.045225635
50	0x3cce066e	0.02514955
51	0xbce3943e	-0.027780648
52	0xba6ef802	-0.00091159355
53	0x3c960bc7	0.018316163
54	0x3c497a09	0.012297162
55	0x3e4e3264	0.2013641
56	0x3d3a1d1a	0.04543791
57	0x3e4466b1	0.19179799
58	0x3be00eec	0.0068377163
59	0xbe5f297f	-0.21793173
60	0xbd1db636	-0.038503848
61	0x3d5c37cd	0.053764153
62	0x3e865a84	0.26240933
63	0x3d469604	0.04848291
64	0xbd53ceb4	-0.0517108
65	0xbe4c7bb9	-0.19969071
66	0xbca7f442	-0.020502213
67	0xbe9514a6	-0.29117316
68	0x3dfba16e	0.1228665
69	0xbd3867a9	-0.045020733
70	0x3dd4caae	0.103902206
71	0xbdd7c0aa	-0.10534795
72	0xbcca94d5	-0.024729172
73	0x3d8ba856	0.06819217
74	0x3cd7ab32	0.02632675
75	0x3e4ce1ca	0.20008007
76	0x3ec32d78	0.38120627
77	0x3c602366	0.013680315
78	0x3d16e8f0	0.03684324
79	0x3c706bb7	0.014674119
80	0x3e5b13bf	0.21394251
81	0xbd3611a5	-0.04445042
82	0x3d3119ec	0.04323761
83	0xbe7f296e	-0.24918148
84	0xbde81155	-0.11331431
85	0x3ebbcd34	0.36679995
86	0x3e92210c	0.28540838
87	0xbd4e7e91	-0.050413672
88	0x3c779578	0.01511132
89	0xbdc8d5da	-0.09806414
90	0x3ce9f89d	0.02856093
91	0x3e1a6a2f	0.15079568
92	0xbd7ad7d6	-0.061240993
93	0xbd92c989	-0.07167346
94	0x3d4e6a56	0.05039438
95	0xbd5ab58f	-0.053395804

attn_net.out.weight f4 [64, 96]
0	0xb9a74ad0	-0.00031908462
1	0x3d01ad50	0.031659424
2	0x39d50c2e	0.000406356
3	0x3d2fbd57	0.042905178
4	0xba8edbfa	-0.0010899298
5	0xbb1dc3a6	-0.0024072914
6	0x3a349460	0.00068885647
7	0x3c3f201e	0.011665372
8	0xbd0eeea3	-0.03489555
9	0xbb430754	-0.0029759007
10	0x3ba51675	0.0050380775
11	0x3c7fc350	0.015610531
12	0x3c437264	0.011929128
13	0x3b7d4959	0.0038648455
14	0xbbbcdb31	-0.0057634343
15	0x3d2149a6	0.039376877
16	0x3ce87c58	0.028379604
17	0x3be577bf	0.0070028002
18	0xbb512328	-0.0031911824
19	0x3c788e55	0.015170653
20	0xbc8a86b0	-0.016909927
21	0x3ccb5fcd	0.024825955
22	0x3e3f3f1d	0.1867642
23	0xbd05582b	-0.032554787
24	0x3a3011bc	0.000671651
25	0xbd3fbbdd	-0.04681002
26	0x3d64537e	0.055743687
27	0xbb7f136d	-0.003892149
28	0x3c20894a	0.009798357
29	0x3d136c18	0.035991758
30	0x3c1f1464	0.009709451
31	0xbc51e01a	-0.012809778
32	0xbc2b8117	-0.010467789
33	0x3e2a4d75	0.1663111
34	0xbcdb860c	-0.026797317
35	0x3c1a12e6	0.00940392
36	0xbd365fe5	-0.044525046
37	0xbaee1890	-0.0018165279
38	0x3cba9c00	0.022779465
39	0x3bc4e2af	0.006008468
40	0x3bd1d9ae	0.0064041233
41	0x3c1fa615	0.009744187
42	0xbba3b4f0	-0.0049959347
43	0x3c1ac14a	0.009445498
44	0xbccf8ff9	-0.025337206
45	0xbc1e1ddc	-0.009650674
46	0x3e3ec50a	0.18629852
47	0x3e3c3a30	0.18381572
48	0x3c615396	0.013752839
49	0xbb947b37	-0.00453129
50	0x3cd2cdab	0.025732836
51	0xbd3d612b	-0.046235245
52	0x3b6a1d36	0.0035722977
53	0x3c35fe78	0.011108033
54	0x3e252219	0.16126288
55	0x3cfb0d37	0.03064595
56	0xbba52d96	-0.0050408347
57	0xbc179f8b	-0.009254347
58	0x3b6aaeae	0.0035809684
59	0x3c64f236	0.013973763
60	0x3dd02a12	0.10164274
61	0x3d8a7af4	0.06761733
62	0x3e1a1589	0.15047278
63	0xbc10de56	-0.0088420715
64	0xbcaaf63a	-0.020869363
65	0xbbb0156c	-0.0053736474
66	0xbbec26e3	-0.007206784
67	0xbd0ab398	-0.03386268
68	0x3caf1a89	0.021374958
69	0x3cf0c4b4	0.02939067
70	0x3bdcead4	0.006741861
71	0x3d884202	0.06653215
72	0x3d20da3c	0.039270625
73	0x3aa15b87	0.0012310602
74	0x3b9cc94c	0.0047847386
75	0xbab621d8	-0.0013895584
76	0x3e01ec06	0.12687692
77	0xbd16fba2	-0.03686107
78	0xbd40cfc6	-0.04707315
79	0xbd172535	-0.036900718
80	0xbd2852d7	-0.041094627
81	0x3e154e12	0.14580563
82	0x3b1f8370	0.0024339817
83	0x3b795063	0.00380423
84	0xbbc2cccc	-0.005944824
85	0xbc9ff678	-0.019526705
86	0x3d07588c	0.03304343
87	0x3c5714ce	0.013127519
88	0xbaa6684c	-0.0012695878
89	0xbc521b50	-0.012823895
90	0x3cf8ba04	0.030362137
91	0x3dc50e0b	0.09621819
92	0x3c0374f3	0.008023488
93	0xbcd3c14b	-0.025849005
94	0xbcf0a102	-0.02937365
95	0x3c45fc0b	0.0120840175
96	0xbc584072	-0.013198959
97	0xbd788ec8	-0.06068304
98	0x3dca7936	0.098864004
99	0x3bc6c6cc	0.006066179
100	0xbd109b91	-0.03530461
101	0xbc643b9c	-0.013930228
102	0x3b85b42c	0.004080316
103	0xbc13c68a	-0.009019503
104	0x3d1e2adc	0.038615093
105	0x3c45b4c9	0.012067028
106	0xbb170798	-0.0023045298
107	0x3cad5da2	0.021162812
108	0xbc9d6a6c	-0.019215785
109	0x3d988734	0.07447663
110	0x3c9c1ef2	0.019057725
111	0xbc2d6c3b	-0.010584886
112	0xbc12eec6	-0.008968061
113	0xbc38a08a	-0.011268744
114	0xbc1728db	-0.009226049
115	0x3b5f3684	0.0034059593
116	0xbb22ae2e	-0.0024823057
117	0x3be5ffb5	0.007019008
118	0x3e27b62b	0.16378085
119	0x3bfedf8a	0.007778113
120	0xbce9256f	-0.028460233
121	0x3bc2f77c	0.0059499126
122	0x3e0ae0c2	0.13562301
123	0x3c8b3f9b	0.016998103
124	0xbcf62120	-0.030045092
125	0x3c48f0df	0.012264459
126	0x3c02e850	0.007989958
127	0xbd49e268	-0.049288183
128	0x3c4de32c	0.012566369
129	0x3e092365	0.13392408
130	0x3ce0f0ac	0.027458511
131	0x3b50b3a6	0.003184536
132	0xbc29727b	-0.010342236
133	0xbd018275	-0.031618554
134	0xbd022bc5	-0.031780023
135	0x3ab3192a	0.0013664116
136	0xbc3f0abd	-0.011660275
137	0x3bff784d	0.0077963234
138	0x3c6561d8	0.014000379
139	0xbc7a81cb	-0.015289734
140	0xbc94d298	-0.018166825
141	0x3c915735	0.017741779
142	0x3e2b9bba	0.16758624
143	0x3e3fe982	0.1874142
144	0x3c2201ad	0.009888095
145	0xbd1c939f	-0.03822672
146	0xbbc8a735	-0.0061234483
147	0xbb9a1ef0	-0.004703395
148	0xbc2bf8e4	-0.010496352
149	0x3dc1488d	0.09437666
150	0x3db640c7	0.08899074
151	0x3dd8e8ef	0.105913036
152	0x3ba08144	0.004898222
153	0x3d415255	0.04719766
154	0xbb81cbe4	-0.0039610732
155	0xbc053920	-0.008131295
156	0x3dfe4424	0.124153405
157	0x3da415ec	0.08011994
158	0x3e1a8ffe	0.15093991
159	0xbae68530	-0.00175873
160	0xbccddf5c	-0.02513092
161	0x3c96aa9e	0.018391903
162	0x3c41f224	0.011837516
163	0x3c8c919a	0.017159272
164	0x3dac581d	0.08415244
165	0x3ca9073c	0.020633332
166	0x3c4403d5	0.011963804
167	0x3dcdd862	0.10051037
168	0x3cf8c1d3	0.03036586
169	0x3d251839	0.040306304
170	0xbb559816	-0.003259187
171	0x3c9dd55b	0.019266775
172	0x3e39b2bd	0.1813459
173	0xbd3c5897	-0.045982923
174	0x3c603555	0.01368459
175	0xbc89a067	-0.016800119
176	0x3e13872b	0.14407031
177	0x3e2898ab	0.16464488
178	0xbd67d8e2	-0.05660332
179	0xbd018abe	-0.031626455
180	0xbdabcf9f	-0.0838921
181	0x3e162af6	0.14664826
182	0x3e215bd3	0.15757684
183	0xbcb51388	-0.02210404
184	0x3c792d91	0.015208618
185	0xbd2f1abe	-0.042750113
186	0xbbbddc96	-0.005794118
187	0x3d87a7c9	0.06623799
188	0xbb15ffa2	-0.0022887965
189	0x3d5a8494	0.053349093
190	0x3cd3b44b	0.025842806
191	0x3c85b8e2	0.01632351
192	0xbd489f44	-0.048980013
193	0xbbe5ccc6	-0.0070129363
194	0x3c56271d	0.013070849
195	0x3ca0e1c1	0.019638898
196	0x3c5a1f72	0.013313161
197	0x3d4c03fc	0.049808487
198	0x3db74d5f	0.08950304
199	0x3d1a7ab0	0.03771466
200	0x3e02160c	0.12703723
201	0x3dcdf2fa	0.1005611
202	0xbd44c877	-0.04804274
203	0xbc43406a	-0.011917213
204	0x3c4b55ed	0.012410623
205	0x3e6139f9	0.21994771
206	0x3e28bb35	0.16477664
207	0x3abddd84	0.0014485572
208	0x3c8764d3	0.016527569
209	0xba66daf8	-0.00088064326
210	0xbd48bcb4	-0.049008086
211	0xbd03daa7	-0.032190945
212	0x3cdbc950	0.026829392
213	0x3d44f57b	0.04808567
214	0x3ec535c1	0.38517573
215	0x3d8e7222	0.06955363
216	0x3cb90d74	0.022589423
217	0xbd6ef5fd	-0.05834006
218	0x3e9509a0	0.29108906
219	0x3c74eb5b	0.014948691
220	0x3c57bc12	0.013167398
221	0xbcee01f4	-0.029053666
222	0x3d957c71	0.07299126
223	0x3d3305c2	0.043706663
224	0xbd64bc77	-0.055843797
225	0x3eff091f	0.49811646
226	0xbd80434a	-0.06262834
227	0xbdbaa7e2	-0.09114052
228	0x3c32f5f8	0.010922901
229	0xbc1eef62	-0.009700628
230	0x3c881616	0.016612094
231	0xbcfaa55c	-0.030596428
232	0x3cf29b84	0.029615171
233	0x3d6aa6f6	0.057288133
234	0x3c9ee06d	0.019394124
235	0x3dc66cc4	0.09688714
236	0xbcb63dc8	-0.022246256
237	0xbd8f34ab	-0.069924675
238	0x3ef67977	0.48139545
239	0x3eabd082	0.33557516
240	0x3d50c453	0.05096848
241	0x3d0b2c10	0.03397757
242	0x3d6d6b07	0.057963397
243	0x3d745777	0.059653725
244	0x3c7eebd7	0.015559158
245	0xbd44e2ef	-0.048067983
246	0x3e8e45b9	0.2778757
247	0xbd95f223	-0.073215745
248	0x3d0e878a	0.03479723
249	0x3c83b40b	0.016077062
250	0x3da5ee2d	0.08102069
251	0x3cf2d0ca	0.029640574
252	0x3e2d82a3	0.16944365
253	0x3e8983fc	0.2685851
254	0x3eb52dc5	0.35386482
255	0xbc581dcc	-0.013190698

attn_net.out.bias f4 [64]
0	0xbd940f30	-0.07229459
1	0xbd57130e	-0.052508406
2	0x3e546e83	0.20745282
3	0x3da4cd2a	0.080469444
4	0xbe3bec91	-0.18351962
5	0xbe6348ea	-0.22195783
6	0xbe1b312e	-0.1515548
7	0x3ede25cd	0.43388215
8	0x3ea31bf8	0.31857276
9	0xbe826261	-0.25465682
10	0xbe5abc46	-0.21360883
11	0xbe5a88fd	-0.2134132
12	0xbe554c36	-0.20829853
13	0xbe7cdb0d	-0.24692936
14	0xbe639037	-0.22222982
15	0x3e4f558b	0.20247476
16	0xbea37896	-0.31927937
17	0xbe8bc3c5	-0.27297798
18	0x3eafbabe	0.3432216
19	0x3d53aedc	0.05168043
20	0x3eae1fa8	0.34008527
21	0xbdabb53d	-0.08384178
22	0xbdd7dad7	-0.10539787
23	0x3ed9d19c	0.42542732
24	0xbd5df04f	-0.054184254
25	0xbe4e875b	-0.20168822
26	0xbe8376df	-0.2567663
27	0xbe9c2f2c	-0.3050474
28	0xbee1ff0a	-0.44139892
29	0xbea045c2	-0.3130322
30	0xbea4bce0	-0.3217535
31	0xbe95c0ef	-0.2924876
32	0xbeaaf75e	-0.3339185
33	0xbe81784c	-0.25287092
34	0xbe6cf8b0	-0.23141742
35	0x3d7e4d2f	0.062085327
36	0xbea08679	-0.31352594
37	0xbe8713fc	-0.26382434
38	0x3e0def0f	0.13860725
39	0x3ecf02ec	0.40431917
40	0x3eb529f2	0.35383564
41	0xbe575d9b	-0.21031801
42	0xbd8bb7d6	-0.06822173
43	0x3ec07266	0.3758728
44	0x3ef4630b	0.47731814
45	0x3df87fa4	0.121337205
46	0xbe575996	-0.21030268
47	0xbd937965	-0.072008885
48	0xbe801f99	-0.25024107
49	0xbd4525fa	-0.04813192
50	0xbe233037	-0.15936361
51	0x3ee60454	0.44925177
52	0x3d8fe010	0.070251584
53	0x3e82d956	0.2555644
54	0x3ece396b	0.4027818
55	0xbf0810e0	-0.5315075
56	0xbe8073ac	-0.2508825
57	0x3ec11787	0.37713262
58	0xbeb19bfc	-0.3468932
59	0x3c459a7e	0.01206076
60	0xbe444454	-0.1916669
61	0x3edb584b	0.428408
62	0xbe5b8696	-0.21438059
63	0xbe27515f	-0.16339634

linear.weight f4 [64, 20]
0	0xbcca4fb2	-0.024696205
1	0xbcbd9b05	-0.023145208
2	0x3d18c110	0.037293494
3	0xbd9d40af	-0.07678353
4	0x3dd2fe8d	0.10302458
5	0x3d7ee666	0.062231444
6	0x3dbc9f49	0.09210069
7	0xbd905ae5	-0.07048587
8	0xbdf11b07	-0.11772733
9	0x3d18618b	0.0372024
10	0xbe0dc52f	-0.13844751
11	0xbda12d93	-0.07870021
12	0x3e0fe629	0.14052643
13	0xbdbc450a	-0.09192856
14	0xbd5ff8c3	-0.054680597
15	0x3c661e35	0.014045288
16	0x3d12465b	0.035711627
17	0xbdc0ac1f	-0.094078295
18	0xbdbd869e	-0.09254192
19	0x3e1630df	0.1466708
20	0x3cfc6d6b	0.030813893
21	0xbb90abda	-0.0044150176
22	0x3dcae1ec	0.099063724
23	0xbd9c71af	-0.07638871
24	0xbd4bf9b1	-0.04979867
25	0xbddc21c5	-0.107486285
26	0xbe1c18ff	-0.1524391
27	0x3dad7110	0.084688306
28	0x3e088e83	0.13335614
29	0x3c69237a	0.01422965
30	0x3e098afb	0.13431923
31	0xbe12d142	-0.14337638
32	0xbd98cc12	-0.07460798
33	0x3e1323cd	0.14369126
34	0xbd9ba1ba	-0.07599206
35	0xbd79479b	-0.060859304
36	0x3ccdfd6c	0.025145255
37	0x3e1beaee	0.15226337
38	0x3ca3cdee	0.019995656
39	0xbba2a1ca	-0.0049631344
40	0xbd1fd905	-0.039025325
41	0xbe8483d8	-0.2588184
42	0x3e9554a7	0.29166147
43	0x3dfca5ec	0.123363346
44	0xbe80c083	-0.25146875
45	0xbe0f81a0	-0.14014292
46	0x3befb21c	0.0073149335
47	0xbe2b8f4a	-0.16753879
48	0x3e854bad	0.260343
49	0xbe28f48f	-0.16499542
50	0x3e9637c2	0.29339415
51	0xbd89c17b	-0.067263566
52	0x3dadd036	0.08486979
53	0x3dd2a374	0.102850825
54	0x3e88b74f	0.26702353
55	0xbdd8357e	-0.10557078
56	0xbd6bddb3	-0.057584476
57	0x3da38e8f	0.07986175
58	0xbe85d94c	-0.26142347
59	0xbea079fb	-0.31343064
60	0x3e2c35c8	0.16817391
61	0x3d78b3cd	0.060718346
62	0x3db38784	0.08766082
63	0xbe55e683	-0.20888714
64	0xbe3ed10c	-0.18634433
65	0x3db8231c	0.089910716
66	0x3c490810	0.012269989
67	0x3d924317	0.071417026
68	0x3deb38ff	0.114854805
69	0xbde36497	-0.1110317
70	0x3d95221e	0.07281898
71	0x3d760edc	0.060072765
72	0xbe0b7808	-0.13620007
73	0x3ddef782	0.10887052
74	0x3d8ede9f	0.06976055
75	0x3e4fa89c	0.20279163
76	0x3e139439	0.14412011
77	0xbe0e8f71	-0.13921906
78	0x3dce7532	0.10080947
79	0x3df87c57	0.12133091
80	0xbded1a0c	-0.11577234
81	0x3deb3e46	0.11486487
82	0x3e337edf	0.17528866
83	0x3e018767	0.12649308
84	0x3d88a9d2	0.06673016
85	0x3ddd4ccd	0.10805664
86	0xbe20b938	-0.15695655
87	0x3e224c6f	0.1584947
88	0x3e52754e	0.2055256
89	0x3deeb92a	0.11656411
90	0x3e719540	0.2359209
91	0xbd8a7456	-0.067604706
92	0x3dc98bb4	0.098410994
93	0xbd44e138	-0.048066348
94	0xbd205a06	-0.039148353
95	0x3e330e0f	0.17485832
96	0xbd667de5	-0.056272406
97	0x3e189e3d	0.14904113
98	0x3d633b90	0.055476725
99	0x3de3a2f5	0.11115066
100	0x3d0acf56	0.033889137
101	0x3d82b418	0.063820064
102	0x3d9833ef	0.074317805
103	0x3e37cd0e	0.17949316
104	0x3dc74721	0.09730364
105	0x3db8f020	0.09030175
106	0xb923fdb4	-0.00015639403
107	0x3d519383	0.05116607
108	0x3e00f3cd	0.12593003
109	0x3db3d116	0.08780114
110	0x3e61330f	0.21992134
111	0xbb992522	-0.004673616
112	0x3c5610b9	0.01306551
113	0x3e46a022	0.19397023
114	0x3d66ff23	0.05639566
115	0x3e08c524	0.13356453
116	0x3e460c75	0.1934069
117	0x3c25c0d8	0.010116778
118	0x3d34fe00	0.044187546
119	0x3d09cfcf	0.033645447
120	0x3c25135e	0.010075418
121	0x3cb39a27	0.021924092
122	0x3d4deb63	0.05027331
123	0x3dda6be8	0.10665113
124	0xbd784e11	-0.060621325
125	0x3e0a8921	0.13528873
126	0x3dbf32d3	0.09335866
127	0x3ce077e2	0.027400915
128	0x3dc8bd0f	0.09801685
129	0x3c2f9528	0.010716714
130	0x3d8bf688	0.068341315
131	0x3de57ed7	0.112058334
132	0x3dfff7db	0.124984466
133	0x3e1259aa	0.14292017
134	0xbe581db8	-0.21105087
135	0xbd86dd62	-0.06585194
136	0xbdbc39de	-0.09190725
137	0xbd18617b	-0.03720234
138	0x3d24c35e	0.04022538
139	0x3b8f60ea	0.0043755667
140	0xbeddd270	-0.43324614
141	0xbf3414c8	-0.7034421
142	0x3f2a0523	0.6641409
143	0x3f25a306	0.6470188
144	0xbf549584	-0.8304064
145	0xbefb771d	-0.49114314
146	0xbc7e399f	-0.015516668
147	0xbf3f5757	-0.74742645
148	0x3f429788	0.7601247
149	0xbf3fa882	-0.748665
150	0x3f36c246	0.7139019
151	0x3f209f97	0.62743515
152	0xbf2c885e	-0.6739558
153	0x3eed0c67	0.46298525
154	0x3f286488	0.657784
155	0xbf5fc7d9	-0.8741432
156	0x3ec52c8c	0.3851055
157	0x3f157600	0.5838318
158	0xbf584c77	-0.84491676
159	0xbf290e62	-0.6603757
160	0x3d072b21	0.033000115
161	0xbec3e17d	-0.3825797
162	0x3e867499	0.26260832
163	0xbd254cdd	-0.040356506
164	0xbea79b35	-0.327356
165	0xbea1375c	-0.31487548
166	0x3dfc87b0	0.12330568
167	0xbebde2f1	-0.37087205
168	0x3d65abbe	0.05607199
169	0xbea7bc7a	-0.32760984
170	0xbd630227	-0.055421975
171	0x3e04dc5b	0.12974684
172	0xbe2cde83	-0.16881756
173	0x3d5029fe	0.050821297
174	0x3e9a54cd	0.30142823
175	0xbea8b037	-0.3294694
176	0x3e1f3be2	0.15550187
177	0xbd88e0ef	-0.06683528
178	0xbeaa6869	-0.33282784
179	0xbea34a44	-0.31892598
180	0x3d9f88bb	0.07789751
181	0x3dd36138	0.103212774
182	0x3e6d3b64	0.23167187
183	0x3e18ed88	0.14934361
184	0xbd2a4c48	-0.041576654
185	0x3e37567d	0.17904086
186	0xbdd6e3b0	-0.10492647
187	0xbdadc008	-0.08483893
188	0x3e9b81d6	0.30372494
189	0xbd552006	-0.052032493
190	0x3e5d00ec	0.21582383
191	0xbe2997de	-0.16561839
192	0x3e3bfe2c	0.18358678
193	0xbe09e712	-0.13467053
194	0x3dc64de7	0.096828274
195	0xbda0b2a9	-0.07846577
196	0xbde3b324	-0.11118153
197	0x3e3a5ca0	0.18199396
198	0xbdeb2dac	-0.114833206
199	0x3e469b79	0.19395246
200	0x3e2dbc9a	0.16966477
201	0xbbe33356	-0.00693361
202	0xbd5b41e2	-0.053529628
203	0x3d8cf7e9	0.068832226
204	0xbd4e2704	-0.050330177
205	0x3c8c6b7e	0.0171411
206	0x3c08573c	0.00832158
207	0xbd91b5fb	-0.07114788
208	0x3d3c6510	0.04599482
209	0xbd538870	-0.05164379
210	0x3c7d5574	0.015462268
211	0xbb3ac36d	-0.002849783
212	0xbe341cf4	-0.1758917
213	0x3de2bc50	0.11071074
214	0x3b75b7f4	0.0037493678
215	0x3d85500f	0.065094106
216	0xba23f104	-0.00062538707
217	0x3d8bff18	0.06835765
218	0x3e05d631	0.13069989
219	0xbe150746	-0.14553556
220	0x3da1b3c5	0.078956164
221	0xbe1b22d2	-0.15150002
222	0x3e287967	0.16452561
223	0x3c85e3b4	0.016343929
224	0xbda5978c	-0.08085546
225	0x3e0041d0	0.12525105
226	0x3e54b409	0.20771803
227	0xbdd21a4f	-0.10258924
228	0xbdfdb604	-0.12388232
229	0xbdd5ce08	-0.10439688
230	0xbe4aeef5	-0.19817717
231	0x3e43864c	0.19094199
232	0x3d5ae59d	0.053441633
233	0x3e283129	0.16425003
234	0x3d5ba6ae	0.053625755
235	0xbe26ef3a	-0.16302195
236	0xbdb582bd	-0.08862827
237	0x3e214603	0.15749364
238	0xbe074e58	-0.1321348
239	0xbdb89a18	-0.09013766
240	0xbd5efbb5	-0.054439265
241	0x3d193e5c	0.037412986
242	0xbcaab4be	-0.020838138
243	0xbd7ad553	-0.061238598
244	0x3da39490	0.079873204
245	0x39083ce4	0.00012992654
246	0xbc4b0fe6	-0.012393927
247	0xbc3a825f	-0.011383622
248	0x3d0c04c7	0.034184244
249	0x3d217671	0.039419595
250	0xbd95c24b	-0.07312449
251	0xbd991c88	-0.07476145
252	0x3e56773c	0.20943922
253	0xbd94bbf2	-0.0726241
254	0x3b9685fd	0.0045936094
255	0xbc43a5e3	-0.011941406
