outlier-interpretation-Xu/checkpoints/LcslRfgG_checkpoint.pt (torch, 103515 bytes, 5 tensors)

attn_net.hidden.weight f4 [96, 192]
000000 a6 e0 4a bd be 5a 50 bd 48 b5 26 bc ae 6b 52 bd
       -0.049530648 -0.05086779 -0.010175057 -0.051372223
000010 82 18 69 bd cb 0e 4e bc a0 84 9f 3a 70 bc c8 bc
       -0.056908138 -0.012576769 0.0012170263 -0.024503917
000020 4b 9c 14 bd bc 47 09 3c 01 8a 67 bd c0 59 d2 ba
       -0.036281865 0.008378919 -0.056528095 -0.0016048476
000030 d8 18 10 bd ed 4c 12 bd c7 e0 f5 3c 89 45 0b bd
       -0.035179943 -0.035717893 0.030014409 -0.03400186
000040 2c 28 a7 3b 44 0e ea 3b ba 10 d9 3b d0 39 62 bc
       0.0051012244 0.007142814 0.0066243084 -0.013807729
000050 f7 99 c5 bc 9c ea 3a bd 54 f6 0a bd 5f fb 1a 3c
       -0.024121268 -0.045633897 -0.033926323 0.009459346
000060 f0 54 92 3b 0e 78 5b bc d6 be cc 3c 98 0a b7 3b
       0.0044656917 -0.0133953225 0.024993341 0.0055859797
000070 3b a8 43 bd 4f 04 41 bc c3 e2 58 bb 2e a9 53 3d
       -0.04776786 -0.011780812 -0.0033094145 0.051675014
000080 47 f8 80 bd dd 2c 48 bd 0a 5f 26 3d 6e 76 03 3c
       -0.06297355 -0.04887091 0.04061798 0.008023841
000090 b2 d8 01 bd 2c 32 3f 3d 0a 14 6f 3c e8 b1 2a bd
       -0.031700797 0.046678707 0.01459218 -0.04167357
0000a0 58 9d 06 bc df 80 29 bd 58 0f 5d 3d 0b 7e f3 bc
       -0.008216225 -0.041382667 0.05396971 -0.029723188
0000b0 c1 45 31 bd 34 c1 e6 bc f8 da 1c bd 4a a2 81 3b
       -0.043279413 -0.028168298 -0.038294762 0.003956114
0000c0 c4 b2 b2 bc 00 f3 59 bd 7d b3 59 bd 5f 34 ba 3c
       -0.021813758 -0.05321026 -0.05314969 0.02273005
0000d0 7f 41 44 bc 46 5a 5a bd 34 d9 f7 bc 50 4e ac 3a
       -0.011978506 -0.053308748 -0.030254938 0.0013145898
0000e0 0d 4b 15 bd 1d e5 46 bd 1e d1 b3 3c b4 7f 19 3d
       -0.036448527 -0.048558343 0.0219503 0.037475303
0000f0 80 0d fd bc 48 84 52 3d a2 cc 77 bc ab 36 3f bd
       -0.030890226 0.051395684 -0.015124472 -0.046682995
000100 b6 3e c4 3b c2 0a 09 bb a1 16 5e bc 92 3a cc b9
       0.005988921 -0.0020910953 -0.0135552 -0.0003895355
000110 2f e2 75 3c 53 34 ca bb 9a c8 73 3b de 15 81 bb
       0.01500754 -0.0061707883 0.0037198425 -0.0039393744
000120 2b b1 22 3b 4e 94 a3 bb b4 11 d4 3a 5f 41 df bb
       0.0024824839 -0.0049920445 0.0016179592 -0.0068132128
000130 b2 e6 45 3c 65 7d 9f 3c cc db 57 bb 3f 8d 3d bc
       0.012078928 0.019468972 -0.0032937406 -0.01156932
000140 fe e1 93 bc 23 3e d4 bb ad da d7 3c 26 3d 2c 3c
       -0.018052097 -0.006477134 0.02634939 0.010512626
000150 9a e3 a3 3c 5a 82 95 bc 5c 3a 21 bc 4a 02 27 bc
       0.02000599 -0.018250633 -0.009840574 -0.010193417
000160 e4 de 0b bd 62 a3 bb 3a 0c 0b 54 3c a8 2f 63 3c
       -0.034148112 0.001431566 0.012942087 0.013866343
000170 d4 32 15 3a d4 75 bb 3a 5e 7a 65 3c cf cd a8 bc
       0.0005691473 0.0014302083 0.014006225 -0.02060595
000180 06 10 19 bd 94 53 b1 bb 55 0a 14 3d 9e b5 f2 3a
       -0.037368797 -0.0054115746 0.036142666 0.0018517261
000190 31 c0 81 3b 0e cf c0 3c ca b1 0d bc 98 82 75 bc
       0.0039596786 0.023536231 -0.008648345 -0.014984749
0001a0 3f 37 db bb 1a 05 4d bc 69 a5 51 3b 10 d2 59 3b
       -0.0066899355 -0.012513423 0.0031989461 0.003323678
0001b0 2d 26 99 bc 69 4c 29 3c 79 23 1b bb 4c 77 9b bc
       -0.018694961 0.010333159 -0.0023672266 -0.018977784
0001c0 f9 f3 52 bb 38 f7 29 bc 48 89 d7 3b 95 0a 0b 3d
       -0.0032188876 -0.010373883 0.0065776445 0.03394564
0001d0 41 f7 05 3c a2 23 b8 3a 09 a6 8b bb 5a 93 95 3c
       0.008176626 0.0014048705 -0.0042617363 0.01825874
0001e0 4b 4d 0f 3c 42 17 60 bc c8 02 23 3c 2d 6d d0 3b
       0.008746455 -0.01367742 0.009949394 0.006360671
0001f0 24 a7 c4 bb 92 b0 83 3b da f0 0f bb c2 98 8b 3a
       -0.00600137 0.0040188516 -0.0021963627 0.0010650384
000200 79 8e cf bc 37 b0 f6 bc 33 7e 70 bc 8e c0 3d bd
       -0.025336491 -0.030113323 -0.014678526 -0.046326213
000210 ce 26 49 bb 80 06 67 38 ec de 51 bb d7 15 a0 bb
       -0.0030693295 5.5080745e-05 -0.003202374 -0.004885416
000220 11 4c ae bc 9e d2 5d 3c 68 b5 f3 ba 04 69 d8 bb
       -0.021276506 0.013538985 -0.0018593492 -0.0066043157
000230 74 67 8b bc c9 27 1b bd 3c 1d b7 3c 60 05 e5 ba
       -0.017017104 -0.03787974 0.022352807 -0.0017472915
000240 21 bc ee bc 27 cf d6 bb 7b 73 74 bc a9 02 ea 3b
       -0.029142441 -0.006555456 -0.014920111 0.0071414304
000250 8e ea 26 3c a6 d0 b7 bc 86 fb 1f 3c 4a ab 9f 3c
       0.010187758 -0.022438359 0.009764558 0.019490857
000260 2d be e9 bc 15 f5 c8 3b 36 3b 37 3c 02 08 86 bc
       -0.028533066 0.0061327317 0.011183551 -0.01636124
000270 12 68 02 bd 1e ca f3 bb 1c 88 85 3c 2f 75 e2 3b
       -0.03183753 -0.0074398657 0.016300254 0.006910942
000280 66 47 3f bd a8 a8 ce bb f2 3f 19 3d 98 c5 9f 3c
       -0.04669895 -0.0063067265 0.0374145 0.0195034
000290 12 96 d5 bb 61 f8 3c bc 62 36 25 bb 98 f5 c8 bc
       -0.006518134 -0.0115338275 -0.0025209417 -0.02453117
0002a0 60 ec 06 3c d0 ba 99 3b 90 84 ac bc eb da 39 3b
       0.008235067 0.0046914592 -0.021059304 0.0028359245
0002b0 aa 57 ac bc c6 41 49 3c 47 f4 0d bd 71 67 1a bc
       -0.021037895 0.012283748 -0.03465679 -0.009424076
0002c0 21 51 71 bc 1c 3b 38 bc 0c 14 e8 bb bb 86 31 3d
       -0.014728815 -0.0112445615 -0.007082468 0.04334138
0002d0 ca a4 1b bd 1c e1 c4 bc fc c8 90 bb 5a 8a c3 3b
       -0.037998952 -0.024033122 -0.0044184905 0.0059674205
0002e0 d8 24 82 3c 80 6c 55 3c 9c 2f fc 3c 54 62 75 3c
       0.01588671 0.013026357 0.03078442 0.0149770565
0002f0 5a ef 4a bb 78 04 af 3c 23 cd 0a bc fc 9f 9c bc
       -0.0030965419 0.021364436 -0.00847176 -0.019119255
000300 c0 ef 44 be 47 b8 59 be 77 6a 36 be 69 65 a0 bd
       -0.19232082 -0.21261702 -0.1781405 -0.078318425
000310 ac f7 40 bd 28 ec 63 be 58 e1 0b 3e 7f 89 6a be
       -0.0471112 -0.22258055 0.1366018 -0.22904013
000320 27 85 80 be db d4 eb bd b3 97 6e be 19 66 69 3d
       -0.25101587 -0.11515208 -0.23300056 0.056982134
000330 88 cc 72 3c f5 8c 97 be a3 c8 8f 3e 11 10 35 be
       0.014819272 -0.2959973 0.2808276 -0.1768191
000340 1b eb 1f 3e e7 a5 1e 3e 86 dc 63 bc 20 0a a7 3a
       0.1561703 0.15492974 -0.013907557 0.0012744106
000350 67 1a d0 bd 95 2b 84 be 36 82 6b be 52 6c a4 3e
       -0.10161286 -0.258145 -0.2299889 0.32113892
000360 64 89 b6 be da c0 39 be b3 30 91 3e d6 c8 23 3e
       -0.35651696 -0.18139973 0.28357467 0.15994582
000370 e5 f9 9f be fa f3 67 bd 8b 93 d8 3d 97 3f 88 3d
       -0.31245342 -0.05662916 0.105750166 0.06652754
000380 67 ec 89 be e6 65 ac 3b f8 a2 8b 3e 45 56 c8 bb
       -0.26938173 0.0052611707 0.27272773 -0.0061137998
000390 fc 3a 74 be 30 7e c3 bc 58 e2 d7 3d 4f eb ae be
       -0.23850626 -0.023863882 0.105412185 -0.341639
0003a0 ef e4 5b be fa 40 40 be ec 0a 8e 3d 73 2d 67 be
       -0.2147405 -0.18774787 0.06935677 -0.22575931
0003b0 81 04 76 be 15 22 04 be 48 c4 a0 be ae bf 8f 3d
       -0.24025156 -0.12903626 -0.3139975 0.07018982
0003c0 fa ce 1d be a6 34 61 be 70 97 2e 3d 2c 16 92 3e
       -0.15410987 -0.2199274 0.04262489 0.2853254
0003d0 82 73 43 bd 02 25 61 be 3d cf 76 be a2 4d 2b 3d
       -0.04771758 -0.21986774 -0.24102493 0.041822083
0003e0 7d 02 4d be ae 79 72 bd 64 38 ab 3e c5 4e 86 3e
       -0.2002048 -0.059198074 0.3344146 0.2623197
0003f0 f3 f8 23 be 77 b9 e0 3d d0 41 56 be aa f3 34 be
       -0.16012935 0.109728746 -0.20923543 -0.17671075

attn_net.hidden.bias f4 [96]
000000 5b 9a e5 3a 92 91 9e be 24 ed 0d 3c 28 9c 79 bc
       0.0017517315 -0.30970436 0.008662496 -0.015234984
000010 47 8c a8 3e 7c 86 b3 be 6d f9 d1 3c 55 e7 5b 3c
       0.32919523 -0.3506354 0.02563163 0.013421853
000020 8b 5f 22 bd c1 4d 89 be 27 d1 18 3d ec a2 b6 3e
       -0.039641898 -0.26817134 0.03730884 0.35671175
000030 e7 91 71 3e 50 ff 6b be ae 74 95 be b9 b4 92 3e
       0.23590814 -0.23046613 -0.29190582 0.28653505
000040 6a 28 b8 bc 60 ae ac bd 0e 85 6e 3d 29 3f 8e 3e
       -0.022480208 -0.08431697 0.05823236 0.27782562
000050 40 ea 52 be 5b 0a ae be 1e d7 8f 3e 8d ec 7d be
       -0.20597172 -0.33992276 0.2809381 -0.24797268
000060 20 5e 9c 3e 25 11 01 bd ff 74 ab 3e d6 cc ae 3e
       0.30540562 -0.03151049 0.33487698 0.34140652
000070 f2 bd f0 bc 8d 27 24 3e fa 56 99 ba 7f e7 d6 3c
       -0.029387448 0.16030712 -0.0011698895 0.026233433
000080 ae b2 8c bc 1e 45 a8 3e ee 4e 10 3d aa db f3 3d
       -0.017175045 0.32865232 0.035231523 0.11907132
000090 3f 5a ca 3e f9 9a b8 be 11 f0 cb 3e 80 54 83 3d
       0.39521977 -0.36055735 0.39831594 0.064126015
0000a0 4f 42 39 3c f1 c0 e6 bd 21 b7 9a 3e 20 ed 2e bd
       0.011307313 -0.112672694 0.3021784 -0.04270661
0000b0 4f c2 fb 3d 56 07 a8 3e e6 56 86 bd 0f fc b3 3b
       0.12292921 0.32818097 -0.06559543 0.005492694
0000c0 0b a8 82 be 47 f3 c1 3e fa e7 86 bd 02 68 c2 be
       -0.25518832 0.37880918 -0.06587215 -0.37969977
0000d0 4b aa ba 3e 9e fa f1 3b dd ab f6 ba f7 86 bb 3d
       0.36458048 0.007384612 -0.001881953 0.09156602
0000e0 2a e4 03 bd f6 1e 95 3c 0b 87 a2 be bb 3a 60 3d
       -0.032200016 0.01820324 -0.31743655 0.05474351
0000f0 5b 75 20 3c 7b a8 a1 3e a8 2a 87 be de a5 e1 3c
       0.009793605 0.31573853 -0.26399732 0.027544912
000100 0c 68 9e bd 4c 60 9b be 38 56 a9 3e 8b 39 fe 3c
       -0.07734689 -0.30346906 0.33073592 0.031033298
000110 b0 37 8f be 90 df 26 be d4 a2 bd be 1c a2 62 3d
       -0.27972174 -0.1629622 -0.3703829 0.05533038
000120 a3 7b 8a 3d 4d 89 8d bd 31 8b 59 bd 70 cf 61 bc
       0.06761863 -0.06910954 -0.05311126 -0.013782367
000130 47 17 8a 3c 2b 21 86 3e 33 68 c8 3e ea 31 4e be
       0.016856803 0.2619718 0.39141998 -0.20136228
000140 58 4a 99 3e 6c 2b 7f be 3c 27 45 bd c8 6d 28 bd
       0.29939532 -0.24918908 -0.04813312 -0.04112032
000150 ab 9a 92 3d d1 38 d0 be b5 f7 72 bc 72 4a c5 be
       0.07158407 -0.40668347 -0.014829566 -0.3853336
000160 54 7f cf 3e 03 d9 9c bd 78 2a 82 be 93 be ea 3c
       0.4052683 -0.07658579 -0.25423026 0.028655326
000170 88 7e 78 be 10 44 0c 3d d4 05 d0 3e 2c ff 80 be
       -0.24267018 0.034244597 0.40629447 -0.2519468

attn_net.out.weight f4 [64, 96]
000000 a8 70 cb bb ff 94 88 3d 66 2e d3 bb f6 1e f7 3b
       -0.006208498 0.06669044 -0.00644474 0.0075415326
000010 7e e3 89 bc 82 a3 5a 3d 69 fb 2c 3b a8 1d 06 3c
       -0.01683211 0.05337859 0.002639497 0.008185782
000020 0d 2a 0c 3d 69 e3 d4 3c 7a 45 d4 bb 24 9d cf 3c
       0.03421979 0.025987344 -0.006478009 0.025343485
000030 7f f2 ec 3b 06 15 cc 3c 17 40 9a 3c e8 79 0a bc
       0.007231056 0.024912369 0.018829389 -0.008451916
000040 58 65 a4 3b d8 b8 6a bc ac 18 18 ba de 57 0d 3d
       0.005016964 -0.014326297 -0.0005802016 0.034507625
000050 0a a8 f4 bb ae c6 08 bb c6 82 a2 3c 6a 61 24 3d
       -0.007466321 -0.0020870375 0.019837748 0.040131964
000060 c7 fa 5c bc 48 b4 bc 3b c6 79 4a 3d 93 c5 32 3d
       -0.013487524 0.005758796 0.04943254 0.043645453
000070 1e 6a 15 3c a2 3c 5a bb 1c 68 00 bc f9 d5 aa 3b
       0.009119539 -0.00333003 -0.007837322 0.005213496
000080 7d 81 24 bc 90 2a 68 bc 58 df 55 bb 18 9b 83 ba
       -0.010040638 -0.014170304 -0.0032634344 -0.0010040728
000090 06 5a 36 3d 5f 8d 80 3d fa 35 be bb b3 6b 54 3b
       0.044519447 0.062769644 -0.0058047744 0.0032412827
0000a0 02 1c 5b 3b 3c 39 3b bc 9f fc 44 3d e0 f9 f6 bb
       0.0033433442 -0.01142722 0.04809248 -0.0075371116
0000b0 dc 93 55 3c 67 c7 64 3d de 66 d5 bb 52 72 fa bb
       0.013035741 0.055854227 -0.006512507 -0.0076430226
0000c0 a7 dc 00 3d f5 62 71 3b a6 ce 95 bb e8 63 21 3d
       0.03146043 0.0036832665 -0.0045717536 0.03940192
0000d0 87 49 6c 3d 16 1b ec 3b dc 45 27 3d 44 d9 6b 3c
       0.05768731 0.0072053773 0.040838107 0.014395062
0000e0 f0 cf 42 39 13 4c 06 3c 4d 52 90 3c 02 4b b3 bb
       0.00018578744 0.008196848 0.01761737 -0.005471588
0000f0 5c f5 a1 3b 32 3b 63 3b 26 ab 44 3d e2 b4 c3 3b
       0.004942579 0.0034672734 0.048014782 0.0059724906
000100 18 4e 56 3a de 0a 35 3d f7 64 26 3d fa f8 05 bb
       0.0008175089 0.044199817 0.04062363 -0.002044259
000110 e9 f6 18 3d 1f f3 aa 3b 82 c4 96 3b c0 1b 54 3d
       0.037344847 0.0052169706 0.0046010623 0.051784277
000120 46 77 de bb 56 f2 76 3b d6 b2 cb 3b b4 24 d5 3b
       -0.006789121 0.0037681065 0.0062163873 0.0065046195
000130 b6 c1 81 3b 76 e5 6f bc b9 ed 9a 3c e6 58 8e 3b
       0.0039598597 -0.01464211 0.018912183 0.0043440936
000140 71 93 4b bc 81 94 70 3d 00 14 b7 b7 00 33 6d 38
       -0.0124252895 0.058735374 -2.1824613e-05 5.65527e-05
000150 47 55 c8 bb b4 4c 88 3d df 62 0e 3c e6 21 28 bb
       -0.0061136815 0.06655255 0.008690565 -0.002565497
000160 17 20 0e bb 86 e0 c6 3c 12 fe 19 bb 96 ad 35 bb
       -0.0021686608 0.024276983 -0.0023497385 -0.0027721873
000170 fc c6 5f bb 90 b1 d5 3b 38 fc 93 bc 42 50 a3 bb
       -0.0034145704 0.0065214112 -0.018064603 -0.0049839327
000180 06 98 70 bb 44 3d 09 bd fa 37 ba 3b bf f5 08 bc
       -0.0036711707 -0.033505693 0.0056829425 -0.008359372
000190 0d ab 90 3d 94 ec 91 bd 80 b3 52 3b 2e 3a 20 3c
       0.07063875 -0.07125202 0.0032150447 0.009779496
0001a0 9d ea 40 bd ef 07 04 bd 83 3c 92 3c eb 4e 73 3d
       -0.047098745 -0.03223413 0.01785112 0.059401434
0001b0 fe f2 7e 3c c2 62 d4 bc 1d d3 8f bd 49 e3 86 3c
       0.015560864 -0.025925998 -0.070226885 0.0164658
0001c0 77 d9 4c 3c ff 3c 23 3c 2d 78 a1 3b a8 9c 98 3c
       0.0125030195 0.009963273 0.004927656 0.018629387
0001d0 04 9a bd 3b 86 5e 94 bb a0 ae 82 3d 8c f6 8a bd
       0.0057861824 -0.0045278696 0.06380963 -0.06785306
0001e0 54 f0 b1 3d 55 0c 81 bc 7f 94 ef 3d 9e f2 52 3b
       0.08688417 -0.01575295 0.11698245 0.0032188068
0001f0 56 8e 9c 3c e1 8c bf 3c 29 f8 9a 3c 52 45 16 3c
       0.01911084 0.023382606 0.01891716 0.009171801
000200 65 0d 78 bc e7 3e d1 3d 4e 9b 31 3c 92 95 89 3c
       -0.015139912 0.10217076 0.01084025 0.016794953
000210 53 f0 43 3d b8 f4 7d bc ae c0 9e 3d f6 69 9a 3c
       0.047836613 -0.01550024 0.077515945 0.018849354
000220 c4 a9 d7 3b a4 ec 9d bb f6 f6 3e 3c c0 62 e7 b9
       0.006581517 -0.0048194695 0.01165556 -0.00044133328
000230 be 4a 87 3c f4 0d c4 3d 1e fa cb bb 67 5f a8 bb
       0.016515132 0.09572974 -0.0062248847 -0.005138326
000240 dd 0d e0 bb 43 37 ab 3d 86 bc aa bc bf 91 76 bd
       -0.00683759 0.0836015 -0.020841848 -0.060197588
000250 75 2a fb 3c 50 a8 61 3b c4 af 5d bd 49 89 77 bc
       0.030659894 0.0034432597 -0.0541227 -0.015108415
000260 63 52 bf bc b7 07 64 3c 94 4b 3b bc 1d 76 b7 b9
       -0.023354715 0.013917855 -0.011431593 -0.0003499248
000270 22 0b 39 3d 24 0e 04 3d ef 64 76 bd 4a b2 ea 3a
       0.045176633 0.032240048 -0.06015485 0.0017905917
000280 38 91 cd b9 07 6d 52 bd 54 f1 c3 3d a7 e3 1d 3b
       -0.00039208843 -0.051373508 0.09567514 0.002409199
000290 ee b9 2e bd 40 ed 14 3a 16 b5 0e 3c 45 b0 77 bc
       -0.042657785 0.0005681105 0.008710166 -0.0151177095
0002a0 fc 82 87 3c fe 2a 71 3c 5b 3f 9a bc 2a 17 22 bc
       0.01654195 0.014719723 -0.018829038 -0.009893218
0002b0 8a b0 1f 3c 3a 3e 20 3d 56 59 59 3d 09 3c a1 3c
       0.00974668 0.039121844 0.053063713 0.019681947
0002c0 38 76 f6 3c f6 f9 13 bc d4 cf b6 bb 64 ca b0 3c
       0.030085668 -0.009031763 -0.0055789743 0.021580882
0002d0 62 24 82 3c 65 58 8e bd 11 e4 e7 bc 34 99 07 3c
       0.01588649 -0.06950454 -0.028306993 0.008276273
0002e0 52 1b cf 3d 1c a0 a8 bc e2 40 c8 bb 7a f4 61 3b
       0.10112633 -0.020584159 -0.0061112503 0.0034477995
0002f0 1b b4 fe 3b 7b 8f 40 3b 20 aa a3 3d 59 39 18 bd
       0.007772935 0.0029382396 0.07991433 -0.037164066
000300 cb 45 1d bb bd 25 32 3c ce a5 c3 bb 2e 88 ac 3b
       -0.0023997899 0.010873255 -0.005970693 0.0052652573
000310 82 28 b5 3a cf 5d 8c 3c 46 0b d5 3b e9 3c dd bb
       0.0013821276 0.017134575 0.006501588 -0.006751646
000320 fc db 24 3c bd a9 02 3c d5 fd f4 3b 13 f4 b6 3c
       0.010062214 0.007975039 0.007476548 0.02233318
000330 16 1b 23 3b b1 fd 17 3c a7 88 4a 3c ba 06 25 3c
       0.002488797 0.009276793 0.012361682 0.0100724045
000340 d8 d7 04 3c 5d 20 d9 bb 15 2c 57 bb 3c d4 32 3b
       0.008108102 -0.0066261725 -0.0032832671 0.0027287146
000350 7c 9c a0 bb d4 41 97 3a 99 a0 12 3c d6 2b f5 3a
       -0.004901467 0.0011540004 0.008949422 0.0018705081
000360 8a ca aa bb b9 9c a6 3b 4e ae 35 bc 5a 50 87 3b
       -0.005212133 0.0050846008 -0.011088921 0.0041294517
000370 48 bb 2e bb a8 f0 69 ba 13 18 67 bb 59 44 b4 bb
       -0.0026661921 -0.0008924105 -0.0035262152 -0.0055013117
000380 dc 85 4c 3b da e2 89 3c a5 61 e2 3b 80 7c c9 3c
       0.0031207716 0.016831804 0.006908613 0.024595499
000390 92 b9 0a 3c 54 b0 89 3c 82 19 92 3c 71 a3 a5 bb
       0.008467095 0.016807713 0.017834429 -0.005054884
0003a0 99 ad cc 3b 84 07 af 3b 1f 87 6f 3b c7 65 8e 3c
       0.0062462804 0.005341472 0.0036549044 0.017382516
0003b0 1c 87 54 3a 2e 95 2b 3b 74 ac 33 3c 20 e4 8e 3b
       0.0008107291 0.0026181447 0.010966409 0.0043606907
0003c0 1c 6e a3 3c 8d ad 7d 3b 35 5b f0 3b df 55 12 bc
       0.019949965 0.003870818 0.0073350915 -0.008931606
0003d0 36 65 18 3c b6 83 c4 3b 1d 6f 85 3b 76 30 33 bc
       0.009301474 0.0059971465 0.0040720836 -0.010936847
0003e0 d6 d1 23 bc d3 a9 d9 bb 86 a0 b4 3b 6e ce e1 bb
       -0.009998759 -0.006642559 0.0055123 -0.0068910634
0003f0 c0 c8 ce 3a 8a 9a 30 bb 4a 33 82 3c 94 33 c7 bb
       0.0015776381 -0.0026947581 0.015893597 -0.0060791466

attn_net.out.bias f4 [64]
000000 fc e4 22 be b8 85 69 3e 9b ac 95 bc a2 2d 9e 3e
       -0.15907663 0.22804916 -0.018270781 0.3089419
000010 09 eb 0b be 99 bb 96 3e aa 3d 63 be 09 91 bc 3e
       -0.13663878 0.2944 -0.22191492 0.36829403
000020 28 22 b2 3e aa 5f 7f 3e 5d 3d ae 3e 95 cb 41 bd
       0.34791684 0.24938837 0.3403119 -0.04731329
000030 03 aa f8 bd 6b 99 e0 3e be 46 ab 3e 9b fa a9 be
       -0.12141802 0.4386705 0.3345241 -0.3319901
000040 50 73 a4 3e 8a 6b b6 3e 7c b8 3e 3e b4 3a 7e bd
       0.32119226 0.3562892 0.18625063 -0.062067702
000050 bb e6 d1 bd 8a af b2 3e c8 75 ad 3e 0f 7b cf 3e
       -0.102490865 0.3489955 0.33878922 0.40523574
000060 2f dd ad 3e 53 32 37 3e c5 52 a4 3e 46 27 c2 3e
       0.33957812 0.17890291 0.32094398 0.37920588
000070 e3 cd c2 3e b8 50 63 3e 1d f3 06 bf 7d d0 dc be
       0.38047704 0.2219876 -0.5271471 -0.43127814
000080 1a 5f da 3b 4e de 55 bd c8 86 6b 3e b6 b0 36 3d
       0.006664169 -0.05221396 0.23000634 0.04460212
000090 3b c1 32 3e 41 6e 8f bc c7 60 1d bc 1b 1e ed 3e
       0.17456524 -0.017508628 -0.009605593 0.4631203
0000a0 ad 5e c3 3e 0a ff e5 3e 05 36 25 bd ba 45 90 3e
       0.3815817 0.44921142 -0.04033472 0.28178197
0000b0 c1 77 6f be 90 2f 58 3d 08 87 b1 3e 8b f3 69 3e
       -0.23385526 0.052779734 0.34673333 0.2284681
0000c0 27 81 f7 ba 01 08 9c 3e 30 7c 68 3d c8 37 74 3e
       -0.0018883095 0.30474856 0.05675906 0.23849404
0000d0 80 e6 d1 bb f8 f9 ae 3e f7 62 e4 3e 84 c3 8f be
       -0.0064056516 0.34175086 0.44606754 -0.28078854
0000e0 06 7c 09 3c 5d dc 2f 3c 37 a1 ab 3e 00 e0 a6 be
       0.008391386 0.010733691 0.33521435 -0.32592773
0000f0 9c 70 48 3d b2 b9 7c be 42 c2 8f bd f1 84 5c 3e
       0.048935518 -0.24680212 -0.070194736 0.21535088

linear.weight f4 [64, 11]
000000 a1 f3 94 bd c6 19 fe bd e4 af 94 3d b0 45 a4 3c
       -0.07273031 -0.1240726 0.07260111 0.02005276
000010 ec 09 1c 3d 54 4a 9c bc 3e 40 a8 bb 24 17 7a bd
       0.0380954 -0.019078411 -0.0051346114 -0.061057225
000020 c9 a9 69 be f9 0f eb bc fe 9f be 3a fc 32 39 be
       -0.22818674 -0.02869414 0.0014543531 -0.18085855
000030 31 14 09 be 60 77 98 be bb fc 59 bd ab e5 9a be
       -0.13386609 -0.29778576 -0.05321954 -0.30253348
000040 f0 98 18 3e fe f3 e5 3d 2f 4d 3b be 63 3f 0d 3b
       0.14902091 0.112281784 -0.18291162 0.0021552674
000050 19 9f 7c be 6b cf 92 3d 94 02 0d be 78 69 14 3d
       -0.24670066 0.07168468 -0.13770515 0.036233395
000060 5b 85 c8 bd 15 38 d7 3c e6 10 ac 3d 80 ef e0 3d
       -0.097910605 0.02627186 0.084016606 0.10983181
000070 96 f3 7f 3d 1f ea 70 bc ec 75 22 be 76 05 81 3c
       0.06248816 -0.014704256 -0.15865296 0.015749674
000080 78 f0 9a 3d c5 75 13 be d4 b4 d4 bd ce 7a 79 be
       0.07565397 -0.14400394 -0.10386053 -0.24363253
000090 ee d0 a9 3c 9e 7a 40 be a7 38 ae bd 50 8a 12 be
       0.020729508 -0.18796775 -0.08506899 -0.14310575
0000a0 5f 37 7b be bc 6d ee bd 57 03 31 be c2 c3 da 3d
       -0.24532841 -0.11642024 -0.1728643 0.10681869
0000b0 16 99 c8 bc e3 63 b0 bd 16 ee 58 bd 0d de 6b bc
       -0.02448706 -0.08612802 -0.05296143 -0.014396203
0000c0 09 f5 52 bd 54 6c c9 bc 3b 55 a8 bd 45 33 c0 bd
       -0.051503215 -0.024587788 -0.082193814 -0.09384779
0000d0 ec 53 2a be d9 63 06 3d 81 f9 9f 3a 7f 36 fd 3d
       -0.16633576 0.032810066 0.0012205095 0.1236391
0000e0 91 1b 78 bc bd 0b 37 3f 0e c4 bb 3e 43 94 1c 3f
       -0.015143291 0.71502286 0.36673015 0.6116373
0000f0 96 1b f1 3e 1a db bb 3d 29 a2 be 3e 85 a5 bd be
       0.4709136 0.0917265 0.37233093 -0.37040344
000100 b4 9a 47 3f 20 0d 27 3d ce 9d 31 3e c3 15 42 3d
       0.77970433 0.040784 0.17345354 0.047384035
000110 76 40 c7 3d 1c ef 86 3d b3 6e 1f be 44 42 35 3d
       0.09729092 0.06588575 -0.15569572 0.04425265
000120 1c 59 05 be f6 88 e7 3d 3f 2b 92 3d 4b 7e aa bc
       -0.13022274 0.1130542 0.07137155 -0.020812174
000130 d9 a6 97 3d a8 43 d2 3e 61 01 fd 3d 0d 4a 14 3f
       0.074048705 0.41067243 0.12353779 0.5792549
000140 37 6b 2e 3f 87 91 5f 3f 50 89 43 3f bf bd 52 3d
       0.68132347 0.8733143 0.763814 0.051450487
000150 c2 aa 35 3f 52 76 36 bf b6 c3 69 3f a2 13 96 bd
       0.7096368 -0.7127429 0.91314256 -0.073279634
000160 bb a3 d1 3c 66 04 26 bc 12 2b 70 3f 75 95 ff 3e
       0.025590768 -0.010132885 0.9381572 0.49918714
000170 a9 f0 0d 3f 30 9f 28 3f 31 0b da 3c 8e 39 05 3f
       0.55445343 0.658679 0.026616665 0.52040946
000180 c3 e3 43 bf 32 26 73 3f af 8c e7 bd a1 ed e1 3d
       -0.7651941 0.94980156 -0.1130613 0.11031652
000190 40 75 b7 3b d0 4f a1 be 72 0c b7 bc b9 3b 98 be
       0.005598694 -0.31506205 -0.022344802 -0.29733065
0001a0 bd 8d 69 be 0a 9c 53 3d ca 00 df 3b f2 39 6e 3e
       -0.22807975 0.051662482 0.006805514 0.23264292
0001b0 3b 2b b7 be 37 b6 11 bd e0 20 a0 3d d8 3a e2 3c
       -0.3577517 -0.035574164 0.078187704 0.02761595
0001c0 c0 3f 59 be c1 ba cf 3d fc 1a 8a be c1 bc de bd
       -0.21215725 0.10143042 -0.26973712 -0.10875846
0001d0 6f f9 19 3e 12 b4 24 3d 24 26 23 3e ce ae 51 be
       0.15036558 0.04021079 0.15932518 -0.20476839
0001e0 af d8 e4 bd e5 c4 bf be 82 59 36 be 47 08 52 bf
       -0.111741416 -0.37454906 -0.17807582 -0.8204388
0001f0 88 6c f6 be 6b 1a 65 bf ac 0c 40 bf b0 fe d1 bd
       -0.48129678 -0.89493436 -0.75019336 -0.10253656
000200 cd a8 d3 be 43 a7 15 3f b7 77 4b bf aa 39 d6 3d
       -0.41339722 0.58458346 -0.79479545 0.10460217
000210 4b 0d 80 3d a3 ac f8 3c 11 f5 b2 3d 7a 9c 27 3d
       0.062525354 0.030355757 0.08738149 0.040920712
000220 68 d6 88 bc ee 2b 7a 3d 4c 76 ef 3b 96 0d 16 3d
       -0.0167038 0.06107705 0.0073078033 0.03663405
000230 eb 4e 46 3d 01 1a 51 bc 4f 0e 11 3d 15 41 fe 3e
       0.048415106 -0.0127625475 0.035414036 0.4965903
000240 e4 50 4b 3e ad 93 67 3f f0 93 30 3f 31 e8 8a 3f
       0.19855076 0.9045971 0.68975735 1.0852109
000250 6a 8f 42 3f 03 5e 6d 3e 0c dc 2e 3f bf 29 6b bf
       0.7600008 0.23180394 0.68304515 -0.91860574
000260 d5 fe 76 3f 99 2b 61 3b 98 55 bf be c4 05 f8 3d
       0.9648259 0.0034358262 -0.3736999 0.12110475
000270 cb 8b 5c bf d7 2b 05 bf d6 ab 4f bf 86 0d 3c bf
       -0.8615081 -0.5202002 -0.81121576 -0.73458135
000280 c3 3b 9f 3d a9 59 5a bf ac d7 62 3f ad 41 80 bf
       0.077750705 -0.8529306 0.8861034 -1.0020043
000290 4a d3 c9 bc 0b e1 22 3e b1 e8 c4 3d e4 18 1d 3d
       -0.024636883 0.1590616 0.09614695 0.038353816
0002a0 48 da eb 3d 34 77 10 bd e5 c6 57 be bb ee 25 be
       0.11516243 -0.03526993 -0.21071966 -0.1620435
0002b0 9d 64 6c 3d 8c 7c 2f 3e d7 56 22 bd 78 08 b6 bc
       0.05771314 0.17137355 -0.0396336 -0.022220835
0002c0 d7 75 bd be 2a 10 6f be 54 84 4f bf cc 21 1e bf
       -0.37003967 -0.2334601 -0.8106129 -0.6177032
0002d0 77 f7 67 bf f4 ab 41 bf f9 f1 ac be 39 49 39 bf
       -0.90611976 -0.75653005 -0.3377836 -0.72377354
0002e0 57 02 31 3f 76 5d 34 bf 16 6d 0e 3d 9c dc 80 be
       0.69144195 -0.7045511 0.034772 -0.25168312
0002f0 7f 00 19 be 78 e3 6b bf 4d 0e 17 bf 17 2d 49 bf
       -0.14941595 -0.92143965 -0.59006196 -0.78584427
000300 fd 5c 53 bf a8 0d 7d 3d df 26 0b bf 8e 2c 39 3f
       -0.82563764 0.0617806 -0.5435619 0.7233361
000310 c4 1f 81 bf 7f 74 1b 3e 25 20 a9 3e 8a 5e 7e bc
       -1.0087819 0.15181158 0.33032337 -0.01552547
000320 84 cf 73 3f 4c e0 08 3f b4 23 5c 3f 22 bd 45 3f
       0.9523852 0.5346725 0.8599198 0.7724172
000330 cb 7e de bc 0f 06 21 3f cd a1 2f bf a0 fc 16 3f
       -0.027160069 0.6289987 -0.68606263 0.58979225
000340 28 63 a8 bd 38 a7 cf bc ca c0 dd bd 24 f1 46 bf
       -0.082220376 -0.02534829 -0.10827787 -0.777117
000350 b7 11 b6 be f8 9d 35 bf 38 43 11 bf 2e 42 01 be
       -0.3556039 -0.70944166 -0.5674319 -0.12622902
000360 b8 b3 8d be 32 fb 16 3f 96 ad 32 bf 9e 07 85 3d
       -0.27676177 0.58977044 -0.6979612 0.064955935
000370 fe 61 69 3d 7f f1 1c 3c e0 c2 19 3e 5a 95 89 3c
       0.05697822 0.0095790615 0.15015745 0.01679485
000380 e8 71 d2 3d 47 9e 02 3e 38 4c 87 3d 04 f0 be 3d
       0.10275632 0.1275569 0.066063344 0.09323123
000390 67 8b 04 be 97 c0 32 3e 2b b2 a7 bd 0e 76 9d 3e
       -0.12943803 0.1745628 -0.0818828 0.3075413
0003a0 a1 97 1a bd 39 5b 15 3f ca d2 05 3f cf ec 79 3f
       -0.03774226 0.5834232 0.52274764 0.97626966
0003b0 c8 34 2e 3f a1 5d 84 3a 4e b3 9d 3e 92 30 3e bf
       0.6804929 0.0010098704 0.3080086 -0.7429286
0003c0 80 8d 61 3f 17 23 e0 bd 3a 65 47 3d ba cc 8a bd
       0.88106537 -0.10944193 0.04868052 -0.0677733
0003d0 7f 0e 05 3e 7e b9 e9 3d 51 bf 03 3e 0f 47 f1 bd
       0.12993811 0.11412333 0.1286595 -0.117811315
0003e0 7d 8a 07 bd 15 9e ef 3c 1c 18 54 3d f2 16 4b bb
       -0.033091057 0.029250184 0.051780805 -0.0030989018
0003f0 67 88 9a bc 65 8f 14 3c 76 df b8 3d a9 7a 6d bf
       -0.01886387 0.009067391 0.09026997 -0.9276529
