outlier-interpretation-Xu/checkpoints/lHrJfSbv_checkpoint.pt (torch, 103259 bytes, 5 tensors)

attn_net.hidden.weight f4 [96, 192]
000000 25 89 c4 bc 72 80 0c 3c 59 47 63 3c 42 4a 83 bd
       -0.023991177 0.008575546 0.013871991 -0.06410648
000010 19 f2 94 3c 15 65 31 bd 14 41 74 bd 54 f8 f2 ba
       0.018181847 -0.04330929 -0.059632376 -0.0018537142
000020 13 3e 2c bd 96 db dd 3c 16 16 0c 3c 7e e1 41 bb
       -0.042051386 0.027082246 0.008550188 -0.0029583867
000030 06 66 32 3d 8a 23 81 bd 3e 22 42 bd 7b 54 d3 bb
       0.04355433 -0.06305607 -0.047395937 -0.00644928
000040 d1 81 3e bd 76 a3 0b 3d 87 ee 4a bc 10 da 45 bd
       -0.04651052 0.034091435 -0.012385971 -0.048303664
000050 c0 4b 30 3c 4c ee f7 bc 29 73 8e bd 8b f0 93 bd
       0.010760248 -0.030264996 -0.06955559 -0.07223614
000060 45 75 63 3c d6 ed 79 bd 94 5f cd bc 8d 14 4f bd
       0.01388294 -0.061017834 -0.02506999 -0.050556708
000070 ff 0b 02 3c ad a4 d3 bc 39 d4 34 bd 7c 1d 47 3b
       0.00793743 -0.02583536 -0.044147704 0.0030382564
000080 2a 0d e9 3a 12 d3 0f bd 1d 6c 87 bc 32 76 56 3d
       0.0017780412 -0.0351134 -0.016531045 0.052358814
000090 5c 16 52 3b f0 85 d3 3b 91 48 79 bc aa 35 ac 3b
       0.0032056784 0.0064551756 -0.015215055 0.0052554207
0000a0 c0 0d e4 bc e2 8e 22 bc 70 e0 01 3b 20 7d 07 3c
       -0.027838588 -0.009921761 0.0019817613 0.008269578
0000b0 10 ff 0c bd 10 84 66 3d 81 fe 8f bc 89 80 a6 bd
       -0.034422934 0.05627829 -0.017577412 -0.08129985
0000c0 da 12 7a 3d 61 d9 97 bd 57 69 86 3c ee 8a 1e bd
       0.061053135 -0.074145086 0.016407652 -0.038706712
0000d0 0f 86 8d bd fc 9a 90 bd ee 4c e0 3b e0 2d a6 39
       -0.06910335 -0.07060811 0.0068451082 0.00031696167
0000e0 21 32 89 bc 02 12 87 3d 74 d9 76 3c 27 a3 12 3d
       -0.016747536 0.065952316 0.015066493 0.035800125
0000f0 15 2e 9f 3d 5c a2 b9 3b 2d 70 2e 3d 0d ac bf 3c
       0.07772461 0.0056651067 0.042587448 0.02339747
000100 a4 e4 4d bc da 4f 99 3b fb 70 af bb bb 98 d4 bb
       -0.012566719 0.0046787085 -0.0053540445 -0.0064879335
000110 ca 0a d8 3a f4 ed 9d 3c fb 49 ba bc 53 ff a6 bc
       0.0016482708 0.019278504 -0.022740355 -0.02038542
000120 9a 1e 3e bd dc ec 80 3c 96 53 8e bd 9d dd f6 3c
       -0.046415903 0.015737943 -0.069495365 0.03013497
000130 e3 a2 63 3d ef 00 82 bc 03 e2 45 bd 44 94 49 3d
       0.055575263 -0.015869586 -0.048311245 0.049213663
000140 1f 75 f1 bc ee ab 85 3c 96 ed ee 3b 0e d0 30 bd
       -0.029474793 0.016317334 0.007291506 -0.043167166
000150 31 14 f6 bc 79 6e 89 bd b6 87 98 bd c7 73 29 bd
       -0.030038925 -0.06710524 -0.0744776 -0.04137018
000160 69 b4 92 bc 21 d7 99 bd d8 39 f7 3c 5f ad 0f bd
       -0.017908292 -0.07511736 0.03017895 -0.03507745
000170 0e 9d 49 bd 17 64 bd bc b3 10 11 bc c0 38 cf 39
       -0.049222045 -0.023119016 -0.008854079 0.000395244
000180 b0 a0 a6 bb aa 40 14 bd 72 d8 08 bc 0c 64 f8 bc
       -0.0050850734 -0.03619448 -0.008352386 -0.030321144
000190 8f 8b 0c bc 61 41 d7 3c 2e 08 96 3c 97 54 c3 3b
       -0.008578195 0.026276292 0.018314447 0.0059610116
0001a0 dc 09 d5 bc a3 fb 62 3d 03 a7 73 3b e1 f8 16 3c
       -0.026005678 0.05541576 0.0037178404 0.009214611
0001b0 02 69 68 3b 70 6e 91 3d 78 ac c9 b9 74 92 ef 3b
       0.003546298 0.071011424 -0.00038466207 0.0073111597
0001c0 2c 0c 5f 3d c2 7d 89 3c 48 87 56 bd bc f1 69 ba
       0.054454967 0.016783599 -0.052375108 -0.0008924266
0001d0 ef 58 3e bd c3 ea 23 bd c0 86 86 38 e9 bb 4a bc
       -0.046471532 -0.040018808 6.414717e-05 -0.012373903
0001e0 0b a5 5c 3c 16 e9 08 bc 80 36 2a 3d 4b e4 8b 3c
       0.013467084 -0.008356353 0.04155588 0.017076632
0001f0 a7 0b 4c bc ab 40 72 bd 9a 9e 95 3d 18 c4 fe bb
       -0.01245395 -0.059143703 0.073056415 -0.007774841
000200 4c 53 b8 3c 02 35 c1 3c d2 72 cf bc 6a eb 88 bc
       0.022500657 0.023584846 -0.025323305 -0.016713817
000210 ff ec 42 bd d4 28 80 3c 16 42 41 bd c9 95 97 3c
       -0.0475893 0.015644468 -0.047182165 0.01850404
000220 03 f5 71 bd b9 dd 89 3d 5f a1 10 bd 18 0b 40 3d
       -0.059071552 0.06731743 -0.035310145 0.04688558
000230 06 22 be bb 3b 98 f2 bc 97 59 55 bd e1 48 37 3d
       -0.0058023958 -0.029613605 -0.052087393 0.044747237
000240 8b 9d 55 bd be e1 59 3d d6 43 29 3c fb a2 a4 bc
       -0.052152198 0.0531938 0.010331115 -0.020097246
000250 97 ec 3c 3c fa d7 69 bd 47 5f a6 3c 41 f9 1b bd
       0.011531017 -0.057090737 0.020309104 -0.038079504
000260 1c 70 b6 3c 30 7e 69 b9 53 d1 1a bd 3c d3 99 3c
       0.022270255 -0.0002226762 -0.037797283 0.018777482
000270 1c ca 2f bd c4 68 2f 3d 68 c3 13 3c 7e 15 5c 3c
       -0.042917356 0.04282452 0.009018756 0.0134328585
000280 f5 a5 85 bd 12 da d1 bc 0d 94 92 3d 9c 5a 86 bc
       -0.065257944 -0.02561668 0.07157145 -0.016400628
000290 07 17 24 3c ad 8f 7a 3c f4 33 c1 3b cc ef 6b 3b
       0.010015256 0.015293044 0.005896086 0.0036001084
0002a0 6c 75 18 bc 9c a0 9b 3c b8 90 a7 3b 72 c2 ec 3a
       -0.009305339 0.018997483 0.0051136874 0.001806332
0002b0 74 92 e6 3b 96 1b 91 3d cf 78 4a bd d4 dc 8f bd
       0.0070365015 0.0708534 -0.04943162 -0.070245415
0002c0 11 54 3e 3d 66 03 85 bd 52 fd 34 bd af 3f f6 bb
       0.04646689 -0.06494789 -0.044186898 -0.007514916
0002d0 e4 60 02 bd 3f 04 b4 bc 17 d4 4d bd 79 67 0a bc
       -0.031830683 -0.021974681 -0.050251093 -0.008447521
0002e0 25 91 3c bd fe 41 18 bd 31 cb 66 bd 12 bf 96 3d
       -0.046036858 -0.03717231 -0.056346122 0.073606625
0002f0 e4 da a5 bc 0b 50 4f bd f9 d7 84 3d 77 1d 5f bc
       -0.020245977 -0.050613444 0.06486506 -0.013617865
000300 6c 30 32 3b 4c e3 f6 bb 53 b0 d4 3b ad 8d 2a bd
       0.0027189506 -0.00753442 0.006490746 -0.04163902
000310 f3 75 d9 bb b8 e2 e0 bc ea 8e 77 3c d8 2b f4 ba
       -0.006636375 -0.027451858 0.015109757 -0.0018628789
000320 8a 17 23 bc 55 89 25 bd 5a aa 7d bc 77 06 9e 3c
       -0.009954343 -0.040414173 -0.0154825095 0.019290192
000330 4e 08 b4 3c 71 49 ff bb 4b bd 5c bb 31 fc 07 3c
       0.021976616 -0.0077907373 -0.0033682163 0.008299873
000340 9f 88 9d bb a4 6a 59 3b b9 5c 08 bd 34 67 ef bc
       -0.0048075463 0.0033175135 -0.033291552 -0.029224016
000350 c6 92 9b bc 4f ad 42 bc 02 72 b6 bc 1d 4c 9e bc
       -0.018990885 -0.01188214 -0.02227116 -0.019323403
000360 36 48 b2 bc b4 9c c3 ba 40 f4 52 3b 20 66 0e 3d
       -0.021762948 -0.001492402 0.0032189041 0.034765363
000370 e4 94 f5 3c 49 1b 9f bb 85 b9 08 bd 79 0e ce 3b
       0.029978223 -0.0048555476 -0.03338005 0.0062883464
000380 d8 cc f7 ba d8 3c 8b bc 06 ad 66 bb 33 7a cf 3c
       -0.0018905653 -0.016996786 -0.0035198345 0.025326824
000390 38 fe 87 ba cb de 59 bc d1 77 cf 3c a2 2c 33 bd
       -0.0010375446 -0.013297747 0.025325688 -0.043743737
0003a0 ed 26 16 bd ed 94 9f 3b 31 41 a3 bb eb c1 45 bc
       -0.036658216 0.0048700483 -0.0049821367 -0.012070159
0003b0 48 22 39 bc 76 1b f4 3c ce 82 96 bc 5f d4 fa 3c
       -0.011299677 0.02979825 -0.01837292 0.030618845
0003c0 e5 c5 41 3c f1 cf 39 3d 7c 5f f5 bb 8d 7e b8 bc
       0.011826967 0.045364324 -0.0074881893 -0.022521282
0003d0 90 8f 82 bc b7 de 94 bc b0 61 c4 39 60 25 f1 bc
       -0.015937597 -0.018172605 0.00037456816 -0.029436767
0003e0 62 80 34 bc 03 66 fc 3b 2a 93 98 bb f6 6f 86 3b
       -0.011016937 0.0077025904 -0.004656215 0.0041027023
0003f0 36 5d 69 3c c0 3c 1e bd bd 13 ca bc c4 c3 10 3d
       0.014243415 -0.038632154 -0.024667615 0.035342947

attn_net.hidden.bias f4 [96]
000000 aa 3b 94 bb a6 2f 31 bc 70 64 67 be 35 74 b1 bd
       -0.004523714 -0.010814583 -0.22596908 -0.08664743
000010 50 e3 87 bc 84 4a 43 bc 69 32 2b be bb c7 80 bd
       -0.016587883 -0.011919621 -0.16718449 -0.062880956
000020 40 6f a9 38 73 ba ae bd 7c 2e ee bc 55 a9 2f bd
       8.07927e-05 -0.08531656 -0.0290749 -0.042886097
000030 8c ba 2c be 02 9d b6 ba 50 36 9f bd b9 8a ca 3c
       -0.16868037 -0.001393229 -0.07774031 0.024724351
000040 7c d8 28 3e 78 2c 07 bd e2 59 08 3d c1 53 56 3d
       0.16488832 -0.033001393 0.033288844 0.052325968
000050 cd 97 6c 3d d6 b9 12 bc 68 f2 2d be 23 dd 6f bd
       0.057761956 -0.00895544 -0.16987002 -0.0585605
000060 b8 1a c7 bd 18 68 7b be 69 34 56 3e 00 1c 0a bd
       -0.09721893 -0.24551427 0.2091843 -0.03371811
000070 44 29 cb bd 4c 79 68 bc 3a 54 69 bd 35 ba 86 bc
       -0.0991998 -0.014189076 -0.05696509 -0.016446212
000080 ae 91 24 3e 60 5c d3 3d eb eb 97 bd ae ba 63 bb
       0.16071197 0.103203535 -0.07418045 -0.003474872
000090 24 d3 f4 3c 3f cd 5e bd 18 7a 6e 3c 3e 18 b2 bd
       0.029885836 -0.054394957 0.014555477 -0.0869603
0000a0 2c 4e ca 3d 5a dd e8 3c 12 c8 48 be 58 91 79 bd
       0.09878191 0.028425861 -0.19607571 -0.060929626
0000b0 c3 dd 37 3d a5 45 01 bc 8c d4 56 be 82 5f 62 3e
       0.044889223 -0.00789014 -0.20979518 0.22106746
0000c0 cc 26 ff bb e7 5e 00 3e 7e 60 0c bc b4 48 1e be
       -0.0077866074 0.12536202 -0.008567927 -0.15457422
0000d0 1c 9d c6 3b 37 da 11 bd cc 51 84 3d d9 63 4e 3e
       0.0060612094 -0.035608497 0.06460914 0.20155276
0000e0 da 88 83 be 97 12 dc 3c f0 d4 11 bd 1c 15 28 bc
       -0.25690347 0.026864333 -0.035603464 -0.010258939
0000f0 c9 1e 5b 3d 6f 4a 6a 3e 29 62 90 ba d2 cd a7 bc
       0.053496156 0.22879957 -0.0011015582 -0.020483885
000100 90 8d 72 3c 90 e6 89 3e 99 73 1a be d3 96 fc 3c
       0.014804259 0.26933718 -0.1508316 0.030833637
000110 32 11 01 bd fe e5 b3 3c a4 e2 23 3d 39 1a 03 bd
       -0.03151054 0.021960255 0.040011063 -0.03200743
000120 35 b2 f3 bc c0 9a 35 3e d7 8c 13 bd a7 df c3 bd
       -0.029748062 0.17734814 -0.036022987 -0.09564143
000130 4d 06 0e be 98 80 ac 3c 7b f3 fd 3d 8f 9e 1d bd
       -0.13869591 0.021057412 0.12399956 -0.03848129
000140 c4 58 58 3c 50 8f 8d 3d 61 c5 3b 3e 8e 42 cd ba
       0.013204757 0.069121 0.18337013 -0.0015660094
000150 76 5b 7c 3e ec ab 9e bd 74 8d 7e 3e 1c 80 d4 bb
       0.24644265 -0.07747635 0.24858648 -0.0064849984
000160 d4 a9 c2 bc 47 db bc bc 42 1c 68 bd fb a5 06 be
       -0.023762621 -0.023053778 -0.056667574 -0.13149254
000170 ea 6a 1d 3e cd 0d ec 3c 48 3f 2a bb 99 23 6d bd
       0.15372816 0.028815174 -0.002597766 -0.057895277

attn_net.out.weight f4 [64, 96]
000000 de 72 44 bc cc d4 3e bb 1c 5c 46 3d bd 34 30 3b
       -0.011990277 -0.0029118536 0.048427686 0.0026886903
000010 f0 8e bb 39 9b 33 64 bc 58 19 7c 3b ea 64 6a bc
       0.00035773916 -0.013928319 0.0038467254 -0.014306286
000020 1c 8a 5c bb e7 2a 89 3b 0a ee 42 bb ba 45 08 3c
       -0.0033651656 0.0041860226 -0.0029743933 0.008317405
000030 a6 c6 1b bb 20 fa 8a 3b d6 91 ff bb a0 86 7b b9
       -0.0023769527 0.004241243 -0.0077993674 -0.00023987377
000040 02 b9 2c 3b c8 af f8 bc 18 85 4a 3d 2a 10 c3 bb
       0.002635539 -0.030357257 0.049443334 -0.0059528546
000050 d8 eb e4 3b 4c e8 91 bc 65 b2 be 3b 9e 75 5c 3d
       0.0069861226 -0.017810963 0.005819606 0.053823106
000060 8d 1b 64 3c 0c 85 65 3d 62 0f 18 3d a5 3f 8c bb
       0.013922584 0.056035087 0.037124045 -0.004280048
000070 4c 34 fa 3b 02 2e c9 bc 16 60 77 bb 6f 6c 88 3d
       0.007635629 -0.024558071 -0.003774648 0.06661307
000080 cc aa de 3c 0a ea 47 3c ca c8 18 bc 14 c7 67 bc
       0.027181052 0.012201795 -0.009325216 -0.014146585
000090 39 70 60 3d 86 11 4b 3d 0f 80 85 bc 4e e5 2b 3d
       0.054794524 0.04957726 -0.016296415 0.04196673
0000a0 6f 81 d7 bb 3c d0 48 bc 24 a9 ae 3c ac 46 1e 3d
       -0.006576709 -0.012256678 0.021320887 0.038641617
0000b0 e6 ba 23 3b f0 bd 6e ba 71 a9 61 3d f6 52 46 3b
       0.0024983226 -0.00091072824 0.055093233 0.003026185
0000c0 18 17 45 3d da 6b 77 bc 0c 6c 5d 3b ac f5 35 3d
       0.048117727 -0.015101397 0.0033786325 0.044423744
0000d0 b4 8d 06 3d 31 a6 b4 3b ca 96 06 3d 32 60 5e 3d
       0.032849982 0.0055129756 0.032858647 0.054290958
0000e0 a8 eb be 3c 3a a3 28 3b 4a b3 ab 3b 74 f6 d5 3a
       0.023305729 0.0025732056 0.005239879 0.0016324059
0000f0 46 1e be bc d2 ff 0e bd 14 c5 f9 3c 78 fb f9 b9
       -0.023207795 -0.034911938 0.030489482 -0.0004768034
000100 04 06 21 bb 0e 44 81 3d 58 d3 36 bc d0 aa 40 3d
       -0.0024570236 0.063118085 -0.011158787 0.0470379
000110 3e 99 79 bb 84 38 54 bc 5c 51 b7 bc 52 c4 38 3c
       -0.0038085724 -0.0129529275 -0.022377662 0.011277275
000120 17 a0 bc bb 60 cc 3c 3d 62 7a 82 bb 8a 73 83 3a
       -0.005756389 0.046093345 -0.0039818743 0.001002894
000130 54 de a5 3d 9c c9 0a bb 20 89 5f 39 40 4b 0c 3d
       0.08099046 -0.0021177297 0.0002131802 0.03425145
000140 c6 a1 e2 ba 54 b3 b7 3c 22 a9 81 ba b6 30 42 bc
       -0.0017290644 0.022424378 -0.0009892324 -0.011852434
000150 20 81 ed bc 26 5a 25 3b 73 7a 0b 3d aa c6 e0 3c
       -0.028992236 0.0025230735 0.034052324 0.02743848
000160 63 3e 5a 3c 72 31 6a 3b ee f0 f0 bc f6 2e 48 3d
       0.013320538 0.0035735038 -0.02941176 0.04887291
000170 12 0a 8b bb 70 7a 93 bb 0a 7b 1d bb a7 27 22 bc
       -0.004243144 -0.0045006797 -0.0024029636 -0.009897149
000180 60 31 b3 bc 78 20 33 3c 91 fe e3 bc 44 d3 33 bd
       -0.02187413 0.010933034 -0.027831348 -0.04390265
000190 21 47 0d bd ce 0f ec 3b e1 90 1b 3b c5 cd 9a 3b
       -0.034491662 0.0072040325 0.0023737478 0.0047242367
0001a0 0c 2b 0b ba 3c aa 8e 3c 8e 01 8b 3b cf a8 78 bd
       -0.00053088437 0.017415158 0.0042421287 -0.060707863
0001b0 8d d3 33 3c 8f 75 4b 3b ff f7 95 bc e8 af 47 ba
       0.010975731 0.0031045412 -0.01830673 -0.00076174596
0001c0 61 ef f9 bb d8 f5 91 ba ee 8f ae 3c d4 89 8a 3c
       -0.007627413 -0.0011135889 0.021308865 0.016911425
0001d0 23 e8 5d 3c 40 d4 e4 3c 37 86 01 bd 78 e5 7f bb
       0.013544115 0.02793324 -0.031622138 -0.0039046686
0001e0 70 cd 51 bb 69 b1 68 bc c9 2f 2a 3d 1a 82 0d bd
       -0.003201332 -0.014202454 0.041549478 -0.034547903
0001f0 54 13 7c 3c 2a 7c 97 3b a9 fc d9 bc 31 4d ac bc
       0.015385468 0.004622956 -0.026609736 -0.021032901
000200 b6 8b 0b 3d e8 11 28 3d 84 8c cc bc 10 f0 23 bc
       0.034068786 0.0410327 -0.024969347 -0.010005966
000210 2e 85 18 3d 0e f6 05 bd 59 7d a3 3c 8e 22 ef bc
       0.037236385 -0.03270536 0.019957231 -0.029191282
000220 ce 91 7d 3c f8 9b 08 3c cb 57 a4 3c ab 01 c0 3c
       0.015476657 0.008337967 0.020061394 0.023438295
000230 27 92 21 bc 63 09 21 3c 82 b9 dc 3b 36 8a 50 3d
       -0.009861506 0.009828898 0.0067359814 0.05091306
000240 de 1a 18 3d ff 19 57 3c 18 c8 f1 bc 17 cb 8d bb
       0.037134998 0.013128757 -0.029514357 -0.0043271887
000250 0d b9 e5 bb 3d e4 28 bb ea 25 83 bc 4b a2 60 3d
       -0.007010585 -0.0025770806 -0.01600929 0.054842275
000260 ff b5 2b 3c 2a 43 75 bc 0a 19 46 3b 31 23 25 3b
       0.010480403 -0.014969626 0.0030227327 0.0025197978
000270 2a 27 7c 3a 40 5f e5 3c c8 6d 0e bd 0e 87 c9 bb
       0.0009618873 0.02799952 -0.034772664 -0.006150133
000280 86 5f 1e bb d2 41 11 3d 36 ac 05 3c f1 74 f5 3c
       -0.0024165823 0.03546316 0.008158734 0.029962989
000290 de aa 27 bd 76 92 95 3a c6 27 fa 3c af 8f e9 bb
       -0.040934436 0.0011411447 0.030536544 -0.007127724
0002a0 9d e6 3c bc 7c e4 3d bc 28 85 80 bb 24 3e 8f bc
       -0.011529592 -0.011590119 -0.0039221235 -0.017485686
0002b0 03 b5 02 3b 96 d0 92 3b 01 ce 75 bd b2 f9 d2 bc
       0.0019944317 0.004480432 -0.060010914 -0.02575383
0002c0 bb f1 19 3b ca ef ca bb 37 c1 36 bd 04 58 bf 3b
       0.002349003 -0.006193136 -0.044617858 0.0058393497
0002d0 f1 cc 55 3c 78 97 3d bd 62 ed 91 3c ee fc 6a 3b
       0.01304935 -0.04628703 0.017813388 0.0035856324
0002e0 22 08 23 3d e4 d5 7d 3a 80 2a 6f 39 f6 f4 10 3d
       0.039802678 0.0009683056 0.00022808649 0.035389863
0002f0 34 aa 17 bd 14 5a 49 bc 24 ed 5e ba 2f a4 ab 3a
       -0.037027553 -0.012289543 -0.00085039646 0.0013095195
000300 98 45 18 bd 3e bd 50 bc 46 5d 81 3d 70 5d a1 bc
       -0.037175745 -0.012740431 0.063166186 -0.019697875
000310 c8 30 74 3c ab 3b 0e 3c 5e db ff 3b 73 ae ad 3c
       0.0149042085 0.008681218 0.007808133 0.021201348
000320 10 3d df b9 2b 65 a1 bc 32 c2 65 bc 3f 30 fc bc
       -0.0004257937 -0.019701561 -0.014023351 -0.030784724
000330 3a 7c 46 3d 14 58 ff 3b bf 3d 4c 3c 21 7a 09 bc
       0.048458315 0.007792482 0.012465893 -0.008390934
000340 95 65 63 bd 80 61 41 bc 5d ad 0c 3d 28 bd a6 3a
       -0.055516798 -0.011803031 0.03434502 0.0012721168
000350 e8 e1 71 bc 2e 98 03 bd e6 0c f3 bb 84 bf 67 bb
       -0.014763333 -0.03212755 -0.007417309 -0.0035361955
000360 c3 c4 51 3c 63 f5 10 3d 57 b2 e1 3c b4 f9 6b bd
       0.012803259 0.03539027 0.02755086 -0.057611182
000370 4a c4 33 bc be 24 5a bb 2e c9 14 bd 85 ca 1b bd
       -0.010972092 -0.003328606 -0.036324672 -0.038034935
000380 aa b5 4a 3d 5e d9 b3 bd b2 c1 7f bc e9 ff d2 bb
       0.049489655 -0.08781694 -0.015610145 -0.0064391983
000390 f4 af 1b bb ef a4 1e 3d 44 be ed bc 76 c1 51 3d
       -0.0023756 0.03873151 -0.02902139 0.05120989
0003a0 05 eb db bd ee 86 68 3c 98 9e b0 3d 62 4e 67 3c
       -0.10738186 0.014192326 0.08623999 0.014117809
0003b0 14 0c 06 bb e1 f7 97 3b 88 cb 5f 3d 05 6a 03 bc
       -0.0020453976 0.0046377038 0.054637462 -0.0080208825
0003c0 87 e1 6b 3c fb fd d2 bc 96 24 01 bc 19 1e 35 3d
       0.014397032 -0.025755873 -0.007882258 0.044218156
0003d0 2d fe b5 bc ce 0a 8c bc 59 fe e8 bb de 26 cc bc
       -0.022215927 -0.017094996 -0.0071103987 -0.024920877
0003e0 a0 f2 36 3d 30 d4 46 39 49 97 1b bc 70 32 fd 39
       0.04466498 0.00018961797 -0.009496518 0.000482935
0003f0 88 2c f0 3c a6 54 d8 bd 3d fb 01 bc 32 19 89 bb
       0.02931811 -0.105630204 -0.007933435 -0.0041839117

attn_net.out.bias f4 [64]
000000 b2 e7 2a be 9d 7d 38 3d 1c c9 7d be 7f 39 e4 bd
       -0.16689947 0.04504167 -0.24783748 -0.11143779
000010 49 56 a4 be 20 02 96 3d d4 a6 bf 3e 4b bd d4 bd
       -0.3209708 0.07324624 0.37431967 -0.10387667
000020 7a a8 a0 bd 51 27 97 3e 9d 7f 94 be 78 46 25 bd
       -0.07844634 0.29522184 -0.2900361 -0.040350407
000030 36 11 c7 3e e2 78 0e be e8 24 64 be 3f 24 f4 bd
       0.38880318 -0.139133 -0.22279704 -0.11920976
000040 3f 50 ab 3e 16 7e 88 be e9 4c 86 3e 95 a5 78 be
       0.3345966 -0.26658696 0.26230553 -0.24281915
000050 8e d7 b8 bd ee 7b a6 bd c7 e0 03 bf 1a f2 a0 3d
       -0.09025489 -0.081291065 -0.5151486 0.07858677
000060 17 92 7a bd e0 55 fd bd 9b a4 e6 3c 17 38 80 3e
       -0.06117448 -0.12369895 0.028154662 0.25042793
000070 6b 69 94 3c 13 c3 6c be 54 d5 14 3e 06 fb ab bd
       0.018116673 -0.2312129 0.14534503 -0.08397488
000080 a2 1d 92 be 19 64 b5 3d 24 79 be bd 28 2a 9d 3e
       -0.28538233 0.08856983 -0.093004495 0.30696225
000090 aa bd 11 3d 56 f8 60 bd 80 8e a5 bd c3 5a 02 be
       0.03558127 -0.05492433 -0.0808382 -0.12729935
0000a0 d4 4f 8b 3e 51 62 d2 bd ab 6b 06 bd b2 a0 4f be
       0.27209342 -0.102726586 -0.032817524 -0.20276144
0000b0 0b 23 5d be f0 cc 4e 3e f0 a1 88 3e 7b 3b f0 3e
       -0.21595399 0.20195365 0.26686049 0.4692038
0000c0 97 87 48 be bf 1e bd 3e 61 c7 a0 be 59 68 7e be
       -0.19582973 0.3693752 -0.31402114 -0.24844493
0000d0 53 41 2c 3e 3c 77 35 be db ec d4 3e 32 0d 25 be
       0.16821794 -0.17721266 0.41586956 -0.16118315
0000e0 f7 cb 83 be 4c 39 56 3e 2e 51 a1 be 6b 06 0e 3d
       -0.2574155 0.20920295 -0.31507248 0.03467409
0000f0 ba 15 a3 3e 40 9b 43 3e 2b be e6 3e f5 fd 45 3d
       0.31852514 0.19102192 0.45066962 0.048337895

linear.weight f4 [64, 10]
000000 2e 0c 4c 3d 5b 67 1c 3e 31 5e 0b 3e 92 82 c9 bd
       0.049816303 0.15273802 0.1361015 -0.098393574
000010 ab cc 9f bd 29 04 e7 3d 31 8a 5a bd f4 66 ed 3c
       -0.07802709 0.1128009 -0.053354446 0.028979756
000020 25 87 74 bc 28 84 29 bb 98 5f e4 bd 2e 6b 82 3b
       -0.014924799 -0.0025866125 -0.111510456 0.003980062
000030 69 58 3a bc 6a ca dc 3c 30 ef 87 bd 3c 34 1d 3d
       -0.011373618 0.026951987 -0.06637418 0.038379893
000040 d5 62 95 3e 8b 9d ab 3d e0 12 65 3c 28 11 88 bd
       0.29176965 0.08379658 0.013981551 -0.06643897
000050 46 6e d5 3b 5c 5b 49 3c a2 2c 8f bc 7f 15 08 3e
       0.0065133898 0.012289848 -0.017477337 0.1328945
000060 bb 51 66 bd 96 80 81 be fd ba b1 bd a3 f1 cd 3d
       -0.056230288 -0.25293416 -0.08678243 0.10055854
000070 70 b6 f5 bd 91 3d de 3c 19 0e a1 3d 86 6a 23 bc
       -0.11997688 0.027128967 0.07864017 -0.009974128
000080 c1 3b ed be e4 7f da bd d3 e0 d7 be e1 4f 07 3f
       -0.4633465 -0.106689245 -0.42163715 0.5285626
000090 58 f5 65 3f ca b1 bf 3e 18 73 16 be 0c 1b 44 be
       0.8982749 0.3744033 -0.14692342 -0.19150943
0000a0 e3 0f 69 bd 2b a0 f8 bd 23 e2 a4 3d e4 06 8a bc
       -0.056899916 -0.121399246 0.08050945 -0.016848989
0000b0 54 0e cf 3d e0 5e 61 bc 2c 77 c2 3e 8c e8 32 be
       0.10110155 -0.01375553 0.37981546 -0.17471522
0000c0 82 a1 af 3d 87 90 ca bd 48 fe ef 3c 80 7d e9 3d
       0.08575727 -0.09890848 0.029296055 0.1140089
0000d0 14 87 ba 3d 06 51 64 3d 1f b1 7b bc d2 2f 2e 3e
       0.09107795 0.055741332 -0.015362053 0.1701043
0000e0 bb 32 41 bc 4d 64 c4 3d 21 aa e1 3d e8 1d e9 3d
       -0.01179188 0.09589443 0.11018778 0.11382657
0000f0 e1 64 a6 3e 77 c9 9b 3e fc e3 90 bf 94 79 fd be
       0.3249884 0.30427143 -1.1319575 -0.4950682
000100 33 4c 2e bf 83 81 a0 3f d7 85 9e 3f 57 0f 4c 3f
       -0.6808502 1.2539524 1.2384595 0.79710907
000110 d8 9e 97 be 87 f8 d3 bd d6 b3 32 be 4b ad c7 bd
       -0.29613376 -0.10350137 -0.17451414 -0.0974985
000120 4e 84 95 bd ee 16 86 3d 56 bf fd 3d 2a 1c 68 bd
       -0.07300626 0.06547342 0.1239001 -0.056667484
000130 d9 96 ec 3d 09 aa 0a be 32 c2 1a bd a3 ba 90 3d
       0.115522094 -0.13541426 -0.037782855 0.07066848
000140 a5 ea 69 3c 47 54 92 3d f0 b9 fd bc 31 28 2a 3d
       0.014277135 0.07144981 -0.030972451 0.041542236
000150 16 7c 52 ba 54 6c 74 3c 16 df a5 bd b3 e1 27 3d
       -0.00080293545 0.014918406 -0.08099191 0.040986728
000160 3a 4c e0 bb 03 8a 04 3d 11 a5 b6 be 2a 0f 83 bd
       -0.0068450244 0.03235818 -0.3567281 -0.06399377
000170 e6 db 75 3f d4 c8 bf 3e c6 8e 68 3f fa 5e 87 bf
       0.96038663 0.37457907 0.90842855 -1.057586
000180 ba 54 86 bf ed f2 51 bf c3 46 08 3e 90 d9 92 3d
       -1.0494606 -0.820113 0.13308243 0.07170403
000190 25 a6 1a bd 01 70 54 3e a5 f9 16 be 2e b8 96 bd
       -0.037756104 0.20745851 -0.1474367 -0.07359348
0001a0 68 d6 17 3c 9f 46 66 be 9a b6 cb bd d7 97 77 3e
       0.009267427 -0.22487877 -0.09946938 0.24179016
0001b0 ea 4b 73 be 0b 0b e6 3d 58 df 13 bd 74 f0 59 3c
       -0.23759428 0.11232575 -0.03610167 0.013301957
0001c0 b8 81 f6 3b c3 ff dc ba a3 18 5b bd 26 ad 64 bd
       0.007522788 -0.0016860891 -0.053490292 -0.05582919
0001d0 87 2f d5 3c 06 35 33 bd 24 44 2b bc 21 23 a2 3b
       0.02602364 -0.04375174 -0.010453258 0.0049480353
0001e0 bc 90 c7 3e de 43 71 bc 24 b9 73 bf 33 10 14 bf
       0.3897761 -0.014725653 -0.9520438 -0.5783722
0001f0 47 34 9c bf 33 20 8e 3f 2f 9d 9e 3f d4 0e 6a 3f
       -1.2203454 1.1103576 1.2391719 0.91428876
000200 b0 be 98 be ef 24 74 be ff 95 06 3d 8f 80 64 3c
       -0.29832983 -0.23842214 0.03285789 0.013946666
000210 46 65 5c bd d8 f9 c5 3d 5a 79 aa bb 60 61 13 be
       -0.05380752 0.096667945 -0.0052024545 -0.14392614
000220 26 2e 7f bd d3 35 d9 bc a2 49 18 bd 0b fb 3a 3d
       -0.06229987 -0.026514923 -0.037179597 0.04564957
000230 cf 3b ec bb fc 24 14 bd 5c 2b 84 bd 0e 89 ca 3d
       -0.007209278 -0.036168084 -0.06453583 0.09889422
000240 60 14 8e 3d 49 8f ba bd b0 ab 33 3d 3c 58 1f bd
       0.0693748 -0.09109361 0.043864906 -0.038902506
000250 c2 7f 17 bd 3f 54 47 3e 3b 30 c2 bd fe a4 83 bd
       -0.036987074 0.19465731 -0.094818555 -0.06427954
000260 e4 b7 e1 bd a2 94 9c 3b 0c 13 b0 bc 88 3f b5 ba
       -0.110214025 0.0047784606 -0.021493457 -0.0013828138
000270 a1 71 51 bd 1c 81 ce bb e6 13 c4 3d 44 80 73 bd
       -0.051133756 -0.006302012 0.09574108 -0.059448496
000280 bc a7 c7 3e 0d 7a 15 3e d0 92 5d bf 39 cc 16 bf
       0.3899516 0.1459734 -0.86552143 -0.5890537
000290 c6 64 93 bf 67 01 a1 3f 7e 8d 98 3f fd 75 4f 3f
       -1.1515129 1.2578553 1.191818 0.8103941
0002a0 24 2b c8 be 7c a7 33 be d2 2d 1a 3e ee df 49 bd
       -0.39095414 -0.17544359 0.15056542 -0.04928582
0002b0 4f 2a 1e 3e 79 01 21 3e 80 e2 4c 3d 18 6e cb 3d
       0.15445827 0.15723218 0.050020695 0.09933108
0002c0 92 37 6b 3e af 83 35 be d0 10 71 3e 64 0a ce 3d
       0.22970417 -0.17726015 0.2354157 0.100605756
0002d0 e0 75 86 3e 8c 3b b5 3c 25 34 8f bf 18 de da be
       0.26261806 0.02212312 -1.1187788 -0.4274757
0002e0 c2 1a 9e bf c3 7e 91 3f cb 85 85 3f e3 8b 4c 3f
       -1.2351916 1.136681 1.0431455 0.7990095
0002f0 de 40 b7 be 06 b5 b0 bd 7d 92 21 bc b0 63 c5 bc
       -0.35791677 -0.086282775 -0.009861586 -0.024095386
000300 b5 b2 7a 3d b4 8c 81 3c 4e f5 93 3d 23 81 dc bd
       0.061205585 0.015814163 0.072245225 -0.107668184
000310 06 cc a8 3d cd e8 38 3d c7 03 34 bd 9c 97 87 bc
       0.082420394 0.04514389 -0.043948915 -0.016551785
000320 20 49 07 bc 72 0f f3 3d d9 7a 07 be 3a f5 15 3d
       -0.00825718 0.1186818 -0.13230456 0.03661082
000330 b7 13 72 bd c5 a9 ba 3d 51 5f 26 bd a2 bd 09 3d
       -0.059100833 0.09114412 -0.040618245 0.033628114
000340 90 a1 51 bb 58 92 0b 3e 5c 5f a1 ba 66 e4 22 3e
       -0.0031987168 0.13630044 -0.0012311745 0.1590744
000350 ab 07 7e 3d 6a d6 9c 3d 81 24 0c bd 5f 94 b8 bd
       0.06201903 0.07658084 -0.0342145 -0.090126745
000360 0f 22 9b 3b f1 57 4a 3c 98 c8 41 bd 47 a6 0d 3e
       0.0047342847 0.012350068 -0.04731044 0.13832961
000370 52 2e 9c be 80 f8 1e 3e 9c 1f 8e bd d7 d6 e8 3e
       -0.3050409 0.15524483 -0.06939623 0.4547641
000380 14 83 00 3f d1 c9 87 3e dc cd 8e bd 8b 81 f2 3e
       0.5020001 0.2652116 -0.06972858 0.47364458
000390 20 2a 3e 3d 6c 78 ae be 66 17 f4 bc 45 76 83 bd
       0.046426892 -0.3407625 -0.029796313 -0.064190425
0003a0 a5 87 ee bc dd 03 d9 3d eb fa ad 3c 59 bc a9 bd
       -0.029117415 0.1059644 0.021237811 -0.082878776
0003b0 e0 7f 2b 3e dd c9 38 3d 7e 8f cf 3c ae c6 10 3c
       0.16747999 0.045114387 0.025336977 0.008836431
0003c0 42 8f d6 bd 36 54 9a bc a5 39 04 3c 61 82 0b 3e
       -0.10476543 -0.018838983 0.008070384 0.13623954
0003d0 77 07 ea bc ab d2 44 3d e8 1c e0 bc 50 62 b2 3b
       -0.028568013 0.04805247 -0.027357534 0.0054438487
0003e0 9f 98 00 bd 0e 2f a6 bc 0f 6c 27 be b2 01 17 3d
       -0.03139555 -0.02028611 -0.16349815 0.03686685
0003f0 c8 e1 59 bd ea ea e5 bd e6 31 fc bc e4 05 31 3e
       -0.053193837 -0.11226447 -0.030785512 0.17287403
