outlier-interpretation-Xu/checkpoints/meFSYXKR_checkpoint.pt (torch, 103259 bytes, 5 tensors)

attn_net.hidden.weight f4 [96, 192]
00000000: 6c0b e3ba e854 973d fec0 a4ba a1c8 96bb
00000010: 9006 973c 98cd 793a f3dd 91bd af9f d7bc
00000020: 9178 083d 1d22 9abd 4dde 843d 70ca 60bc
00000030: 03c0 1cbc 4091 f438 2384 953c ee54 8fbd
00000040: c806 57bc 967e e1bb 028c 85bc c77a 58bc
00000050: deb9 47bc 2290 8a3d 74c3 a83d 0746 193d
00000060: 392d 213d c9dd 293c 746b 0b3d a2f3 9a3d
00000070: 2835 b8bc baed 143b c1b2 a1bc 80f9 253d
00000080: 58fd 1d3d 6695 ffbb 4080 d53c b3c8 dd3b
00000090: 7d1d 91bc b0bb a43c f68c 853c 3e05 f2bb
000000a0: a8c8 293c 9d69 0dbd 8ed8 81bb bb9e c7bb
000000b0: 2fd9 34bd 2de2 9a3d 02b7 973c 80e4 b538
000000c0: e9f2 07bd 18db 3abc 6e17 a2bd bcc0 cbba
000000d0: 6e3a f0bc dfe1 573c 6c40 833d 366c 4a3b
000000e0: 0d95 b23c da1b a0bb e21e 433b b078 953b
000000f0: de02 8d3d e202 7bbd ecbd c33c a94b 44bc
00000100: eb06 ca3c dc11 153c 5549 ce3b ca13 00bc
00000110: 6832 febb c40c a8bb ee86 fe3b b724 eb3b
00000120: 7ad1 17bd 0a6e 3ebc 2c22 053c bceb 52bb
00000130: cbed 563c ce3e 553c 59ec d73b 0f55 f33b
00000140: 2be2 85bc 1c10 9b3c ed23 02bd 0ee1 353c
00000150: 32e0 573b 0c1e e0bb d89c a53c 60ee 733c
00000160: d99f 47bb ee8f 9abb 8842 d23c 302b aa3c
00000170: d88b dc3b bf5f 663b aefe 2dbd 025e bebb
00000180: 76d6 07bd 7c71 803b 27f8 023b a3db aabb
00000190: ae70 cf3c f2a3 273d ba14 833c 4475 773b
000001a0: f5f9 343c 5879 1d3a 3e93 a63b 2df2 623b
000001b0: 2df1 883c 1521 303b 687e 9cba bf7c 8c3c
000001c0: be8e e53c 54f1 aaba 86c9 a3bc ca78 803b
000001d0: 0df8 83bd 5d87 43bc c671 ff3c 08de b83b
000001e0: c4d3 8cbb 57a1 41bb 3c87 87bc 245c 95bc
000001f0: 8592 a13d 42e4 a33b 2a3e 0dbd 001f c23b
00000200: 89a9 2a3b acb3 cd3c 4c6e 3e3b ac33 9eba
00000210: ace7 e83b 183e 37bc 64f8 d2bb 8a9e 35bb
00000220: 1bf0 8e3b a15f 65bc b2f6 d23b 5e94 783c
00000230: 0c16 b83c 84d3 2abb b4ba aabc 3983 573c
00000240: 40ae 24ba 2ac2 033c c135 ddbc bca0 ed3b
00000250: 4b4d 6b3c 49b0 6fbb 9cfe 47bb 3ef8 b0bc
00000260: 9631 923a f608 253b 9a80 6a3d 5ef6 e5ba
00000270: ea44 eabb f0ce 1b3a 8fd1 2b3b 584d c53a
00000280: f0ed 71bc 52e2 893b f3ab 513b 9b50 c7bb
00000290: 0ae2 ca3c ace9 11bb 5a80 6e3c 7898 d1bb
000002a0: e4de c63b 36e5 2e3b 8642 12bc b2c4 973c
000002b0: aaaa beba 96b2 e43b 037a 86bb f86a 0dbb
000002c0: c1ea 353b f4a2 883b 7e0a 643b fab7 563c
000002d0: ac79 06bc 14d5 03bc b269 cb3c 1881 7fba
000002e0: 5694 d03b 0ccb 6e3b f19a f2bb 9b91 f6bb
000002f0: c7d4 893c 33cf 5b3b 360b 0fbb 3ea7 4fbb
00000300: f6d8 a3bb e67c 02bc ccc2 57bb 0276 d8ba
00000310: 1fba 10bc 59ac 623b d0a4 41bc 1f81 8fbc
00000320: 1beb 353d 41f0 84bc 7c99 8d3c e234 543b
00000330: efab 253b 6114 d8bb f1dd 24bb 45fa 9dbc
00000340: 4912 1a3b 741f d0bb d854 43b9 12f8 393c
00000350: 9ef8 6f3c e49a 513c f293 f83c ca01 82bb
00000360: 46de bb3b 0e22 7dbc 919c 123d 8521 b33c
00000370: f32e 173c 3cbd 933b 7096 313c c0a3 813c
00000380: 9004 ef3b dfd0 8abb af56 273c 3892 133a
00000390: 5842 663b 51fd b9bb eda2 90bb d629 ffba
000003a0: 2243 eebb b1b1 19bb 8835 2eba 79e1 203c
000003b0: 8fb9 e0bb 997e 953c 6607 24bc 3458 e6bb
000003c0: 19bb 99bc 1eb7 12bc ab09 d7bc 6a1f fb3b
000003d0: 14d8 96bb 190c 9fbb 0072 a4b7 e0f9 e2b9
000003e0: 1296 dbbc 70c8 843b 0437 ff3a 73eb c8bb
000003f0: 42b1 b63b a8ff a0bc 3b6d 273d 9c0e 493b
-0.001732213 0.073892415 -0.0012569723 -0.0046015535 0.018435746 0.0009529232 -0.071224116 -0.02632126
0.033318106 -0.07526038 0.06487713 -0.01372014 -0.009567264 0.000116618816 0.018251484 -0.06998621
-0.013124175 -0.0068815453 -0.016302112 -0.013212866 -0.01219031 0.067657724 0.08240405 0.0374203
0.03934977 0.010367819 0.034038022 0.075660005 -0.022486284 0.0022724704 -0.019738557 0.040521145
0.038571686 -0.007799792 0.02606213 0.00676831 -0.017714256 0.020109028 0.016302567 -0.007385879
0.010362782 -0.03452455 -0.003962583 -0.00609192 -0.044152435 0.07562671 0.018519882 8.673314e-05
-0.03319064 -0.011404775 -0.07914625 -0.001554511 -0.029324736 0.01317641 0.06408772 0.0030887253
0.021799589 -0.0048861327 0.0029773046 0.004561506 0.068853125 -0.061282046 0.023894273 -0.011980929
0.024661502 0.009098496 0.006295363 -0.007817218 -0.0077574737 -0.005128475 0.0077675497 0.0071760076
-0.037065007 -0.011622915 0.008125823 -0.0032183966 0.013118218 0.013015462 0.006589454 0.0074259113
-0.016343197 0.01892858 -0.031772543 0.0111010205 0.0032940027 -0.0068395194 0.02021639 0.014888376
-0.0030460267 -0.004716865 0.02566649 0.020772547 0.006730538 0.0035152284 -0.04247921 -0.0058095464
-0.03316351 0.0039197784 0.0019984336 -0.005214171 0.025322285 0.040927835 0.016001094 0.0037759105
0.0110459225 0.00060071563 0.0050834706 0.0034629211 0.016716564 0.0026875187 -0.0011939527 0.017149327
0.028022166 -0.0013041892 -0.019993555 0.003920649 -0.06443796 -0.011934129 0.031182181 0.0056417026
-0.0042977054 -0.002954563 -0.016543977 -0.018232413 0.078892745 0.0050015757 -0.034483112 0.0059241056
0.0026040992 0.025110088 0.0029057441 -0.0012069843 0.0071076956 -0.011184238 -0.006438302 -0.0027712905
0.004362119 -0.0139998505 0.0064381 0.015172092 0.02247145 -0.0026066015 -0.02084098 0.0131538445
-0.0006282069 0.008041898 -0.02700317 0.007251827 0.01436169 -0.003657358 -0.003051675 -0.021602746
0.0011153694 0.0025182343 0.05725155 -0.0017544737 -0.0071493285 0.0005943617 0.0026217436 0.0015052957
-0.014766201 0.0042078877 0.003199336 -0.006082607 0.024765987 -0.0022264523 0.014556969 -0.0063963495
0.006069051 0.0026686913 -0.008926993 0.018526409 -0.0014546711 0.006979297 -0.0041039004 -0.002157865
0.0027758332 0.004169816 0.0034796293 0.013105387 -0.00820772 -0.008046407 0.024830673 -0.00097467145
0.0063653393 0.0036436943 -0.0074037244 -0.0075246817 0.016825093 0.0033540248 -0.002182675 -0.0031685377
-0.005000229 -0.007964348 -0.0032922504 -0.0016514661 -0.008833437 0.003458759 -0.0118190795 -0.017517624
0.044413667 -0.016227843 0.017285101 0.0032380153 0.0025279482 -0.006594226 -0.0025156701 -0.019284377
0.0023509434 -0.0063514058 -0.00018628256 0.0113506485 0.014646677 0.012793276 0.030343983 -0.0039674984
0.005733284 -0.015450014 0.035793845 0.02186657 0.009227502 0.0045086425 0.01083909 0.015825152
0.007294245 -0.004236325 0.010213538 0.0005629393 0.0035134759 -0.0056759496 -0.0044139535 -0.0019467424
-0.0072711864 -0.002345186 -0.000664555 0.009819382 -0.006858058 0.018248843 -0.01001153 -0.0070295576
-0.018765973 -0.008954791 -0.026249727 0.007663657 -0.0046033952 -0.004853737 -1.9603409e-05 -0.0004329225
-0.026804958 0.0040522143 0.0019471352 -0.0061315834 0.00557533 -0.019653156 0.040875655 0.0030678874

attn_net.hidden.bias f4 [96]
00000000: db02 95bd 82f7 b2bc 854f 6cbc 62ae 8ebe
00000010: 815d 27bc 39a7 4cbe 426e 3c3e 2079 5f3c
00000020: 4a43 a63b 87bd fbbd 304c c13e 33f0 0ebd
00000030: 6e92 c93d 466e dcbd c6ca 2e3e 0f11 44bd
00000040: 96c2 91be af97 e1bc 9700 88be cf84 4d3e
00000050: b45f c3bd 1779 743d 5f24 abbe 75f1 13bc
00000060: 1c68 aebe 8ed0 7cbd e3fa b33e 43f3 0fbc
00000070: 6cb9 8e3d 7667 8bbe 8071 933d 3a1a 813e
00000080: 2c12 0fbe 50fc 23be 8e73 9cbe aa27 843b
00000090: 111a 32bc 075e 833c 643b a8bd a7fb a0bc
000000a0: 954e aebc c846 c23e 6f56 b93e f6dd 853c
000000b0: e42f d3bc 0810 9ebe 704c a4bd cd2c 0f3e
000000c0: d088 b03c 8ca7 6cbe e650 1dbc e122 10bb
000000d0: 0a0b 843e df37 34be 06ec 87bb 409a 14be
000000e0: 0137 8d3c 7a5c 673d cb11 9b3d f212 21bb
000000f0: e26f 893e 20c3 a93e f4b6 54be a2bb 1e3c
00000100: ef77 cabe 69b2 63be 3b9d a33e 1a36 623b
00000110: 75b9 6dbe 59f7 57be b84a 143c 8fcc c23b
00000120: 2801 733d 92d4 9a3d aa85 1abe 8fc9 5fbc
00000130: a5a3 95be 1417 9e3d fa79 6dbd b675 9f3e
00000140: 846a 8fbd 2e11 723d c6e2 a8bd 3eb4 093d
00000150: 0217 f1bb f85a 77bc 30e1 b3bd 7133 5fbe
00000160: 5c53 a03c 58f2 123e fb08 abbe 4973 323e
00000170: ec6a 803d 529b e03d ead1 753e ddc4 87be
-0.07275935 -0.021846537 -0.014423256 -0.2786742 -0.010215164 -0.19985665 0.18401435 0.013639718
0.0050739395 -0.12292009 0.3775344 -0.03489704 0.09842382 -0.107632205 0.1706954 -0.04786783
-0.2846877 -0.027538149 -0.2656295 0.20070194 -0.09539738 0.059685793 -0.33426186 -0.009029736
-0.34063804 -0.06172233 0.3515235 -0.008786025 0.0696896 -0.27227372 0.07199383 0.25215322
-0.13971776 -0.16014218 -0.3055691 0.0040330486 -0.0108704725 0.016036047 -0.08214453 -0.019651247
-0.021277705 0.37944627 0.36198756 0.01634119 -0.025779672 -0.30871606 -0.08022392 0.13981934
0.021549612 -0.23110789 -0.009601807 -0.0021993446 0.25789672 -0.17599438 -0.0041480092 -0.14511967
0.017238142 0.056484677 0.07571753 -0.0024577943 0.26843172 0.3315668 -0.20772916 0.00968829
-0.39544627 -0.22236027 0.31955895 0.003451711 -0.23215277 -0.2109045 0.009051017 0.0059447954
0.059327275 0.07560076 -0.15090051 -0.013658895 -0.29226413 0.077192456 -0.057977654 0.31144494
-0.07002738 0.059098415 -0.082463786 0.033619158 -0.007357479 -0.015097372 -0.087831855 -0.21796967
0.019570999 0.1435026 -0.3340529 0.1742679 0.06270394 0.10967125 0.24005857 -0.26517382

attn_net.out.weight f4 [64, 96]
00000000: 640b 043a 5619 a93a 1e5f 713d f4c0 18bd
00000010: 2013 ac38 26f2 a33b 0cc7 893c e025 a639
00000020: eba7 d63c e0bf a83b e6ef 28bd 0f6e b73c
00000030: c636 6fbb a4f3 0dbd 6f0f 9abd a863 6fbb
00000040: 822d eebc 8ed1 a6bb 06ff a9bb 0dbd 773d
00000050: 9d77 b03c c070 98bc 7b52 51bd 5fd9 e1bb
00000060: 9b17 353b 6d0a 573d c952 f2bb 5e18 2bbb
00000070: 56cd 393b e71d a73b b03f 9938 669a 10bd
00000080: 04af dc3b 9048 9fbb 1adc c43c 8e2a ecbb
00000090: 6e5b 8e3c e114 53bb cbf5 ee3c 589b 04bb
000000a0: 06b1 be3c 5076 b1bc e7b9 58bd 7b66 acbc
000000b0: a5c6 30bc c88c 88ba ada3 913c 8d06 96bb
000000c0: c31a ba3b 2810 39bc b662 ae3b cd0e 52bd
000000d0: 7a6b 3f3d 595a 8bbd 9399 97bb 0488 8abb
000000e0: 83e6 0a3c 9eea ee3c ea2d 3bbc 96d8 6a3b
000000f0: 5411 0c3d 6f39 033d aed7 e2bb 0e7d 3d3d
00000100: 73c8 453c e807 5c3b 4cb9 91bd d545 f6bb
00000110: 8b7d f0bc 0888 49bb 779e 84bc ba7f a2bb
00000120: cea4 3bbc 6606 b13d 3edf 013c 55e4 9b3b
00000130: 59f5 34bd 10fc fab9 ce20 8dbb ec3d 133d
00000140: 0e45 91bc 7e1d 5b3d 80a6 9e3b f568 e93b
00000150: 38fb 2c3d 32c3 ab3b dd2d 273b 424e 6ebc
00000160: ba53 f8bb 224f 94bd 9839 e13a 9769 10bd
00000170: 1005 893c 34f9 3bbd b0b5 9bbd f0a0 34bd
00000180: c0c5 0dbc bce9 3fbd a8b8 ef3c 6e85 a9be
00000190: c5ac 34bd 0c0b 9e3c b2fe c33d e03e 08ba
000001a0: 04ad 723d 02e7 b2be f96d 5ebe 2c09 93bc
000001b0: e11a 86be 8bdc 80be 9e4f bfbe 2a19 ff3b
000001c0: cabe 9ebe d38c 96bc 4624 0ebd a540 0fbd
000001d0: 6522 bebd 0eba 833d 846b 8bbe 3068 62be
000001e0: e4bf 73be 9ac4 6cbe decc 05bc 6ce6 2cbc
000001f0: ecaa 78be b80f 9abe 35ae 20bc cbf2 babe
00000200: 80dc 75bd 7166 6d3d 1a9f 77be 3885 40bd
00000210: 787e 293c 426a 843b 2d79 bcbd e0f7 3d39
00000220: 5711 ffbc 0b7c 9cbe 7650 11be 0892 11bc
00000230: a0a1 653a 5e05 80be e4c3 983d 73dd c3be
00000240: 902d 2e3c e8ee 4dbe d0c3 1b3b afad 96be
00000250: a2f3 d93c 6501 abbe 4909 123d b94f 03be
00000260: 2a43 833c aa5e b33d e801 18bc b5f0 8ebc
00000270: 962f 6bbe fae9 ba3d a462 5bbe cbfb 4a3d
00000280: 5eb1 86be 95af 64be 9102 8abe 6eb2 2bbc
00000290: ece3 80be d619 283d f85c 27be f762 97bb
000002a0: 232b 063d d01e 30bc e6f7 9abd 7c9f 89be
000002b0: cfdd 9ebe 07d3 13bc da3e c3bc b20b cd3d
000002c0: 5dc4 4f3d f903 c43d a79e 853c a8c9 b83c
000002d0: 8c2c 603d ab9d 41bc 2aae 88bd 3f0d 0ebc
000002e0: d5b8 9abe af09 84bd f726 69bd 94c9 97be
000002f0: 4e52 62bd 3981 a0bd 383d 6ebe a5d5 8cbe
00000300: b28c 9cbb eed2 e3bb 34de 85ba 4beb 0c3d
00000310: 4cd2 1abc 9ac9 ecbb 548f 883b 50cb 8e3b
00000320: 1a00 523b c244 393c 8aea fb3a b2ce 35bc
00000330: d791 06bc 243c 15bc 1eb4 133d 4ebb e4bb
00000340: 203c 203d a179 e4bb fa9c 2dbb 2cee 28bc
00000350: 5aeb c6bb 8011 d0ba 68c8 293c fefc d03b
00000360: 9ff4 413b 1a8e 0a3d 6fec 4cbb c952 adbb
00000370: 6c61 a4bb 3732 ce3c e912 aabb 79ea 293d
00000380: 4719 073b b4bc 95bc 416b dabb 601f 913b
00000390: 301f d3bb f68e 953b 929f 943b cd87 dc3b
000003a0: b551 0e3c c090 1d3c 2ca0 d03c 6be8 f2bb
000003b0: 4d24 2e3b 5e8e 0b3d 303b 4b39 7c9a 7e3d
000003c0: 0627 cf3b 3c25 a5bb 9e2d be3b 5e51 983c
000003d0: 0b85 92ba 3a30 333d 58e0 163c 8bef c2bb
000003e0: 3850 e03b 4cfd 913a 1364 c53b 4af5 dfbb
000003f0: 1526 eeba 023a 87bc f801 dc3b 4018 2bbb
0.0005037098 0.0012901227 0.0589286 -0.03729339 8.2051614e-05 0.0050032316 0.016818546 0.00031690206
0.026203116 0.0051498264 -0.04124441 0.022391347 -0.0036501153 -0.034656182 -0.07522475 -0.0036527906
-0.029074434 -0.005090899 -0.005187872 0.060483027 0.021541411 -0.01860845 -0.05110405 -0.0068923677
0.0027632478 0.052500177 -0.0073951227 -0.0026107053 0.002835115 0.0051 7.307471e-05 -0.035303496
0.0067347307 -0.004860945 0.024030734 -0.0072072214 0.017377581 -0.003220849 0.029169938 -0.0020234194
0.02327777 -0.021662861 -0.052911665 -0.02104496 -0.010789548 -0.0010417933 0.017778242 -0.0045784176
0.00567946 -0.011295356 0.005321826 -0.051283646 0.046733357 -0.06804342 -0.004626462 -0.00422764
0.00847781 0.029164609 -0.011424521 0.0035834662 0.034196213 0.032037195 -0.0069226837 0.04626184
0.012071717 0.0033574048 -0.07115421 -0.007515649 -0.029356739 -0.0030751247 -0.016188843 -0.004959074
-0.011452867 0.086437985 0.00792676 0.004757444 -0.044179294 -0.00047871517 -0.004306889 0.035947725
-0.017733123 0.053494923 0.0048416257 0.0071231076 0.04223177 0.005241775 0.0025509514 -0.014545025
-0.0075783404 -0.07241656 0.0017183302 -0.03525695 0.016726047 -0.045891955 -0.076030135 -0.044098794
-0.008653104 -0.046853766 0.029262856 -0.3310961 -0.04411008 0.019292377 0.09570064 -0.00051973574
0.05924703 -0.3494187 -0.21721639 -0.01794871 -0.26192382 -0.2516826 -0.3736543 0.007784982
-0.31004936 -0.018377697 -0.03470256 -0.03497376 -0.09283904 0.064319715 -0.27230465 -0.22110057
-0.23803669 -0.23121873 -0.00816652 -0.010552984 -0.24283952 -0.30090117 -0.009807159 -0.3651336
-0.06002474 0.057959024 -0.24181786 -0.047002047 0.010345094 0.004040987 -0.092028 0.00018116785
-0.031136198 -0.30563387 -0.1419085 -0.008884914 0.0008759741 -0.25004095 0.07459238 -0.3825489
0.01063098 -0.20110667 0.0023767836 -0.29429385 0.026605431 -0.333995 0.035653386 -0.1282338
0.016023237 0.0875829 -0.009277798 -0.017448762 -0.22967371 0.09126659 -0.21424347 0.049556535
-0.26307195 -0.22332604 -0.26955083 -0.010479553 -0.2517389 0.041040264 -0.16344059 -0.004619952
0.032755982 -0.010749534 -0.07566814 -0.2687949 -0.31028602 -0.009022481 -0.02383368 0.10011996
0.050724376 0.0957107 0.016311003 0.022557095 0.054729983 -0.011817376 -0.06673844 -0.00867015
-0.3021914 -0.064471595 -0.056921925 -0.2964598 -0.055254273 -0.07837147 -0.2326554 -0.27506748
-0.0047775144 -0.006952635 -0.0010213316 0.03440408 -0.009449553 -0.007226181 0.0041674767 0.004357733
0.0032043518 0.011307897 0.0019219678 -0.011096643 -0.008213482 -0.009108577 0.036060445 -0.0069803363
0.03911984 -0.006972507 -0.002649127 -0.010310691 -0.0060705366 -0.0015874356 0.010362722 0.0063778153
0.0029595268 0.033826925 -0.0031268855 -0.00528941 -0.0050164964 0.025170429 -0.0051902425 0.041483376
0.0020614432 -0.018278457 -0.0066656177 0.004428789 -0.006442927 0.0045641614 0.004535624 0.006730056
0.008686473 0.009617031 0.025467 -0.0074129603 0.002657193 0.03407132 0.00019381638 0.062159047
0.0063217906 -0.005039839 0.005803778 0.018593486 -0.0011178566 0.043747164 0.009208761 -0.005948966
0.0068455003 0.001113811 0.0060238927 -0.0068346607 -0.0018169308 -0.016507152 0.006714102 -0.0026106983

attn_net.out.bias f4 [64]
00000000: 33de 9c3c 7192 a6be 94c7 f1bc 660a a9be
00000010: 8887 3bbe c1da 803e cd4a c63e 479f ab3e
00000020: ceef c43e 31ce ab3e 82d6 b23e fab9 f8be
00000030: 40c7 9fbe f63c 07be 68c0 37be 438a a23e
00000040: 4979 43be fdf1 dc3c 95ac b9be 84ef 7fbe
00000050: e12a 7fbd 3098 ad3e 33d3 bf3e c9b1 c8be
00000060: 0409 25bd 9396 693e f460 823e ac98 623e
00000070: 8aaa 34be d551 92be 20ce 953e b26f d23b
00000080: eb02 e43e 543b 83be f05c 943e 0a2e 7a3d
00000090: 4ccd e2be 9503 973e 0f28 82be 24f6 b53e
000000a0: 1ff5 a63e c8a1 94be f833 83be a1a0 09be
000000b0: 7715 623e 7b40 803e 4b80 c2be d526 78be
000000c0: a29b df3e 1752 8fbe 5c7e fd3e 569d 93be
000000d0: 1ec7 92be 6e0b 86be 6d16 b7be 240e 07be
000000e0: a015 353e 8f5b 9abc 8446 3abe f67b 57be
000000f0: 296e e9be 7e3f a33e 8362 b83e a39d d4be
0.019148922 -0.325336 -0.029514112 -0.33015746 -0.1831342 0.25166896 0.38728943 0.33519956
0.38464206 0.3355575 0.3492928 -0.4857939 -0.31206703 -0.13206849 -0.17944491 0.3174611
-0.19089235 0.026970858 -0.36264482 -0.24993712 -0.062296752 0.33905172 0.3746582 -0.3919814
-0.0402918 0.22811346 0.25464594 0.22128552 -0.1764318 -0.28578058 0.29258823 0.0064220065
0.44533476 -0.256312 0.28977156 0.061079063 -0.44297254 0.2949492 -0.25421187 0.35539353
0.32608888 -0.2902968 -0.25625587 -0.13440181 0.220785 0.25049195 -0.37988505 -0.24233563
0.43673426 -0.27992317 0.49510467 -0.28830975 -0.2866754 -0.26180595 -0.35759297 -0.13188988
0.1768403 -0.018842487 -0.18190962 -0.21043381 -0.45591858 0.31884378 0.36012658 -0.41526517

linear.weight f4 [64, 10]
00000000: a093 523e f656 2bbe c4ee 183e 0a65 4bbe
00000010: 8fcf 86bc 82df a6bc dc04 d1bd 018a 8abd
00000020: f555 e43d 3198 a03d c78d 6abe 9284 34bd
00000030: fb45 0dbc 67c4 dabe 84c5 2cbd de68 203d
00000040: 7fb2 a43b 288d 61bd 8403 8bbe fa30 02bd
00000050: 3c51 a23d c6f1 8d3d 1082 c43b 21dc 083d
00000060: 846e 973d e363 af3d 52a4 bf3d 5ff2 b2bc
00000070: 892c 74bd f4fb 32bc 68b5 d8bc b019 813e
00000080: e882 283d b8f4 ea3d 4c59 023e bbcd 91bc
00000090: ddcb 1bbd 2ec9 0c3e bbbe e93d 6bae c13d
000000a0: 2fc5 6abe b160 483c d5c2 abbd 0d07 183e
000000b0: f639 81bd d657 e83d ba68 a6bd a8ac 0fbc
000000c0: c4cf 79bd 56d0 d0bd babf 18bf 9cde 22bf
000000d0: 8aa3 263c de32 cfbb 9602 783e 0fc8 df3d
000000e0: affa 383e 0d2a debc ab23 a73c 487c 323e
000000f0: 7d69 943f 1948 913f a2a9 36bf bd53 3dbf
00000100: f271 41bf 0670 85bf 06a9 21bf 2e78 b43e
00000110: b71f c2be 18e6 4dbf 00b7 723f 2c93 a53f
00000120: cac7 1cbf db70 18bf 0bc6 35bf aa56 6abf
00000130: 533a 2abf b21d b03e 7373 9bbe 7b2f 4fbf
00000140: d1d9 98bf a36c 9ebf 2b19 333f 737d 393f
00000150: 1f2e 543f 9457 893f b50c 613f 56ff e6be
00000160: 0ef8 333e ac3f 503f eea5 9b3f 4326 983f
00000170: c1f4 3cbf 97e8 2ebf 1dd9 35bf 3425 78bf
00000180: 20ba 2abf dd1b 0b3f c2f6 52be ff27 4fbf
00000190: 44a1 74bf 19d8 99bf e730 ad3e 3508 ff3e
000001a0: 3fff 2b3f 557f 4d3f 379e 243f e916 aabe
000001b0: 35d0 5f3e 0d3f 283f 84d1 4cbe 5413 97bd
000001c0: 0d6e 9ebe 9497 433e f7f6 33be efa5 95be
000001d0: 823c 1dbc f464 663d 5cda 98be b09a 923d
000001e0: f2c6 e33d fd6a 59be 96be 0ebe 6a25 66bd
000001f0: de7e 9ebd 6ce1 66bd a0ff 383b 4814 dfbd
00000200: e191 e53d f675 23be 6375 e1bb 755d febc
00000210: 32af 9a3d bd93 03be aa87 b53d c4c5 873c
00000220: dc34 8abb 2449 10bd ce7d cdbd 0379 7cbd
00000230: a268 6c3d 672c 2a3d 1a18 fcbc c978 2bbc
00000240: 711a ef3d 22b9 e13d 7bff e43d 623e fcbd
00000250: ec6e 89bd 5eb8 08bd 64dd 8d3f b9f9 983f
00000260: 02c8 dabe e5b8 2cbf 9168 45bf 1b2b 59bf
00000270: 99f8 18bf c650 ec3e e6b6 68be 480d 44bf
00000280: e73a 833c 326e 653c f057 d33c 965d d63d
00000290: ad7a 81bd d814 10bc d9b9 8f3c e6e1 d73d
000002a0: 005d 633d 97d9 183d 744c 0bbc e382 79bc
000002b0: 64f7 dd3d 5b98 593d d488 003e 251d de3d
000002c0: cf85 963c c9a0 8c3c c290 383d 9b4e d5bd
000002d0: 010f aabd fb3c 613f 16eb b03e 44c1 173e
000002e0: 6c7f 113f 3baf 043f 7788 763e 1516 103d
000002f0: ed56 7d3e 4792 843e 03dd 1ebf f8b0 26bf
00000300: d94e 933e f263 113e 62cb 653e 864d ce3e
00000310: 9ca9 363d c4c5 27be c47e 2d3d 5411 6b3e
00000320: 6a3f 72bd ac1e e43a 9684 d0bd ff09 42bd
00000330: bef5 b1bd eb5a f1bd 4cbf 5dba 4710 9abd
00000340: 7428 24be 7eb0 d73d 01b5 84bf 3e46 a0bf
00000350: ff7b 0e3f bc4f 063f 2b30 393f 7627 423f
00000360: 3052 203f 4f34 4dbe 4220 973e 6168 3c3f
00000370: d68f 87bf b70e 8ebf 78fd 0c3f 7e93 af3e
00000380: ca40 253f aa88 603f 3432 0f3f 5ba1 eebe
00000390: f8fb a53e 69b4 063f c689 06be 3da1 1d3e
000003a0: 81bc c23d 9d0a abbd 88c4 8c3d ab6b a13c
000003b0: 5f7b 723d 3b86 78bd b40c 2ebc f0f4 f93d
000003c0: 40aa 003e ae0c b2bd 7116 cb3d 7702 eebb
000003d0: 8de1 ee3d 01df 843d 795d f7bd e803 c23d
000003e0: 3bd6 873d 4072 083e 17c6 803f bb48 8e3f
000003f0: da22 f7be 8810 13bf 3570 1bbf 9a5a 5fbf
0.20564127 -0.16732392 0.14934832 -0.19862762 -0.016456394 -0.020370249 -0.10206005 -0.067646034
0.111492075 0.07841528 -0.22905646 -0.04407174 -0.008622642 -0.42727968 -0.042180553 0.03916251
0.005026161 -0.055066258 -0.2715112 -0.03178499 0.079256505 0.0693088 0.00599695 0.033413056
0.07394126 0.08563974 0.093575135 -0.021844087 -0.059612785 -0.010924328 -0.026453689 0.2521491
0.041140467 0.11472458 0.12729377 -0.017798295 -0.038036216 0.13748619 0.11413332 0.09457096
-0.22926782 0.012230084 -0.08386771 0.1484644 -0.06309883 0.113448784 -0.08125444 -0.008769192
-0.060989156 -0.10195987 -0.5966755 -0.63620925 0.010170827 -0.0063232025 0.24219736 0.1092683
0.18064378 -0.02711966 0.02040275 0.17430222 1.1594692 1.1350127 -0.7135259 -0.739559
-0.7556449 -1.0424812 -0.63148534 0.3524794 -0.37914822 -0.8042922 0.94810486 1.2935538
-0.61242354 -0.59547204 -0.71005315 -0.9153849 -0.66495246 0.34397656 -0.30361518 -0.80931824
-1.1941472 -1.2376903 0.6996028 0.72457045 0.82882875 1.0729852 0.87910014 -0.4511668
0.17575094 0.81347156 1.2160013 1.1886677 -0.73810965 -0.68323654 -0.71034414 -0.9693177
-0.66690254 0.5433939 -0.20601943 -0.80920404 -0.9555857 -1.2019073 0.33826372 0.4981095
0.6718635 0.8027242 0.64303917 -0.33220604 0.21856768 0.6572121 -0.20001799 -0.073767334
-0.30943337 0.19100791 -0.17574678 -0.2922816 -0.009596946 0.05624862 -0.29854095 0.071584105
0.1112193 -0.21232219 -0.1393989 -0.056188025 -0.07739042 -0.056367323 0.0028228536 -0.1089254
0.11209465 -0.15962967 -0.0068804487 -0.031050423 0.07552947 -0.12849326 0.088637665 0.016573794
-0.004217727 -0.035226002 -0.10033761 -0.061638843 0.057716973 0.04154625 -0.030773211 -0.010465809
0.11674965 0.110216394 0.111815415 -0.12316586 -0.0671061 -0.03337895 1.1083188 1.1951209
-0.4273072 -0.67469627 -0.7711268 -0.848314 -0.5975433 0.46155375 -0.2272602 -0.76582766
0.016019298 0.014003323 0.025798768 0.10467069 -0.06322227 -0.008794032 0.017544674 0.105411336
0.055508614 0.037316885 -0.008502115 -0.01522896 0.10838202 0.053123813 0.12552196 0.10845403
0.018374352 0.017166512 0.045059927 -0.104153834 -0.08303643 0.87983674 0.34554356 0.14819819
0.56835055 0.5182988 0.24075495 0.03517731 0.24740191 0.2589285 -0.6205599 -0.6511378
0.28771093 0.14198282 0.22440866 0.4029352 0.044595346 -0.16384035 0.04235722 0.22955829
-0.059142508 0.001740416 -0.10181539 -0.047372814 -0.0868945 -0.11784919 -0.00084589864 -0.07522636
-0.16031057 0.1053171 -1.0367738 -1.2521436 0.55657953 0.52465415 0.72339123 0.7584146
0.6262541 -0.20039485 0.29516798 0.7359677 -1.059077 -1.1098241 0.5507426 0.34292215
0.64551985 0.8770853 0.5593598 -0.4660748 0.324188 0.52619034 -0.13138494 0.15393539
0.095086105 -0.08351634 0.06873423 0.01970466 0.059199687 -0.060674887 -0.010623146 0.12204921
0.12564945 -0.08693825 0.0991639 -0.0072634774 0.11664114 0.06487847 -0.12078375 0.09473401
0.06632658 0.13324833 1.0060452 1.1115946 -0.48268777 -0.574471 -0.6071809 -0.8724762
