outlier-interpretation-Xu/checkpoints/MVUJQDpR_checkpoint.pt (torch, 102747 bytes, 5 tensors)

attn_net.hidden.weight f4 [96, 192]
00000000: bdd1 3bbd c739 bd3c a4a8 3b3d 7b4b 303d
00000010: adef abbc 3289 003d 2b1d e4bc 48ff 0dbd
00000020: 6f15 0d3d ca8a 42bd dc36 3f3d 1fc1 b73c
00000030: 3f94 1c3d 4292 133d 5ded 0cbd 4ab0 043d
00000040: a0b1 cd3c a83c 00bd d19e 15bd 6e3a 083d
00000050: 09c1 19bd d6a7 27bc 9d1d 4abd 4667 1e3d
00000060: 0029 003d 44f3 5a3c fd46 dd3c b3a9 ef3c
00000070: 1a43 ffbc f3d1 28bd 4955 6e3c fad5 5b3c
00000080: 32cd 033d 92a4 183d 5415 4dbd 1a11 82bd
00000090: 4236 143d 85e0 1bbd e33e 4d3c 4a92 15bd
000000a0: 4b02 a53c 8ef7 0abc 1a03 2cbc 17c3 3b3d
000000b0: 50da 8a3c be13 373d b268 603c bca8 d4bc
000000c0: 2a4c 36bd 55cb 373d e36c eabc a0a3 203d
000000d0: 41f5 eabc f854 523c 714f 52bd 8edf 153d
000000e0: eaa9 c2bc 303f 6ebc bad1 ce3c cc02 bebc
000000f0: aa96 423d bf45 3aba 9a11 3dbd 8444 08bd
00000100: 8a3b f13c d31e 0ebd 003d 9e3c 707f e53c
00000110: 007a f63c a261 b13c 0a97 06bd 50b0 983b
00000120: 583a 023d c898 d53c 00e3 2f3d 7d67 043d
00000130: 69e7 c03c 3e4b 3f3d e82c 0dbb ce38 8a3c
00000140: 58f2 1bbd c637 1a3c 8f96 dc3c ce89 403c
00000150: 622e a63c d218 f6bc cf66 eb3c 3d12 02bd
00000160: 285a 05bd 4891 2abc 0e6e 0fbd 0eb1 12bd
00000170: c6e7 8f3c d56b 143d 4bb4 31bd 6059 e0ba
00000180: 122f 133d e077 663b 2522 f63c e4dc 79bc
00000190: 13c1 153d 0eeb 013d 2a03 10bd 2853 23bd
000001a0: 4c1c b13c 6035 ae3a 919b 423d 31e4 343d
000001b0: 4145 b73c 2014 333d 0c25 fdbc d0cc 10bb
000001c0: b66c 16bc 84a5 293d 70c1 283d 94ae 173d
000001d0: dcc8 13bd e112 c6bc bde5 20bd 20e7 06bd
000001e0: af2b d03c 77b5 d43c f27b 473c d2d8 67bc
000001f0: 5efb f7bc ac1a 6d3c cb62 e43c a017 fe3c
00000200: db8f ffbc 00ec 933c 9020 433d 3ffe 8c3c
00000210: 0a7b efbc 40e2 fd3b 00ec a9bb 1eeb 43bd
00000220: 1dd5 e43c 6837 28bc 3c86 a73c 106c 0e3d
00000230: 5a58 223d 0088 eebc dc92 1ebd 6aa5 2bbd
00000240: 6ee8 0fbd 009c dbba a557 15bd e8c9 f63c
00000250: e086 56bc 2ee5 fbbc 84f8 3fbd ba12 7fbc
00000260: 3c19 813c a542 883c 5bbb 033d e353 0fbd
00000270: 6a61 1bbd e323 993c 31e8 39bd f674 913c
00000280: 0c2d 2fbd a8db 1e3d 6eda 47bd e2fd e3bc
00000290: 905e 6d3c 8b24 a5bc f658 d3bc c81a 1bbc
000002a0: c4a3 b13c d63d 3b3d fa6c 413d 98a4 d1bc
000002b0: c81e 183d 401e 523a bfc9 18bd 4474 76bc
000002c0: 9642 57bc 2e17 4f3d 3436 8c3c e8d4 c53b
000002d0: 096a aabc f93d 19bd 8b3e 17bd e863 073d
000002e0: 937e 07bd f442 10bd 39da a83c c005 97ba
000002f0: 2a32 0e3d 99a6 99bb 2393 0dbd 7a7d ad3c
00000300: b2c1 fb3c 3473 593d fa4e eabc 4c56 e73c
00000310: 411d a33d f1fc a83d cf62 16bd ee1b cbbc
00000320: 6887 293d 3832 853b c9c3 89bd 4e8e 883d
00000330: 01d4 84bd 1e50 11bd dbb8 2a3d f062 0ebc
00000340: cc2b a53d 7478 59bd 01e9 6b3d 08f2 b73d
00000350: 7218 b93c 6743 a13d 904a 7a3b 14f4 20bd
00000360: 9e9a b73d 9b50 243d 0f77 b2bd f0a4 b3bd
00000370: b857 74bd abe7 c73d b853 893c e272 5b3d
00000380: b688 7cbd 84e7 6bbd 8290 91bd 1861 9e3d
00000390: 5849 a43c c49a 203c 7074 a93d 54ac 693d
000003a0: 416f 193e 12cf 82bd 419a 65bd 325f 2b3d
000003b0: 276d b93d 4d86 313d dda4 01bd 84c5 0c3d
000003c0: 1f8b 9abd 747d b1bc 4356 a7bd a454 a7bd
000003d0: ecf6 bbbc 2ef6 c13d 46f9 9fbd d33a 3d3d
000003e0: f3ee 30bd bb0c 453d 08b9 44bd 1326 823c
000003f0: 7070 bebc da8e ae3d 0416 1c3e 2048 6cbc
-0.04585432 0.02309884 0.045815125 0.043040734 -0.02098831 0.03138084 -0.02784594 -0.034667283
0.03444427 -0.04749564 0.046683177 0.022430955 0.038227316 0.036028154 -0.034406055 0.032394685
0.025109112 -0.031307846 -0.036528412 0.033258848 -0.03753761 -0.010232886 -0.049344648 0.038672708
0.0312891 0.013363663 0.027011389 0.029255724 -0.031159926 -0.04121585 0.014546701 0.013417715
0.03217811 0.03726632 -0.05006917 -0.06350918 0.036184557 -0.038055915 0.0125272 -0.036516465
0.020142695 -0.008481873 -0.010498786 0.04584035 0.016949803 0.044696562 0.013696836 -0.025959365
-0.04450623 0.044871647 -0.028616374 0.039218545 -0.0286814 0.012837641 -0.051345292 0.03659015
-0.023762662 -0.014541432 0.02524649 -0.023194693 0.047506966 -0.000710573 -0.046159364 -0.033268467
0.029447336 -0.034697365 0.019316196 0.028014868 0.030087471 0.021653 -0.032858886 0.00465969
0.031793922 0.026073828 0.042941093 0.032325257 0.023547845 0.046702616 -0.0021541659 0.01687279
-0.038072914 0.0094127115 0.02692726 0.011751605 0.020285789 -0.030041132 0.028735546 -0.031755675
-0.032556683 -0.010410614 -0.035017066 -0.035813384 0.017566573 0.03623565 -0.04338483 -0.001711648
0.03593356 0.0035166666 0.030045578 -0.015250418 0.036561083 0.031718306 -0.035159267 -0.039874226
0.021619938 0.0013291053 0.04751164 0.044162933 0.02237189 0.043720365 -0.030901454 -0.0022094734
-0.009181192 0.041417614 0.0412001 0.037031725 -0.036080226 -0.024178924 -0.039281595 -0.03293526
0.025411455 0.025965435 0.012175547 -0.014150815 -0.030271228 0.014471691 0.02787914 0.031017125
-0.031196525 0.01805687 0.047638476 0.017211078 -0.029233474 0.0077479184 -0.005185604 -0.047831647
0.027933652 -0.010267116 0.02044975 0.034771025 0.03963504 -0.029117584 -0.038714275 -0.041905798
-0.03513377 -0.0016754866 -0.036460537 0.030125573 -0.01309368 -0.03074893 -0.046867862 -0.01556843
0.015759103 0.016633341 0.032161098 -0.03499211 -0.0379347 0.01869387 -0.04538745 0.017755967
-0.04276757 0.0387837 -0.048792295 -0.027831022 0.0144878775 -0.020159027 -0.025799256 -0.009466834
0.021684535 0.04571327 0.04722307 -0.02559118 0.03713873 0.0008015372 -0.037301775 -0.015042368
-0.013138434 0.050559215 0.01711569 0.0060373433 -0.020802515 -0.037412617 -0.03692488 0.033054262
-0.033079695 -0.0352201 0.02061187 -0.0011522099 0.03471581 -0.0046890494 -0.03456415 0.021177996
0.03073201 0.053088382 -0.028602112 0.028239392 0.07964564 0.0825137 -0.036715325 -0.024793591
0.0413889 0.0040648244 -0.06726796 0.066677675 -0.06485749 -0.035476796 0.0416802 -0.008690581
0.08064994 -0.05309339 0.057595257 0.08981711 0.022594664 0.07874184 0.0038191415 -0.03929527
0.08965038 0.040115934 -0.08714115 -0.08771694 -0.059653968 0.09760984 0.016763553 0.053576358
-0.061653815 -0.057593837 -0.07107641 0.07733363 0.020054504 0.009802524 0.08274162 0.05704911
0.14983846 -0.06387152 -0.05605531 0.041838832 0.09054022 0.04334097 -0.031651367 0.034368053
-0.075460665 -0.021666266 -0.0817075 -0.08170441 -0.02294489 0.09470783 -0.07811217 0.046198677
-0.04319663 0.048107844 -0.048028022 0.015887296 -0.023246974 0.085233405 0.15242773 -0.014421493

attn_net.hidden.bias f4 [96]
00000000: 840c d93c f6ce 36be 2827 023e 97be 8bbe
00000010: 8b64 b33c c21c 1fbd 15f9 20bd 8c8a 3d3c
00000020: 1827 88bd 51e2 883c e2cd e83d dc28 c6bd
00000030: 5bd6 c9bd 2550 343d 196a a53e 0ca8 273d
00000040: de39 c83c cec7 c9bb 2919 3b3d 9a90 edbc
00000050: d42b 3bbe 8e17 063d 587e ca3c 3fa6 44be
00000060: 1058 b4bb 4a00 983e a787 883e 52a3 e83d
00000070: 48dc c4bd 1e91 a13e 46df 3bbd bb2e 36be
00000080: 5d2a 9a3d 0c3f 223e 3790 c1bd 294e c7bc
00000090: 8d32 bdbc b132 66bd 8558 9bbe e999 873e
000000a0: 93a5 2cbe 9202 b4be d8d0 9b3a ccf0 df3d
000000b0: e0f3 dc3a 80d8 9b3c 1d20 693e eebe 8abe
000000c0: 2e29 8e3c b8a8 6bbe 46f2 e6bc b646 f53c
000000d0: 60b5 9ebe fe2f 8cbd 9829 b8bd 0efa af3d
000000e0: 0412 cfbc 6cbe 94bd c036 3e3e ce84 663e
000000f0: 3f1e 69be d6d4 8cbe 915a 773d 6f51 49bd
00000100: 16c1 81be ce75 babc c7a2 873e 3eac 43bd
00000110: 3815 28bd 8d89 c93e e96c 353e 776c f4bd
00000120: a753 1d3c b181 b3be b7a0 0dbd 9a25 8e3e
00000130: 7de3 d2bc 9e0b be3e 8fc1 84be 1d0d 9b3e
00000140: f7c1 a53e 88b3 14bb e4d5 5fbd b0f0 163c
00000150: 16aa 9c3e f916 253e 8cda d33c 3484 e03c
00000160: e86b 183b 58e3 bdbb cdce 35bd cc9f 27be
00000170: a864 9cbd 84e5 2dbd 0dd6 a93e c2d1 1a3d
0.026495226 -0.17852387 0.1271025 -0.27293846 0.021898529 -0.038845785 -0.039300043 0.011568677
-0.066480815 0.016709479 0.11367394 -0.09675762 -0.09855338 0.044021744 0.3230751 0.040931746
0.024441656 -0.006157852 0.04567829 -0.028999615 -0.18278438 0.032737307 0.024718449 -0.19204043
-0.005503662 0.2968772 0.26665995 0.11359276 -0.09612328 0.31556028 -0.045867227 -0.17791264
0.075276114 0.15844363 -0.09451335 -0.024329262 -0.023095394 -0.056200687 -0.30340973 0.26484612
-0.16860037 -0.3515821 0.0011887802 0.109346 0.0016857348 0.019024134 0.22766156 -0.27098793
0.01735362 -0.2301358 -0.028191697 0.029940944 -0.30997753 -0.06845091 -0.089923084 0.08592616
-0.025277145 -0.072628826 0.18575573 0.22511598 -0.22765444 -0.2750613 0.060389105 -0.049149927
-0.25342625 -0.022761252 0.26491377 -0.047771685 -0.04103586 0.39362755 0.17717327 -0.119347505
0.009602464 -0.35059884 -0.034577098 0.27763063 -0.02574324 0.37118238 -0.25928923 0.30283442
0.32374546 -0.0022690017 -0.05464734 0.009212658 0.30598515 0.16122045 0.025861047 0.02740679
0.0023257677 -0.0057949238 -0.044386674 -0.16369551 -0.07636386 -0.04245521 0.3317112 0.037797697

attn_net.out.weight f4 [64, 96]
00000000: ecce 1bbd 7e5b 1d3d 6fb5 913d 5ccf 033d
00000010: 75cf 0b3d 5d1c e63c b9bb 0dbd 61e3 8bbc
00000020: 9f84 043d 8c5a 2a3d 549d cfbb bf0c 313d
00000030: 5db6 e4bc a2b3 35bc 1bfa 9e3d 68f6 b23d
00000040: 7328 97bd ea69 0a3d 5ee5 4a3c 23fe 403d
00000050: 1599 da3d 93a5 153d b7eb d53d 80ec f93a
00000060: 7ee2 033d 5d00 a5bd 2035 cd3c 320e 253d
00000070: 15d3 89bc 3e3a df3c 3f30 0fbd 31b2 063d
00000080: 2883 1b3d 80d1 b2ba abb8 5fbd 98da debb
00000090: 0095 363b 7868 cf3b d135 af3d 2b9b a23d
000000a0: 50a7 663d dcf2 a73d b61c 14bd 545a 113d
000000b0: 2bec 12bd c767 00bd 268c 193d 3ac5 433d
000000c0: 0aa1 4e3d 405f 3d3c a697 59bd 6e01 223d
000000d0: 9e20 863c 6cee 0fbd b689 1d3d 3492 543c
000000e0: f0c7 2abb 857f 1f3d 8128 843d 6bf1 b53c
000000f0: 788a 94bc d258 603c 6cad a2bb 904b 023b
00000100: bcae 7ebd 631b fabc f84f c03c 76b3 2e3d
00000110: 9bb1 913c bce3 b33b 5360 ae3d 2c80 4f3d
00000120: a890 b6bc 1850 babc 4495 cb3b 5d83 2c3d
00000130: 3b5c 9bbc 104d fe3c f872 513d 8035 7b3c
00000140: 3c1b 19bc b82c 213d 9e5e 113d dcbb 15bd
00000150: c848 2ebc ed9c 853c e402 203d d62c 1dbd
00000160: eceb 04bd 6144 18bd ecaf 19bd 5f7d 703d
00000170: 4c6e 233d 5e24 09bd 4856 27bc 26d0 13bd
00000180: a335 b9bc 0f98 dbbc 9255 07bd 9482 48bc
00000190: 8968 333d 848d 1fbd 875b a63c 5117 4c3d
000001a0: ee30 32bd 2b11 f33c e4f3 08bd 8fcc 173d
000001b0: 677b 153d 14e7 b13b 4c19 debd dcdb 0abe
000001c0: df1b 483d 267e 1e3d 600d 673d ce87 0abd
000001d0: 7e14 cf3c 84b9 2cbd 5a71 eabc 6eac bc3d
000001e0: 563f 19bd e2b1 3e3d 1f35 673d be0d a2bb
000001f0: de1c 1ebd 0c8b 5bbc 8333 e5bc b8ab 0e3d
00000200: 0eeb d5bd 72bd 153d 2a0c 193d 0837 33bc
00000210: 3046 b43a 4add e13b f502 a4bd 6f62 5abd
00000220: 8880 24be 8e20 0bbe 1006 0e3b e2bd dcbc
00000230: 3149 12bd d09b fb3a 52d8 b43d 26c7 8bbd
00000240: be0d c33d 8891 d63b 48a2 453c 86b3 0b3d
00000250: f0fb 82bc 896e 183d c841 c3bb 9567 e83c
00000260: df5f 343d 089a b9bc 82bb dc3d 465d 6bbd
00000270: 566e ebbd f8d3 773d 032a 493d 5adc 2b3d
00000280: c824 08be 6817 0bbd 0286 b43d 84ed d13c
00000290: 2aba 18bd e570 2abd 5798 e9bd 81b2 e73c
000002a0: 3a2e 4abc 9287 cdbd 00e7 643b b1c4 1dbe
000002b0: 804b 473b 1ee7 a93d 1083 933d 17ac 993d
000002c0: f528 e8bc a512 1b3d 2449 223d f957 1f3d
000002d0: a55b d83d c516 2b3d 7715 ba3c 7af8 1bbd
000002e0: fcb6 18bd da71 bdbc 4690 4abd 7878 eabc
000002f0: 7858 1ebd aba4 373d 234c 00be 428a 12bd
00000300: 7fc7 6cbd ac8a 75bd 231e 503e 888e 75bd
00000310: 8bd2 2abd c037 d3bb 9259 013d e926 813c
00000320: cedc b03c 79b7 83bd c6bb ef3d 5c62 03bd
00000330: f25c 0e3d 7171 fd3c 9464 1e3f 5131 d0bd
00000340: 1a86 2b3e 0cdb 333c f188 4e3d 347f 59bc
00000350: f630 b73c 8bf3 213d 2218 e13d 20f6 01bc
00000360: 18d3 2a3a 10eb e13e 9b6f 0f3f d2b0 463e
00000370: 2191 18bd 9d3e 123f a51c a03c 5571 cf3c
00000380: 331b d83d 2c99 4e3e 6c7c 393c 08ca f23b
00000390: 0218 1c3d 4e9f 1e3d 93f5 adbd 3d80 0d3f
000003a0: a1c0 c6bd bbb7 1abd 9a75 15bd 10c1 8e3d
000003b0: 961c a4bc be75 0c3d f4b4 d73e 6e74 c2bd
000003c0: 2ca9 143c bc4c e0bc 65d0 f03d f317 19bd
000003d0: 792c bbbc a6aa ab3d 2199 203d 942c 713e
000003e0: 660a 08bd b30c e23c d6b2 933e e3b4 f13e
000003f0: dc8d e4bc 59d6 79bd def8 233d aebf 263d
-0.038039133 0.038417332 0.07114684 0.032180175 0.034133393 0.028089697 -0.034602854 -0.017076196
0.03235304 0.04159026 -0.0063358936 0.043225046 -0.027918989 -0.011090191 0.077625476 0.087384045
-0.07380762 0.033792414 0.012383787 0.047117364 0.10673729 0.036534857 0.1044535 0.0019067675
0.03219842 -0.0805671 0.025049746 0.04029674 -0.016824285 0.027249452 -0.03495812 0.03288478
0.037966877 -0.0013642758 -0.054619472 -0.0068009607 0.0027859807 0.0063295923 0.085551865 0.07939752
0.056311905 0.082006186 -0.036160193 0.035486534 -0.03586976 -0.03134897 0.03748717 0.04779551
0.050446548 0.011558354 -0.05312314 0.039552145 0.016372975 -0.035139486 0.03846141 0.012974311
-0.0026059113 0.03893997 0.06453038 0.022209844 -0.018132433 0.013693051 -0.004964521 0.0019881465
-0.06217836 -0.030530637 0.023475632 0.042651616 0.017784884 0.0054897945 0.08514466 0.050659344
-0.022285774 -0.02274327 0.006212862 0.042117465 -0.018964877 0.031042606 0.051135033 0.01533258
-0.009344872 0.039349288 0.035490625 -0.03655611 -0.01063747 0.01631018 0.039065257 -0.038372837
-0.032451555 -0.037174586 -0.037521288 0.058713313 0.03990011 -0.033481948 -0.010213442 -0.036087178
-0.022608584 -0.026805906 -0.03304059 -0.0122381635 0.043800864 -0.03895332 0.020307316 0.049826924
-0.043503694 0.029671272 -0.033435717 0.037060317 0.03649464 0.005429158 -0.10844669 -0.13560432
0.048854705 0.038694523 0.05640924 -0.03382092 0.025278326 -0.04216911 -0.028618503 0.09212576
-0.037413917 0.04655636 0.056447145 -0.004945486 -0.03860175 -0.013399851 -0.027978664 0.034831733
-0.10445224 0.036557622 0.037365116 -0.010938413 0.0013753828 0.006892835 -0.080083765 -0.05331653
-0.16064656 -0.13586637 0.0021671094 -0.026946012 -0.035714332 0.0019196216 0.08830322 -0.06825094
0.095241055 0.0065481104 0.012062617 0.034106754 -0.015989274 0.03721479 -0.0059587695 0.028369704
0.044036742 -0.022656456 0.10777952 -0.057462 -0.11495654 0.060504884 0.04911233 0.04195819
-0.13295281 -0.03395787 0.088146225 0.025625952 -0.037286915 -0.04161157 -0.1140601 0.02828336
-0.012340123 -0.100356236 0.0034927726 -0.15407063 0.0030409992 0.08296035 0.072027326 0.07503527
-0.028339842 0.037859578 0.039620534 0.038902257 0.10564355 0.04176976 0.022715313 -0.038078763
-0.037283882 -0.023125578 -0.049453996 -0.028621897 -0.03865859 0.044834774 -0.12529044 -0.035776384
-0.05780744 -0.0599467 0.20323996 -0.05995038 -0.041704696 -0.006445855 0.03157956 0.015765624
0.021589663 -0.06431479 0.11705737 -0.032076225 0.03475661 0.030937882 0.6187222 -0.10165656
0.16750374 0.010977518 0.050423566 -0.0132749565 0.022362214 0.0395389 0.10990931 -0.007932216
0.0006516441 0.4412465 0.5602967 0.19403389 -0.03724778 0.5712679 0.019544909 0.025322596
0.10552063 0.20175618 0.011321168 0.007409338 0.038108833 0.038726144 -0.08494105 0.552738
-0.0970471 -0.037772875 -0.036489107 0.069704175 -0.020033162 0.034291975 0.42130244 -0.094948635
0.009073537 -0.02738034 0.11758498 -0.037376355 -0.022848355 0.08382158 0.039208535 0.23552161
-0.03321304 0.027593946 0.28847378 0.47208318 -0.027899675 -0.060995433 0.04003226 0.040710144

attn_net.out.bias f4 [64]
00000000: ce43 61be 697d 84be a891 f23d 46e3 943d
00000010: 0153 69be ecd6 a63e de35 1bbe c222 873d
00000020: f5d9 48be 95ad 2fbd 840c 92be 5082 77bc
00000030: fd59 4dbe cabf 8d3d e242 303d d952 45be
00000040: 969e 3b3e c445 d5bc 24d4 8abd 7cc0 e53c
00000050: f29c 2ebc 8aaa 793e 1be4 cf3e 3efb 5b3d
00000060: 601d edbb 0f22 1b3e 4a5e 67bd d60d 683d
00000070: bdcb 8b3e 2728 8e3e 37ed 813e f7d2 be3e
00000080: 1fc4 dbbe 0dff 79be 6bc6 d13e 3cb9 d33c
00000090: d0cf bebc 509e 303d f4dd 7c3e 965a 2c3e
000000a0: 084a 953e 865f 713e b655 343e 34c4 893e
000000b0: 2577 103e 6c20 a73e 6fe3 f1be 4e08 4e3d
000000c0: d0b0 623b 06eb b03e 557c 78bd 4f4f 933e
000000d0: 1a9e 833d 4036 803c fd36 873e 32e0 05be
000000e0: 0026 dd3c 3423 3a3c d49e 9f3e 3974 b73e
000000f0: 7069 993e ea22 833e 599f a53e 6140 043d
-0.21998522 -0.2587693 0.11844188 0.072699115 -0.2278557 0.32585847 -0.15157267 0.065984264
-0.19614394 -0.04289015 -0.28525174 -0.0151067525 -0.20053859 0.069213465 0.043032534 -0.19269885
0.18322214 -0.026034243 -0.06778744 0.028045885 -0.010657536 0.24381462 0.40603718 0.0537064
-0.007236168 0.15149711 -0.056486405 0.05665382 0.27303877 0.2776501 0.25376293 0.37270328
-0.42923066 -0.244137 0.40971693 0.025845163 -0.023292452 0.04311973 0.24694043 0.16831431
0.29158044 0.23571596 0.17610821 0.26907504 0.1410795 0.32641923 -0.4724383 0.05030089
0.0034590252 0.3455431 -0.060665447 0.28771445 0.0642664 0.015650868 0.2640914 -0.13073805
0.026995659 0.011360932 0.31175864 0.35830858 0.29963255 0.25612575 0.32348135 0.03228796

linear.weight f4 [64, 8]
00000000: ef9f c53d 888e cc3d 0c65 933d 44c4 e0bb
00000010: 00b3 05bd b500 aa3c 5c28 3c3c 7fd6 013e
00000020: 7965 103e 3d9e 063d 21e4 a43d 793c bfbc
00000030: df9a be3c fa41 4b3e 5077 993c 5e27 65bd
00000040: fb57 923f 145c 3e3f c929 c8be 7f66 483f
00000050: f914 073f bd7b 463f 29a5 07bf f501 343d
00000060: 53b9 3f3f da10 d13e 7992 2abe ec2c ec3e
00000070: 7762 883e 81bb 8b3e 588b a7be 1ed0 19bd
00000080: ca37 6e3c a8e4 0bbc 1885 f33d 20e1 f93c
00000090: fd61 32bd 11a2 2b3d aa35 2fbd 966d 903d
000000a0: 9463 6e3f 96f6 033f 68f2 81be de11 213f
000000b0: 3772 0c3f 334c 1f3f d24e 32bf 4c61 c3ba
000000c0: eea5 83bd c1c2 083e af7a 5c3d d6df abbd
000000d0: 0876 123d bf01 b93d 2aae 183e 2ff5 0b3e
000000e0: ffe6 75bf a9f0 edbe 8131 3a3e 7a3c 24bf
000000f0: 446e edbe ccf9 24bf ee1f 1c3f 7752 e83d
00000100: ca22 213e 3429 e6bc c0dc cdbd 1037 91bc
00000110: 0d09 4fbd a062 9cbc eea9 4dbd b912 36bd
00000120: 42f1 36bf 572b d5be bed4 943c 1dbf adbe
00000130: 6ac7 c2be f9d7 a2be bb6f 583e 60fb e23d
00000140: 7958 243e 9190 24be 1b5a cf3e d7b2 0e3e
00000150: 48be a7bc 0cc8 0bbe c7e9 cf3d 7d35 083f
00000160: 1ea4 523d 883d ddbd b46b dbbd 2acc d53d
00000170: 77ff 1cbe 51c4 f4bd e834 0d3e 9059 3f3c
00000180: 51f9 2e3e f1d7 b43d b24f 52bd 78c7 0c3e
00000190: 32da f5bc ea34 ed3d 363d c43d 2283 1abd
000001a0: 22ff dfbd 00dd 3f3a 1e0f ae3d 441e 7a3d
000001b0: 1a8a 2e3e b029 c53c c052 efba a0eb 0a3e
000001c0: fed1 37bf 5c11 dabe 6d6b 433e 71b3 b2be
000001d0: 2d07 3ebe 0157 a1be 5baf c63e 4cc9 463e
000001e0: b2c3 aebd 0874 2bbe c7fa f1bd 9716 0abe
000001f0: 2aed a23c 3b4f 37be 915b 80bd c1fc cbbd
00000200: 38ce 20be 059d 24be a97a 0bbe 1edc fbbd
00000210: fe40 e0bd e6fa 1abe ee70 053e f682 bcbd
00000220: 204c 9abd 9ee4 ac3d 5e52 fa3d 6ad7 13bd
00000230: a22c bebc f2c1 b9bd 3162 11be a09c df3d
00000240: c83c 8abd 07c6 a43d 0b91 ce3d 980d cf3d
00000250: 83cd 2bbe cb88 08be f2b4 1bbe 7419 3fbd
00000260: 895d 003d cd7f 0a3e 5516 683d 0fd2 1d3d
00000270: 6ffc 9abd a667 f0bd e64f 11bd 6ec8 02be
00000280: 382a 62bf 7d4e 00bf dfbc 6b3d 5611 05bf
00000290: bbe6 06bf 721f abbe fb5d 363f ee0a aebd
000002a0: 07e4 063f 89fb a53e 5490 f1bd 068d 973e
000002b0: 7e05 a93d f531 893e 1438 d1bd 9429 85bd
000002c0: 4ca1 85bf 6a71 88bf 57e7 eb3e aaf4 21bf
000002d0: 66ad 1fbf c3d8 4fbf 4fc0 823f dee8 29be
000002e0: 1c7d 3b3e f3f2 fd3d 2af4 063e ac59 593c
000002f0: b065 e1bd b853 303e 15d0 a1bd 364c 863d
00000300: ca80 6c3d 9872 4a3e 2357 493e 56c3 c43d
00000310: f6d7 8a3c dd98 373e d682 ccbd 6c67 5a3d
00000320: aa77 a33e ace6 923e ab91 a93d 1ac1 293e
00000330: 3999 703e cc59 06bd 2fc3 5cbe ecfa 05bc
00000340: 73dc 7e3e 28f7 c13d f1e8 29be 2a23 683d
00000350: a109 9fbd ea77 6c3d cee4 30bd 8fe1 d4bd
00000360: 26c0 483c 2b68 5a3d b7f7 f83c 78b4 d4bd
00000370: 1675 333e c7fd 133e e8ae efbb 15f8 31bd
00000380: 2e2d 7dbf 0690 62bf bea2 b83e 008b 60bf
00000390: fb88 11bf 651a 66bf a575 d23e c894 30be
000003a0: b7f8 59bf e05e c9be 9d12 963e 5716 0ebf
000003b0: 921c f6be 6200 b8be 304e 043f 0ef3 c7bd
000003c0: 84f5 3bbf ced4 1fbf f65f b13d 9ff9 09bf
000003d0: 9d51 97be 8335 e6be d6d7 d73e 3c7c b73d
000003e0: b24c 903f f409 0c3f 62a6 c4be 3e14 663f
000003f0: 7cf4 313f 110a a73e 6bb7 0abf 2064 e03d
0.096496455 0.09988123 0.071970075 -0.006859334 -0.03264141 0.02075229 0.011484232 0.1267948
0.14101209 0.03286575 0.08051325 -0.023344265 0.023267208 0.19849387 0.01873365 -0.055945747
1.14331 0.7435925 -0.3909438 0.78281397 0.52766377 0.7753256 -0.5298639 0.04394718
0.7489216 0.4083317 -0.16657437 0.46128023 0.26637623 0.27291492 -0.32723498 -0.03755199
0.014539668 -0.008538403 0.1189062 0.030502856 -0.04355048 0.041902605 -0.042775787 0.07052152
0.93120694 0.51548135 -0.25380254 0.6291789 0.5486178 0.62225646 -0.6965152 -0.0014906316
-0.06428133 0.13355543 0.053827938 -0.08392303 0.035757095 0.09033536 0.14910188 0.13667749
-0.960556 -0.46472672 0.18182947 -0.6415478 -0.46373188 -0.6444366 0.6098622 0.11343854
0.15735927 -0.028095819 -0.1005187 -0.017726451 -0.05054574 -0.019089997 -0.050210886 -0.04445145
-0.7146188 -0.41634628 0.01816785 -0.3393487 -0.38042766 -0.318054 0.21136372 0.11083102
0.16049375 -0.16070773 0.40498433 0.1393541 -0.020476475 -0.1365053 0.10152011 0.53206617
0.051426046 -0.10802752 -0.10713902 0.10439332 -0.15331827 -0.11951507 0.13789713 0.011679068
0.17087294 0.0883025 -0.051345535 0.13747966 -0.03001127 0.11582358 0.095819876 -0.037722714
-0.109373346 0.00073190033 0.08498977 0.06106402 0.17044869 0.02406773 -0.0018258914 0.13566446
-0.718048 -0.4259137 0.19083948 -0.34902528 -0.18557425 -0.3151169 0.3880566 0.19412726
-0.0853342 -0.16743481 -0.1181541 -0.1348518 0.01988848 -0.17901318 -0.06267465 -0.09960318
-0.15703666 -0.16075523 -0.1362101 -0.122978434 -0.10949896 -0.15134773 0.1303136 -0.09204666
-0.07534051 0.08442043 0.122227415 -0.036094107 -0.023214642 -0.09070195 -0.14197613 0.10918546
-0.06749874 0.08045583 0.100862585 0.10110015 -0.16777615 -0.13333432 -0.15205744 -0.046655133
0.031339202 0.13525315 0.056661922 0.038530406 -0.07567679 -0.11738519 -0.035476588 -0.1277177
-0.8834567 -0.50119764 0.05755317 -0.5197958 -0.52695817 -0.33422428 0.7123715 -0.084981784
0.5269169 0.3241847 -0.117951065 0.2959978 0.08253001 0.26795927 -0.10215774 -0.06502071
-1.0439849 -1.0659611 0.46074936 -0.6326395 -0.6237396 -0.8119013 1.0214938 -0.16592738
0.18309444 0.123998545 0.13179079 0.013266008 -0.110057235 0.17219436 -0.079010166 0.06557505
0.05774001 0.19770277 0.19662146 0.0960757 0.016948681 0.17929406 -0.099858925 0.053321287
0.31927234 0.28691614 0.08279737 0.16577569 0.2349595 -0.03280048 -0.21558832 -0.0081775
0.24888782 0.094709694 -0.16592766 0.05667416 -0.077655084 0.057731546 -0.043186955 -0.103945844
0.012252843 0.053322 0.030391557 -0.10385984 0.17525133 0.14452277 -0.0073145516 -0.04344948
-0.98897064 -0.8850101 0.36061662 -0.877121 -0.5684964 -0.89884025 0.4110538 -0.17244256
-0.85145134 -0.39330196 0.29311076 -0.5550284 -0.48068672 -0.35937792 0.51681805 -0.09763156
-0.734215 -0.6243409 0.08660881 -0.53896517 -0.29554453 -0.449627 0.42156857 0.08959243
1.1273406 0.5470269 -0.3840819 0.8987464 0.6951368 0.32624868 -0.54186124 0.10956597
