outlier-interpretation-Xu/checkpoints/nibuDfdr_checkpoint.pt (torch, 103259 bytes, 5 tensors)

attn_net.hidden.weight f4 [96, 192]
00000000: 03f2 a3bc f1d6 b0bc f520 59bc a88f fdbc
00000010: 18df 223d f916 cdbb f1f5 873c 8d61 b6bb
00000020: 5d01 b63c 8e8d 1bbd b875 4cbc 703c f03c
00000030: c335 bcbc 04a6 98bc b199 983c 7b75 d2bc
00000040: 8f05 c33c 34cf 423b 5cfc 5fbc a2f1 f53b
00000050: b74a cd3c 777e 023c 8837 153c 1bff aa3c
00000060: f849 273b 0a61 b83c 0caa 0fbd 187f bcbc
00000070: 764a 83bc 8009 74b8 fe32 8a3c 54a7 0ebb
00000080: a4e2 d4ba 5edb f63b 926f 053d 11c2 383c
00000090: c650 69bc 5ccf 2eba 985d c9bb 31c5 943c
000000a0: 0f1b 38bc b42b aa3c a152 ca3b 1b3b 7f3c
000000b0: aabc cf3a cd5e 0fbc 084c 93bc 76be 983c
000000c0: e9d2 f5bc c0d4 8d3b be18 273c 7407 1abc
000000d0: 681d 323c 0e66 be3b 0bb0 1bbd b3e3 e13b
000000e0: e0f1 0e3c 2173 fdbb 3acb d23b 93b2 9f3c
000000f0: 918e f8bc 7fa9 b93b fbc4 003d 1e7b 753c
00000100: 4bc2 3ebd 1c1e b7bc dfe5 75bc e8e6 b339
00000110: 0ca3 063d 994e 0bbb f6f6 5d3d b157 f83b
00000120: 664c 2c3d 23b2 2cbc e416 d0ba 92e7 ad3c
00000130: 8077 9bbc 034b e13b 4c81 1bbb 943a 01bc
00000140: bf27 f6bb 9ebb d5bb c932 2cbc 3477 cabb
00000150: 16af c13c 364e 5fbc 9afa a6ba 8413 ab3c
00000160: 1266 01bc 33c9 00bc 3653 4a3c 84ff eabc
00000170: 9d40 a83c e025 18bc d98c 0c3d 2d7a 8bbc
00000180: afde 833c 27b1 bcbc 3f01 633c 907a 213d
00000190: 1593 11bb 3c07 dbbc 40cc f838 0e83 7b3c
000001a0: 5741 b13b a2ac e73b 752c 0fbc fcd9 dd3b
000001b0: d008 57bd 55c2 01bc 6124 953b fdd6 b83c
000001c0: f203 9ebc 3ecb a6bc 7435 353c d496 023d
000001d0: 1581 92bc 8502 e03b 25a0 e2bb bd28 8a3c
000001e0: 2041 8cbc 12f5 f13b 86b2 8e3c fd0a 3cbc
000001f0: 65ce 913c 4d4e 57bd 504c 2abc 3a6f e7bc
00000200: c514 babc 221c ae3c 4210 793b 3a07 fbbc
00000210: a8f1 0f3c bd95 8d3b aea2 1ebb 8062 75bb
00000220: 1ab8 11bc 547c e53a 848d a13a 8aa1 2ebc
00000230: 4fac 203c c6c9 9d3b 8bb2 04bb 70a3 fdbb
00000240: 782c 88bb 4959 8c3c 8eae 29bc c7af 29bc
00000250: 1ee4 cc3c af48 193c cd2a b03b b648 973c
00000260: ed60 bf3c 7c0b 7cbc d8c8 e63b 44a3 483a
00000270: 9097 423b 1084 80bc 8818 993c 52ac 5fbb
00000280: 70d6 36bc 79ca eb3b e7b4 3bbc 381c f3bb
00000290: 680e 00ba 66f4 9abb a6ae 083c 4e85 f63c
000002a0: dec0 84bb 3828 a4b9 4e40 903b d8dd b639
000002b0: 50bf 8b3b 6da5 583c 1412 283c 2ce5 143d
000002c0: 194a 6b3c dade b6bc 0b33 cabc 344c d33b
000002d0: ec02 413a 37a5 f73b 4ddf 59bc 2b2e f4bb
000002e0: c0ea 65bc dd89 72bb 3a00 a43c 284b 9cbc
000002f0: 2f4e 9e3c a401 9cbc fc80 e93a f6b5 1d3c
00000300: 7202 92bc 1f3e 653d 3801 953d 1afc b03d
00000310: 5054 4c39 fb1e e83b eb61 a2bd 845b c53b
00000320: 24bb 823c edbc c13d a1e5 803b 3247 d0bd
00000330: 4c86 b13d 9c2b 903d 2af8 a8bb fc49 df3c
00000340: 770a 80bc fc11 b2bb 1836 5b3b 9bdd cf3b
00000350: 2d56 7abd eb8f a93b 7cc0 423c 892f 193d
00000360: 0146 523c 4de8 85bd ce81 35bd 30ae edba
00000370: e809 703c 8a25 993b ed9d 81bd a4dc 2cba
00000380: ce68 893b 1c4d 833c 3fca 383d a781 d6bc
00000390: b061 6bbd 0ebf 713d 347e 2b3c 4abe dabb
000003a0: 2cd2 2e3c c560 24bb 8c81 6dbc 6e9a 86bc
000003b0: a53a 36bc 8915 f33c ca7e 03bb 8b81 073c
000003c0: 6b56 fdbb 53d0 b93c 04f4 acbd 4854 bcbb
000003d0: 934d b8bb 9e31 d6bb a15f 2d3d e4c4 4c39
000003e0: 1468 92bb 96b3 19ba 726d 853c e939 a1bd
000003f0: 7e7a 8fbc fe1f 323b 56d7 bfbd ed30 95bb
-0.020012861 -0.021586867 -0.0132524865 -0.03095229 0.03976354 -0.006258842 0.016596766 -0.005565828
0.022217447 -0.037976794 -0.012479238 0.029325694 -0.022974854 -0.01863385 0.018627973 -0.025690785
0.023806361 0.0029725553 -0.013671007 0.0075056115 0.02506004 0.007964722 0.009107478 0.020873597
0.0025526267 0.02250721 -0.03507428 -0.023009822 -0.016026717 -5.818298e-05 0.016870018 -0.0021767216
-0.001624186 0.007533475 0.032577105 0.011276738 -0.014240449 -0.0006668472 -0.0061451904 0.018160434
-0.01123692 0.020772792 0.006174401 0.015578057 0.0015849073 -0.00875063 -0.01798059 0.018645506
-0.030007796 0.0043283403 0.01019877 -0.009401191 0.010871269 0.0058105057 -0.038009685 0.006893599
0.00872466 -0.0077346717 0.006432918 0.01949433 -0.030341418 0.0056659575 0.031437855 0.014982967
-0.04657201 -0.022353224 -0.015008419 0.0003431358 0.032870337 -0.0021256565 0.0541906 0.007578813
0.042065047 -0.010540518 -0.0015875963 0.021228585 -0.01897788 0.006875397 -0.002372819 -0.007887501
-0.0075120623 -0.00652261 -0.010510155 -0.006178761 0.023643058 -0.013629487 -0.001273948 0.02088333
-0.007897871 -0.00786047 0.012348941 -0.028686292 0.020538623 -0.009286374 0.03431401 -0.017026031
0.016097395 -0.023033692 0.013855278 0.039423525 -0.0022212912 -0.026736848 0.00011863606 0.01535107
0.0054094004 0.00707014 -0.008738627 0.0067703705 -0.05249864 -0.0079198675 0.004551456 0.022563452
-0.01928899 -0.020360585 0.0110601075 0.031882122 -0.017883817 0.006836238 -0.0069160634 0.016865129
-0.017120898 0.007383951 0.017419111 -0.011477229 0.017798612 -0.052564908 -0.010394171 -0.02825128
-0.022714982 0.02125365 0.0038004075 -0.030643094 0.008785643 0.0043208287 -0.0024205851 -0.0037442744
-0.008893991 0.0017508366 0.00123255 -0.010658631 0.009806707 0.004815313 -0.0020248021 -0.0077404305
-0.0041556917 0.017132418 -0.0103565585 -0.01035685 0.025011119 0.009355708 0.005376196 0.018467288
0.023361648 -0.015383597 0.0070429854 0.0007653723 0.002969239 -0.015687972 0.018688455 -0.003412981
-0.011159524 0.0071957675 -0.011456705 -0.0074191354 -0.0004884959 -0.0047288416 0.008342421 0.030092862
-0.004051312 -0.00031310483 0.004402197 0.00034879032 0.0042647496 0.013223034 0.010258216 0.036351368
0.014360928 -0.02232306 -0.024682542 0.006448293 0.0007362801 0.007557537 -0.013297868 -0.0074517927
-0.01403302 -0.0037008442 0.02001964 -0.019078806 0.01932439 -0.019043751 0.001781493 0.009625902
-0.017823432 0.055967446 0.07275623 0.086418346 0.00019486365 0.0070837713 -0.079288326 0.0060228724
0.015958376 0.09459863 0.003933624 -0.101698294 0.08668193 0.07039568 -0.0051565366 0.027256958
-0.01562999 -0.005434273 0.003344899 0.006343556 -0.06111734 0.005174627 0.011886712 0.03739885
0.012834073 -0.065384485 -0.044313245 -0.0018133577 0.014650799 0.0046736645 -0.0632895 -0.00065941573
0.004193402 0.01602798 0.045114752 -0.02618487 -0.05746621 0.059020095 0.010467101 -0.0066755163
0.010670226 -0.0025082093 -0.014496218 -0.01643106 -0.01112238 0.029673355 -0.0020064586 0.008270632
-0.007731249 0.022682345 -0.0844498 -0.005747352 -0.005624482 -0.0065366765 0.042327527 0.00019528304
-0.0044679735 -0.0005863247 0.01628754 -0.078723736 -0.017514464 0.0027179713 -0.09367244 -0.0045529515

attn_net.hidden.bias f4 [96]
00000000: 857a 9bbc 7821 9abd a497 6e3e 9289 a53e
00000010: 456c 84be 1982 373d bd51 123e 0841 b43d
00000020: 7704 1d3e 6659 063d dd88 763e c7e8 983e
00000030: 94ac 42bd b3a0 353b 4dfe cbba 4585 903e
00000040: 0798 55bd da89 db3b e147 9c3e fb83 163e
00000050: cc45 15be 53b7 0dbd 3636 ee3a 5273 103e
00000060: b6ec 91be 724f 2ebd 8169 fdbc 252a a03c
00000070: a683 d83b 2c98 1a3d a22d 153e 74f8 783c
00000080: 3859 e13d 7616 7d3c ecaf cfbd 017c 873e
00000090: 34f8 49be 989f d43a 3e7c 4f3d 625b 693d
000000a0: 7b2b 283e 6e99 923b f28a 68be 5511 e2bd
000000b0: d220 443d 7307 003e 41dd 06bd fa48 eb3d
000000c0: 0525 0c3e f8b1 9a3e 67ad 513d 6c61 553e
000000d0: 775c 183b 1a82 97be 5227 1f3c 2961 8cbe
000000e0: 3bc7 8abe d29f 973c 7526 e8bd daf7 373b
000000f0: 38fd ab3d a6ec 8bbd 3833 873c 3a73 b2ba
00000100: 3474 dfbb a43f 13ba acb0 103c f8c6 58be
00000110: 198f 8d3e 8875 29be 7bec 60be 675e bebd
00000120: 6693 863d abd1 95be c14b 973d 70a1 46bd
00000130: a093 1ebd 257e 3b3d 7c86 4bbe d6fb 08be
00000140: fd4e a13e f25f 68be 94d0 29bd 9d21 0ebd
00000150: 47b2 b1be e282 60bc 7a5f e93b d51f 40bc
00000160: c625 edbb 2467 28bd eab7 013e 83ec 84bd
00000170: 67ff acbd 2402 583e 65e8 7d3d 6df8 86be
-0.01897932 -0.07525915 0.23300034 0.3233152 -0.25863853 0.044801805 0.14288993 0.08801466
0.15333734 0.0328001 0.24075647 0.29865095 -0.047527865 0.0027714192 -0.0015563458 0.28226677
-0.052146938 0.006699783 0.3052359 0.14698784 -0.14577407 -0.03459866 0.0018174115 0.14106491
-0.2850091 -0.042556234 -0.030934097 0.019551346 0.0066074906 0.03774278 0.14568189 0.015195955
0.11003345 0.01544725 -0.10140976 0.26461795 -0.19723588 0.0016221879 0.050655596 0.056971915
0.16422836 0.0044738567 -0.22709253 -0.11038462 0.047882862 0.12502842 -0.032925848 0.114885285
0.13685997 0.30213904 0.05119076 0.20837945 0.0023248473 -0.29591447 0.009713965 -0.27417877
-0.27105126 0.018508825 -0.1133546 0.0028071315 0.08397907 -0.068322465 0.016503915 -0.0013614662
-0.0068192724 -0.0005617088 0.008831184 -0.2116965 0.27648237 -0.16548741 -0.2196521 -0.092953496
0.06571083 -0.29261526 0.07387496 -0.048493803 -0.038715005 0.045774598 -0.1987552 -0.13377318
0.31505576 -0.2269285 -0.04145868 -0.034700025 -0.34706327 -0.01370308 0.0071219774 -0.011726339
-0.007237169 -0.041113988 0.12667814 -0.064904235 -0.08447152 0.21094567 0.061989207 -0.2636141

attn_net.out.weight f4 [64, 96]
00000000: 16b6 86bc d86d 00bc 27a4 95bc 702b 39bd
00000010: 10de 6bbb 2141 23bd e6ec 513d 4968 ea3c
00000020: 25eb 0e3b 1cf3 febb 64c7 533c 2234 c8bd
00000030: a76c 88bc b826 e6bb a20e 35bc 149a 5abd
00000040: 16b2 103c 187a 3fbc 42da 7fba 590b 8bbd
00000050: 807f eaba a0eb 3d3d 4ebf f5bb 727b 9a3c
00000060: 8246 2f3d 2d72 c2bc caf3 2d3d 86fa 24ba
00000070: a791 78bb 5fe3 64bc f4e6 5ebc d80f 4bbb
00000080: 3f51 6bbb 24fc 50bb 714f 733b 18f1 213d
00000090: 1b82 613d e2a4 c0bb dc8d b53b ee34 4fbc
000000a0: fc9f f23c 497a 67bc bbd4 5a3b b43e 30bc
000000b0: 7749 97bc 8de5 103d 3eb4 c4bb 03db 2f3c
000000c0: fabf b23c 5869 e1bb 9e83 3e3b f794 dc3c
000000d0: 7857 7f3a 7126 8c3d 930f dcbb d27b 7fbc
000000e0: 3021 223d e291 8cbc af76 933d f806 193a
000000f0: 442c 35bc 4b35 273c e87f 84bb ab6a 563d
00000100: 4969 7ebb 22e7 29bb 4cac 053c d15d a43d
00000110: 2fa6 5f3c d03c d93b 29de 693d bc51 153c
00000120: e432 eb3c bdc2 473d 1028 79ba a9dd 1b3c
00000130: 2644 a3bc e408 85bb 9b37 20bd 8e08 babc
00000140: 3fd7 2e3d b2fe 053d c03c cf3b ba2e 873c
00000150: 58d5 69bd a43b c93b 1bd2 fbbb 15e6 d9bb
00000160: c418 05bb 86fc 85bc 9e41 353c 7e38 393d
00000170: 76e1 073c 1ec9 2e3c ab60 a4bb 1dd1 003d
00000180: 2de0 163e 18a5 733d 2b36 ee3e 56e2 263f
00000190: fa2d a73c b995 493e 180c bc3e 86c2 613e
000001a0: 7fe2 363e a820 173d b83f 8b3e d667 253f
000001b0: 0939 48bd 783d 533c e1a8 8f3d 9661 323f
000001c0: ae9b 993d fdbd ab3d a852 4d3f 6e49 9d3e
000001d0: 5c27 f63c 4b75 8bbd 2ff8 d63c 2d2d c63e
000001e0: 232c ad3c cc85 a4ba 3c35 b73c e5eb 513d
000001f0: c513 233d eeba 853d 647e a53e 167a f23b
00000200: b0e6 a83e b155 89bb 2963 c03c c0f5 203f
00000210: 142f 803d 6eab 053c 8c05 303d f844 84bd
00000220: 3835 e83e 6a6a 383e c2d0 67bb f8ae bd3d
00000230: 16f1 5f3e 26d4 783e 539f 0b3c c2ad 273e
00000240: c829 ed3e 080e 293f c59c 283d 4bf3 803e
00000250: b7e0 043f b780 50bb c8f1 8b3d c546 dabc
00000260: ec0c 72bc fde6 22bd 85c1 273d 28e4 8dbb
00000270: 2adf 39bd cf83 bd3d 86e7 dd3d 01d7 553e
00000280: 1d85 28bd a1a3 30bd dd0c 983d 34a2 083d
00000290: dd38 163f b886 263d 3ccf 79bd 39c4 c13d
000002a0: 5d9c 3d3d 32b8 01bd 652c c13e 3a27 81bd
000002b0: 6e74 613e 119a d43d 20ff 553d 0cfa 473d
000002c0: 454c 2a3f 6bd1 02bd b6ca d3bc c627 b13d
000002d0: e89d 433d 8bb8 1e3c e3b9 6ebb 0a9c 0ebd
000002e0: 1b40 873e c8c1 983d 568e aa3e 9cfe a53d
000002f0: 9f7b c3bc 83b1 983e 0635 5e3e a0de 243e
00000300: a5ed 6a3d 9d43 573e 9d63 1f3f 7e49 323f
00000310: 3efe 433e b500 5d3e 5ffd 2c3f f7b8 833e
00000320: 49ac 013f 9e0c dbbb 2bdf 183f 13d6 223f
00000330: 9a72 b4bc 8fad 93bd d49a 7c3d 1682 4f3f
00000340: 0798 ac3e b9f6 503d c037 563f b30e 8d3e
00000350: e6e4 113e bacf c43d 3c79 e0bd 876d 0f3f
00000360: d6d8 353e a2b5 e93d 674e 12bd a7b1 223e
00000370: 8861 3f3d e06e c23d e24d 0f3f 1f7a 0ebc
00000380: 1147 fa3e d0a5 18bc 60e9 e4bd 6883 323f
00000390: 51ce 2d3e 3280 a43c d052 c4bd da07 723e
000003a0: 6555 1f3f a0e8 ab3d f05a 04bd 0ddf 7abd
000003b0: 439e be3e 9df0 f83e c951 433d 0456 ba3e
000003c0: ae65 363f b74d 263f 5c14 ce3c 39f3 1d3f
000003d0: bedb 283f 6e23 ee3d 758e 9f3d 2b9a 78bd
000003e0: 989e 3abd 5ce1 1dbe 2bec eb3d 3e5c 073c
000003f0: 13d7 9e3e e265 af3e ae85 583d 8e38 d83e
-0.016444247 -0.007838689 -0.01826675 -0.04520744 -0.0035990514 -0.039857034 0.051251315 0.02861418
0.0021807638 -0.0077804457 0.012925956 -0.097755685 -0.016653372 -0.0070236586 -0.011050852 -0.053369597
0.0088315215 -0.011686824 -0.0009760001 -0.06789274 -0.0017890781 0.046367288 -0.007499612 0.018857691
0.04279185 -0.023736084 0.042468823 -0.00062934344 -0.0037928612 -0.013970225 -0.013604868 -0.0030984785
-0.003590658 -0.0031888569 0.0037126208 0.039536566 0.05505572 -0.0058790306 0.0055405926 -0.012646897
0.029617302 -0.014128276 0.0033390957 -0.010757137 -0.018467648 0.035375167 -0.006002932 0.010733369
0.021820057 -0.006879013 0.002907015 0.0269265 0.0009740512 0.068432696 -0.006715724 -0.015593486
0.03958243 -0.017159406 0.072003715 0.0005837525 -0.011057917 0.010205577 -0.004043568 0.05234782
-0.003882008 -0.002592512 0.008158755 0.080257066 0.013650461 0.006629564 0.057096634 0.009113725
0.02871079 0.0487697 -0.0009504566 0.009513297 -0.019929957 -0.0040598977 -0.03911553 -0.022709157
0.042685743 0.0327136 0.0063243806 0.016501773 -0.057088226 0.006141143 -0.0076849586 -0.0066497424
-0.002030895 -0.016355764 0.011063008 0.04521989 0.0082935 0.010668067 -0.0050164065 0.031449426
0.14733954 0.059483618 0.46525702 0.6518911 0.020407666 0.19686021 0.36727977 0.22046861
0.17859839 0.036896378 0.2719705 0.64611566 -0.048882518 0.012893073 0.07014633 0.69680154
0.07500397 0.08385847 0.8020425 0.30720085 0.030048065 -0.06809481 0.02624139 0.3870634
0.02113921 -0.0012552082 0.022364251 0.051250357 0.039813776 0.06529795 0.3232299 0.0073998077
0.329885 -0.0041911234 0.023484783 0.62874985 0.062589794 0.008158548 0.04297404 -0.06458467
0.45353103 0.18009344 -0.0035372232 0.09261888 0.2186931 0.24299678 0.008521873 0.16374877
0.4632094 0.66037035 0.041165132 0.25185618 0.5190539 -0.0031815001 0.068332255 -0.026645074
-0.014773589 -0.03977107 0.04095604 -0.004330177 -0.04537884 0.09253656 0.10835175 0.20882799
-0.04114257 -0.0431248 0.074243285 0.033357814 0.58680516 0.04065582 -0.06098865 0.094612546
0.046291698 -0.031669803 0.37729183 -0.0630631 0.2201707 0.10380948 0.05224526 0.048822448
0.6652263 -0.031937998 -0.025853496 0.08650164 0.047758013 0.009687553 -0.0036426715 -0.03481678
0.26416096 0.07458836 0.3331172 0.081052035 -0.023862658 0.2982293 0.21699914 0.1610055
0.05735554 0.21021886 0.6226137 0.6964339 0.19139954 0.21582301 0.67574114 0.25727054
0.5065351 -0.0066848537 0.5971553 0.636079 -0.022027303 -0.07210838 0.061671093 0.8105787
0.33709738 0.051016543 0.8367882 0.27550277 0.14247474 0.09609933 -0.109606236 0.560265
0.17758498 0.11411597 -0.0357193 0.15888081 0.046723872 0.09493804 0.55978215 -0.008696108
0.48882344 -0.0093168765 -0.11177325 0.6973176 0.16973235 0.02008066 -0.09586108 0.23635808
0.62239677 0.08393979 -0.032313287 -0.061247874 0.3723012 0.48621073 0.04768542 0.3639375
0.712489 0.64962333 0.025156192 0.61699253 0.659603 0.116278514 0.077908434 -0.0606939
-0.045561403 -0.15417999 0.11519655 0.008261738 0.31023464 0.34257418 0.052861862 0.42230648

attn_net.out.bias f4 [64]
00000000: ba59 8ebe be1d b73e 422b d73e 5865 ec3e
00000010: e192 aabe 92fa 22be 12fc 8a3e 5529 07be
00000020: f42b 9fbe fdd5 8b3e c928 eebe f555 cc3e
00000030: 3878 a63e ebea af3e 5a54 94be ea7a 8cbe
00000040: 33ed abbe 89f7 78be 104c b23e a74e 953e
00000050: 52b2 89be b69e 7a3e 7a1f b73e 6a31 43be
00000060: ebb7 9cbe 5993 b23e 562c 9f3e 9fce 34be
00000070: 2e21 903d e32d 04bf 76df 2b3d 1ce8 bbbe
00000080: dcef 86be 4e5c 35be 36b1 b63d 8c69 aabe
00000090: e69e ac3e 54c7 ac3e 073f 31be 2b09 81be
000000a0: bf98 a2be 99ce 9fbd 4a76 783e 748f 0fbe
000000b0: 6e1f bcbd 4a6d 9d3e 769c 9d3e 5eba 45be
000000c0: 313d d23e 40ee 06bd 34fb 4a3e b4f4 bc3e
000000d0: dfb9 85be 778b 7cbe 8854 933e 3be1 26be
000000e0: ff38 9cbe 0a73 453d 6de2 8cbe d904 7c3e
000000f0: e014 9ebe d6e0 943d 7041 ae3e 3474 81be
-0.2780283 0.3576488 0.4202519 0.4617107 -0.33315185 -0.15915897 0.2714544 -0.1319936
-0.3108822 0.27311698 -0.46515492 0.3990933 0.32513595 0.34358916 -0.28970605 -0.27437526
-0.33579406 -0.24313177 0.34823656 0.2916157 -0.2689386 0.24474606 0.35766202 -0.19061819
-0.30609068 0.34878042 0.31088513 -0.17656945 0.070375785 -0.5163252 0.041961156 -0.36700523
-0.26354873 -0.17710993 0.08920519 -0.3328365 0.3371498 0.33745825 -0.173092 -0.25202307
-0.3175716 -0.07803077 0.24263874 -0.14019567 -0.09185682 0.30747443 0.30783433 -0.19309375
0.4106231 -0.032942057 0.19822389 0.36905444 -0.2611837 -0.24662577 0.2877543 -0.16296856
-0.30512235 0.048205413 -0.275165 0.24611224 -0.308753 0.072694466 0.340343 -0.25283968

linear.weight f4 [64, 10]
00000000: 8698 523e 115c 2dbd fa35 9eba 997a 29bd
00000010: 1171 15bd df6b 353d f8e3 b6bd 29f9 adbd
00000020: cb15 f1bc 8ecc 9a3d 6900 82bf 6918 91bf
00000030: e197 433f e19c 313f d443 2d3f f35f 6a3f
00000040: b4d5 343f 4572 67bd 5b50 b8bd 8b20 233f
00000050: 259d 89bf 2c3f a2bf c6cb 5f3f 5a1a 493f
00000060: 3965 663f 80db 993f 4c22 313f 828f 19be
00000070: 20da 62b9 3d59 4a3f 4fcc 6abf 1fa7 6cbf
00000080: ca5b cd3e 7650 f13e f660 bb3e 29ff 2d3f
00000090: 1ba2 f03e 16e3 873c f283 e33d 9189 fc3e
000000a0: 9e8a b93c 76f4 24be e4ef 35bd 9b8e 78bd
000000b0: 736a 88bd 30bb cabd 8177 863d b120 783d
000000c0: 8801 303b 16f7 d9bd 84e1 053e 5e57 553d
000000d0: b87d bb3d c72d 89bd 19b4 363d 4e04 b43d
000000e0: fe86 023d 66ef f33c d3b1 403d 7431 763d
000000f0: 49ef 9b3f 1ccd 913f e68c 31bf 6298 32bf
00000100: c9d0 50bf e0ad 71bf 3462 25bf 80ab b53e
00000110: 13dd 433e aabf 50bf 6ab9 7d3c 6ecf 9ebd
00000120: b977 b83d caba 383d 927e 573d 17cd e9bd
00000130: 5675 8c3d abfd dbbc 6083 4f3a d7d5 8cbd
00000140: cd5a 373e 04e7 42be e441 97bd 57ae 57bc
00000150: b687 9d3d 8e5a aabd cb4e 2dbb ad80 873d
00000160: f09f f13d 5cc3 07be 7fe4 8bbf 4e54 a1bf
00000170: 61c0 4a3f 1149 3a3f 008e 203f 4f7b 703f
00000180: 7c3a 543f faac 5fbd fb50 183d be90 443f
00000190: 0b66 5c3e 2fd8 01bf 8196 543d 17b1 eebd
000001a0: 5d29 6abe 4b0f 15be ddc0 0abe 8134 6fbe
000001b0: a1bb 153e 183f 04bf f8c3 9b3f 753a 9f3f
000001c0: b74a 5fbf de7e 3dbf be2b 39bf 0a32 6dbf
000001d0: 02af 72bf 57e2 2f3e 3671 e83a 08ef 65bf
000001e0: 3ea9 93bf 8d8c 8bbf 6953 2d3f db76 3f3f
000001f0: 9ff2 373f 2c37 8b3f 83cb 4f3f c503 56be
00000200: 9627 13be b06a 083f 8fc9 98bf 2735 90bf
00000210: f8a5 533f e653 633f d3dc 573f 6953 7f3f
00000220: 9465 2b3f d422 96be c446 e6bd b1e5 243f
00000230: 2248 f1bd 5b87 d3bc b86e 17be 8aa4 583c
00000240: 9d6b 3abe 4579 3dbe 0e04 88bd c5f6 9bbd
00000250: 3bac c73d 661e 6abe 3287 a23c 8a11 9b3e
00000260: 7022 91bd 4d26 833d 9e8d e5bc 1d58 be3d
00000270: 6090 0b3e d219 86bd fd8e 193d 076f 303e
00000280: 6727 5dbe d4ba c2bd 14e5 8cbd 4b59 61bd
00000290: f722 9dbd 8058 47b8 87e2 88bd fb31 51bd
000002a0: c935 bf3d ddf4 eebd 305f 4bbe 8021 183d
000002b0: 0dad b23d 7d6a dc3c 79d5 afbd ffff a4bd
000002c0: d20e 233d d835 82bd f393 533d 267e 903b
000002d0: 9c20 7d3f 5800 993f 0880 3abf faac 27bf
000002e0: 2958 31bf 0be7 75bf 70e5 28bf ba1f 213d
000002f0: b5d2 4f3d 81d5 45bf 8be1 7abf 8e9c aabf
00000300: 7cde 5e3f 3ec0 4b3f 251b 633f 25b0 7d3f
00000310: 501f 433f 139f 37bd 5376 853d 6e03 283f
00000320: d42f 213c 0593 d1bd 24eb 50bd c3fc 143d
00000330: 2089 cbbc 4f7d 223e 6d53 c43c 86e5 8bbc
00000340: 7536 5abd 29be d13a 3776 073f cf4a 1f3f
00000350: 0239 ddbd d3c6 6cbe 1235 54be dac1 cbbe
00000360: c779 0bbe cd16 0bbe fc4c 323d 730c 7fbe
00000370: 4cdf 82bf 4e1c 75bf 8208 143f 6b49 3e3e
00000380: 4887 bb3e 5107 573f 3849 073f 66bc 78be
00000390: 3e06 b6bb f4b0 033f 6425 08be 872c 5dbd
000003a0: 3cd7 37bd 6484 6d3d 377f 433d 4256 8d3d
000003b0: c0aa 5dbc d36f b3bd d097 833c 5657 40bd
000003c0: eb21 5cbe e86e cb3d d062 33bb fb42 43bc
000003d0: fc3d eabd 3847 e33c fc03 bcbd 6133 07be
000003e0: 8314 153d 47b2 7d3c 4380 8c3f 6569 713f
000003f0: ba16 c2be fd87 c4be 4758 c0be 482b 14bf
0.20565996 -0.04232413 -0.001207053 -0.041376684 -0.03648478 0.044292327 -0.089302 -0.08494789
-0.029429337 0.07558547 -1.0156375 -1.1335574 0.76403624 0.69380003 0.6768162 0.91552657
0.70638585 -0.05650546 -0.089997016 0.6372153 -1.0751082 -1.2675529 0.8742031 0.78555834
0.89998204 1.2020111 0.6919296 -0.1499615 -0.00021634297 0.79042417 -0.91718 -0.92442507
0.40109092 0.471317 0.36597413 0.6796747 0.46998677 0.016587775 0.11109151 0.49323705
0.022649106 -0.1610888 -0.04441823 -0.060682874 -0.066609286 -0.098989844 0.06565762 0.060578052
0.0026856381 -0.10642831 0.13074309 0.052085273 0.09154838 -0.066981845 0.04460535 0.087898836
0.03186702 0.02977724 0.047044586 0.060105756 1.2182399 1.139072 -0.6935562 -0.6976377
-0.8156858 -0.9440594 -0.6460297 0.35482407 0.19127302 -0.81542456 0.015486101 -0.07754408
0.0900721 0.04510001 0.05261094 -0.11416071 0.068583176 -0.026854357 0.0007916 -0.06876724
0.17905731 -0.19033438 -0.073856145 -0.013164124 0.076919004 -0.08318053 -0.002644467 0.0661634
0.11798084 -0.13258117 -1.0929106 -1.2603853 0.79199797 0.7276774 0.62716675 0.93938154
0.8290174 -0.054608323 0.037186604 0.7678336 0.21523301 -0.50720495 0.051901344 -0.11654871
-0.22867341 -0.14556615 -0.13550134 -0.23359872 0.14622356 -0.51658773 1.216918 1.2439715
-0.8722338 -0.7402171 -0.7233237 -0.9265448 -0.9479829 0.17176186 0.0017733935 -0.8981786
-1.1536024 -1.0902268 0.677054 0.74790734 0.71854585 1.0876212 0.8116991 -0.20899875
-0.1437057 0.5328779 -1.1936511 -1.1266221 0.82675123 0.88799894 0.84321326 0.9973665
0.6695187 -0.29323447 -0.11243966 0.6441298 -0.11781336 -0.025821378 -0.1478833 0.013222823
-0.18205114 -0.18503292 -0.06641398 -0.07615427 0.09749647 -0.22863159 0.019839857 0.3028682
-0.070866466 0.0640379 -0.02802163 0.0929415 0.13629293 -0.065478936 0.03748988 0.17229854
-0.21597062 -0.09508291 -0.06879631 -0.055016797 -0.07672685 -4.752772e-05 -0.06683832 -0.051073056
0.093364306 -0.11667798 -0.1986053 0.037141323 0.08724413 0.026906246 -0.085856386 -0.0805664
0.039809056 -0.06357926 0.051654767 0.0044095693 0.9887788 1.195323 -0.7285161 -0.65498316
-0.69275147 -0.9605567 -0.65975094 0.039336897 0.050738055 -0.77278906 -0.980004 -1.3329027
0.87058234 0.79590213 0.88713294 0.990969 0.76219654 -0.04482944 0.06516709 0.65630233
0.009838063 -0.1023312 -0.051005498 0.036373865 -0.02484566 0.15868114 0.023965562 -0.017077219
-0.05327459 0.0016002107 0.52914757 0.62223524 -0.10801889 -0.2312272 -0.2072337 -0.39796335
-0.13620673 -0.13582917 0.04353045 -0.24907093 -1.0224395 -0.95746315 0.5782548 0.18582694
0.3662665 0.8399554 0.528461 -0.24290618 -0.0055549433 0.51441884 -0.13295513 -0.053997543
-0.044882998 0.057987586 0.047728743 0.06901218 -0.0135294795 -0.08761563 0.0160636 -0.04695829
-0.21497314 0.09933263 -0.002737213 -0.011917825 -0.11437604 0.02774392 -0.091804475 -0.13203193
0.036396515 0.015484399 1.0976642 0.94301444 -0.37907964 -0.38385 -0.3756735 -0.5787854
