outlier-interpretation-Xu/checkpoints/NIShYgdM_checkpoint.pt (torch, 105819 bytes, 5 tensors)

attn_net.hidden.weight f4 [96, 192]
00000000: 1669 bcbd e8f7 32bd 93fa eebc 1711 e4bc
00000010: 3964 95bd 6a87 11bc 565e 61bd ba67 733d
00000020: ce8f 2d3d 6a74 13bc 37aa 1f3d cfba 16bd
00000030: f38e c2bc 2ee1 ad3d 32d2 0c3e 189a 223c
00000040: 6ba9 8bbc a7ed 53bc 3f63 883d 7ae2 8ebd
00000050: 59eb 5c3d 9626 57bc c95e 103c c4f3 f23b
00000060: fd91 43be bc8d 013e 2fbd 51bd fbf7 3ebd
00000070: f92c 21be ff0c 0a3d 957e bbbc e0cd 24be
00000080: 7bce 383d 0d51 783c 96e4 20be 025e 943b
00000090: a943 993c 9b07 00bd 323a 053a 9f0f 83bd
000000a0: 4f95 61bd 6f4e 333d 9aaf 753d d4b7 0c3c
000000b0: f03d 143d 3e8b 0bbb fc2a 23bd 2f02 fcbd
000000c0: 3dc8 5f3d 0e33 c83d 65f0 31bc 2406 cebc
000000d0: d33c 16be 3085 693d d876 993c bc1f 62bd
000000e0: 063c 0e3e b68f 18bc 3fac f33c b6fb 5d3d
000000f0: 2cbe 8f3d 284b 0d3d b8f3 5d3d c3a6 023e
00000100: b2f8 883c ecfc 923d f01a 8139 f8af c9ba
00000110: d10b 543d fdba 203c 46e2 cf3d 7305 a1bd
00000120: e9d6 623d 124e cdbc cb4c 77bd 7798 41bd
00000130: ca7b 3e3d 2468 2abd 91ef 1cbd 1afa 30bc
00000140: ea8e 263c 1f9d 32bd 5d49 ccbc 82e8 94bd
00000150: c044 8139 6845 8cbd 778e 28bd dbd2 bbbc
00000160: 3834 a33c 66e8 dd3d 7583 0dbc 6808 953d
00000170: a0b6 09bd 6483 59bc f01f 703d b3e1 f4bd
00000180: 9af8 8b3d 2fde 68bd 7ac1 58bd 38cd 88bc
00000190: 7437 303c bd33 853c 782f 6fbd edf4 2c3d
000001a0: 93bb 7e3d b083 74bd 7221 593c ec7b cbbc
000001b0: c64f 133c 4b80 d83c 0401 21bd d342 e03c
000001c0: 9693 ea3c 8edd 553d e0b4 d93b 6de1 51bd
000001d0: abae 0ebd b062 e4bc ea68 c4bb 317a 8e3d
000001e0: a418 8e3d 0e9f 433d 2e51 153b 30cb e9bc
000001f0: 9c33 813c f48f 5abd cb26 5f3d 134a 5bbd
00000200: 8354 0b3d 59a0 95bb 5f0f 08bd 8cf6 b0bb
00000210: c3b8 47bd 7c7f ef3b 608f 31bd 9648 5cbc
00000220: fa97 603d ab39 13bd 5a77 0dbc d740 2fbd
00000230: 0a38 90bd 04d0 293b e6b5 3c3d 251e 4d3d
00000240: 5cbc 5dba 2936 0a3d 3f80 783d c85e babd
00000250: 7db9 0b3d 7dd0 193c 6e71 903b a4dd e9bc
00000260: fe8f 61bd dde4 d53d 62d5 49bd bc33 113c
00000270: b8ba b7bd 0880 5ebb 3291 1b3d 7652 02be
00000280: 4a03 093d 4423 54bd 1d68 d6bd af6f 3ebc
00000290: 6dbc f13c a655 813d 2a4c 213d adde 4f3d
000002a0: 3d2e 90bc be9e 753c 5a20 02bd 703a 34bd
000002b0: 12ca c9bc de08 ab3c baaf 47bd 1c83 e73b
000002c0: 1347 533d 635c 0b3d 2d66 533d 8917 3dbd
000002d0: 9d5b 96bd ba6b 153d 964b 1ebd 78fd cdba
000002e0: f9cc f63d f63b 403d e343 303d d4bf 6b3c
000002f0: 5473 17bd 3677 883d d052 8cbc bbba b6ba
00000300: db17 87bb e58f da3b 7e0d d9bb d6b3 a93b
00000310: a07b 62bb 5859 62ba ab17 2fbb 4499 36bd
00000320: fa09 29bd 545b 32bc daa0 be3c 04cb 053c
00000330: aa67 4a3c 1151 30bd d287 28bd e01d e6bc
00000340: 82fc 3d3c 4272 94bc 0e90 08bb c071 ecbb
00000350: 3206 98bb 3656 6a3d 5369 41bc b8e4 c8b9
00000360: deb6 de3b 12e2 c63c daaf 2e3c 3894 d63c
00000370: 0b7e fc3b 501e 67bb 8c02 583d f0c4 e1bb
00000380: 5406 93bc 2dbd 36bd 34f4 e9ba 5621 02bc
00000390: c0c9 9cbb f4fa bdbb 3ac8 633c deba 4b3d
000003a0: 5dce b9bc 9da2 e2bb a247 24bc 42dd e63c
000003b0: cccf 833c d58d 70bd 7af4 ae3c f66b 01bd
000003c0: c89a 2abc 0f6c 6cbb 4683 f4bb b6e8 7a3c
000003d0: 8267 813c c5cb a53c a249 f03c c9a6 983c
000003e0: 54b3 a03b b390 21bb 200b fe3a 6c44 203c
000003f0: 4ffb fcbc c552 0cbd 0c12 d83c 466d 3dbd
-0.09199731 -0.043693453 -0.029172217 -0.02784018 -0.072945066 -0.008882383 -0.055021606 0.059425093
0.04237347 -0.008999923 0.03898069 -0.03679925 -0.023749804 0.08490215 0.13752058 0.009924434
-0.017048558 -0.012935079 0.06659555 -0.06976791 0.053935383 -0.013131758 0.008811661 0.007414313
-0.19098659 0.12651724 -0.05120581 -0.04662321 -0.15739812 0.0337038 -0.022887507 -0.1609416
0.04511879 0.015156043 -0.15712199 0.004527808 0.01870902 -0.031257253 0.0005082219 -0.06399464
-0.055074032 0.043775972 0.05998192 0.00858875 0.03619188 -0.0021292712 -0.039835915 -0.12305104
0.05463432 0.09775363 -0.010860537 -0.025149412 -0.1467164 0.057011783 0.018733427 -0.055206046
0.13890085 -0.009311607 0.02974522 0.05419513 0.07018694 0.034495503 0.054187506 0.12758927
0.01672015 0.07177147 0.00024624867 -0.0015387526 0.05176908 0.0098102065 0.1015058 -0.078623675
0.055380736 -0.02506164 -0.06037597 -0.047264542 0.046504773 -0.041603222 -0.038314406 -0.010801816
0.010165909 -0.043606874 -0.024937326 -0.0727091 0.0002465602 -0.06849176 -0.04115149 -0.022927692
0.01992236 0.10835342 -0.008637299 0.07276994 -0.03362143 -0.013275955 0.058624208 -0.11957111
0.06834526 -0.056852516 -0.05291889 -0.016699418 0.010755409 0.016260022 -0.05839488 0.042225767
0.062190603 -0.0596959 0.013252603 -0.024839364 0.008991187 0.026428362 -0.03930761 0.027375614
0.028634828 0.052213244 0.0066438764 -0.051240373 -0.034834545 -0.02787909 -0.005993952 0.069569
0.069382936 0.04775911 0.0022783983 -0.02853927 0.01577168 -0.05335994 0.054480355 -0.05353744
0.034016144 -0.004566234 -0.033217784 -0.0054004844 -0.048760187 0.0073088985 -0.043349624 -0.01344504
0.054832436 -0.03594367 -0.008634413 -0.042786445 -0.070419386 0.002591134 0.04607191 0.050077576
-0.00084585487 0.033743057 0.06066918 -0.09100109 0.034112442 0.009388086 0.004408053 -0.02854807
-0.055068962 0.10444043 -0.049275763 0.008862432 -0.08971161 -0.0033950824 0.037980266 -0.12726769
0.033450402 -0.051791444 -0.10469077 -0.011623307 0.029508794 0.06315164 0.039379276 0.05074947
-0.017600173 0.01499146 -0.031769134 -0.044001043 -0.024632487 0.020878252 -0.04875157 0.00706519
0.051581454 0.034023654 0.051611114 -0.046165023 -0.073416926 0.03647969 -0.038646303 -0.0015715798
0.12050814 0.046932183 0.04303349 0.014388997 -0.03697522 0.06663363 -0.017129332 -0.0013941148
-0.004122717 0.0066699856 -0.006623923 0.005178909 -0.003455855 -0.0008634529 -0.0026716988 -0.04457976
-0.04126928 -0.010886032 0.02327006 0.0081660785 0.012353817 -0.04304606 -0.041145153 -0.028090417
0.011595847 -0.018120889 -0.0020837816 -0.0072157085 -0.0046394104 0.057211123 -0.011804896 -0.0003831738
0.006796702 0.02427772 0.0106620435 0.026193723 0.007705455 -0.003526587 0.052736804 -0.006889932
-0.017947353 -0.044614006 -0.0017849267 -0.007942518 -0.0047847927 -0.005797738 0.013902718 0.049738757
-0.02268141 -0.0069163577 -0.010026844 0.028181676 0.016090296 -0.05872901 0.02135681 -0.0315971
-0.010412879 -0.003607515 -0.007461938 0.015314272 0.015796427 0.020238766 0.029331986 0.018634217
0.00490419 -0.0024652898 0.0019381978 0.009781938 -0.030881552 -0.034258623 0.026375793 -0.04624679

attn_net.hidden.bias f4 [96]
00000000: 0bd2 79be eccf 1d3c c71f 3dbe b15d 873e
00000010: 4cef aa3b c87d 6dbe fc99 733d 5e90 a43e
00000020: c1c8 fd3a dd1c 843e 59df 2dbe 96d8 23be
00000030: 0485 3f3e d5fb acbd fd96 a7bc 82ad cebb
00000040: 68c2 8bbd d517 43be cd9d 10bd df1d 9dbd
00000050: 5919 81be 8b21 89be aa36 203e 9b4f 9cbe
00000060: 713a b83c b328 82bd ec38 a73c d331 60bd
00000070: 35ed 8f3e 2fa2 57be 665a 3e3d eb6d adbc
00000080: f7a4 8b3d c930 82be 45cf 623b 97bc c53c
00000090: 81db 023e e1bf 543c ac24 7cb9 9bbe 493d
000000a0: 8dee d2bd 2e07 273d 3a14 d23c 32c7 a13d
000000b0: 2a07 ffbc 7906 80be 5c3e 3ebd f5e2 c6bc
000000c0: 524c 4dbe eff8 7ebd 923a 52be 95f5 ba3d
000000d0: a62f 63bd 610f 123d f600 f1bd c556 6abe
000000e0: d0b9 933d fbed 853d 4f55 813e 02a5 743c
000000f0: 2b02 89bc 57f6 593c af6f 67bc 1492 2cbc
00000100: 285b ac3c 6cd2 873e e877 993c 009c 80bd
00000110: 1897 983c 5230 d0bd aa85 e0bc 9624 c2bd
00000120: f547 6ebd 9cb5 40bc 0648 c8ba 0939 423e
00000130: 4fcd 2bbc 9727 013d 3cd0 7b3d bc58 e93b
00000140: eae3 72be b025 b53c 603b 333d 64d1 e7bb
00000150: b87b 83be 9820 3b3b 1c1b c03b 20d2 35bc
00000160: a435 643e ba01 893d 31d3 2abe a4a1 d1bc
00000170: 80da 3cbd 36f4 6abe ab22 573e 49eb b0bc
-0.24396531 0.009632092 -0.18469153 0.26438668 0.0052165147 -0.23192513 0.059473023 0.32141393
0.0019362197 0.2580327 -0.16979732 -0.1600059 0.18703085 -0.08446471 -0.020457739 -0.006307305
-0.068241894 -0.1905206 -0.03530674 -0.07671713 -0.2521465 -0.26783404 0.15645853 -0.30529484
0.022488805 -0.06355419 0.020412885 -0.054735016 0.28110662 -0.21057962 0.04647293 -0.021170577
0.06818574 -0.25427845 0.0034608406 0.024137778 0.12779047 0.012985201 -0.00024046254 0.04925404
-0.10299406 0.04077833 0.02564441 0.078993216 -0.031131346 -0.25004938 -0.04644619 -0.024278143
-0.20048645 -0.06224912 -0.20530155 0.09128872 -0.055465363 0.035659198 -0.117677614 -0.22884662
0.07213175 0.06539532 0.25260398 0.014931919 -0.016724667 0.013303361 -0.014125749 -0.010532875
0.02103956 0.26527727 0.018733934 -0.06279755 0.018626735 -0.10165466 -0.027407486 -0.094796345
-0.058174092 -0.011762049 -0.0015280254 0.1896707 -0.010485961 0.031531896 0.061477885 0.0071211737
-0.23719755 0.022112697 0.043757796 -0.007074522 -0.25680327 0.0028553363 0.0058626067 -0.011097461
0.22286087 0.066897824 -0.16682126 -0.025589772 -0.046106815 -0.22944722 0.21009319 -0.021596568

attn_net.out.weight f4 [64, 96]
00000000: 8c6f 5fbc f824 0f3c 3732 0e3c f94a 993e
00000010: 675f dabd e8e2 693d 7237 4c3e 643d b33e
00000020: aec1 f9bc 4afb 9e3e 42a4 8dbc fb58 2bbd
00000030: 52b0 e33e 511d fe3e 9615 d53c 2bb3 b73e
00000040: 9471 dd3e 0a1d 15bd 163c 123f 7cf0 113f
00000050: a47b cabc 72a1 3e3d f6e6 793e e9d8 02bd
00000060: cc06 253e a568 c93e a662 26bc 6196 793e
00000070: 67f5 0f3f 6133 3abd 8ee6 f1bd 0a4b 0f3e
00000080: 8457 17bd 8218 ed3d 8fac 16bd 775d 7cbd
00000090: 0ec9 0f3e 26d7 e43e 2c65 773e 1ae0 8fbb
000000a0: 8f94 02bc 8153 9ebd dc21 113f b194 8cbd
000000b0: ff9d 583e f4f7 853c acd7 163e a8c0 9a3d
000000c0: dc2d 4b3d 0c0f de3a 91f9 453c c576 323e
000000d0: 88d8 593e dc82 91bd e968 2d3c fc86 a73c
000000e0: 556a 1b3f 0b04 aa3e 4dd2 c53e e660 a43d
000000f0: 8f57 303e 6627 8dbd 9871 0cbd ae1c a63c
00000100: 1b85 873c 2851 123f c04d f23e 33aa ef3e
00000110: 808d 873e f5a2 893d ec7a c93e eb32 c13e
00000120: cfc1 e03e 0886 c03d ad29 e2ba 9fc6 033f
00000130: 85ab 813e 67a1 8e3d 5992 edbc 44b1 41bd
00000140: 86d5 37bd 041c edbb b96a 08be 4af2 3d3e
00000150: 157b 83bd e482 dc3d b182 e73e ada6 e63e
00000160: 79f3 fb3e 1a2e 2abd 0f41 c5ba 2420 263e
00000170: 1abc 1b3f 48d7 3d3c 45f3 a63e 4b3c ee3d
00000180: d20e 7abc 2fa1 023b a4e7 fb3b b9c3 bd3b
00000190: 4717 38bc d5f2 0c3d ebc2 c73c 2090 923c
000001a0: 082b 9e3a 8183 a93c a537 90bc dbc2 c93c
000001b0: 57bc 9e3c cca3 243d 17d0 16bc 8e1e e5bb
000001c0: ec54 d13c 1f40 b1bb 1be7 953c 7f78 063d
000001d0: 2d6c cf3b 18e8 ac3c 18ed 283d bbfc 6fbc
000001e0: 4063 433a 32be 9f3b 81ad 02bc 1428 153d
000001f0: de6d e63c 1a51 1ebc 0b12 09bc 9a16 bc3c
00000200: 7e51 b6ba a4ef dfba 38be 8bbc 0a95 d7bb
00000210: 4c7c 0a3d 6b1b 1e3c 7748 1ebb 12b0 c73b
00000220: ac4f aebb e872 f8bb 7253 cf3c 9e2b 713a
00000230: a47f 6eba 7024 d239 2264 ac3c 7867 92bc
00000240: b6ed f93a ea28 e03b 94cb ffbb c895 433d
00000250: c01a 73b9 fdd5 2b3b 8652 1abb 46ae 02bc
00000260: 8354 473d c5eb 823b 6c06 3f3d 4a85 a2bb
00000270: 36ae 133d 8668 28bb 81f7 68bb 4b11 593b
00000280: b809 da3b 5aa0 7c3d 2cc1 eb3c 1459 12bb
00000290: 50d6 1c3d 2afc 913b a0b1 303c ee22 9dbb
000002a0: 98a3 1a3c 649f a1bb 30d5 a13a 6815 cc3c
000002b0: b176 b03c 20f4 7cb9 d4d6 92ba aada e73b
000002c0: 1bfd 0bbc b13f df3b 71e4 0e3b d4ea 9cba
000002d0: dfe8 a83b c0a4 8539 af4a 8b3c cd42 0ebc
000002e0: 87f1 693d 7c59 a83a e4ad af3c b615 9c3c
000002f0: f220 353d 2cef 493c acb0 443d 68cb ffbb
00000300: ad9b 19bd b4cd 8e3b 0947 f8bb 2407 d3be
00000310: bb05 64be 27d8 5ebe fbd7 ddbe eb4a f3be
00000320: 5161 a0be 232a 06bf b99b 033d 5e68 c8bd
00000330: 386e 48bf e08d 2cbf 7fe1 ffbd 1b9c fcbe
00000340: 1838 27bf 9f59 173d 890c 3ebf cc0b 15bf
00000350: 6c8c 313b ac5a aebd 76d8 cdbe bcaa bebb
00000360: 9d30 1ebf 813b 21bf 27c1 47bd 030a d2be
00000370: 0e04 51bf c3eb 8c3c 0f3c 9cbd e05c a3be
00000380: 99e5 6cbe 0cc0 29be 63eb 56bd f2b4 35be
00000390: 1bb2 d6be aa63 1abf 1fd5 e5be d761 88be
000003a0: 0483 a5bc bc0a 58be fbda 6fbf d25d 85be
000003b0: 8043 e5be ecf3 5bbc 81b9 c1be d68a a0be
000003c0: b0d8 a4bd 7eb2 043d 2e01 133d 0e62 a9be
000003d0: 23fa d3be 26af e5bd 6047 263d a6be ce3c
000003e0: 9d7a 44bf c06c 38bf e361 1bbf 79e9 8cbe
000003f0: 3e4d 83be 1839 91bd c0da 8e3b c276 8dbc
-0.013637435 0.008736841 0.008678964 0.29940012 -0.10662728 0.05710116 0.19943026 0.35007775
-0.030487861 0.31051093 -0.017290238 -0.041832905 0.4447046 0.49631742 0.02601127 0.35878882
0.43250716 -0.036404647 0.57122934 0.57007575 -0.02471716 0.046540685 0.24404511 -0.031945143
0.16115874 0.3933765 -0.010155356 0.24373771 0.5623383 -0.045459155 -0.11811553 0.13993469
-0.036948696 0.1157694 -0.03678566 -0.061612573 0.1404154 0.44695395 0.24159688 -0.0043907287
-0.007969989 -0.07730771 0.5669229 -0.06864298 0.2115402 0.016353585 0.1473071 0.075562775
0.04960428 0.001694174 0.012083427 0.1742812 0.21274006 -0.071050376 0.010584095 0.020450108
0.60709125 0.3320621 0.3863701 0.080262944 0.17220901 -0.0689228 -0.03428802 0.020277347
0.016542962 0.57155085 0.47324944 0.4680954 0.26475143 0.06720535 0.39351594 0.3773416
0.43897864 0.094005644 -0.0017254852 0.51474947 0.25326172 0.06964379 -0.029000448 -0.047288194
-0.044881366 -0.0072360057 -0.13321961 0.18549457 -0.064199604 0.10767153 0.45216897 0.4504904
0.49209192 -0.041547872 -0.0015049296 0.16223198 0.60833895 0.011586972 0.32607475 0.11632594
-0.0152623225 0.0019932499 0.007687526 0.005791154 -0.0112360185 0.03441127 0.024384936 0.01789099
0.0012067268 0.020692589 -0.017604658 0.024629047 0.019376917 0.04019527 -0.009204886 -0.006992168
0.02555319 -0.005409255 0.018298676 0.032829758 0.006330034 0.021106765 0.041241735 -0.014647658
0.0007453449 0.004874968 -0.007975937 0.036415175 0.02812856 -0.009662891 -0.008366118 0.022959996
-0.0013909785 -0.0017084968 -0.017058477 -0.006579046 0.033809945 0.009650092 -0.002415208 0.0060939873
-0.005319556 -0.0075820573 0.025308345 0.000919992 -0.00090979994 0.0004008147 0.02104384 -0.017871603
0.0019068036 0.006840815 -0.007806251 0.047750264 -0.00023184251 0.0026220076 -0.0023547723 -0.00797612
0.04866458 0.003995391 0.046636984 -0.004959737 0.036054812 -0.0025697066 -0.0035547914 0.003312188
0.0066539906 0.06167636 0.028778635 -0.0022330927 0.03829032 0.004455109 0.010784537 -0.0047954237
0.009438418 -0.004932331 0.001234686 0.024912551 0.021540971 -0.00024123536 -0.001120294 0.0070756273
-0.008544232 0.0068130125 0.0021803642 -0.001197184 0.0051547135 0.00025490485 0.017003385 -0.008682919
0.057115104 0.0012844051 0.021445222 0.019053321 0.044220872 0.012325089 0.04802005 -0.0078062303
-0.03750198 0.004358018 -0.0075768274 -0.41216385 -0.22267811 -0.21762143 -0.43328843 -0.47518095
-0.31324247 -0.52408046 0.03213093 -0.097855315 -0.7829318 -0.67403984 -0.12494182 -0.4933785
-0.6531997 0.036950704 -0.7423788 -0.58221126 0.0027091755 -0.08513388 -0.4020421 -0.005818693
-0.6179293 -0.6298142 -0.04876819 -0.41023263 -0.8164681 0.017202264 -0.07628643 -0.31906796
-0.2313446 -0.16577166 -0.052470576 -0.17744806 -0.4193276 -0.60308325 -0.4488916 -0.26637146
-0.020204075 -0.21097845 -0.9369351 -0.26048142 -0.4477806 -0.013424855 -0.3783684 -0.31355923
-0.08049142 0.032396786 0.035889797 -0.33082622 -0.41401777 -0.112150475 0.040595412 0.025237393
-0.76749593 -0.7204094 -0.6069624 -0.27521876 -0.2564487 -0.07090968 0.004359573 -0.017268542

attn_net.out.bias f4 [64]
00000000: ed60 ba3e e8b7 743d c1b6 11bf 9856 79be
00000010: 3484 683d 248b 9dbe 0087 cbbd 13a3 913e
00000020: 4ba6 733d 7113 80bd c1fa 993e 5820 66be
00000030: b809 7bbe eccd b83e 9027 b83e 801b 52be
00000040: 62ff 69be 2c89 4bbe 34f9 6cbe 6f65 63be
00000050: 3475 fb3c e1e5 25bd 0a3b 3bbe dec3 393d
00000060: 1356 ca3e e7d5 27be 764f c3bd 10e5 52be
00000070: 5246 4fbd 1a69 54be e063 01be f587 4cbe
00000080: e445 04be edb5 9cbd 6e40 cabe f679 8dbe
00000090: 40aa 623c eb85 0b3d 5a62 d3be 2d18 d63e
000000a0: 212e d73e a166 87bd 5a23 cb3e ca2b 483c
000000b0: f600 96bd 168a c93b 6116 02be 4799 883e
000000c0: 6f6b 0cbe a86a 84bd 9cf1 873e cb2b 71be
000000d0: 38e0 843e b885 48bd 9875 333d d92b d8bc
000000e0: ab66 2a3d b24c 903c cb49 7dbc f926 0bbe
000000f0: b59f 4d3e aaa4 513c 57ec 40be b81d 963e
0.36402074 0.0597457 -0.56919485 -0.24349439 0.056766704 -0.30770218 -0.099378586 0.28444728
0.05948476 -0.06253708 0.30074123 -0.22473276 -0.24515426 0.36094606 0.35967684 -0.20518303
-0.22851327 -0.19876546 -0.23141938 -0.22206663 0.030695535 -0.040502433 -0.1828424 0.04535281
0.39518794 -0.16390191 -0.0953664 -0.20595193 -0.050604172 -0.20743218 -0.12635756 -0.19973738
-0.12917286 -0.07651887 -0.3950228 -0.2763211 0.013834536 0.03406326 -0.41285974 0.4181532
0.4202738 -0.06611372 0.3967541 0.012217471 -0.07324402 0.0061504943 -0.1270385 0.2667944
-0.13712858 -0.064656556 0.2655152 -0.23551862 0.25952315 -0.04895565 0.043813318 -0.026388096
0.041601818 0.017614696 -0.015459488 -0.13589086 0.20080455 0.012795607 -0.18840156 0.2931955

linear.weight f4 [64, 20]
00000000: daf4 433f 9048 11bf 9f80 afbe a23a 5abf
00000010: 4fde 03bf 1b94 473f 522c 5e3f 855c 3dbd
00000020: a8e5 1bbf c957 5dbf b0f4 523f 8426 4d3f
00000030: c6bb 5e3f 34c6 8e3e 74c8 29bf ef4a 30bf
00000040: 3756 3a3f 9a25 693b efc0 febe 39fc 13bf
00000050: f412 3ebc 2398 abbd bfb6 ac3d 4e92 22bd
00000060: 8245 88bc 4c4f 21bd a6fa 6b3d 199d a3bd
00000070: 9adc cf3d 8eab c4bc 61a4 0fbe 12d7 9a3d
00000080: 30d5 5a3d cb8d c03c 271d b1bd a4b2 97bc
00000090: bee4 03bd 427b 6abd daa8 b03d cd3e 57bd
000000a0: 3be4 5abe 7100 803e 1292 f93e 0bfe 05be
000000b0: 9292 56bf ca97 183c e6f0 c23d 9797 1c3e
000000c0: 4c61 9cbe a481 febc 1b51 7dbe cab8 133e
000000d0: 4963 5ebd 6863 5d3e 664c a5be 2a43 73bd
000000e0: fe6a ddbe d520 8f3e 1555 233e 4f3a a0be
000000f0: a6ae 88bd 02b6 08bd affc 82bd 7ddf 903c
00000100: 365a ee3a deb3 5c3d 28d2 a7bd 081f a5bc
00000110: e42c cebd b90f d53d cf49 a73d 6b4a 02bd
00000120: b49a 9dbd 591c 153e 39c4 06bd f36b d0bd
00000130: 8302 cf3d 60f0 a739 d377 c4bc 7814 46bd
00000140: 9d7a 513f 3d10 25bf 389f 98bd a937 5abf
00000150: 1916 07bf 57f1 463f 59f3 573f e3fc 553e
00000160: 40e6 0fbf 11c2 34bf 67e8 323f cedd 673f
00000170: 8bb1 553f 6407 01bd c4ed 36bf 8a58 25bf
00000180: e984 343f caaa b13d 44d5 ffbe c75d 1cbf
00000190: 85aa 383e 7acf f23c c2f9 9d3d 2114 6a3e
000001a0: 2a15 363e 97db fb3d 53b2 f83d 8928 5cbd
000001b0: 7108 213e f842 993e 40d0 2a3e fcd0 1abe
000001c0: bef0 d43d d672 8b3d 06b0 5d3e fd5c 8f3d
000001d0: ed8b 1d3e 643c ebbc b2b0 65bd 1592 fc3d
000001e0: f0f5 913d 94ff fd3c 2801 b33d e186 993c
000001f0: 482e 933d 972e a5bd 28d6 7b3d 6ad6 c93c
00000200: 5f9c 4dbc a32b a63b 1e32 563c c11f 9cbc
00000210: c604 0bbe 8fb7 90bd 04af bb3d b71b a0bd
00000220: 4dbb df3d b8eb 20bd 97f7 063b e0e2 1d3e
00000230: 286b 83be bf64 a8bd 1ceb 343d 942e 873e
00000240: e331 aa3e 91de 81be 4484 b6be ca64 40be
00000250: be7d 5fbd ecc0 c83e 4b7f d2be 979e 95be
00000260: d9df c2be 0c4c b43d fdef 943e 4ac0 273e
00000270: 8aed 1abe 78eb 49bd f976 07be 1318 b83e
00000280: d6aa d1be 0c13 4c3d 5e96 b83d 5d1f 833e
00000290: 144e 153e bb9f b9be d7d0 f6be e8cc dcbd
000002a0: 7bd1 253e 22f1 ae3e ba6a 1abf a79c 00bf
000002b0: 07d4 07bf bf3c c0bc 16fc 6f3e 9608 223e
000002c0: c20f 9dbe 1fcb abbd 1c20 bdbc f4bf 8c3e
000002d0: 95f2 a73d 7c82 c2bd df81 a23d 4b81 fb3c
000002e0: 7728 0fbc 0705 133d fe19 f13c 9586 27be
000002f0: a348 043e c0b8 58bc 1eae 3cbc 312e 463c
00000300: 6f81 1b3d ec92 b63d 97f4 e1bd 5e5b 723d
00000310: 4c9a 603d ffb4 8f3d 8b47 d63c 3f69 e73c
00000320: 6c39 103f ced2 36bf 6f47 9cbe bbbc 30bf
00000330: 3dee f1be 9fe0 1d3f ba55 4a3f ef18 1dbe
00000340: 5562 28bf 1c36 62bf caea 2b3f cccc 593f
00000350: 3c46 453f 1cb2 01be 4c5a 22bf 5761 0cbf
00000360: fc17 393f 9a3f 77be 84a4 10bf a140 41bf
00000370: 7987 263e b2fa debd e02f 6a3b 1622 09bc
00000380: 8043 ba3d be67 c33b bcf5 d83d 0aba 06be
00000390: 875d 9bbd 3035 8a3d a899 b73d a508 adbd
000003a0: 12f9 48be a0da c23c adb1 2f3e cbaa d3bc
000003b0: 8a3e 7e3e 4e54 0abd b77f b8bd 4abc 743e
000003c0: d233 733d d6db 063c d6bc 09be bf07 9a3d
000003d0: e38a f7bc 1f00 c53b e7d0 30bd 7b9e 503c
000003e0: 3ebd 883d 4f0d b63c f5eb fa3d db76 b23c
000003f0: ac62 c53d 8510 1bbd 7cf4 6a3c 7835 913d
0.7654549 -0.56751347 -0.34277818 -0.85245717 -0.5151109 0.77960366 0.8678638 -0.04623081
-0.608973 -0.86462075 0.82404613 0.80136895 0.8700527 0.27885592 -0.6632149 -0.6886434
0.72787803 0.003557539 -0.49756572 -0.57806736 -0.011601198 -0.08378627 0.084332936 -0.03969031
-0.016634706 -0.039382264 0.057612084 -0.079889484 0.10149498 -0.024007585 -0.1402755 0.07560553
0.053425968 0.023505112 -0.086481385 -0.0185178 -0.032200567 -0.057246454 0.08625956 -0.052550126
-0.21376126 0.25000337 0.48744255 -0.13085191 -0.838174 0.009313533 0.09518604 0.15292202
-0.30542982 -0.031067677 -0.2473797 0.1442596 -0.054293904 0.21619952 -0.3228485 -0.059390225
-0.4324569 0.27954736 0.15950425 -0.31294486 -0.066739365 -0.0333767 -0.06395852 0.017684693
0.0018184844 0.053882472 -0.08194381 -0.020156398 -0.10067156 0.104033895 0.08168375 -0.03180925
-0.07695523 0.14561595 -0.032901976 -0.1017684 0.10107901 0.00032031815 -0.023982918 -0.048359364
0.8182772 -0.644779 -0.074522436 -0.8524118 -0.52768093 0.77712005 0.84355694 0.2089725
-0.5621071 -0.7060862 0.6988587 0.9057282 0.83474034 -0.03150119 -0.7145655 -0.64588225
0.70515305 0.086751536 -0.49967396 -0.6108059 0.18033798 0.029639948 0.07713653 0.22859241
0.17781511 0.12297743 0.12143388 -0.053749595 0.15725876 0.29933906 0.16681004 -0.15118784
0.103974804 0.068090126 0.21649179 0.07000158 0.15385409 -0.02871532 -0.056076713 0.123325504
0.07126987 0.031005658 0.08740455 0.018741073 0.07186562 -0.08065527 0.061483532 0.024638373
-0.012549489 0.00507112 0.013073472 -0.01905811 -0.1357604 -0.07066261 0.09164241 -0.07817786
0.10924397 -0.0392873 0.0020594352 0.15418577 -0.2566769 -0.08222341 0.04416953 0.26402724
0.33241186 -0.25365117 -0.35647786 -0.18788448 -0.054563276 0.39209688 -0.41112742 -0.29222557
-0.38061407 0.08803567 0.29089347 0.16381946 -0.15129676 -0.049296826 -0.13228978 0.35955867
-0.4095065 0.049822852 0.09013055 0.25609866 0.14580566 -0.36254677 -0.48206207 -0.1078127
0.16193192 0.34168345 -0.603191 -0.5023903 -0.53057903 -0.023466466 0.23436007 0.15823588
-0.30676085 -0.08388352 -0.0230866 0.274902 0.08200566 -0.09497544 0.07934927 0.0307013
-0.008737675 0.035893466 0.02943134 -0.16359933 0.12918334 -0.013227642 -0.011516122 0.012095974
0.037965234 0.08914742 -0.1103298 0.059169166 0.05483465 0.07016944 0.026157161 0.028248427
0.5633762 -0.7141541 -0.3052325 -0.6903798 -0.47252074 0.6167087 0.7903706 -0.15341543
-0.6577504 -0.88363814 0.67155135 0.8507812 0.77060294 -0.126656 -0.6341903 -0.5483603
0.7230222 -0.24145356 -0.5650103 -0.7548924 0.16262616 -0.1088766 0.0035734102 -0.008369943
0.09094906 0.0059632948 0.10593745 -0.13156906 -0.07586198 0.06748426 0.089648545 -0.084489144
-0.19626263 0.02378589 0.17157622 -0.025838276 0.24828544 -0.033771805 -0.09008735 0.23899952
0.05937559 0.008231124 -0.13450941 0.07521009 -0.030217594 0.0060119773 -0.043167975 0.012733097
0.0667672 0.022223143 0.122520365 0.02178519 0.09637961 -0.03785755 0.014340516 0.070902765
