outlier-interpretation-Xu/checkpoints/okWLRSOv_checkpoint.pt (torch, 108379 bytes, 5 tensors)

attn_net.hidden.weight f4 [96, 192]
00000000: 98b1 f93b 4c28 883d 1c4b 5a3d 7fc0 d6bd
00000010: 348c a33c 765c 0dbd 734e c43d c781 17bd
00000020: 0208 e63c 78a8 2b3d 9eb5 92bc 477d 03bd
00000030: 861c 653d a4b6 0ebd 7996 39bd fa62 803c
00000040: 3a0d 8f3d 50e1 d83d 7e4a cdbc 926a 023d
00000050: 112e 05bd 5a54 c7bc ae9a 75bd 9279 693d
00000060: e3d5 a13c 5817 8bbd c3a8 883c 17f5 b53c
00000070: ab7d fdbc 677b b4bd 35d2 783c 5e0d 1b3d
00000080: ea0c f43c aeae 993d eac7 df3c d864 e13d
00000090: 522e a2bc 4092 34bd 5a26 6dbd bdde 54bd
000000a0: 825e dfbc c81f 433d de5b 163c f6d4 f1bc
000000b0: 3ea3 82bd 048e cd3d 9de7 8bbd 0808 8ebb
000000c0: d0bd b03d 5c6f 9c3c cee9 233d 7844 2abd
000000d0: 803d b13d 8e34 f53c 6fe9 a0bd fbb7 88bd
000000e0: ed3e bb3c c0c2 93bc 5f33 41bd 5923 66bd
000000f0: 83b6 19bd 503c de3b 7b57 4f3d a982 923d
00000100: 000c fdb8 e4e8 c13c 907e 963d 060c 093c
00000110: 6bab b7bd 40e8 b3bb 4af5 35bd 5ed9 e2bd
00000120: 83ad 54bc b05e 983d 4f12 a03c 518c eb3c
00000130: 25e6 413d 9c69 51bb 3061 033d 793d 2abd
00000140: 533c 853d 6ac7 1dbd 2865 ccbc d911 d43c
00000150: 8880 313d 3922 203d 14f0 33bd 81fd dc3d
00000160: 388e d33b 7c61 2f3d 345d da3c 7d73 6e3d
00000170: 209c 353c 92ce 083e db67 96bb c6d3 0ebd
00000180: af97 93bd cca7 613c 628e e03c 9808 33bc
00000190: fe14 ab3c 74e8 8bbb ad54 863c fd67 e83c
000001a0: 4892 983d 103f 883c ffe5 833d e5de 80bc
000001b0: 3884 673d bf87 163d f6e4 d33c f480 893d
000001c0: 67bd 24bd 1ef9 be3c 66a8 6c3c c609 7c3d
000001d0: f566 4cbd 1369 fb3c 5548 d5bd 0dcc cc3d
000001e0: 6a9a 48bd 8250 263d b08c b73c a0eb f0ba
000001f0: ca62 a33d 271a c23d 5a89 7fbd f898 6cbd
00000200: 0927 fe3c 3994 c13d 46f4 08bd 2aef 89bc
00000210: 20a0 5ebd c0bd 9f39 114c 14bc d3b5 99bd
00000220: e475 723c 9256 be3c 94db c1bc e152 9c3c
00000230: f0c6 633d 01c8 1e3d f84e 78bb b83a a0bd
00000240: eec8 ddbc 0077 1d3b a30c 4e3c f493 fc3c
00000250: d617 2bbd d4f6 ecbc 7470 a7bd 6c55 18bc
00000260: 8e9e 103d 04ba 393c 77ff a03c bbd8 e43c
00000270: c88d b6bc c4ba 6f3d bae6 803c 82bb 993c
00000280: 9f23 95bd d496 e33d a99f 07bd e8d4 293c
00000290: 242a 2abd 7ac2 203d 0a70 15bd 1870 f7bc
000002a0: cf7a e8bc d4c6 d13c 2b3d fdbc 0f03 7ebc
000002b0: aec6 b7bc 6cdc c83d fbee ca3c 544e a23c
000002c0: 0816 a8ba 002f d73a 0182 853c 9ab3 c9bc
000002d0: 0a5f 83bc a8ee d93b a05f 95bd caf4 a5bc
000002e0: bc29 92bd 68b8 893c 845f c4bc 548f 363d
000002f0: 760e 21bd 985c 90bc 1481 aa3b 95a2 09bd
00000300: 5ef0 9e3c 2ff7 0c3e 7bb7 033d 4928 44bd
00000310: 3aec 0fbd fa48 f73d f638 05bc 7237 08be
00000320: bba3 613d 9f7c 70bd 292c 93bd 62a4 debd
00000330: ea9f d93d 32fa 1b3d 6ed8 333d 6934 1f3d
00000340: 8171 9ebd 6c25 a03d a9fb f23d 60da e0bc
00000350: 1e49 4dbd edca 85bd 47b7 1d3e 5060 2c3d
00000360: e27e 96bd 0ad7 11be 04d3 6d3d 1689 c0bc
00000370: 1432 983b 5c44 2b3d b7d6 883d 9a20 273d
00000380: 978d d43d 7b53 ffbd 7d22 f03d a8cd 75bd
00000390: 4915 b6bd f675 fb3d 89e1 f7bc 87c1 643d
000003a0: 4a17 b03c deec 7dbd d5c7 eebd 2aa1 703d
000003b0: bbc1 18be de76 4bbd a05e 473c 680d d2bb
000003c0: 9a9c 11bc 135d bf3c e089 43bb 6345 2abd
000003d0: 1271 4b3c 4a41 0dbe 088e 4ebc 18ec 39bd
000003e0: fa23 b3bd fcd4 a8bd be35 37bd 0765 9fbc
000003f0: ca05 3bbe 4ed8 c13d 766c 493d b960 633d
0.007620048 0.06648311 0.053294286 -0.104859345 0.019964315 -0.034512006 0.095852755 -0.036989
0.02807999 0.04190871 -0.017908867 -0.032101896 0.055935405 -0.03484215 -0.045309518 0.015672196
0.06984945 0.1058985 -0.025059935 0.031839915 -0.032514635 -0.024332214 -0.059961967 0.057000704
0.01975531 -0.06791562 0.016682034 0.022211595 -0.030943712 -0.088126 0.015186836 0.037854545
0.029791314 0.07504021 0.027317006 0.110055625 -0.019797478 -0.044084787 -0.057897903 -0.051970232
-0.027266745 0.04763773 0.009177176 -0.029520493 -0.06378792 0.10036853 -0.06831286 -0.0043344535
0.08629954 0.019096069 0.040017895 -0.041569203 0.08654308 0.029932287 -0.07857024 -0.066757165
0.022857154 -0.0180372 -0.047168132 -0.056186054 -0.037527572 0.006782092 0.050620537 0.07153828
-0.00012066215 0.023670621 0.07348359 0.008364683 -0.08968242 -0.005490333 -0.04442338 -0.11076616
-0.012980822 0.07439935 0.01953998 0.028753432 0.047338624 -0.0031953817 0.032075107 -0.04156253
0.065056466 -0.038520254 -0.024950579 0.025887417 0.043335468 0.039095137 -0.04393013 0.107905395
0.006456163 0.042817578 0.02665577 0.058215607 0.011084586 0.1336005 -0.0045900173 -0.03486993
-0.07206666 0.013772916 0.027411643 -0.010927342 0.020884033 -0.004269654 0.016397798 0.028369898
0.07449776 0.016631633 0.06440353 -0.015731284 0.056522578 0.03675055 0.025866013 0.06714049
-0.04021969 0.023312148 0.014444446 0.06153276 -0.049902875 0.030689752 -0.10414187 0.09999857
-0.048975386 0.040604122 0.022405952 -0.0018380769 0.07977827 0.094776444 -0.062386848 -0.05776307
0.031024473 0.09452099 -0.033436082 -0.016837675 -0.054351926 0.00030468218 -0.009051339 -0.07505383
0.014798615 0.02323464 -0.023664273 0.019082488 0.055609643 0.038764957 -0.0037888866 -0.078237
-0.02707335 0.0024027228 0.012576255 0.030832268 -0.04177078 -0.02892629 -0.081757456 -0.00929771
0.03530746 0.0113358535 0.019653065 0.027935376 -0.022284403 0.058527723 0.015735019 0.018766169
-0.07282185 0.111127526 -0.03311125 0.010365702 -0.041544095 0.039247967 -0.036483802 -0.030204818
-0.028378872 0.025607504 -0.030912956 -0.015503659 -0.022433605 0.09807667 0.024772158 0.01981274
-0.0012823949 0.0016417205 0.016297342 -0.024621774 -0.01603653 0.0066507645 -0.0729363 -0.020258326
-0.071368665 0.016811565 -0.023971327 0.044570282 -0.03932043 -0.017622277 0.0052033756 -0.033602316
0.019401725 0.13766168 0.032157402 -0.04788998 -0.035137393 0.12074466 -0.008131256 -0.133024
0.055087786 -0.058712598 -0.07186157 -0.10871197 0.10626204 0.0380804 0.043907575 0.03886834
-0.07736493 0.07819638 0.118644066 -0.02744788 -0.050118558 -0.06532846 0.15401946 0.04208404
-0.0734842 -0.14242187 0.05806257 -0.023502868 0.0046446417 0.04181324 0.066815786 0.040802576
0.103785686 -0.124670945 0.11725328 -0.060010582 -0.088907786 0.12278359 -0.03025891 0.055848625
0.02149548 -0.061993472 -0.11659209 0.058747448 -0.14917652 -0.049673907 0.012168556 -0.0064102896
-0.008887434 0.023359811 -0.0029836819 -0.04157008 0.012417095 -0.13794437 -0.012607105 -0.045391172
-0.08747096 -0.082437485 -0.044728987 -0.019457353 -0.18263927 0.09465085 0.049175702 0.055512164

attn_net.hidden.bias f4 [96]
00000000: 1bdd 323d 696c 723e 5c2a 97bd 1a44 813d
00000010: fcb7 75bc 1c50 aabd 0388 703e 9d37 09bd
00000020: 3163 6cbe 82c3 2dbe 0d40 dc3d 9a26 8d3c
00000030: 0442 41bd 5e05 bf3d de5c 363d 4a71 42bd
00000040: 8a54 af3d c2dc b3be e6e3 92be 3061 90bb
00000050: 09c3 edbd f0eb d63c bcb9 3c3e f7e7 babc
00000060: e301 e3bd ec5e f73d 8a95 40bd e4bd 1f3d
00000070: fe4b acbd 1c50 833e 48ac 343e 1c2b d43d
00000080: 8add f0bd d4ef 4fbd 12cf 0dbe 9ef5 a4be
00000090: b7a1 043e b8c9 37bd e664 003d 1a86 ae3e
000000a0: de91 8a3e 9c21 1e3d 2f04 b13d 67ac 963e
000000b0: 5482 b33e be38 6c3d 0416 acbc ecfe 213d
000000c0: a082 c9bd 8e93 903e b82d 8f3c 6cd6 bd3c
000000d0: 3731 1d3d 3abb 0fbc 4613 41bd 0989 00bd
000000e0: ac7c b53d 6fe9 6cbe 1ad3 babb b07c b83d
000000f0: f834 06bd 505f 943e fd8c 5e3d 8dcd f63d
00000100: db0d 9fbd 93a8 893d eb56 69be 9f01 5b3d
00000110: 94c6 d4bc deb6 273d 090b c83d 109a 8e3e
00000120: 4ed9 33bd c4fb 46be d686 f73d 47c5 51be
00000130: 6e77 0f3e a88f 23bd 8aa0 f6bc 1e3d 90be
00000140: 5545 15be 5045 4a3b 6c13 62bd e749 673e
00000150: d4cf 2d3d b4c7 083e ad6f 88be 7467 7b3d
00000160: d60f e7bb 20a6 dc3b 8022 963e 85ee 98bd
00000170: 081f 79bd 3ee0 68bd 35fe e8bc db59 b8bd
0.043667894 0.23674168 -0.07381126 0.063118175 -0.014997479 -0.08316061 0.23489384 -0.033500303
-0.23084714 -0.16969112 0.10754404 0.01723032 -0.047182098 0.093271956 0.04452216 -0.047471322
0.085610464 -0.35129362 -0.28689498 -0.004406117 -0.11609466 0.02623555 0.18430227 -0.022815688
-0.11084344 0.12078652 -0.04701761 0.038999453 -0.08412932 0.25647056 0.17643845 0.10359785
-0.11761005 -0.050765827 -0.13848522 -0.3221864 0.12952314 -0.04487011 0.031346224 0.34086686
0.27064413 0.03860627 0.08643376 0.29428408 0.3506037 0.0576713 -0.021006592 0.039549753
-0.09839368 0.28237575 0.017477855 0.023173533 0.038377013 -0.008772666 -0.04713752 -0.031380687
0.0886167 -0.23135923 -0.005701435 0.09008157 -0.03276536 0.28978968 0.054333676 0.120509245
-0.077663146 0.06721606 -0.22787063 0.053468343 -0.025973596 0.04094588 0.0976773 0.27851915
-0.04390841 -0.19431978 0.12086265 -0.20485412 0.14010403 -0.039931923 -0.030105848 -0.2817163
-0.1457723 0.0030864067 -0.055194303 0.22586785 0.04243453 0.1335743 -0.26647702 0.061377957
-0.0070514483 0.006733671 0.29323196 -0.07467369 -0.06082061 -0.05685448 -0.028441528 -0.090015136

attn_net.out.weight f4 [64, 96]
00000000: d2c4 2b3e ae2f 27bd 1d4e f1bc 96eb 063d
00000010: f493 6e3d 92eb 813e 38c7 8f3d 6ca0 8f3e
00000020: 3ffd f43c 6d4a 35bd fe28 933d 40b8 3a3b
00000030: 8c90 9ebc 4a33 9fbc 833b 4e3d ce19 fd3c
00000040: a062 50bb 2e68 87bd bd76 253d a5ba a5bd
00000050: c6dd 4dbc 28ff bebc e09d f63c 3cff a13d
00000060: 5a7d 81bd d00c e5bb 510b 92bc c723 a83e
00000070: cf9d 993e 2524 f43e 52cd 853e fa36 6e3e
00000080: 07de 153e 9e81 e7bc aa48 5dbc 66ac 8abd
00000090: 36bb ccbc d659 4d3e 8191 733c 4a98 a23e
000000a0: a53f af3e 1b51 973c 7c37 1d3e b239 e63d
000000b0: f1ed a73e 6b24 073e 0da8 403d fc77 953d
000000c0: be1b 113d 800f 253e 1282 8a3c 5671 cdbc
000000d0: b634 293d ab29 803d 8c9a f7bb 2d8e 053d
000000e0: b88f 903e a7c1 57bd b019 8fbd 003f 63bd
000000f0: f9bb 613e a0a7 d83e af59 f9bc 5db0 ef3c
00000100: 7224 7f3d 598b c23e 3a55 7ebd e8cb 5dbc
00000110: c67a 723d 6285 9abd 0315 1f3e 26d8 7c3e
00000120: 44be c13d 38a4 cbbd ffdb 533d 20b2 cc3a
00000130: 80bb 53bc 8b08 66bd e83d 163c 9c09 093d
00000140: 1c47 cd3c 1c2b 8fbc 3285 4f3e e03a 2aba
00000150: 664b 103e 0635 d63e a67c 63bd 8dfe db3c
00000160: 0eed 083e 80e3 df3d f215 0b3e 2b1c 093e
00000170: 4047 ec3a 9c9d c13e 2bac 9abc ce61 a7bd
00000180: 4c7d e7bc 8879 96bb 4c0a 64bc 6406 f13c
00000190: a942 9c3d 9779 26be 7844 863d 29c9 663d
000001a0: ee82 2f3d d618 ad3d 583f f13c 441b 26bd
000001b0: 3b59 f13c 5186 2c3d d6c3 febc b8c1 693d
000001c0: eef0 733d 80f3 0d3a 2877 3ebb 8c81 833d
000001d0: 960d 813b d9fa 9cbc 2014 c33d def4 09bd
000001e0: c762 083d b1ae fdbc 1c34 0b3c d3ef 8d3d
000001f0: 005c 15ba 06a0 eabd bd19 393d 533f 653d
00000200: 708e cf3d 8523 2f3d e820 2fbd 303e 653b
00000210: bbe9 f7bd 180c e1bc cf38 9fbc f895 4cbe
00000220: 089a f23c 9e62 a43c a414 38bc 67e6 4dbd
00000230: ece3 57bc ae24 89bc ceab 793c 7c9c d6bb
00000240: 7896 fabb 74a0 273d ee81 233d 7632 93bc
00000250: 2e76 323d 8cc1 37bd f450 5b3c 18cb 1dbd
00000260: 0098 773d 552b 8f3d aef9 a83d b8ed 7abd
00000270: 9ebd acbc 25eb 3abc d524 ebbc ecbe 2a3d
00000280: ccc0 8abb 7042 19bd 8c72 98bc 88c4 c8bc
00000290: 46ab 22bd 54ae c13d 8d20 693c b8c6 c5bd
000002a0: 046d 52bd b07a 583d 42a7 1bbc 1a86 6e3d
000002b0: 8bae 483c 0ef7 993b f46b b83b a0ef 723d
000002c0: 5cfb 76bc 0663 023c dd2e 743d 58ad 863b
000002d0: 9e8e 583c 9d71 713d 02c3 38bd 7c43 5cbd
000002e0: 6e16 123d 5921 3dbd 48d3 873d 3888 e03d
000002f0: 51a0 edbc 7498 483d 2c2e 3bbc bcc6 8d3d
00000300: 0b05 e53c e03c dbbd 949a 8b3d f238 ba3c
00000310: 2c5f 9e3d 3468 42be 5417 5cbd 6876 dcbc
00000320: 777d 883d 0e76 bf3d 00b3 9cbd 587b af3c
00000330: 2156 04bd 70fe 7b3d d811 763b 4472 c13d
00000340: e0e4 a3bd ebf4 043d 245c d93c d78d 253d
00000350: 72e9 7a3c 1706 e7bc f631 973d 7659 0ebc
00000360: 62d0 84bd f86c 2a3d 3c33 44bc 3a28 8a3d
00000370: 563b 6cbd 22a1 febd fc1b 54bc 785e d93c
00000380: e8cc 3c3b acde debc 3fc8 033d 10e3 9d3d
00000390: a1c9 21be 0080 c035 a6cc 1dbd c30f 5ebe
000003a0: 9843 66bd 4502 5dbd 0630 08bd f8ba 32bd
000003b0: 17f0 02be e09f bdbd 83d1 5b3c 7868 81bc
000003c0: 84b3 f6bc 9bf5 15bd c6e6 05bd 8ee3 b9bc
000003d0: c47f b73c f809 a2bc a769 da3c a36a 843c
000003e0: 9657 db3c ad9b cf3d c2b7 a53d 5e78 a7bd
000003f0: a716 7fbd 8849 04be 24ec cc3c e069 fd3b
0.167743 -0.040816955 -0.029456193 0.032939516 0.058246568 0.25375038 0.0702042 0.2805208
0.029905913 -0.04426043 0.07185553 0.002849117 -0.019356035 -0.019433636 0.050349724 0.030896094
-0.0031797066 -0.066116676 0.04039644 -0.0809224 -0.012565082 -0.023315027 0.030104578 0.0791001
-0.06322737 -0.0069900528 -0.017827662 0.32839796 0.3000321 0.47683826 0.2613321 0.2326316
0.14635478 -0.028260048 -0.013506094 -0.06771164 -0.024991613 0.20053801 0.014866234 0.31756812
0.34228244 0.018471291 0.15353197 0.11241473 0.32798722 0.13197486 0.047035266 0.07298276
0.035426848 0.16119194 0.016907725 -0.025078457 0.041310035 0.062579475 -0.007556265 0.032606293
0.2823465 -0.052674916 -0.069873214 -0.055480003 0.22044362 0.42315388 -0.030438272 0.029258901
0.062290616 0.3799694 -0.062092997 -0.013537385 0.059199117 -0.07544972 0.15535359 0.24691829
0.094601184 -0.099434316 0.051723476 0.001561705 -0.012923121 -0.05616049 0.009170033 0.03345643
0.025058322 -0.01747661 0.20265654 -0.00064937584 0.14091262 0.4183733 -0.055538796 0.026854778
0.13371679 0.10932064 0.1358259 0.13389651 0.0018026605 0.3781556 -0.018880924 -0.08172952
-0.028257988 -0.0045921244 -0.013918471 0.029421993 0.07629902 -0.1625732 0.06556028 0.056344185
0.042849474 0.08452003 0.02944915 -0.040553346 0.029461494 0.04212028 -0.031099241 0.05706951
0.05955594 0.00054150075 -0.0029062722 0.064211935 0.003938387 -0.019162582 0.09525323 -0.03368079
0.033297326 -0.030967088 0.008496311 0.069305085 -0.0005697608 -0.11456303 0.04519056 0.055968594
0.1013459 0.042758483 -0.04275599 0.0034979694 -0.121051274 -0.027471587 -0.019436268 -0.19979084
0.029614463 0.020066556 -0.01123539 -0.050268557 -0.013176899 -0.016741123 0.015238715 -0.006549416
-0.007647332 0.040924504 0.039918832 -0.017968398 0.043569736 -0.044862315 0.013386 -0.038523763
0.060447693 0.06990687 0.082507476 -0.061261863 -0.02108651 -0.011408602 -0.028704086 0.041685984
-0.004234409 -0.037416875 -0.018609308 -0.024507776 -0.03971412 0.094570786 0.014228952 -0.09657043
-0.051373497 0.05285138 -0.009500327 0.058233358 0.012248646 0.0046986407 0.0056281034 0.059310555
-0.015074577 0.007958179 0.059615005 0.0041100197 0.013217596 0.05894624 -0.04510785 -0.053775296
0.035665922 -0.04617438 0.066320956 0.10963482 -0.029007109 0.048973516 -0.011424582 0.06922671
0.027956506 -0.1070497 0.06816593 0.022732232 0.07732996 -0.18985063 -0.053733185 -0.02691193
0.066645555 0.09348689 -0.07651329 0.02142112 -0.0323087 0.061521947 0.0037547257 0.094456226
-0.08002639 0.032460134 0.026533194 0.040418472 0.015314447 -0.028201146 0.07382576 -0.008688321
-0.06485058 0.041607827 -0.011975106 0.06745954 -0.057673775 -0.124330774 -0.012946125 0.026534304
0.0028808657 -0.027205788 0.03217339 0.07709324 -0.15799572 1.4342368e-06 -0.038525246 -0.216857
-0.056216806 -0.053957243 -0.033248924 -0.04363534 -0.127869 -0.09259009 0.013416651 -0.015796885
-0.030114897 -0.03661118 -0.032690786 -0.022691514 0.02239979 -0.019780144 0.026661707 0.01616413
0.026775163 0.10137115 0.0809169 -0.08177255 -0.062277462 -0.12918675 0.025014944 0.0077335685

attn_net.out.bias f4 [64]
00000000: e851 263e 72b5 98be a22e 89be 2c6b e83d
00000010: 9c90 54bd 5468 8ebe 4bbf a03e 0e37 aebe
00000020: a024 2dbe 24af 92be ea6f a73e 6693 0abd
00000030: 2e52 25be 2cd4 debd 88e6 a4be 040c 343c
00000040: c91e 69be d695 e83e dafa 17be a680 15be
00000050: bc96 8cbe 361e 21bd 38c8 8dbe ce73 0dbe
00000060: fc85 8bbe d1cf d93c 3974 66be 443f 063d
00000070: 44ee 14be 627e c33e ece3 56bd 6b0d 46be
00000080: 6655 273e a6e5 82be a7bb 73be e947 36bd
00000090: 2cf1 83be 00f8 7fbe 34f9 c0be 3009 dfbc
000000a0: d175 9f3e 9390 90be 67fa a63e fe67 99be
000000b0: 25da 933e 4f6a 69be 6cce 94be edf4 e73e
000000c0: d0ee e03e 44a6 5c3d dc06 9abe bc50 6c3e
000000d0: 2b6e d93e 10f7 6abe c243 8ebe b80c d43e
000000e0: 1d95 10be 6646 7fbd 2c58 b63e 81d2 893d
000000f0: 1819 a13e a360 a33e 14f4 063c aec3 923e
0.16242182 -0.29825932 -0.2679339 0.113485664 -0.051895723 -0.2781397 0.31395945 -0.34026378
-0.16908503 -0.28649247 0.3270257 -0.033831976 -0.1614463 -0.10880312 -0.3220713 0.010989193
-0.2276565 0.45426816 -0.14841786 -0.14599857 -0.2745875 -0.039335452 -0.27691817 -0.13813707
-0.2725066 0.026588352 -0.22505273 0.03277518 -0.14544016 0.3818236 -0.052463457 -0.19341056
0.1634117 -0.25565833 -0.23802052 -0.044502173 -0.25769937 -0.24996948 -0.37690127 -0.02722606
0.31144574 -0.282353 0.32612917 -0.29962152 0.2887737 -0.2279446 -0.29063737 0.4530405
0.439322 0.0538695 -0.30083358 0.23077673 0.42466864 -0.2294581 -0.2778607 0.41415954
-0.14119382 -0.062322997 0.35614145 0.067296036 0.31464458 0.31909665 0.008236904 0.28664917

linear.weight f4 [64, 30]
00000000: 3ea1 993d 2f70 2b3e 36f9 be3d b066 413e
00000010: f5a1 edbe f68a bcbe 3664 b4be 33e9 2d3e
00000020: 5e13 a63e 976f f53d 0d25 af3e b201 c0be
00000030: d0d8 9b3d ace0 ae3c 7c2b e33d dfe1 69bd
00000040: 0ea8 05be ead5 2cbe 9031 bf3e ae08 993c
00000050: 7a5f 21bd c671 bc3e 587a b13e 140f fb3d
00000060: 7268 36bd 8c73 3a3e e1db 783e c136 9bbe
00000070: a30f 95bd 0100 473d 1094 303e 5adb 87be
00000080: 6202 103d fc36 723e 8576 a63e 19ef 0abf
00000090: 4fc5 863e 85aa 83bd bd61 e4bd 405e e53d
000000a0: 0347 c23d abf3 153e c59b 24bd 307e 9bbc
000000b0: dbfb 81be ab9c d5bd ee5d ecbd b07d 55bd
000000c0: ed6b 333e 4f32 0a3e 9dd3 27bd d689 453e
000000d0: 7601 8a3d fd1e 003e ba5b 8d3c 8c37 643e
000000e0: 858f 903d 636c 5bbe 6576 593d c636 48be
000000f0: 6334 62bd 125a c5be 2600 4f3d a4c0 6c3e
00000100: 5001 b93e 6d44 d4be 8062 393e 40b3 dd3b
00000110: 1990 563e 627c 823e 0955 48be 623d 36bd
00000120: 8660 64be 868d 943e 515c a8be 4538 4ebe
00000130: 8c27 f43c a5ad 4e3e 97e1 293e a4af 273e
00000140: 2e93 593e f2c8 893e 2440 32be 34ba 9c3d
00000150: ffc1 a83d a701 cdbd 24e7 4b3c 8cec 6dbe
00000160: 40ff e23e a7aa 46be 64c1 abbb ac7a be3c
00000170: c8d1 c53d 9ed6 19bd b9e7 b5be a627 80be
00000180: 957e 84be d725 c3bc 60bc 03bc 013d 273d
00000190: 5cec 28bc ed84 8ebe a7a3 f83d f0dc 88bc
000001a0: dc9f 5b3d aee6 173d cd94 4b3d 58ed 60be
000001b0: dba8 963d 1481 613c da6e 8fbd a25d 943d
000001c0: 6a40 b1bd c0b5 813d 80b5 313b f883 0f3e
000001d0: 3e43 dcbd 5401 42be 337c 6cbe e53d 003e
000001e0: 51ff 6cbd 221d a3bd e802 a4bb 9d65 27be
000001f0: 78b5 85bd d46e 01be ffa1 c6bd 2d21 6e3d
00000200: a079 acbd 5087 8fbc 7158 813c f205 97bd
00000210: e66a e43c f5d2 4cbd 60d6 053b 9c70 0b3e
00000220: d0e1 ae3c edab 13be 1af4 01be e198 80bc
00000230: 3e19 bfbd 1e7e 2dbe 8ec7 82bc 4015 9f3a
00000240: 9f10 f13c fc0d abbc 6802 72bc 15e8 c3bd
00000250: 9d85 09be 7a42 1b3c b883 87bd d865 b5bd
00000260: 602e f63d 8467 823d 0479 c53d a037 f73d
00000270: 7e58 c1bd 47ff 763d f2d8 113d 69a2 8fbd
00000280: 8a9e c3bd f08c aa3d f24c dfbd 65ae 893c
00000290: 9d24 12bd b9e2 d3bd 10b2 90bd 5f13 803e
000002a0: 88ec eabd 65f8 9f3d 20da f939 e81b e7bd
000002b0: 7ced e03b 40f3 583b 2cc8 ba3d e6fe 3fbe
000002c0: 7676 d93d 5f2c b1bd 3807 c73d 98b8 213e
000002d0: 8959 1bbd dbcf a0be 64a1 5dbe 1b7a 93be
000002e0: fd21 2a3f a2f5 ed3e 510c 223f fe5b 3cbe
000002f0: 77ae 93be 321d 32be 4539 cfbe 09a0 123f
00000300: 2673 573b de82 99be a060 0ebe ba96 10be
00000310: f841 3c3e 765a be3e cc61 cbbe dac9 08be
00000320: 8b59 22be b304 c4be f256 a2be 4053 9ebc
00000330: 609c 48be 2be1 a73d 60db a0be 7c3f a33e
00000340: 8e1d d83e a57c f3bd 932e 8fbe 3e09 2e3d
00000350: c5ff 58be 7aca 98be 4fb2 89bd cdf7 8fbd
00000360: d777 6dbe f6d9 603d d3c3 30be 97e1 57be
00000370: 8d01 0ebe 5a74 83be a585 39be 8837 52be
00000380: f3ac debd 31db a9bc b9f0 0fbe 9b09 70be
00000390: 30f5 37be 3ca7 70be 76ad 03be 2fc0 e7bd
000003a0: 5133 42bd f4f7 60be ac51 53be 7737 97bd
000003b0: 329a 81bc 2648 8bbe e2ef 8dbe 065c d6bd
000003c0: 10dc b03a 3f37 4bbc 7288 30bd 395f ddbc
000003d0: 9aa6 a2bd 1e4a 7abd 3a69 f7bc 2646 3ebd
000003e0: a4ba 353d a85b c23b 9bda 843d 6e2d 15be
000003f0: fab8 bc3d c479 ca3d a82d 7d3c 564c e93c
0.07501458 0.16742013 0.09324877 0.18886828 -0.46412626 -0.3682477 -0.35232705 0.1698349
0.3243665 0.11984175 0.34207955 -0.37501293 0.07609713 0.021347366 0.11092278 -0.057100173
-0.13052389 -0.16878477 0.373425 0.018680897 -0.039397694 0.36805552 0.34663653 0.12258735
-0.0445332 0.1820814 0.24302627 -0.3031521 -0.07278373 0.048583988 0.17243981 -0.2653454
0.035158522 0.23653787 0.32512298 -0.54271084 0.2632241 -0.064290084 -0.111514546 0.111996174
0.09486201 0.14643733 -0.040187616 -0.01898107 -0.25387463 -0.10430273 -0.11541353 -0.052121818
0.17521639 0.13495754 -0.040973295 0.19290861 0.0673856 0.12511821 0.017255653 0.22286814
0.07058624 -0.21428065 0.053091425 -0.19552144 -0.05522574 -0.3854528 0.05053725 0.23120362
0.36133814 -0.41458455 0.18103981 0.006765753 0.20953406 0.25485522 -0.19563688 -0.044492133
-0.22302446 0.29014224 -0.32882932 -0.20138653 0.029804014 0.20183428 0.16589962 0.16375595
0.21247551 0.26911122 -0.1740728 0.07652703 0.08240127 -0.10010081 0.012445245 -0.23234767
0.44335365 -0.19401036 -0.00524156 0.023251854 0.09659153 -0.03755819 -0.35528353 -0.2503025
-0.25877824 -0.023821754 -0.008040518 0.040829662 -0.010310259 -0.2783579 0.12140589 -0.016706914
0.05361925 0.037085228 0.049702454 -0.2196554 0.073564254 0.013763685 -0.07003565 0.072444215
-0.08654864 0.06333494 0.002711624 0.14015186 -0.10755013 -0.18945819 -0.23094253 0.12523611
-0.057860676 -0.07964541 -0.0050052293 -0.16347356 -0.06528753 -0.12639934 -0.09698867 0.058137108
-0.08421636 -0.017520577 0.015789242 -0.07374181 0.027883004 -0.05000587 0.0020421967 0.13617176
0.02134791 -0.14421053 -0.12690774 -0.015697898 -0.093309864 -0.16942641 -0.015964296 0.001213707
0.02942687 -0.020880692 -0.0147710815 -0.095657505 -0.13429876 0.0094762985 -0.0661692 -0.08857316
0.12020564 0.063674 0.096422225 0.120711565 -0.09440707 0.060302045 0.035607286 -0.07013399
-0.09551723 0.08327663 -0.10903348 0.01680679 -0.03567945 -0.10345978 -0.07065213 0.2501478
-0.11470896 0.07811049 0.00047655497 -0.112846196 0.006864248 0.0033103973 0.09120211 -0.1874958
0.10618298 -0.08651041 0.09718174 0.15793073 -0.037927184 -0.3140858 -0.21643597 -0.28804097
0.6645811 0.46476465 0.63300043 -0.18394467 -0.28844044 -0.1739395 -0.4047338 0.57275444
0.003287503 -0.29982656 -0.13904047 -0.14119998 0.1838454 0.3717839 -0.3972305 -0.1335825
-0.1585447 -0.38284835 -0.3170696 -0.019326806 -0.19590902 0.08197244 -0.3141737 0.31884372
0.42210048 -0.118890084 -0.2796522 0.042489283 -0.21191318 -0.29841977 -0.06723463 -0.07029686
-0.23190247 0.054895364 -0.17262201 -0.2108215 -0.13867779 -0.25674707 -0.18117388 -0.20528996
-0.10872831 -0.020734401 -0.14056672 -0.23441164 -0.17964625 -0.23501295 -0.12859139 -0.11315953
-0.04741222 -0.21969587 -0.20636624 -0.07383626 -0.015820596 -0.27203482 -0.2772208 -0.10466771
0.0013493318 -0.012403308 -0.043098874 -0.027022945 -0.07941933 -0.06110584 -0.030201543 -0.046453618
0.044367447 0.0059313364 0.06487008 -0.14568111 0.09214969 0.09886506 0.01545278 0.028478783
