outlier-interpretation-Xu/checkpoints/OZWMuExq_checkpoint.pt (torch, 103259 bytes, 5 tensors)

attn_net.hidden.weight f4 [96, 192]
-0.078687996 0.018145308 0.021006543 0.0009795526 0.015918747 -0.023909127 0.0035369575 -0.022885
0.042745017 0.020209122 -0.031239267 -0.011692297 -0.01581841 0.029590383 -0.01452532 0.037481427
0.0013212631 0.030852523 0.03584557 -0.066288285 -0.069488905 -0.0056540286 -0.010619525 -0.0044556432
-0.031002637 0.0021616088 -0.010267624 0.016435824 -0.052140865 -0.007420675 0.004752451 -0.027565282
-0.012466603 0.01573792 0.017526032 -0.04031541 0.0067640375 -0.02263394 -0.011626001 0.0043160086
-0.03241492 -0.051893968 -0.026365157 -0.009262607 -0.041748162 0.008136019 -0.0041353367 -0.020013653
-0.056067556 0.01794763 0.011246896 -0.024912799 0.020997535 0.01430947 0.032544404 -0.01914555
0.019830875 0.050499007 -0.01263805 -0.01249904 -0.0030894422 -0.005723091 -0.013210829 -0.03605088
-0.0038229856 -0.01910672 0.007068053 0.012104563 -0.011691183 0.036374815 -0.018272353 -0.045511402
0.0017050754 -0.029693987 -0.0145043135 0.016344635 0.04616061 0.018507458 0.020919593 0.040802777
-0.0071254885 -0.006728151 -0.010550869 -0.041741014 -0.031716567 -0.01086048 0.008840784 -0.027887283
-0.0029581832 -0.02936907 0.014124644 -0.010904405 -0.042926893 0.009938454 -0.005130503 0.011596418
-0.0033724676 -0.025032192 -0.012491597 0.004905468 0.026366787 -0.023054775 -0.009624958 0.004664399
0.0011094669 -0.047168765 0.020250779 0.0044367565 -0.0056610866 0.01725815 -0.004593927 0.0074995803
0.011884134 -0.010372558 -0.035074808 -0.010026274 0.055152737 0.009921454 0.015512051 -0.015459434
0.0077205496 0.0363716 -0.011710263 -0.010337992 0.01406943 -0.018710341 0.0057066465 -0.028248502
-0.06346582 -0.008319691 0.0051749917 0.017412582 0.0015201629 0.003062593 0.021724615 -0.035496663
0.014679829 0.011904158 -0.02902317 -0.003405729 -0.0027773336 0.0030917102 0.0136423865 0.04610918
0.019749137 -0.013303251 -0.009501329 -0.05261828 -0.051685583 0.021523781 0.0015311157 -0.027208552
0.010360301 0.011039232 0.026328877 0.01706211 0.01335333 0.008988446 0.011633975 0.00078550196
0.0434218 0.01689244 -0.036757797 0.009769507 0.009150809 -0.026371162 0.006252869 3.2546464e-05
-0.044835567 -0.00857342 -0.017739259 0.02762497 -0.005366318 -0.0044524176 0.0284722 0.008696784
-0.008994128 0.023850933 -0.008277526 -0.018051248 -0.0054963087 -0.0384515 -0.019114234 -0.027637081
-0.010727968 0.014499941 0.022515384 0.010386796 0.036191013 0.009862747 0.02485302 0.0032202755
-0.24611774 -0.24003012 -0.14963053 0.05997897 0.06529745 0.22643016 0.018118817 -0.19655046
0.22846612 -0.021744583 -0.019818347 0.06440145 0.11497514 0.08448028 0.037167475 -0.005695988
-0.10042327 0.016797492 0.021380156 -0.20351034 -0.25251064 -0.052082412 -0.05511088 -0.1423413
-0.12080589 0.18269807 -0.113405146 0.032960746 -0.17708847 0.03172477 0.04285345 -0.04857003
0.20355184 -0.00625674 -0.19053334 -0.1275844 -0.013314446 0.18658568 0.10704358 -0.23901205
0.11186193 -0.085900135 0.032747913 0.17212433 -0.03536397 -0.19433635 -0.06501437 0.07150302
-0.18862426 0.09000913 -0.10793317 -0.014928317 -0.016569909 -0.24369662 -0.110235065 0.041205518
-0.06405465 0.060443584 -0.13849603 0.2280157 0.080708474 0.06289068 -0.06630107 0.13399461
00000000: 2c27 a1bd 78a5 943c ea15 ac3c 5564 803a
00000010: 0868 823c 13dd c3bc 4dcc 673b 5379 bbbc
00000020: 6615 2f3d 9a8d a53c 7ee9 ffbc 0c91 3fbc
00000030: 9c95 81bc 8867 f23c 9cfb 6dbc 2086 193d
00000040: 3c2e ad3a 6ebe fc3c ced2 123d 27c2 87bd
00000050: 3350 8ebd 6e45 b9bb 84fd 2dbc a500 92bb
00000060: 3ef9 fdbc c7a9 0d3b 8939 28bc 6ca4 863c
00000070: a991 55bd 2229 f3bb 73ba 9b3b 96d0 e1bc
00000080: b940 4cbc cfec 803c c192 8f3c c521 25bd
00000090: dca4 dd3b d06a b9bc fc7a 3ebc 4e6d 8d3b
000000a0: 82c5 04bd c58e 54bd befb d7bc 31c2 17bc
000000b0: 1f00 2bbd f04c 053c b881 87bb acf3 a3bc
000000c0: 18a7 65bd e806 933c e744 383c ed15 ccbc
000000d0: 0603 ac3c 4472 6a3c 484d 053d 21d7 9cbc
000000e0: 5c74 a23c 0cd8 4e3d d30f 4fbc c6c8 4cbc
000000f0: 3d78 4abb c488 bbbb 3c72 58bc 16aa 13bd
00000100: 0e8b 7abb b285 9cbc 209b e73b 3852 463c
00000110: 608c 3fbc c2fd 143d e7af 95bc 2a6a 3abd
00000120: d67c df3a ce40 f3bc 80a3 6dbc 2fe5 853c
00000130: e812 3d3d f49c 973c 915f ab3c d020 273d
00000140: ee7c e9bb d277 dcbb 8ddd 2cbc a0f8 2abd
00000150: 3be9 01bd 28f0 31bc f0d8 103c df73 e4bc
00000160: 14de 41bb 6797 f0bc 0d6b 673c 64a8 32bc
00000170: 1cd4 2fbd e6d4 223c c71d a8bb e7fe 3d3c
00000180: 9e04 5dbb 5010 cdbc 8ea9 4cbc 0cbe a03b
00000190: 29ff d73c 5edd bcbc 00b2 1dbc d1d7 983b
000001a0: 886b 913a 0934 41bd f6e4 a53c 3662 913b
000001b0: a380 b9bb f760 8d3c a788 96bb 0abf f53b
000001c0: acb5 423c a9f1 29bc 9aaa 0fbd 3e45 24bc
000001d0: d6e7 613d 988d 223c 4226 7e3c 9149 7dbc
000001e0: aafc fc3b 63fa 143d 67dc 3fbc ae60 29bc
000001f0: 7783 663c 6e46 99bc d2fe ba3b 6769 e7bc
00000200: 5efa 81bd 504f 08bc fa92 a93b d5a4 8e3c
00000210: 3440 c73a c9b5 483b d2f7 b13c f364 11bd
00000220: aa83 703c a809 433c 00c2 edbc a732 5fbb
00000230: ed03 36bb 4a9e 4a3b 5184 5f3c fbdc 3c3d
00000240: f1c8 a13c e1f5 59bc 76ab 1bbc 4486 57bd
00000250: 43b4 53bd a452 b03c b8af c83a 78e4 debc
00000260: 40be 293c e5dd 343c a8af d73c d7c5 8b3c
00000270: edc7 5a3c 4644 133c 6e9c 3e3c 25ea 4d3a
00000280: 0fdb 313d 0462 8a3c 588f 16bd 4810 203c
00000290: 46ed 153c 5608 d8bc dee4 cc3b 8082 0838
000002a0: 80a5 37bd 8877 0cbc ec51 91bc c34d e23c
000002b0: f0d7 afbb 96e5 91bb 883e e93c f57c 0e3c
000002c0: 1b5c 13bc 0863 c33c 769e 07bc 36e0 93bc
000002d0: 611a b4bb 527f 1dbd 7495 9cbc 2967 e2bc
000002e0: 5cc4 2fbc 2991 6d3c 2f72 b83c 612d 2a3c
000002f0: 073d 143d 5c97 213c 9098 cb3c 420b 533b
00000300: 4a06 7cbe 75ca 75be bf38 19be 82ac 753d
00000310: abba 853d 4fdd 673e ea6d 943c 8644 49be
00000320: 06f3 693e b221 b2bc 165a a2bc e8e4 833d
00000330: 1678 eb3d ff03 ad3d ec3c 183d 69a5 babb
00000340: b7aa cdbd e59a 893c 7025 af3c 0465 50be
00000350: 1349 81be 5e54 55bd f2bb 61bd ebc1 11be
00000360: 1469 f7bd 3415 3b3e f540 e8bd d901 073d
00000370: ae56 35be d5f1 013d 1987 2f3d 5ef1 46bd
00000380: e56f 503e 5705 cdbb 2c1b 43be 7ca5 02be
00000390: d624 5abc 5110 3f3e aa39 db3d 93bf 74be
000003a0: de17 e53d 69ec afbd ad22 063d 5c41 303e
000003b0: cfd9 10bd 1c00 47be 4126 85bd 2d70 923d
000003c0: b826 41be b556 b83d 110c ddbd e695 74bc
000003d0: 9ebd 87bc 9b8b 79be ecc2 e1bd 1ec7 283d
000003e0: 162f 83bd b193 773d e7d1 0dbe f37c 693e
000003f0: 7c4a a53d d4cc 803d dbc8 87bd e235 093e

attn_net.hidden.bias f4 [96]
-0.025020467 -0.27864644 0.2377599 -0.23972324 0.06475925 0.060319494 0.050461456 0.23901878
0.008350413 -0.06753044 -0.071741015 0.0030395507 -0.064438775 0.15610328 0.07061025 0.044629887
0.06889055 0.018724477 0.05783224 0.00569883 0.054977354 0.29428586 0.044581976 -0.2668711
-0.04063691 0.051974654 -0.061348215 0.22013322 0.13539758 -0.06331749 -0.20627719 -0.054397814
-0.029453814 0.1096349 0.040755227 0.058859583 -0.010417696 -0.277114 0.16945176 0.009479875
-0.067678355 -0.04003252 0.045434494 0.027312841 0.027173245 0.062110472 0.031655885 -0.022953933
-0.053009037 -0.16148163 -0.028198244 0.0026974243 -0.07414048 -0.25691992 0.048511036 0.04168432
0.016625645 0.08002082 -0.10350843 0.092137866 0.008352544 -0.053724773 -0.06316405 0.12316192
0.072938114 0.050620962 0.008904513 0.017637188 -0.037815265 -0.24945597 0.060414363 -0.18726785
-0.013869012 -0.10672817 -0.04954953 -0.23982888 -0.028781544 -0.11372494 -0.18765429 0.07516483
0.080790155 0.021092055 -0.095977016 0.009455796 -0.056842 0.0034589833 0.049408775 0.036308642
-0.20314449 0.028837241 0.07915336 0.15571874 0.20261808 0.114257805 -0.16190825 -0.07972671
00000000: b9f7 ccbc bfaa 8ebe 5577 733e 027a 75be
00000010: 7fa0 843d 9311 773d acb0 4e3d 57c1 743e
00000020: 2cd0 083c 664d 8abd f4ec 92bd 3333 473b
00000030: 7af8 83bd 8ad9 1f3e 1b9c 903d d4cd 363d
00000040: 7d16 8d3d 1364 993c 80e1 6c3d 40bd ba3b
00000050: ef2f 613d a3ac 963e 979b 363d 54a3 88be
00000060: e372 26bd 60e3 543d 4448 7bbd 9a6a 613e
00000070: aaa5 0a3e 9aac 81bd 543a 53be 3ed0 5ebd
00000080: 2049 f1bc 4388 e03d f4ee 263d bf16 713d
00000090: fcae 2abc e3e1 8dbe c384 2d3e 7a51 1b3c
000000a0: f39a 8abd 24f9 23bd 8519 3a3d 2ebf df3c
000000b0: 6d9a de3c 8d67 7e3d 9aa9 013d e309 bcbc
000000c0: 0120 59bd 715b 25be 0100 e7bc 45c7 303b
000000d0: f7d6 97bd 028b 83be 82b3 463d 2dbd 2a3d
000000e0: 8132 883c f5e1 a33d 3afc d3bd c7b2 bc3d
000000f0: 1cd9 083c 820e 5cbd 275c 81bd 513c fc3d
00000100: 9460 953d ed57 4f3d 3ce4 113c dd7b 903c
00000110: 2ee4 1abd 6371 7fbe 0d75 773d 25c3 3fbe
00000120: da3a 63bc 4c94 dabd 73f4 4abd b495 75be
00000130: 46c7 ebbc 9fe8 e8bd 7228 40be 05f0 993d
00000140: 4f75 a53d 3fc9 ac3c 998f c4bd 7cec 1a3c
00000150: 28d3 68bd 1cb0 623b db60 4a3d 5fb8 143d
00000160: 1c05 50be 143c ec3c 281b a23d bc74 1f3e
00000170: 1d7b 4f3e ffff e93d 47cb 25be c247 a3bd

attn_net.out.weight f4 [64, 96]
0.15823604 -0.030469384 0.9926265 -0.008090239 -0.030257648 0.13188544 0.21310402 0.95298314
0.02463303 0.101133816 -0.02453735 0.04629875 0.08880606 0.59852964 0.27811626 0.48341286
0.14501536 -0.02051291 0.44437754 -0.06713679 -0.046545602 0.91130596 0.2407529 -0.0061325277
0.14870176 0.35040718 0.09015625 0.98171556 0.5999738 0.078557715 0.018748239 0.42866236
0.021026853 0.8064205 0.15794154 0.14049523 -0.031749286 -0.061667282 0.7502713 0.42001945
0.09207342 0.14675744 0.45888692 0.10375158 0.16051549 0.2054422 0.13446525 -0.05026647
0.06449695 0.014513718 0.12354304 -0.009505401 -0.05753108 -0.057626218 0.48798415 0.34742242
0.16701262 0.7023761 -0.03913305 0.79398024 0.47192106 -0.041018836 -0.008148771 0.6949726
0.2357057 0.32088983 -0.031826645 -0.0053887446 0.2977041 0.01444988 0.024732511 -0.033443034
0.0061086006 -0.046549886 0.3826991 -0.02248525 0.044348575 -0.067568734 0.031491246 0.28449422
0.74064934 0.043338597 0.33036965 0.19430327 0.1039149 0.124737695 -0.052820284 0.123960994
-0.016801814 0.0036926034 0.19930975 0.7057563 0.8481441 0.533672 0.026428577 0.15949821
0.114189014 0.1308787 0.66677165 -0.0638846 0.18447147 -0.06802516 0.071519114 0.69039017
0.02201213 0.116100624 0.29491365 -0.08729383 0.2888311 0.54460865 -0.03329872 0.59763956
0.05503086 -0.07240805 0.49263218 0.16599528 0.08748141 0.6178975 0.45990154 0.22431718
0.27487293 0.112092346 0.18223967 0.7017292 0.5884757 0.12733659 -0.025229927 0.4617481
0.093042836 0.67169774 -0.09837132 -0.064775266 -0.0061731124 0.30024415 0.5834622 0.5206887
0.4048297 0.20149365 0.5247073 -0.10252777 0.08772403 -0.006808523 -0.059494015 0.24832396
0.21074651 -0.04038223 0.14875138 0.04362008 -0.0005098386 0.19914891 0.6250498 0.09183443
0.15950176 0.584701 -0.018456541 0.5234343 0.5835617 0.081628665 0.12395156 0.533162
0.05966975 0.10895153 -0.055562995 -0.018292977 0.194861 0.18972363 -0.10757168 0.17816418
-0.008308474 -0.02423811 0.41305035 0.14373732 -0.020186258 0.16522895 0.25233418 0.07103946
0.5473721 0.027980959 0.45062205 -0.04761052 0.39611745 0.18252696 -0.06377599 0.035365682
0.024706593 -0.02018269 0.19309364 0.6259062 0.6738498 0.5693843 -0.07157386 0.42741475
-0.0102371 0.0040620626 -0.043541387 -0.0024493975 -0.07106278 -0.00068987603 -0.0002265859 0.011664933
-0.0025258542 -0.025230631 -0.05313761 0.028503586 -0.005448436 -0.043189354 -0.005588377 -0.052470926
-0.026568286 -0.02980125 -0.0121268965 -0.039331865 0.0049630664 -0.035391204 -0.07135802 0.018333608
0.008075499 -0.0007783607 0.039825417 -0.0440861 -0.053862404 0.009585092 0.0121776555 0.028574593
0.014105787 -0.056030754 -0.002671348 -0.021363292 -0.0019998897 -0.029401641 -0.014863066 0.06881094
-0.0197317 0.037924856 -0.06604601 -0.03161425 0.0023444667 -0.005428014 0.0020056902 -0.030255191
0.033892225 -0.005296106 0.013660878 0.034898695 0.015609966 -0.05345705 0.07006069 -0.022557387
0.0077465484 0.059768606 -0.021292692 -0.0342633 0.011256216 0.074228995 -0.0008885127 0.01574532
00000000: a108 223e ee9a f9bc c51c 7e3f ec8c 04bc
00000010: e3de f7bc fa0c 073e f137 5a3e b4f6 733f
00000020: 35cb c93c 3f1f cf3d 8d02 c9bc c2a3 3d3d
00000030: f4df b53d 3d39 193f 4165 8e3e e481 f73e
00000040: e87e 143e b10a a8bc 7485 e33e 037f 89bd
00000050: 9aa6 3ebd 594b 693f ee87 763e 5ff3 c8bb
00000060: 4645 183e 9268 b33e d7a3 b83d b651 7b3f
00000070: e297 193f dee2 a03d e895 993c a279 db3e
00000080: 8240 ac3c 9371 4e3f 6dbb 213e fbdd 0f3e
00000090: 8a0b 02bd d596 7cbd c811 403f ca0c d73e
000000a0: fd90 bc3d 9547 163e 3af3 ea3e b57b d43d
000000b0: 2c5e 243e 715f 523e 42b1 093e 37e4 4dbd
000000c0: fa16 843d f2ca 6d3c 2204 fd3d 8bbc 1bbc
000000d0: b6a5 6bbd 7809 6cbd 0fd9 f93e 5ae1 b13e
000000e0: 5b05 2b3e ecce 333f fa49 20bd 4a42 4b3f
000000f0: a39f f13e 5e03 28bd 6c82 05bc b9e9 313f
00000100: d65c 713e ac4b a43e a85c 02bd 1194 b0bb
00000110: ac6c 983e 31bf 6c3c d69b ca3c 90fb 08bd
00000120: a82a c83b 18ab 3ebd 23f1 c33e fd32 b8bc
00000130: daa6 353d 7a61 8abd f7fc 003d 3aa9 913e
00000140: 329b 3d3f d083 313d 3626 a93e 70f7 463e
00000150: 56d1 d43d 7a76 ff3d 155a 58bd 43df fd3d
00000160: f5a3 89bc 9bff 713b db17 4c3e 72ac 343f
00000170: f91f 593f ba9e 083f be80 d83c 8053 233e
00000180: eedb e93d 1105 063e 8cb1 2a3f eed5 82bd
00000190: 17e6 3c3e c650 8bbd 9d78 923d 69bd 303f
000001a0: c852 b43c 2ac6 ed3d ecfe 963e 1cc7 b2bd
000001b0: ace1 933e 796b 0b3f 3d64 08bd e8fe 183f
000001c0: 0a68 613d ac4a 94bd 493a fc3e abfa 293e
000001d0: 7429 b33d 882e 1e3f 3778 eb3e 67b3 653e
000001e0: 25bc 8c3e ac90 e53d 099d 3a3e 86a4 333f
000001f0: 58a6 163f 8664 023e feae cebc 3f6a ec3e
00000200: 3e8d be3d 62f4 2b3f e776 c9bd e5a8 84bd
00000210: d247 cabb 9ab9 993e c75d 153f db4b 053f
00000220: d745 cf3e 5a54 4e3e 3853 063f 14fa d1bd
00000230: a8a8 b33d 081a dfbb ffaf 73bd a348 7e3e
00000240: efcd 573e d667 25bd 4852 183e f8aa 323d
00000250: b0a6 05ba b1ed 4b3e 4403 203f b113 bc3d
00000260: 6e54 233e f7ae 153f 2c32 97bc caff 053f
00000270: 4d64 153f ee2c a73d 51da fd3d 4e7d 083f
00000280: 4568 743d fb21 df3d 0696 63bd 27db 95bc
00000290: a489 473e e946 423e 8a4e dcbd ac70 363e
000002a0: 4420 08bc 008f c6bc 567b d33e e02f 133e
000002b0: a75d a5bc c731 293e f231 813e 237d 913d
000002c0: 9420 0c3f 5338 e53c efb7 e63e 4003 43bd
000002d0: e8cf ca3e 59e8 3a3e fc9c 82bd 9bdb 103d
000002e0: 7b65 ca3c 2b56 a5bc 57ba 453e 643b 203f
000002f0: 6c81 2c3f 2bc3 113f 5195 92bd 1bd6 da3e
00000300: 82b9 27bc 0d1b 853b 7458 32bd 1286 20bb
00000310: 5d89 91bd ccd8 34ba b097 6db9 461e 3f3c
00000320: cd88 25bb 78b0 cebc d3a6 59bd 5a80 e93c
00000330: cb88 b2bb 52e7 30bd b41e b7bb c1eb 56bd
00000340: bca5 d9bc c021 f4bc e4af 46bc 731a 21bd
00000350: 38a1 a23b 5ef6 10bd 2724 92bd 5d30 963c
00000360: 194f 043c e70a 4cba fa1f 233d a093 34bd
00000370: d39e 5cbd ca0a 1d3c ca84 473c 4415 ea3c
00000380: f51b 673c 8180 65bd c811 2fbb 1202 afbc
00000390: 9510 03bb b6db f0bc 3884 73bc c0ec 8c3d
000003a0: 60a4 a1bc 1857 1b3d 2143 87bd f27d 01bd
000003b0: a0a5 193b 7bdd b1bb e671 033b bcd9 f7bc
000003c0: 93d2 0a3d f58a adbb e0d1 5f3c eff1 0e3d
000003d0: f1c0 7f3c c8f5 5abd fb7b 8f3d 45ca b8bc
000003e0: c2d6 fd3b edcf 743d 036e aebc ad57 0cbd
000003f0: fe6b 383c 5f05 983d 14eb 68ba 54fc 803c

attn_net.out.bias f4 [64]
0.12006027 0.42187878 0.11650945 -0.2146201 0.03598212 0.41696882 -0.20054422 0.23906042
0.04186649 -0.1979231 -0.19957529 -0.28786853 0.25117588 -0.11919101 -0.24768378 0.0051623927
-0.22410458 -0.24659148 -0.3086571 0.29688168 0.36499512 -0.28434774 -0.16636792 0.045773115
-0.021342719 -0.21323346 -0.34748113 -0.21825811 0.37599003 0.03718403 -0.22291642 -0.21520321
0.29327154 -0.49276528 0.39441434 -0.2831709 -0.2785203 -0.0012250112 -0.2775473 0.24641435
-0.019182166 0.31417853 -0.26345816 0.31202456 0.046979494 0.285933 -0.106830455 -0.06366629
0.2570179 0.12161891 0.31737968 -0.12731689 0.15324277 0.37047455 -0.2602889 -0.15095694
0.047813617 -0.011692067 0.15658991 0.35123262 -0.15101925 -0.1795356 -0.31568393 -0.009438456
00000000: 29e2 f53d 7f00 d83e 829c ee3d 5fc5 5bbe
00000010: fd61 133d f07c d53e 775b 4dbe 41cc 743e
00000020: 327c 2b3d 5aac 4abe 775d 4cbe 8163 93be
00000030: 209a 803e 6b1a f4bd d1a0 7dbe 4a29 a93b
00000040: ac7b 65be 7a82 7cbe 4e08 9ebe e000 983e
00000050: a4e0 ba3e 0796 91be 5a5c 2abe 977c 3b3d
00000060: edd6 aebc df59 5abe 0ce9 b1be 0e7f 5fbe
00000070: c481 c03e 484e 183d 3444 64be 3b5e 5cbe
00000080: b027 963e bb4b fcbe adf0 c93e c7fb 90be
00000090: 369a 8ebe 8e90 a0ba ae1a 8ebe 0b54 7c3e
000000a0: eb23 9dbc 02dc a03e fde3 86be afc1 9f3e
000000b0: 926d 403d cf65 923e edc9 dabd 7963 82bd
000000c0: da97 833e 5613 f93d 977f a23e 5c5f 02be
000000d0: aceb 1c3e d7ae bd3e 9644 85be 7594 1abe
000000e0: 36d8 433d 1590 3fbc 1b59 203e c3d4 b33e
000000f0: caa4 1abe 2ed8 37be 53a1 a1be c1a3 1abc

linear.weight f4 [64, 10]
1.2104942 0.7682477 1.0025543 1.1484361 1.2500839 -0.9101425 -0.14750063 -0.58645856
1.3299013 -0.9085189 1.2117624 0.7459974 1.0284439 1.2506303 1.1473223 -0.9659258
-0.2023612 -0.48495862 1.1687409 -0.8728448 -0.098698735 0.16654786 0.10610792 0.021714708
-0.11580029 0.06344396 0.021668581 -0.03374596 0.059632625 -0.044649523 0.042255163 0.014772634
0.025148649 -0.041849926 0.004517869 0.09913795 -0.07919508 -0.014744776 0.0096036345 0.034998357
0.031328663 -0.04505404 -0.009368624 -0.012675844 -0.065107346 0.027062334 0.03658334 0.073732935
-0.0012602524 -0.032094143 -0.92495084 -0.90657425 -0.63145286 -0.87378466 -0.9574305 0.61148375
0.1623344 0.43556646 -0.8843987 0.66260827 -0.017824901 -0.052382942 -0.08652074 -0.10509987
0.10767469 -0.009079774 0.062270034 -0.034181364 -0.041207418 -0.0379605 1.2005259 0.77106535
0.90477586 1.0530843 0.8847429 -0.76734394 -0.14630322 -0.54260916 1.0374002 -0.9173424
-0.8691873 -0.7207709 -0.58440924 -0.9447688 -0.71176475 0.39873555 0.07963227 0.3103631
-1.0881592 0.46044585 0.12006645 -0.031445306 -0.016421748 0.10978223 -0.024847325 0.07750207
0.06817873 0.12202552 0.109739155 -0.03374433 -0.02761382 0.03362192 -0.06621798 0.057575513
0.06837555 -0.11484371 -0.053711735 -0.08637013 0.14712745 -0.05000717 -0.11020911 0.16587941
-0.14247319 -0.04275086 -0.07224464 0.030082026 -0.07809468 -0.17692566 0.051506452 -0.118460566
-0.93215114 -1.2544047 -1.0138153 -1.0333765 -1.3300188 0.70372987 0.23411557 0.65516335
-1.2697737 1.0244516 -0.089219086 0.022808213 -0.05436486 -0.08473777 0.006007326 0.15497431
-0.021000404 0.10882436 -0.09260875 0.08325246 0.021798896 -0.024162289 -0.07587732 -0.04457427
0.040747676 -0.06060115 0.042065073 0.02699191 0.0511695 -0.004692029 -0.580544 -0.5200802
-0.5050156 -0.6467885 -0.6268423 0.32698068 0.17871003 0.13498233 -0.7912162 0.27755532
0.05878609 -0.0054947603 0.05660024 0.018598886 -0.095653795 -0.040374074 -0.05571478 0.07287396
0.0739089 0.03622827 0.00106227 0.05823874 0.05981454 0.0016560531 -0.060015555 0.05733142
0.103748225 0.10064256 0.031085305 0.034370884 -0.042824734 0.13717276 -0.12742989 -0.006857155
-0.048928075 0.0054803393 -0.024360048 -0.07645223 -0.10761499 -0.10048224 1.0514272 1.0403533
1.0055137 1.2571685 0.8385062 -0.9271064 -0.2628389 -0.67364234 1.2301459 -0.97167325
1.1177086 0.9894503 0.99742174 1.2601615 1.2498021 -0.8624336 -0.23664662 -0.6744706
1.1635759 -0.9689059 -0.05828484 -0.009242078 -0.0144611355 -0.12818137 0.080218114 -0.020234872
0.034702912 0.029539691 0.059410986 -0.026832398 0.008407518 0.07703759 0.028918985 0.01988596
0.010191359 0.07065934 -0.020115688 -0.092017315 0.0280086 -0.0441759 -0.09031894 0.22949442
0.21992785 0.08697682 0.095085606 -0.018838534 -0.14294857 0.039767023 0.21658546 -0.023160683
0.07211367 0.066499285 0.091804706 0.0030675302 0.09132125 -0.058902677 0.04902269 0.0930748
-0.046120167 0.14072375 0.03206663 0.096339524 -0.02470704 -0.016851649 0.031422634 0.0926445
00000000: 79f1 9a3f e2ab 443f b353 803f f4ff 923f
00000010: c002 a03f 19ff 68bf 680a 17be 2622 16bf
00000020: 353a aa3f b294 68bf 081b 9b3f b0f9 3e3f
00000030: 0da4 833f a714 a03f 75db 923f ea46 77bf
00000040: c637 4fbe 7f4c f8be 4d99 953f c272 5fbf
00000050: 9022 cabd 868b 2a3e 1c4f d93d 0be3 b13c
00000060: b428 edbd e8ee 813d 4f82 b13c 3439 0abd
00000070: 5741 743d 6be2 36bd c013 2d3d eb08 723c
00000080: 8a04 ce3c d46a 2bbd a20a 943b d608 cb3d
00000090: 0831 a2bd 1394 71bc 9058 1d3c 705a 0f3d
000000a0: 7c52 003d 968a 38bd db7e 19bc 58ae 4fbc
000000b0: 0057 85bd d4b1 dd3c 6ad8 153d 4b01 973d
000000c0: 0e2f a5ba 2675 03bd 94c9 6cbf 4015 68bf
000000d0: e5a6 21bf 5ab0 5fbf 2a1a 75bf 338a 1c3f
000000e0: fd3a 263e 9102 df3e f467 62bf b2a0 293f
000000f0: 8705 92bc 7f8f 56bd c931 b1bd 9a3e d7bd
00000100: 8c84 dc3d 55c3 14bc dd0e 7f3d c201 0cbd
00000110: 1cc9 28bd 787c 1bbd d5aa 993f 8a64 453f
00000120: 649f 673f 77cb 863f 837e 623f a770 44bf
00000130: 83d0 15be 6fe8 0abf 88c9 843f f4d6 6abf
00000140: 0f83 5ebf 7184 38bf d89b 15bf 5edc 71bf
00000150: 3736 36bf 1127 cc3e 3e16 a33d eae7 9e3e
00000160: cd48 8bbf 8fbf eb3e 66e5 f53d cbcc 00bd
00000170: e786 86bc 81d5 e03d 9e8c cbbc 68b9 9e3d
00000180: 4aa1 8b3d 84e8 f93d ecbe e03d 7f37 0abd
00000190: 6136 e2bc 23b7 093d 4b9d 87bd 4dd4 6b3d
000001a0: 7b08 8c3d 2e33 ebbd d600 5cbd d3e2 b0bd
000001b0: 94a8 163e 51d4 4cbd 50b5 e1bd 4bdc 293e
000001c0: 7ee4 11be 871b 2fbd fff4 93bd 956e f63c
000001d0: 1bf0 9fbd 002c 35be 6ef8 523d 749b f2bd
000001e0: 75a1 6ebf 5590 a0bf b3c4 81bf ae45 84bf
000001f0: 0e3e aabf a427 343f febb 6f3e c9b8 273f
00000200: f287 a2bf 3b21 833f 7fb8 b6bd 4ad8 ba3c
00000210: b0ad 5ebd ff8a adbd 1ad9 c43b 96b1 1e3e
00000220: 0a09 acbc 4edf de3d a8a9 bdbd 4480 aa3d
00000230: 9993 b23c feef c5bc 9165 9bbd 8293 36bd
00000240: 09e7 263d e938 78bd 6d4c 2c3d 231e dd3c
00000250: 1c97 513d 98bf 99bb 889e 14bf fa23 05bf
00000260: b448 01bf ee93 25bf bd78 20bf 036a a73e
00000270: c3ff 363e cf38 0a3e 258d 4abf bb1b 8e3e
00000280: afc9 703d 640d b4bb a7d5 673d b15c 983c
00000290: 23e6 c3bd 495f 25bd 2e35 64bd f13e 953d
000002a0: 8d5d 973d 1864 143d de3b 8b3a bf8b 6e3d
000002b0: 1700 753d ec0f d93a dfd2 75bd 5ad4 6a3d
000002c0: f379 d43d b01d ce3d 9ca6 fe3c 7cc8 0c3d
000002d0: fd68 2fbd 0477 0c3e fb7c 02be fcb1 e0bb
000002e0: ce68 48bd 6b94 b33b b98e c7bc fd92 9cbd
000002f0: 3f65 dcbd a2c9 cdbd 2b95 863f 4c2a 853f
00000300: acb4 803f e6ea a03f 58a8 563f d856 6dbf
00000310: d292 86be d373 2cbf 6c75 9d3f 94bf 78bf
00000320: 1311 8f3f 9d4c 7d3f 0857 7f3f f94c a13f
00000330: 84f9 9f3f 73c8 5cbf 7e53 72be 1baa 2cbf
00000340: 0ef0 943f 380a 78bf 16bc 6ebd 166c 17bc
00000350: 66ee 6cbc fa41 03be 6549 a43d 9ac3 a5bc
00000360: a424 0e3d 39fd f13c ef58 733d 9ecf dbbc
00000370: b0bf 093c e2c5 9d3d 82e7 ec3c e1e7 a23c
00000380: a8f9 263c d8b5 903d a8c9 a4bc 9373 bcbd
00000390: 4b72 e53c caf1 34bd 23f9 b8bd 9600 6b3e
000003a0: c434 613e e720 b23d 3ebc c23d 4553 9abc
000003b0: 1c61 12be bfe2 223d 94c8 5d3e 79bb bdbc
000003c0: 55b0 933d c730 883d 1b04 bc3d 9e08 493b
000003d0: a306 bb3d ef43 71bd 04cc 483d 009e be3d
000003e0: 80e8 3cbd e319 103e 4c58 033d a84d c53d
000003f0: 6b66 cabc 780c 8abc 05b5 003d 66bc bd3d
