outlier-interpretation-Xu/checkpoints/qxtWOhrb_checkpoint.pt (torch, 103259 bytes, 5 tensors)

attn_net.hidden.weight f4 [96, 192]
000000 9a 02 4d 3c 1c 3d dd 3b 2b e7 49 3d c3 e5 70 3d
       0.012512827 0.0067516696 0.049292725 0.058812868
000010 47 f2 17 3d 7b 2d 26 3b 99 4c d2 3b 00 71 8a 3d
       0.037096288 0.0025356698 0.0064178226 0.06759834
000020 27 f9 a5 3d c0 8d 87 bd 3a 28 9e 3a 50 ff c1 bc
       0.08104163 -0.066188335 0.0012066432 -0.023681313
000030 08 a4 13 bc 40 3b b7 3b 40 b2 b9 3c 57 89 82 3d
       -0.009011276 0.00559178 0.022668004 0.06373852
000040 25 61 f3 bb 1e 6e 67 bc ee ed 93 3b 83 d0 28 3c
       -0.007427352 -0.014125375 0.0045144474 0.010303619
000050 2a df 97 3a 47 e7 36 3d 8f a7 8c bd 9c 45 a2 3b
       0.0011586894 0.044654157 -0.06867897 0.0049521457
000060 96 3a 65 3d b2 63 34 3c 10 e7 65 bd b4 fb fa 3b
       0.055964075 0.011010097 -0.05612856 0.0076594
000070 1b 99 85 3b af 67 19 3c 57 0d 00 3b b2 8a 89 3c
       0.0040770895 0.009363099 0.0019539201 0.016789768
000080 ee 92 e6 bc 8a c4 a1 3b bc d9 dc ba f3 89 96 3c
       -0.028146233 0.0049367594 -0.0016849558 0.018376326
000090 53 02 a0 bd e0 6e 5a b9 d8 70 da b9 a2 23 9c bc
       -0.07812943 -0.00020831404 -0.00041664275 -0.01905996
0000a0 f3 2b 06 bc d6 45 ba bc e6 69 78 bc 8c 87 17 3c
       -0.008189189 -0.022738378 -0.015161967 0.0092486255
0000b0 d1 56 cc 3c 53 01 07 3c 38 b0 29 3c 0e c6 05 bb
       0.024943741 0.008240062 0.010356955 -0.002041224
0000c0 1a 52 df bc c0 a5 d2 bc d0 88 3c ba bd 9b 2d bb
       -0.027260829 -0.025713801 -0.00071920175 -0.0026490532
0000d0 30 2f a2 3b ca a4 b1 bb 2c ed e1 3c a0 35 34 bc
       0.004949473 -0.0054212557 0.027578913 -0.010999113
0000e0 25 c8 7b 3c 79 39 49 bc f7 02 94 bb 22 34 61 3b
       0.015367542 -0.012281769 -0.004516955 0.003436335
0000f0 ba 90 d8 bc 04 d3 fa 3c 38 bf 8a 3d 5e b1 53 ba
       -0.026436199 0.030618198 0.06774753 -0.0008075441
000100 95 98 93 bc c7 a5 ca bb bf f0 87 3a 70 1d 6a 39
       -0.018017093 -0.006184313 0.001037143 0.00022326945
000110 dc 03 aa bc 68 77 94 bb 1c 7a c2 bc c7 02 db bc
       -0.020753793 -0.004530836 -0.023739867 -0.026734723
000120 3d 94 78 3c 34 19 ce bb fd b6 42 3d 3b 1d 3d 3c
       0.0151720615 -0.0062896255 0.047537792 0.011542614
000130 d0 e0 8c bc 6d e6 81 bc ce db 2c 3b ba d8 6a 3a
       -0.017197043 -0.015856946 0.002637613 0.00089586864
000140 68 25 59 3b 39 eb 40 bc 0b b3 90 bb a8 b2 ad ba
       0.0033133868 -0.011774831 -0.004415875 -0.0013252096
000150 0e ea 8f 3a 1d 38 10 bd 26 26 29 bc 7a 46 73 bb
       0.0010979788 -0.035209764 -0.010324037 -0.0037120865
000160 00 20 7b 3c 71 78 0c bd 5a a4 01 3b d3 b9 87 3b
       0.015327454 -0.03429455 0.00197818 0.004142025
000170 fc 86 7c bc 5c 44 4e bd 66 18 cc bc e4 47 28 3c
       -0.015413042 -0.05035816 -0.024913978 0.010271046
000180 21 9d 97 3c d6 65 d4 bb 2e 1c 45 3c c6 59 2d bb
       0.018507542 -0.0064818664 0.012030644 -0.0026451214
000190 f5 ba 3b ba 51 0b eb bc 01 41 84 bb 7e 8f ff bb
       -0.00071613427 -0.02869192 -0.0040360694 -0.007799088
0001a0 f2 73 01 3c ca 4d 23 bc 28 b6 b5 bb 08 96 85 3c
       0.007901179 -0.009967277 -0.0055453964 0.016306892
0001b0 5e 22 f3 3b 40 49 95 3a 23 5a af 3b 4d 4a f5 3b
       0.0074198684 0.0011389628 0.0053513213 0.007485664
0001c0 33 f7 20 3d 68 c7 0a 3c 46 a5 80 bc bb 5e 1b 3c
       0.039298248 0.008470394 -0.015703809 0.009483035
0001d0 0e 9a 82 bc 53 07 9f bc 70 90 e7 3c 36 43 98 3c
       -0.0159426 -0.019412672 0.028267115 0.018586736
0001e0 9c 5c e9 3b ee 8c 68 3a f9 4d 9a bc 44 3a 8d bc
       0.0071216356 0.0008871098 -0.018836008 -0.017239697
0001f0 f7 e9 27 bc a1 09 19 bd 20 a3 b2 bc ee f3 87 3c
       -0.010248653 -0.0373627 -0.0218063 0.016595807
000200 e4 90 9d 3c d9 f7 3e bc 80 ce 2f 3c bd 49 96 3b
       0.019234128 -0.011655771 0.010730386 0.004586427
000210 59 0b 9d ba a1 99 1a 3b e0 6f c0 3b 46 4a 4e 3c
       -0.0011981531 0.0023590105 0.0058727115 0.01259095
000220 31 cb 65 3b e2 97 f2 3b e2 88 08 bc 36 21 3d bc
       0.0035063738 0.0074033597 -0.008333417 -0.011543563
000230 a2 8b 3d bc d6 0b f4 3b 66 a5 1f 3c 64 90 50 bc
       -0.011568936 0.0074477 0.009744024 -0.012729738
000240 b6 08 a2 bc ea fe ee 3a 75 83 b7 3b 31 1d fd 3b
       -0.019779544 0.0018233929 0.0056003877 0.007724427
000250 85 29 0b bc 1e 90 59 bc 69 1c 28 3c a6 5f 1f 3b
       -0.008493786 -0.013278989 0.01026068 0.0024318486
000260 7c 52 65 bc 75 58 3d bc 7c 49 66 3c 16 a2 fa bb
       -0.013996717 -0.011556734 0.014055606 -0.0076487167
000270 b0 fa fd 3a 4d f6 f1 3c f4 a1 fb 3b 88 1d c9 3a
       0.0019377079 0.02953639 0.0076792184 0.0015343884
000280 68 61 29 3c 7a a2 1b 3c b8 8c 1f bc cf 2c 63 3c
       0.010338165 0.009499187 -0.00973814 0.013865664
000290 48 43 9b 3c d2 5a cd 3b 5c 87 67 bc 4f 81 81 bc
       0.01895298 0.00626693 -0.014131393 -0.01580873
0002a0 f8 2c 20 3a aa d1 7d bb c6 6e a5 bc b7 38 63 bc
       0.00061102165 -0.0038729706 -0.020194422 -0.013868502
0002b0 9e cc 58 bc f5 5e d9 bb 76 b5 b2 3b e8 99 fe 3a
       -0.013232378 -0.006633634 0.0054537607 0.001942453
0002c0 52 a4 27 bc 79 59 0b 3c f8 68 57 bb bf 17 c2 3b
       -0.010232048 0.008505219 -0.0032868963 0.005923241
0002d0 84 14 90 bb c9 5d 02 3c 82 10 b5 3b 62 fe 67 3c
       -0.004396977 0.00795693 0.0055256495 0.014159771
0002e0 40 c3 9f bc 60 fb 6e ba 99 39 02 bc b8 b6 f2 3a
       -0.019502282 -0.0009116437 -0.007948303 0.0018517589
0002f0 00 ad cb 3b 31 c7 2e ba 38 78 7c bc b1 a5 95 3c
       0.0062156916 -0.0006667255 -0.015409522 0.018267484
000300 94 a8 3d bb 89 1f 07 3b 72 bb 7b 3c 00 a5 db 39
       -0.0028939592 0.0020618162 0.015364515 0.0004189387
000310 d3 7b 31 3b 48 86 4c 3c 4c 9b a7 bb fc 6f 8f bc
       0.0027081862 0.012483187 -0.0051149484 -0.017509453
000320 ec 0d 46 3c 10 6e 17 bb 34 1d cd bb 29 bb 2c bc
       0.01208828 -0.0023106374 -0.006259585 -0.010542669
000330 d5 69 60 bc 28 fd ff 39 30 0e 31 b9 fb 73 02 bc
       -0.013697107 0.00048826006 -0.0001688532 -0.007962222
000340 8e 0c a3 3c 85 9f c2 3b 2c 6a aa 3b e2 23 7e 3b
       0.019903447 0.0059394264 0.005200645 0.0038778712
000350 09 ac 92 3c e5 17 86 3c dc b9 20 bb d8 70 9c 3b
       0.017904298 0.016368816 -0.0024524843 0.004774194
000360 a8 b8 51 3c 76 53 81 bc 04 3d fb bb 1e c8 24 3c
       0.012800373 -0.015786868 -0.0076671857 0.010057477
000370 bf f5 2f bc c5 68 80 bc e7 bb 13 3c dc b9 ad bc
       -0.010739743 -0.015674958 0.009016967 -0.021206789
000380 5c ce 8d bc 8c 93 fa ba 10 c1 0e 39 8e 21 c3 bb
       -0.017310314 -0.0019117459 0.00013614097 -0.0059549278
000390 28 cd 3e bc 35 8b 60 bc f1 2e 73 3b ad 19 9c 3c
       -0.011645593 -0.013705065 0.0037106837 0.019055212
0003a0 4a bd 96 3c d8 2d b5 3b ce 53 47 bc 1e 2c 82 3b
       0.018400807 0.0055291466 -0.012165977 0.0039725443
0003b0 30 d0 81 3b a1 9c 3d bc 09 39 c3 bb 34 2b 89 3a
       0.0039615855 -0.011572988 -0.005957727 0.0010465146
0003c0 1b 16 3a 3b 32 b4 0b 3c 6c 18 93 bb 96 5b 85 bb
       0.0028394524 0.008526849 -0.0044889953 -0.004069756
0003d0 a5 2b e7 3b 60 a1 65 b9 8e cf 17 bb 2c fc 95 bb
       0.0070547634 -0.00021899259 -0.0023164484 -0.0045771804
0003e0 bf 20 9d 3c 50 1a 2c bb e0 20 e1 b9 4e 86 bb bb
       0.019180654 -0.00262608 -0.00042939838 -0.0057227975
0003f0 f6 6b d7 3b 23 21 a8 3c b7 dc 6f 3c 8a ec 47 3b
       0.0065741492 0.020523613 0.014640025 0.0030505979

attn_net.hidden.bias f4 [96]
000000 c2 80 63 3d 4c 29 ca bb f8 8e a5 3b b3 14 27 be
       0.055542715 -0.0061694738 0.0050524436 -0.1631649
000010 df 2d f7 3d d4 6e 9c 3e 5c 51 3b 3c 75 c5 4b 3d
       0.12069296 0.30553305 0.011432972 0.049748857
000020 df 5e 9e be 25 1f c8 bd 05 c8 21 3d 40 a6 59 bd
       -0.30931756 -0.09771565 0.039497394 -0.053137064
000030 90 8c 43 be fd 12 53 be 56 d7 37 3b d7 cd 1b bd
       -0.19096589 -0.20612712 0.0028051934 -0.0380381
000040 02 3e 6a 3c 98 0b 5c bd b4 f8 07 3d 15 50 56 3e
       0.01429701 -0.053721994 0.033196166 0.20928986
000050 32 5d 82 bd c4 17 a7 3d 38 47 77 3e 35 86 05 3e
       -0.06365432 0.0815883 0.24148262 0.13039477
000060 5a 58 34 3c ad 92 fa bd 02 aa 79 3b 9e b3 6d be
       0.011007393 -0.122350074 0.0038095717 -0.2321305
000070 72 14 7f bd c1 53 7f 3e 92 34 da 3d 46 39 b8 bb
       -0.062275358 0.24934293 0.10654558 -0.005622062
000080 8c f3 66 be ab 69 ce 3d 62 97 cc bd 6b b5 e9 bc
       -0.22553843 0.10078748 -0.099898115 -0.02852889
000090 b2 3a 77 3e 1a b5 6e 3e 8f 7c e7 bb 66 6e 3e bd
       0.24143484 0.23311272 -0.007064409 -0.046492003
0000a0 ac c8 93 be 88 0e 0a be 8d d7 a6 bd a3 72 98 bb
       -0.28864038 -0.13482106 -0.08146582 -0.0046523376
0000b0 c8 d0 54 bd 71 e2 51 3e 0f 91 84 be 3a 15 d3 3c
       -0.05195692 0.20496537 -0.2589192 0.025766958
0000c0 b7 84 07 3e c0 e7 92 3d 2f 78 3a 3c bb fb 89 bd
       0.1323422 0.07173109 0.011381193 -0.06737467
0000d0 c1 e1 10 3d a7 e4 18 bc d3 74 85 3e 28 e6 8e 3e
       0.035371546 -0.009331859 0.26065692 0.2790997
0000e0 8e 83 26 3d 97 c7 0d 3e 50 7b 0b 3e f5 ac a1 bd
       0.040652804 0.13845669 0.13621259 -0.07894317
0000f0 46 6e ed 3d 31 71 71 3e 91 a2 0f 3c 80 52 a4 3d
       0.115932986 0.23578335 0.008766786 0.08023548
000100 b8 1c 98 bd c5 79 0d 3d 08 35 80 3c 32 e1 b6 3d
       -0.07427353 0.034539957 0.015650287 0.08929671
000110 17 a6 29 be 6e ee 94 bd b8 a7 b8 bd 03 05 d1 bc
       -0.16567264 -0.07272039 -0.09016365 -0.025515085
000120 81 8a 69 bd e4 a1 df 3d 7c 5c 89 3e 59 c3 3e be
       -0.057016853 0.1091955 0.26828372 -0.18629207
000130 c7 79 0a be 8d 40 41 3d 76 d1 02 be a2 fe 4d 3c
       -0.13523017 0.0471807 -0.12775216 0.012572916
000140 cc 84 2e bc ee 05 a9 3d fd a7 d6 bd c6 98 16 be
       -0.010651778 0.08253084 -0.1048126 -0.14706716
000150 00 b1 8a bd a0 63 77 be 85 92 09 bd 3d bb 67 be
       -0.06772041 -0.24159098 -0.033586998 -0.2263002
000160 01 79 03 3e 7e 62 99 3d b4 a7 e0 3d 8a e5 b7 3c
       0.12839128 0.07489489 0.10969487 0.02244832
000170 8f 15 23 3e aa 2a c6 3d d0 47 1f 3d 8b 7a 8b 3d
       0.15926193 0.09676106 0.038886845 0.068104826

attn_net.out.weight f4 [64, 96]
000000 e4 94 ad bc 0a ce 2b bc 20 30 42 b9 40 4d 92 bc
       -0.02118916 -0.010486135 -0.0001851921 -0.017859101
000010 94 4d fe bd f0 20 2a bd e9 bb f2 bb 9d da ba 3b
       -0.124171406 -0.041535318 -0.0074076545 0.0057023303
000020 c6 cb 14 bd 53 57 50 3d 06 4c 94 3b d9 3a 9f bc
       -0.036327146 0.05086453 0.0045256643 -0.01943724
000030 23 62 c2 3c be 3d 32 ba b6 e6 a0 bb 76 87 01 3c
       0.023728436 -0.00067993614 -0.0049103154 0.007905832
000040 4c b1 ad bc e9 99 ed bb 34 c2 c2 bc eb ce 88 bd
       -0.021202706 -0.0072510135 -0.023774244 -0.066800915
000050 2b d9 13 3d fb ac e3 bc e6 4b b2 bc ff 87 1e bd
       0.03609578 -0.027792444 -0.021764707 -0.038703915
000060 86 53 e4 bb c4 0b 1f 3d f8 98 7e ba ec 7e 3a 3d
       -0.0069679646 0.03882958 -0.0009712125 0.0455312
000070 f7 e0 0d 3c bf 57 2f bd 3d 72 b1 3c 17 e6 11 bc
       0.008659593 -0.04280829 0.021660918 -0.008904955
000080 2c b1 e8 3c c8 57 43 bd c6 4b c2 3b ee 8c d0 bc
       0.028404795 -0.047691137 0.005929443 -0.025457826
000090 cc 76 37 3c 6e 96 c1 bb a6 c3 44 bc 8e 63 4e 3c
       0.011197757 -0.005907825 -0.012009537 0.012596978
0000a0 ed 25 11 3d a4 2a 1c bc c6 11 79 3d 66 58 9e bb
       0.03543656 -0.009531651 0.060807966 -0.0048323153
0000b0 2e 91 01 3c 24 9d d8 ba 66 eb ed ba 87 15 f3 bc
       0.007908149 -0.0016526324 -0.0018151819 -0.029673351
0000c0 88 e5 1f 3c 8d d0 be 3c 6c 40 a0 ba 3d a0 e4 3c
       0.009759314 0.023292804 -0.001222623 0.027908439
0000d0 dd 3f a9 bc f4 41 cf 3b 78 06 6d bd 10 06 9c 3b
       -0.020660335 0.006325001 -0.057867497 0.004761465
0000e0 44 60 0f bd fe e3 35 3d 91 ac 1e 3d a4 83 43 bb
       -0.035003915 0.044406883 0.03873879 -0.0029833103
0000f0 8e 61 04 3d ac ee 64 bd f3 21 39 3c 9b 79 24 3c
       0.032319598 -0.055891678 0.011299598 0.010038759
000100 e6 d9 fc 3c 12 6c aa bb 70 66 cb 3c 49 02 6f bd
       0.03086562 -0.0052008713 0.02482912 -0.05835179
000110 f3 02 89 bc 14 c6 4e bc 60 62 f0 b9 75 9e d0 3c
       -0.01672504 -0.012620468 -0.00045849662 0.025466183
000120 f8 fe 3e bc 9d 25 95 bb 22 37 d5 3c 01 b1 6c 3d
       -0.011657469 -0.004551603 0.026027266 0.05778599
000130 74 89 d2 bd 7b cb 52 bc 74 a2 7f bb e0 5d b3 38
       -0.10280123 -0.012865896 -0.0039006742 8.552871e-05
000140 94 51 b4 bb 23 b8 bd bc 58 de e9 3c 56 22 fc bc
       -0.005502889 -0.023159092 0.028548405 -0.030778091
000150 58 cc 92 bc 13 60 a1 bd 04 b1 ef 3c fa f6 18 bd
       -0.017919704 -0.07879653 0.029259212 -0.03734491
000160 da 32 4b bc b9 79 30 bd f2 e6 6d 3d 78 6b b0 3b
       -0.012402261 -0.043084834 0.058081575 0.005383905
000170 d5 7a a2 bd 6c 04 bb bc cd fc ce bb c0 95 79 bc
       -0.079335846 -0.022829257 -0.0063167573 -0.015233457
000180 4e bc 4d 3e f9 5a 7a bd da 8c 2a 3c 80 eb 89 3b
       0.20091364 -0.061121915 0.010409558 0.004208982
000190 8a a5 eb 3e f3 63 49 3f 06 d5 da 3d be bd 9d 3e
       0.46024734 0.78668135 0.10685162 0.30808824
0001a0 69 81 cc 3a 00 5d 3c bd e4 bf 3d 3e 36 48 74 bc
       0.0015602532 -0.04598713 0.18530232 -0.014909795
0001b0 c2 ae 41 3d a2 9d 1c bd e0 08 57 bb 80 75 0d b8
       0.047285803 -0.038236268 -0.0032811686 -3.372645e-05
0001c0 f1 a1 c2 3d b6 4c d6 3d 9c 5a b1 bc 8a 2e 01 3f
       0.09503544 0.1046385 -0.021649651 0.5046164
0001d0 de 78 16 bd ef f1 7e 3e c8 2f 3c 3f 26 d7 c2 3d
       -0.03673636 0.24896978 0.7351041 0.095136926
0001e0 a9 25 21 3d df 55 10 bd 85 4a b2 bc 17 f1 b1 3b
       0.039342556 -0.035238143 -0.02176405 0.0054303515
0001f0 b9 6f 1b 3e ec d7 10 3f a2 8c 18 3f 4b 0b 0f 3e
       0.15179338 0.5657947 0.5958959 0.13969152
000200 99 e8 19 bd 64 83 0c 3f c8 73 c9 bc 5c 3b 8b 3c
       -0.037575338 0.54887986 -0.024591342 0.016996078
000210 03 ea 36 3f 5e c1 11 3f bb 26 c9 bd 86 b2 2a bd
       0.71450824 0.5693568 -0.098218404 -0.04167416
000220 b9 a1 0c 3d 10 0b 11 bd 0c d1 f2 3b fc 19 15 3d
       0.03433392 -0.03541094 0.0074101742 0.036401734
000230 60 20 82 bc bb eb 1a 3f f5 b7 22 3c a0 a9 59 3c
       -0.015884578 0.60515946 0.009931554 0.013285071
000240 ae d7 fd 3e 14 36 f0 3d dc e2 62 bb a6 ff 97 3e
       0.49578613 0.117290646 -0.0034620082 0.29687232
000250 a3 fc ba 3d 4b 06 ff bc 29 ee 38 3f b6 c3 34 3f
       0.09130218 -0.03113093 0.72238404 0.7061113
000260 6b 21 42 3e 99 42 08 3f 7f 25 d1 3e 5c aa b1 3c
       0.1895806 0.5322662 0.4084892 0.021687679
000270 93 db f6 3e eb 87 0d 3f e7 71 e7 3d 99 af 30 3e
       0.48214397 0.5528552 0.11301022 0.17254485
000280 74 d4 87 3d f2 29 b7 3c 16 5e 25 3e 1b 4a 10 3e
       0.06632319 0.022358868 0.16149172 0.14090769
000290 e8 b7 68 bc 56 17 dc bc c5 b0 27 3e c2 3f 12 bd
       -0.014204003 -0.026866596 0.16376026 -0.035705335
0002a0 c1 e3 5c bc 62 0c 8f 3e 56 a5 34 3f 5b fb ac bd
       -0.013482035 0.27939135 0.7056478 -0.0844638
0002b0 43 9f 04 3e c9 c9 b4 3d 96 68 39 3e cb 5d 62 3e
       0.12951379 0.0882755 0.18106303 0.22106092
0002c0 7b 9b 0b 3b 59 7d 56 3e d9 01 63 bd b4 1c 10 bd
       0.002130239 0.20946254 -0.055421684 -0.035183623
0002d0 f7 06 d3 3c 66 33 0b 3e be 7e 3c 3d 1c f7 a2 3d
       0.025760157 0.13593826 0.04601931 0.079572886
0002e0 de e3 b5 3e 20 ef 81 3e d9 c5 9d 3e 62 29 87 3b
       0.3552541 0.2537775 0.30815008 0.0041248063
0002f0 31 dc 00 3f 7e c3 46 3e f7 e4 e4 bb 62 eb 57 3e
       0.50335985 0.19410512 -0.0069853025 0.21085885
000300 f1 d8 22 3e ff 87 75 bc d0 45 94 3b 53 3c 3e 3d
       0.15903069 -0.014986037 0.004524924 0.04644425
000310 88 79 7b 3e 0e f4 f5 3e 79 5e 85 3d 03 81 40 3e
       0.24558079 0.4803776 0.0651216 0.18799214
000320 00 ad bf 36 05 e6 08 3e e0 8b 5e 3e 00 b3 fa 37
       5.7123834e-06 0.13368995 0.21733046 2.9885676e-05
000330 10 b1 d9 bb 39 48 15 bc 7a cb 81 3b 5e 13 11 3a
       -0.006643422 -0.0091114575 0.003961024 0.0005534197
000340 96 a2 a3 3d 7e a7 a9 3d a4 28 d6 3c 8b d1 94 3e
       0.07989995 0.082839 0.026142426 0.2906612
000350 60 9e 12 bc 74 05 63 3e c6 23 e6 3e f8 39 6f 3e
       -0.008948892 0.22170049 0.44949168 0.23361957
000360 d4 8a 2b bc 61 f1 78 3d e0 25 86 bd 37 4a 09 3c
       -0.010470111 0.060777072 -0.06550193 0.008379511
000370 9d 14 24 3d 0d 86 c9 3e 56 1f 24 3e 82 75 15 3e
       0.04005872 0.39360085 0.16027579 0.14595607
000380 48 62 1a 3d d5 08 93 3e 4a dd c8 bc b1 aa bd 3c
       0.037691385 0.28717676 -0.024519581 0.023152681
000390 43 01 de 3e e3 24 99 3e f0 fc 0a bc 24 6e 8a 3a
       0.43360338 0.29910955 -0.008483157 0.0010561389
0003a0 ff 7c e9 3c ec a2 c8 3c 41 5f c0 3d 69 3f d6 3b
       0.028501986 0.02449175 0.09393168 0.006538321
0003b0 9d 0c 7d bc 5e e2 a5 3e 9a ba 58 3c ca 98 a6 3d
       -0.015444902 0.32399267 0.013228083 0.08134611
0003c0 bd ea 44 3e d4 0f 2d 3e 1c 92 98 ba 9c ef 94 3d
       0.1923017 0.16900569 -0.0011640224 0.07272264
0003d0 f4 f0 85 3d f3 28 e3 3b 0a e3 b4 3e cb 36 c0 3e
       0.06540099 0.0069323718 0.35329467 0.37541804
0003e0 20 d2 07 3e 1c 94 83 3e c4 d1 6a 3e a9 43 06 3d
       0.1326375 0.25698936 0.22931582 0.03277937
0003f0 bd bd c5 3d 90 44 9e 3e 88 99 28 3d 8d 88 8f 3e
       0.0965533 0.30911684 0.041162044 0.28033867

attn_net.out.bias f4 [64]
000000 42 22 9d be ac b2 ce 3e dc de c9 3c c4 7f 8b 3e
       -0.306902 0.4037069 0.0246424 0.27245915
000010 9c 1d 5a 3d 1f 21 0b 3d 30 49 9a be 99 d5 90 3d
       0.053250894 0.033967134 -0.30133963 0.070719905
000020 c1 ac 95 3e 62 00 32 3e 9a 9a c8 3e 01 df cd 3e
       0.29233363 0.17382959 0.39180452 0.402092
000030 cc 41 c2 be 1f 08 26 be 16 8d 86 be fc 09 3e 3e
       -0.37940824 -0.16214035 -0.26279515 0.18558496
000040 94 79 86 3d 83 4d a1 be 87 d4 79 3c d6 e3 67 3d
       0.06566158 -0.3150445 0.015248424 0.056613766
000050 29 e5 7f be 81 c0 ca 3e 3a 31 97 3b ec fe 8b 3d
       -0.24989761 0.39599994 0.0046140226 0.06835732
000060 29 e7 88 3e 9f df 9e be da 42 8f 3e 4c 5e 87 be
       0.2673886 -0.31029984 0.2798069 -0.2643913
000070 32 d5 89 be e1 f5 ed 3e 2e 42 6d be 71 f7 81 3d
       -0.26920468 0.46476653 -0.23169777 0.06346024
000080 53 46 9c 3e e5 d1 71 be c7 62 0a be 38 f8 9c bb
       0.30522403 -0.23615225 -0.13514243 -0.004790332
000090 b2 21 11 3e 3a 31 7c be fb ae 17 be 9a cf 36 be
       0.1417301 -0.24628153 -0.14812844 -0.17852631
0000a0 0d 59 1b be ac 80 7d 3d e3 a4 aa be 14 a1 95 3e
       -0.15170689 0.06189029 -0.33328924 0.29224455
0000b0 c1 65 d7 3e 8e c6 8f 3d 37 6a 97 be fe 23 9a be
       0.4206982 0.07020293 -0.29573223 -0.30105585
0000c0 33 97 3c 3e be a2 85 be 21 db 83 be 61 10 9f be
       0.18417053 -0.26100725 -0.2575312 -0.31067184
0000d0 94 60 56 be b5 7d 09 3d 2c 11 2d be 2c f0 35 3e
       -0.20935279 0.03356715 -0.16901082 0.177674
0000e0 04 65 bf 3e 57 e4 8d be bd 36 a5 bd 7d 05 3a 3c
       0.37381756 -0.27713272 -0.08067081 0.011353848
0000f0 85 ab 80 be 7b 08 77 3e f0 73 ca 3e 73 f5 e4 3d
       -0.2513086 0.24124329 0.39541578 0.11179628

linear.weight f4 [64, 10]
000000 e0 7c 9d 3e d5 62 91 be 57 2b 24 be 1d e6 0e 3b
       0.30759335 -0.28395715 -0.16032158 0.0021804639
000010 70 0e 6c bd 8c 83 44 ba c1 dc 01 bc c4 43 47 bd
       -0.057630956 -0.00074964087 -0.007926167 -0.04864861
000020 fc 6c d9 bd 09 b5 48 bc 12 c0 a4 3f b7 2c 75 3f
       -0.1061649 -0.012250193 1.2871115 0.95771354
000030 e7 99 44 bf 37 76 2c bf 6a 21 09 bf 32 10 6b bf
       -0.76797336 -0.6736788 -0.5356661 -0.9182159
000040 5f e2 21 bf 87 01 10 3f cb 10 45 3d df 5e 2f bf
       -0.6323604 0.5625233 0.04811172 -0.68504137
000050 1e 55 59 3f 83 b4 6e 3f fa af b4 be 5c f0 ab be
       0.84895504 0.9324419 -0.3529051 -0.33581817
000060 84 bf df be ba 1f 05 bf c1 f5 c6 be 2c f1 ae 3e
       -0.43700802 -0.52001536 -0.3885937 0.34168375
000070 e5 cc c6 3c 94 4c a1 be f8 b2 7e 3f e5 b5 97 3f
       0.024267623 -0.31503737 0.99491835 1.1852385
000080 99 7a 40 bf 41 c1 5f bf 4c 9b 5c bf ff 12 8c bf
       -0.7518707 -0.8740426 -0.86174464 -1.0943297
000090 ba 44 17 bf 88 c7 36 3f 69 d0 97 3d 99 36 31 bf
       -0.59089243 0.7139821 0.07412798 -0.69223934
0000a0 8f bf 93 3f f7 be 87 3f fc 04 e8 be d1 20 00 bf
       1.1542834 1.0605153 -0.45316303 -0.50050074
0000b0 2c 32 f8 be f6 67 0e bf 95 04 ea be cc a1 a1 3e
       -0.48475778 -0.5562738 -0.4570662 0.31568754
0000c0 8f c4 25 be 58 fb ee be d9 65 ad bd ea 9d 9b bd
       -0.16188262 -0.46676135 -0.084666915 -0.07598479
0000d0 18 3e 6f 3d 9c d8 39 bd 36 b7 02 be b3 d4 29 3c
       0.058408827 -0.04537259 -0.12765202 0.010365653
0000e0 1a fe e4 bb 3c 42 02 be 61 c2 5f 3d e1 a8 1e bd
       -0.006988299 -0.12720579 0.054628734 -0.038735274
0000f0 91 11 0d be fd c8 88 3e 27 9d 2f 3d a7 12 9c bd
       -0.13776232 0.26715842 0.04287448 -0.07620745
000100 40 15 15 3d 04 b7 e1 3c 38 d6 c9 3d 29 a2 9e bd
       0.03639722 0.027553089 0.09855312 -0.07745773
000110 ed 7a 83 3c c5 58 f3 bd 6a a5 7c 3f 71 cd 88 3f
       0.016049827 -0.11882166 0.986899 1.0687696
000120 93 3c 0d bf 26 c2 1c bf bd 67 ef be e8 1a 5b bf
       -0.55170554 -0.61233747 -0.46758834 -0.8558793
000130 f6 76 e8 be cd 80 ea 3e 74 ba 65 3d 8f f2 01 bf
       -0.4540326 0.45801392 0.05608602 -0.5076074
000140 fd a4 8a 3f 8a 0b a5 3f 81 e5 12 bf ab 43 2a bf
       1.08316 1.2894146 -0.57381445 -0.66509503
000150 3e 7a 59 bf d2 1f 37 bf 02 9d 44 bf ac 92 03 3f
       -0.8495215 -0.7153293 -0.76802075 0.5139568
000160 84 4e 11 bd f8 19 48 bf 46 19 42 bf d3 a4 6f bf
       -0.03547527 -0.78164625 -0.75819814 -0.93610877
000170 0a 22 e8 3e eb bd f6 3e 18 85 0a 3f 91 b2 34 3f
       0.4533847 0.4819177 0.54109335 0.7058497
000180 fd 03 ff 3e 8d 93 d5 be 18 3d 22 be 50 94 fd 3e
       0.4980773 -0.41714135 -0.15843618 0.49527216
000190 c8 a2 8b bf 5b 3a 89 bf c9 66 2f 3f 30 aa 33 3f
       -1.0909052 -1.0720934 0.6851621 0.7018156
0001a0 55 35 3f 3f fd 01 82 3f f4 f7 30 3f ee b9 1b bf
       0.74690753 1.0156857 0.69128346 -0.6083058
0001b0 7d db 9a 3d 61 ca 37 3f 3b 0d 95 bf 23 62 95 bf
       0.07561395 0.7179318 -1.1644663 -1.1670574
0001c0 4c 42 3e 3f 82 8b 3e 3f 79 66 37 3f bd f4 72 3f
       0.7431991 0.7443162 0.71640736 0.9490469
0001d0 75 c4 2f 3f 8a 46 21 bf 57 c8 13 bd 38 34 13 3f
       0.68659145 -0.6299826 -0.03607973 0.57501554
0001e0 71 89 bf 3c 79 1c 12 3e f9 b6 92 3e 5d e2 40 3e
       0.023380967 0.14268674 0.28655222 0.1883635
0001f0 9f 53 5c 3e 7b 7f 19 3d 4a 54 c7 3e b8 4b 03 bf
       0.21516274 0.03747509 0.38931495 -0.5128741
000200 e6 0b 85 3e 56 dd 0f 3e 70 fc 17 be 5b eb 95 3c
       0.2598564 0.14049277 -0.14842391 0.018300703
000210 46 28 31 3e 82 57 df 3c 06 81 a1 3c 0a 45 cd 3c
       0.1730052 0.027263407 0.019714843 0.025057334
000220 8c 25 05 3e 96 2c ca bd f5 b0 80 3d 41 e6 0c bd
       0.13002604 -0.09871785 0.06283752 -0.034399275
000230 f1 76 14 be 95 fe 1d 3e 3d c1 25 bd 53 75 c5 3c
       -0.14498498 0.15429147 -0.04046749 0.024103796
000240 b0 8b e9 3c 40 f9 77 3d d5 48 80 3b d5 38 86 bc
       0.028508991 0.060540438 0.0039149323 -0.016384521
000250 05 5f 51 bd d5 9a 7e 3c 19 e2 81 3f 03 98 96 3f
       -0.05111601 0.0155398445 1.0147125 1.176514
000260 69 a1 17 bf 49 41 35 bf 2d 65 35 bf 5d 70 5c bf
       -0.5923067 -0.7080274 -0.70857507 -0.8610895
000270 eb 60 2a bf 9b 3f bc 3e 5a bb aa 3c 24 7c 12 bf
       -0.66554135 0.36767277 0.02084129 -0.57220674
000280 22 19 80 bc 98 f9 62 3e 21 96 c4 3d 26 c5 ae 3d
       -0.015636984 0.22165525 0.09598947 0.08533697
000290 75 1c 4c bd 3a 71 44 bd 2d db d6 3d 2c 16 7c 3b
       -0.049831826 -0.047959544 0.10491023 0.0038465364
0002a0 56 93 11 bd 58 41 87 bd c3 0d 41 3e 52 d6 c0 bc
       -0.0355409 -0.0660426 0.18852906 -0.023539696
0002b0 6a c7 00 3e 58 cb a1 3c 05 af 97 3c b8 26 04 3d
       0.1257607 0.019750282 0.018516073 0.032263488
0002c0 68 ba e0 bc 93 1a f2 3d 7b af 71 3d c4 3e d2 3d
       -0.027432635 0.11821475 0.05900524 0.10265878
0002d0 ca 3c 1a be d2 e7 4b 3d 8f 43 78 bd 11 81 45 3d
       -0.15062252 0.049781628 -0.060611304 0.04821879
0002e0 69 ac af bd c5 9a 41 bd dc cc b7 bd b0 0b 1e be
       -0.085778065 -0.04726674 -0.08974621 -0.15434146
0002f0 81 6d f9 bc 08 25 16 bd b2 a5 38 3c 88 7f ad bd
       -0.030447723 -0.03665641 0.011269974 -0.0847159
000300 28 b0 ad bc 1b 38 97 bd 07 f1 95 bd 50 ec 84 bd
       -0.021202162 -0.07383748 -0.07321363 -0.064903855
000310 66 24 c1 3b f2 a6 2e bd 32 63 22 bd d2 4e ab 3b
       0.0058942316 -0.04263968 -0.03964538 0.005227902
000320 6d f0 47 3e 58 83 ad be 37 7d 36 bd c5 ba 0a 3d
       0.19525309 -0.3388927 -0.044553008 0.033869524
000330 ee 61 8a bc 34 c6 7c 3d 7b d3 a7 bc 96 ef 99 3d
       -0.0168924 0.06171246 -0.020486584 0.075164005
000340 46 5d db bc fb 9b bd bd 10 b2 63 3f ca 75 5f 3f
       -0.026777875 -0.092582665 0.88943577 0.87289107
000350 a6 c8 ac be 7b 9a bc be c4 b0 02 bf 9a 96 04 bf
       -0.33746833 -0.3683661 -0.5105097 -0.517923
000360 c0 98 a9 be d5 df b8 3e 30 88 85 3d f7 1b cb be
       -0.33124352 0.3610827 0.06520116 -0.39669773
000370 45 d9 82 bf ec 6f 9e bf aa 06 13 3f 5a a6 37 3f
       -1.0222555 -1.2377906 0.57432044 0.7173821
000380 bd 85 48 3f 0f a3 32 3f 58 2d 38 3f b3 03 10 bf
       0.7832907 0.6978006 0.7194419 -0.56255645
000390 71 a2 b1 3c a7 85 40 3f f1 18 14 3e 5b c8 ae be
       0.021683903 0.7520394 0.1446264 -0.34137234
0003a0 71 72 a6 3d 2b d5 13 be 35 99 4e 3d 5b b6 9a 3d
       0.08127297 -0.14436786 0.05043908 0.07554313
0003b0 17 c2 15 be 4d 20 58 3d eb 9f f0 ba c6 24 20 3d
       -0.1462482 0.05276518 -0.0018358206 0.03909757
0003c0 b9 31 7a 3f 7b 23 71 3f 52 a2 d5 be e1 7d e2 be
       0.9773212 0.94194764 -0.41725403 -0.44236663
0003d0 37 b6 f8 be 83 95 17 bf fc da d4 be 93 46 8a 3e
       -0.4857652 -0.5921251 -0.41573322 0.2700697
0003e0 40 2b 85 bc e5 36 e0 be 48 5f 7d 3e 92 dd 23 be
       -0.016255975 -0.4379188 0.24743378 -0.16002491
0003f0 72 da 9d 3a 90 43 8a bc 6d 9d 98 3d de ed 04 3e
       0.0012043251 -0.01687792 0.074519016 0.12981364
