outlier-interpretation-Xu/checkpoints/UcJCwvEp_checkpoint.pt (torch, 103259 bytes, 5 tensors)

attn_net.hidden.weight f4 [96, 192]
000000 a2 4e 6a 3c f3 85 d8 bb 21 7f 04 bc 98 f8 ec bd
       0.014300974 -0.006607765 -0.0080869505 -0.11570853
000010 e2 87 2b 3c 5f 61 6b bc 49 59 e1 3d 28 46 34 3c
       0.010469409 -0.014366477 0.11003358 0.011003055
000020 af 33 8a bd 3e db 8f bc 98 ae a4 3d 6a 99 8c bd
       -0.06748139 -0.017560598 0.080411136 -0.06865199
000030 8c f9 97 3d 1c e3 2e bb 2c 08 b6 bd b9 8b 2d 3b
       0.07420644 -0.002668566 -0.088882774 0.0026480986
000040 4d 08 1f 3c 7a 62 20 3c 4b e1 9e 3c 73 64 8a bd
       0.009706569 0.009789104 0.019394537 -0.067574404
000050 dc af 82 3b 57 1a ad 3c 97 db 46 bd 41 b0 95 bd
       0.003988249 0.021130724 -0.04854926 -0.073090084
000060 5e f1 db 3b 21 eb 83 bb f0 79 e1 bb 32 02 92 3b
       0.006712123 -0.0040258323 -0.006880991 0.004455828
000070 43 c4 d9 bb ba de aa bb 3a 9e ab 3b 52 f1 c0 bc
       -0.0066457107 -0.0052145394 0.005237368 -0.02355257
000080 cf bb 68 3d f7 23 99 3d 6d ef 26 3c 77 c8 15 bc
       0.056819733 0.07477563 0.0101889195 -0.009142033
000090 b8 55 5e 3d 24 70 0f 3d 16 f2 9d 3c ce 98 96 bc
       0.054280967 0.035019055 0.019280475 -0.01838341
0000a0 2b 3a 84 bd fd 11 8b bb b3 80 b3 bc b2 97 1b 3b
       -0.06456407 -0.0042440877 -0.021911955 0.002374154
0000b0 ac a3 ae 3c 8a 14 af 3c 86 f9 8b 3b 39 b4 f0 3c
       0.02131828 0.021372098 0.004271689 0.029382812
0000c0 1c 96 ec 3b 23 85 de 3c b5 b8 c2 3b 0d ed 0f bd
       0.007220043 0.027163094 0.005942429 -0.03513818
0000d0 2c aa 10 3c 8a 4b 07 3d c4 e2 42 3c 8b 7d 48 bc
       0.008829635 0.033031024 0.011894885 -0.012236963
0000e0 7d 09 16 3c d7 9d a5 bd e2 46 93 3b 9c 92 e0 bc
       0.009157536 -0.08086746 0.004494534 -0.027413659
0000f0 27 6f 29 3c 7c c6 39 3c 04 8b bc 3c 48 82 42 3c
       0.010341442 0.011338826 0.023015507 0.011871882
000100 dc a4 51 bc 80 8f 78 3b fb 6a 2b bc 4a 5b 9c 3b
       -0.012795653 0.003792733 -0.010462518 0.0047716247
000110 f6 f4 e9 3b 2a 6a ee 3b 90 47 c7 ba 3f 29 bd bb
       0.0071397973 0.0072758393 -0.0015203822 -0.005772739
000120 bc e4 e1 bc 71 10 45 bb aa 7b 1a bc 12 65 6c 3b
       -0.02757489 -0.0030069614 -0.009428898 0.0036070985
000130 c2 df 4f bc f6 e9 ae bb 03 e9 17 3c 12 e5 b0 3b
       -0.012687625 -0.005337949 0.009271863 0.005398401
000140 20 c1 1a 39 28 16 81 bc 06 c2 c0 bc 31 9f b0 3b
       0.00014758529 -0.015757635 -0.023530018 0.005390071
000150 80 20 2d 38 5d 9e 9e 3b 80 9d a7 b9 a2 e7 87 3c
       4.1276682e-05 0.0048406557 -0.0003197007 0.016589943
000160 ea 6f 05 bc a0 29 1d 3c 9c 83 08 3c 60 bc f2 bb
       -0.008144358 0.009592444 0.008332159 -0.00740771
000170 0f 94 d6 bb e5 cd 01 3c dc 2f d5 bb 4a b5 28 bc
       -0.0065484117 0.007922624 -0.0065059494 -0.010297129
000180 aa 3a 91 bc a6 a5 a7 3c ac 7e 9a bb 13 8f ff 3b
       -0.017728169 0.02046473 -0.0047148075 0.007799038
000190 e8 cf 91 ba 57 79 d8 3c fa f9 b0 3b 59 21 e8 bb
       -0.0011124583 0.026425047 0.0054008933 -0.0070840535
0001a0 c7 eb 54 3c 42 00 a1 3b 1a b6 bb bb 88 05 7b 3c
       0.012995667 0.004913361 -0.0057284953 0.015321143
0001b0 5e 88 a3 bb 59 b9 30 bb 3c 89 7c 3c 5b 51 82 3c
       -0.0049906215 -0.0026965945 0.015413579 0.015907934
0001c0 1c 08 ef 3b e2 13 83 3b 72 22 70 bc 0a 86 0d bd
       0.007294668 0.004000173 -0.01465665 -0.034551658
0001d0 e7 99 fd bb 89 03 31 bb 58 1b 07 bc d6 4e 0b 3c
       -0.007739294 -0.0027010164 -0.008246265 0.008502683
0001e0 76 b1 27 bb 98 6e a3 3b ac 75 1a 3b dc 38 ac ba
       -0.0025587953 0.004987549 0.0023568673 -0.0013139504
0001f0 b8 f4 7a ba d6 bb 16 bb 72 df bf 3b 30 8b 94 b9
       -0.0009573209 -0.0023000143 0.005855494 -0.00028332463
000200 24 33 42 3c dd 50 18 3c b4 a9 02 bc 57 af 38 3c
       0.011853013 0.009296623 -0.007975031 0.011272273
000210 08 d6 6d bb 4b 25 78 bb 8d ac 1a 3d 05 7b 8b 3b
       -0.0036290903 -0.0037864025 0.037762213 0.0042566084
000220 32 da e6 bc 7b e6 ab bb c4 e1 37 3d e3 b3 3e bd
       -0.028180216 -0.0052459813 0.04489304 -0.046558272
000230 eb 64 52 3d 77 4f 36 bb 80 33 9c 3c 68 6b 31 3c
       0.051365774 -0.002781836 0.019067526 0.01082883
000240 9d 4b 01 3c e8 c1 b3 bb 56 e0 58 3c d9 03 a1 3c
       0.007891563 -0.005485762 0.01323708 0.019655155
000250 2c 6f e8 bb 61 5e b1 3c 6b ad 27 bd 1e 62 67 bc
       -0.007093331 0.021651449 -0.04093687 -0.014122514
000260 b6 86 9c 3b 46 19 ca bb 50 0e b2 3a b2 8f 86 bc
       0.004776801 -0.0061675636 0.0013584588 -0.016425941
000270 b5 5b df bb ed e7 00 3c 88 4d 3d ba d2 51 53 bc
       -0.0068163523 0.007867795 -0.0007221331 -0.012897925
000280 50 5f 44 3d cb de 10 3c 82 67 86 bb 0c b7 97 bb
       0.04794246 0.0088421805 -0.0041016946 -0.004629975
000290 35 f8 99 bc 3f 69 04 3d 9c c5 4e ba 5d ed b4 3b
       -0.018795112 0.032326933 -0.00078877225 0.00552146
0002a0 83 d7 10 3c d8 7a 8f bc 0b f9 8c 3c 71 1a 21 bc
       0.0088404445 -0.017514631 0.017208597 -0.009832964
0002b0 f8 56 b2 3b a4 da ad bb 34 07 74 3b 52 47 e3 3c
       0.0054424964 -0.005305605 0.0037235739 0.02774397
0002c0 f4 0e d2 3a 3e a5 07 bc 28 74 a0 39 f5 19 82 bc
       0.0016026185 -0.008279143 0.0003060412 -0.015881518
0002d0 2c 30 0a bc ec 77 e3 3c c5 fc a3 3b 2f a2 9d bb
       -0.008434337 0.027767144 0.0050044977 -0.0048105936
0002e0 66 2c 93 bb 01 2b 5f bd 94 9f ca ba 56 1c a8 3c
       -0.0044913767 -0.05448437 -0.0015458935 0.020521324
0002f0 f8 5e 49 3b b6 59 f4 3b 2e f1 14 3c b1 a3 a3 bc
       0.0030726772 0.0074569834 0.009090705 -0.019975515
000300 9a db 22 3d 30 c9 03 bd 2e 89 07 3d 53 b1 49 be
       0.03976021 -0.03217429 0.03308981 -0.1969655
000310 a1 79 24 bd 9b 7c 1b 3d 92 0b 42 3e 9e 7c 1e bd
       -0.040155057 0.03796063 0.18949726 -0.038693063
000320 2d 44 81 3c 85 99 c1 bd 8f 9d 40 3e e1 b1 16 be
       0.015779579 -0.0945311 0.18810104 -0.14716293
000330 ce df 24 3d 5b 89 1e 3d 11 ad f4 bd e6 1f 1b 3d
       0.0402525 0.03870521 -0.11947072 0.037872218
000340 18 c2 75 ba b0 4f 89 3c 66 33 83 3d f6 b2 02 3d
       -0.00093749305 0.01676163 0.06406288 0.03190895
000350 61 8c 95 3d 1e fb d2 3d 1e bf 32 be fa 4b dd bd
       0.07302166 0.10301803 -0.17455718 -0.10805507
000360 26 ad 74 bb 76 7d 81 bd b9 09 a1 3c e1 95 2b bb
       -0.003733465 -0.06322758 0.019657956 -0.0026181864
000370 69 c5 53 3d d1 e2 a9 3b 01 d1 3e bc f8 14 a4 3a
       0.051701937 0.0051845093 -0.01164651 0.0012518456
000380 2a 34 02 3e 22 6a e0 3c d3 0d 88 bd 46 51 13 bd
       0.12715212 0.027394358 -0.06643262 -0.03596618
000390 81 db ac 3d fa e2 1b bd 3a 47 3a 3c b2 ee 54 3d
       0.084403045 -0.03805826 0.011369521 0.05198545
0003a0 76 bb b5 bc f8 a2 5a bd d3 19 4a bd e8 99 05 3d
       -0.022184115 -0.053378075 -0.049341034 0.03261748
0003b0 d9 b3 ed bb 7d bc 5a bd d4 f4 11 bc 14 41 fb bc
       -0.0072541055 -0.053402413 -0.008908469 -0.03067068
0003c0 d9 a2 02 3d 94 7d 6a bc 75 02 dd 3c 1a 6e 1e be
       0.031893585 -0.014312167 0.02697871 -0.15471688
0003d0 5b 42 98 3c 17 98 26 bd f0 58 ad 3c a2 1e 26 bd
       0.018586328 -0.040672388 0.021160573 -0.040556557
0003e0 8f fa 0c bd 4c b5 42 be bf 43 6d 3c d2 20 84 bd
       -0.03441864 -0.19014472 0.014481484 -0.064515725
0003f0 de ff 39 3b 9c 91 0b bc 4f 4a 4a 3c 4d 47 55 bc
       0.0028381268 -0.008518603 0.012346818 -0.013017488

attn_net.hidden.bias f4 [96]
000000 97 73 be bb 10 2c 6a be b8 84 15 3e 12 08 92 be
       -0.005812119 -0.22868371 0.1460141 -0.28521782
000010 f6 c9 91 3e e3 12 77 be 49 c0 80 3e d8 c0 9f be
       0.28474396 -0.24128298 0.25146702 -0.31201816
000020 16 1c a2 3c 69 1a a6 be 87 29 5d bd a6 89 88 3e
       0.019788783 -0.32442024 -0.05399468 0.26667517
000030 10 de 40 3e 71 2e 58 3d 6d 7d ce bd 34 7f 92 bc
       0.1883471 0.052778665 -0.10082517 -0.01788292
000040 c7 56 d8 bc bb 44 60 bd 1b 9d 8b be dd 0b 95 be
       -0.026408566 -0.054753046 -0.272683 -0.29110613
000050 0e de ed ba 89 04 a2 3e b4 bf 89 3e 92 14 a2 be
       -0.0018147842 0.31644085 0.2690407 -0.3165632
000060 2b 2a 7d be 2c 5b 9c bc 68 07 0f bc 5f 6c 62 3e
       -0.24723117 -0.019086443 -0.008729793 0.22111653
000070 3f 74 80 bd 4f 7d 58 bb 04 30 68 bd b6 35 9e bb
       -0.06272172 -0.0033033674 -0.056686416 -0.00482818
000080 7e aa 2e bd 9e 47 1b 3e ef d5 a4 be e4 cc 97 bd
       -0.042643063 0.15164039 -0.32194468 -0.07412127
000090 57 a2 90 bd b4 4a 8f bb 5e 19 7e 3d 6f 1e 61 3c
       -0.07062214 -0.004372919 0.06203591 0.013740166
0000a0 c1 71 62 3e 86 68 32 3d 42 68 25 3e 61 22 5c 3d
       0.22113706 0.043556713 0.16153052 0.053743724
0000b0 e4 57 c0 bd 09 13 ba 3c 52 ac 8a 3e 30 cf 5a 3d
       -0.09391764 0.022714155 0.27084595 0.053420246
0000c0 8d ea 31 bd 7a f9 8a be 37 67 85 be 4a 88 b3 3e
       -0.043436576 -0.2714346 -0.2605531 0.35064918
0000d0 e6 a1 97 3e 3e 08 99 be c6 d2 37 3d 96 a2 70 bc
       0.29615706 -0.298891 0.044878744 -0.014687201
0000e0 eb d3 7b bd 64 6e 5b bd 57 ea 99 3e b4 59 81 bb
       -0.061481398 -0.053572074 0.300616 -0.003947461
0000f0 60 5b 78 bd 1d 1b 6c be 25 5b 89 bd 00 1c 97 3e
       -0.060634017 -0.23057218 -0.067068376 0.2951355
000100 4d 3c 82 be be 1d a3 be 31 da 13 be 68 02 4a 3d
       -0.2543663 -0.3185863 -0.14438702 0.0493187
000110 e9 5b d0 3c 2a 71 d8 bd 9d 09 90 bd 0f 38 94 be
       0.025434451 -0.10568459 -0.070330836 -0.2894902
000120 fa e2 96 3e 2c e5 a2 3e 55 bc a1 3d 96 f1 3d 3d
       0.29470044 0.3181547 0.078972496 0.046372972
000130 e3 c5 77 3b 64 53 59 3c 53 f0 57 be 5e a1 00 bc
       0.0037807159 0.013264511 -0.2108777 -0.007850973
000140 52 b1 04 bc b0 7a 2f be 40 64 8c 3c a1 68 8b be
       -0.008098917 -0.17136645 0.017137647 -0.27228263
000150 c8 b8 93 3d cb 4c 5f bd 7d 87 90 be c0 33 08 bd
       0.072129786 -0.054516595 -0.2822837 -0.033252478
000160 5c a4 f9 3c f9 52 b9 be b6 51 c9 bd af 9b 4a 3e
       0.03047388 -0.36196116 -0.09830038 0.19785951
000170 b2 12 11 bd 77 18 82 be 49 da fe 3d 65 c0 bd bd
       -0.03541822 -0.2540929 0.12443978 -0.09265212

attn_net.out.weight f4 [64, 96]
000000 a2 6c bd bb a7 cb 2d 3d a1 6a 82 3d c8 5b ed 3c
       -0.0057807723 0.042430546 0.06367994 0.028974429
000010 a2 a4 cd bc 5c bb 9b bd 86 a0 9b 3c 02 63 26 3c
       -0.025102917 -0.07604095 0.018997442 0.010155441
000020 b4 75 03 bc f3 d3 a3 bb eb 3f 99 bb a5 26 b4 3c
       -0.008023668 -0.0049996316 -0.004676809 0.021991083
000030 6b cb aa 3c a0 65 56 3d 60 9a ac bb a8 94 0d bb
       0.02084895 0.05234301 -0.0052674264 -0.0021603499
000040 42 65 d3 bb 17 93 ab bc 7e c3 8e 3c 31 5e 35 3d
       -0.00645128 -0.020944161 0.017427202 0.04427928
000050 82 49 69 bb 15 4f 6f 3d 90 36 9f 3c 42 49 9c 3d
       -0.0035596793 0.058425028 0.019435197 0.0763116
000060 36 af c6 3c f1 cd 51 3b d5 7a 54 bb 85 a6 6b 3d
       0.024253469 0.003201362 -0.0032421846 0.057531852
000070 7c 05 6d bc f6 90 e0 bb 08 4d cf 3a df 1a 0a 3c
       -0.01446664 -0.006853218 0.0015815804 0.008429258
000080 a4 1e cd bb 65 09 d1 3c a4 5d 74 3d 3c 72 e3 ba
       -0.006259756 0.025517175 0.059659615 -0.001735277
000090 10 37 c6 3c 38 eb e3 3c 28 76 f7 ba 0c 57 0f bb
       0.024196178 0.027822122 -0.0018879818 -0.0021871952
0000a0 8f 16 1a bc 8d aa 8d 3d fc c5 4b 3d 60 4a a8 3a
       -0.009404792 0.069172956 0.04974936 0.0012839548
0000b0 00 e2 9c 3c d5 3e 1b 3c f3 bb 4e bc ee 62 92 3b
       0.019150734 0.00947543 -0.012618053 0.0044673597
0000c0 ec c6 27 3c 5a f7 b8 bb ce cf 2d 3c ab b5 2c 3d
       0.010240298 -0.005644721 0.0106086265 0.04216544
0000d0 1c 61 10 3d a1 23 7f 3c cd d6 8b 3d 86 e2 27 bc
       0.03524886 0.015572459 0.068280794 -0.0102468785
0000e0 9f 64 fa bb e4 18 dc bb 21 8f 41 bb 26 56 01 bc
       -0.0076413895 -0.0067168344 -0.0029534774 -0.007894075
0000f0 b2 80 eb bb a6 ea 0c 3d 1f b3 57 3d f0 73 dc 3c
       -0.0071869725 0.034403466 0.052661058 0.026910752
000100 a0 c7 d8 bb 61 52 38 3d 99 f8 27 3d b3 25 c1 bc
       -0.006615594 0.045000438 0.041008566 -0.023577547
000110 f9 f2 f2 bb 3b a6 eb bb 62 cf 55 ba 18 11 30 3d
       -0.0074142185 -0.007191447 -0.00081562076 0.042985052
000120 62 4b 53 3b 82 b3 6b 3d ce 1f d1 bb c8 ba b9 3a
       0.0032240977 0.05754424 -0.0063819652 0.0014170045
000130 22 a9 57 3d d6 ce f5 bb 7a 97 aa 3b 64 07 f9 ba
       0.052651532 -0.0075014634 0.0052060457 -0.0018999395
000140 53 e6 f2 bb 80 5e cc b9 e8 e5 17 3d 97 a7 1e 3d
       -0.0074127107 -0.0003898032 0.03708449 0.038734045
000150 f4 69 b2 bb 38 88 0f bb ac 67 78 3d 3e 50 01 3c
       -0.0054447595 -0.002190126 0.060645744 0.007892666
000160 1e f5 f6 bb e2 d4 89 3b 8f 4a 9a bc 89 60 05 bc
       -0.0075365445 0.004206286 -0.01883438 -0.008140692
000170 2b 16 0e 3c 4a a4 42 3d a8 95 13 ba a2 d0 22 3c
       0.008672277 0.04751996 -0.00056299055 0.009937437
000180 30 2b ca 3a 6c 7a 61 bd 9c 5b ae bb 2d a3 bb bb
       0.0015424248 -0.05504839 -0.0053209793 -0.005726239
000190 e1 0b 83 3c 7a 6d 12 be 59 e1 af 3b 37 27 fc 3c
       0.015996875 -0.14299574 0.0053674397 0.030780418
0001a0 14 bb ca 3b fa fe a3 bc f9 b8 1f 3b 0c 7a 4b 3c
       0.006186852 -0.020019043 0.0024371727 0.012419235
0001b0 e3 52 9d 3c 8c ce 5b 3d 38 87 72 3c 54 15 af 3c
       0.019204563 0.053663775 0.0148027465 0.021372475
0001c0 50 84 c8 3b 10 01 5a bd fe 90 91 3b 1a 25 c0 bd
       0.0061192885 -0.05322367 0.0044423332 -0.093820766
0001d0 4e 90 18 3c 89 bb 5a 3d 43 62 60 bc 5a 99 02 3b
       0.009311749 0.053401504 -0.013695302 0.001992783
0001e0 72 90 a1 bc 4b 5f 44 bd b8 b2 51 3a 69 b1 ee 3c
       -0.019722197 -0.04794244 0.00079993485 0.02913733
0001f0 f3 ce e7 3b a6 a3 5b bb 28 1a 2a bc 58 f9 cd 3b
       0.007074231 -0.003351429 -0.010382213 0.0062858276
000200 4b 73 5d bd a2 97 9d 3d 4c e9 6b 3d 57 e8 c8 bc
       -0.05406503 0.07694937 0.057595536 -0.02452485
000210 d9 84 55 3d 82 3e 19 3c 7a cc b0 bd 6b fa 44 3c
       0.052128647 0.009353282 -0.08632751 0.012022595
000220 ab 7d 56 bd 1b 69 73 3d fe a5 86 3d fe 55 c6 bb
       -0.05236594 0.05942641 0.06574629 -0.0060527315
000230 c2 c3 04 bd 1e 70 47 bd de e0 46 3d fa 50 97 3b
       -0.03241325 -0.048690908 0.048554294 0.0046178075
000240 40 82 b7 3c a3 1b 18 3c 3c 09 58 3d 6e 70 85 3d
       0.022400975 0.009283933 0.05274318 0.06515585
000250 af 22 14 3d 72 58 fb bc 01 1f 39 3d 16 8d 87 bd
       0.03616589 -0.030681822 0.045195583 -0.06618707
000260 94 05 1d bc 7a cc f1 bb 7f 03 58 bc 7a c2 d3 bb
       -0.009583849 -0.007379112 -0.013184427 -0.0064623924
000270 94 8b 9b bb 8d 32 51 3d d2 46 26 3d b0 35 e7 b8
       -0.0047468636 0.0510736 0.040594883 -0.000110249384
000280 da 6a 71 3c 40 27 85 bd 6c fc 0b 3d a5 f1 f3 3b
       0.014734948 -0.06501627 0.034176275 0.0074445778
000290 82 39 91 bb 2e ba f8 3c d5 e5 09 bd 41 d8 07 3d
       -0.0044319043 0.030362215 -0.03366645 0.03316522
0002a0 0c e3 31 3b 81 38 7d 3d 7b cc 4b 3d 1a 84 0a 3c
       0.0027143387 0.061821464 0.049755555 0.008454347
0002b0 2b 35 cf 3c 74 41 fa 3a 7e b0 b5 bb 6c 28 46 bd
       0.025293907 0.0019092993 -0.005544721 -0.048378393
0002c0 ee 30 cb bb f1 a5 f7 3b 28 66 9b 3d 9f 0c 57 3d
       -0.006200901 0.0075576236 0.07587844 0.05250227
0002d0 16 1c a8 3b 92 0a 83 bb 00 f5 21 3b 98 35 9f bc
       0.005130301 -0.003999063 0.0024712682 -0.019434735
0002e0 4c a5 82 bc fc 57 4c 3d fb 88 9c bc f8 e3 32 3b
       -0.01594796 0.049888596 -0.019108286 0.0027296524
0002f0 14 b6 39 bc 04 9e 74 3d 02 20 37 bc 2b 0a 61 bd
       -0.011334915 0.059721008 -0.011177065 -0.054941338
000300 12 e9 70 bb d8 c6 43 3a 8f ac 2a 3d 18 71 77 3d
       -0.0036760014 0.00074682897 0.04166847 0.06041059
000310 b0 54 01 3d ee 3c 4c 3d da a7 c7 bb a9 a6 39 3d
       0.031574905 0.049862795 -0.0060930075 0.045324955
000320 46 f2 35 bc f9 68 fb bb 4c 6d ca 3b 5a e5 6c bc
       -0.011105126 -0.007672426 0.00617758 -0.014458979
000330 e6 8b 77 3c 20 1d 7b 3b 8d bc 3d 3c 4f b2 fe bb
       0.015109038 0.003831692 0.011580599 -0.007772721
000340 70 45 8a ba a0 4c 37 bb 59 72 29 3c e0 ca f3 3c
       -0.0010549258 -0.0027969256 0.010342204 0.029759824
000350 e5 68 ac 3b b8 74 bf 3c f4 53 2e 3a 28 4b 0f 3d
       0.005261528 0.023371086 0.0006650083 0.034983784
000360 16 ff 2f bc ce 27 91 3a 04 b8 55 bb c8 1e d3 bc
       -0.01074197 0.0011074485 -0.0032610903 -0.025771514
000370 5c e6 ce bb 7e 52 01 bc 52 90 8b bb 8f 96 c0 3b
       -0.006314082 -0.007893203 -0.0042591477 0.005877323
000380 ee 3e 0a bb 86 66 1f 3c ec 1e 1d 3d c6 c3 63 3c
       -0.0021094638 0.009729033 0.038359568 0.0139016565
000390 97 ea a5 bc 18 be e2 3c a9 3c f5 3c c4 62 8d 3a
       -0.020253463 0.027678534 0.029936152 0.0010786881
0003a0 0f 60 2c bc c2 9f ef 3b ba 3e eb bb 34 3b fb 3a
       -0.010520949 0.007312746 -0.0071791084 0.0019167424
0003b0 12 e0 59 bc 6e 8b ab 3b 56 b4 40 3b ab 3c 93 bb
       -0.013298051 0.005235127 0.0029404364 -0.004493316
0003c0 28 d3 a1 bc 6c 39 4d bc 2f e6 6e bb d0 b6 8c 3c
       -0.019754007 -0.0125258975 -0.0036453118 0.017177016
0003d0 40 5b 78 3c 22 0b 22 3d 57 da 8d 3d ea 97 70 bb
       0.015158474 0.0395614 0.06926411 -0.0036711642
0003e0 10 21 ce 3b 11 c7 ce bb 81 6d dc 3b 34 44 88 ba
       0.0062905625 -0.0063103517 0.006726921 -0.0010396303
0003f0 64 38 c0 bb e7 d8 0e 3d 6e 7d e0 3b 80 48 a5 bc
       -0.0058660973 0.034874823 0.00685089 -0.020176172

attn_net.out.bias f4 [64]
000000 61 ac 38 be 21 bb 6e be 6a da 8c bd 9f fa b7 3e
       -0.18034507 -0.23313572 -0.06877597 0.35933396
000010 bf 58 87 be 10 ca 96 be 5a da e1 3e 76 ed 48 be
       -0.26434895 -0.29451036 0.44111902 -0.19621834
000020 c6 51 b5 3c 1c e5 e9 3d 55 0d cd 3e f8 2a d9 3e
       0.02213372 0.11420652 0.40049234 0.42415595
000030 96 83 2d 3e 62 de 93 be cc e2 d7 3e 85 2e ea be
       0.16944727 -0.28880602 0.4216522 -0.45738617
000040 a2 ab 62 bd a0 5a 8d be 36 7a 1e be fc 88 04 bc
       -0.055339463 -0.27608204 -0.15476307 -0.0080893
000050 29 8b 88 3e 84 d1 89 3e 32 19 96 3e 87 47 d5 3e
       0.2666867 0.2691766 0.29316097 0.41656134
000060 78 f1 c9 3b 16 8c 4a bd 4a 10 16 bc 5e 4c 0d be
       0.0061628185 -0.049450003 -0.009159157 -0.13798663
000070 1e e8 a2 3c c8 b2 bb be 6d 7a 73 be 3a 2e 3f 3d
       0.019886073 -0.36659837 -0.2377717 0.046674944
000080 39 b1 bd 3e a6 1a 6f 3e 64 8a be 3e 9f a0 7c be
       0.37049273 0.2335001 0.3721496 -0.24670647
000090 08 10 79 3e 6c 00 55 be 8b a5 d8 be a7 ed b1 be
       0.24322522 -0.20800942 -0.423138 -0.34751627
0000a0 56 a8 b5 3e 4e 44 f4 bc 01 cd 3b 3d e0 74 d3 bc
       0.35479993 -0.029817726 0.045849804 -0.025812566
0000b0 59 1c 90 be 02 dc 3b be 18 74 31 bd 5b 80 4b be
       -0.28146628 -0.18345645 -0.043323606 -0.19873182
0000c0 d9 c4 9e be a9 23 66 bd fb e3 18 be aa d8 83 be
       -0.31009558 -0.056186352 -0.14930718 -0.2575124
0000d0 1d 32 43 be 2d a2 58 be 9e 11 03 be b3 35 63 be
       -0.19062085 -0.21155615 -0.12799689 -0.22188453
0000e0 ac ea 69 be 86 71 f9 3e bd 63 7d 3e d7 cc 7d 3e
       -0.22843426 0.48719424 0.24745078 0.24785171
0000f0 1d 19 46 be c1 3b 97 be 0d be 8d 3c b2 3d 99 be
       -0.19345517 -0.29537776 0.017302537 -0.29929882

linear.weight f4 [64, 10]
000000 25 27 2b bd 9e 7e 24 be 6b 49 2d 3b 96 9b 79 3d
       -0.041785378 -0.16063926 0.0026441466 0.060939394
000010 26 de d0 3c 0c 91 ec 3b 4e b0 b5 bc a2 39 f4 3c
       0.025496554 0.0072194394 -0.022178795 0.029812638
000020 b9 6e 46 be 0a f2 d5 3d 2a 2e 16 3e e1 d2 6f bd
       -0.19378175 0.10446556 0.14666048 -0.05855072
000030 df 06 16 be c7 97 49 bd f5 67 3f bd 19 69 64 bd
       -0.14651059 -0.04921701 -0.04673 -0.05576429
000040 96 f2 07 bc 46 bf b6 bd 4e 41 fa bd 40 19 05 bd
       -0.008297583 -0.08923201 -0.12219487 -0.032494783
000050 3f 20 ed bd 43 1f 2e 3e cf 88 2b bd 86 28 2d 3e
       -0.11578416 0.17004113 -0.041878518 0.1690999
000060 00 c3 3a 3d fa a4 9a 3d 37 5a fe bd 75 18 d2 3d
       0.045596123 0.07550998 -0.12419551 0.10258571
000070 a9 2f 04 3e 7c 4c 48 be 5f 93 da be 08 82 87 be
       0.12908806 -0.19560426 -0.4269056 -0.26466393
000080 6c 9f 43 3f 68 fb 4d 3f 0b 58 8d be a0 e8 79 3f
       0.76415133 0.8046174 -0.27606234 0.9762058
000090 a8 a0 53 3f 04 f7 6b bd d5 75 4a 3f f1 ca 3d 3f
       0.82667017 -0.05760862 0.7908605 0.7413779
0000a0 f3 12 21 3d 30 61 f2 bd a4 74 d2 3c e7 61 33 bc
       0.039324712 -0.11834943 0.025690384 -0.010948635
0000b0 c4 57 b3 3d e9 a8 2a bc 16 4d a1 bd 71 03 9e 3d
       0.08756974 -0.010416248 -0.07876031 0.077155
0000c0 63 f8 a9 3e 47 35 7d be f7 e3 9f bc 72 52 7d bd
       0.33197317 -0.24727355 -0.019517882 -0.061846204
0000d0 2d 69 52 3d 22 f7 0d 3e 3c 70 9d 3d 49 2f 0d bc
       0.051369835 0.13863805 0.07687423 -0.008617231
0000e0 65 04 e3 bc a6 af 04 bd e5 36 94 3e a8 7f 0d bd
       -0.027712056 -0.032394074 0.2894813 -0.03454557
0000f0 5b 30 b7 3e c6 15 9c 3e 4b 0d eb be d6 e9 1b bf
       0.3577908 0.30485362 -0.4590858 -0.6090368
000100 a8 63 cf 3e 73 4f 3b bf d7 34 25 bf 5a 82 80 3e
       0.4050572 -0.73168105 -0.6453375 0.2509945
000110 d5 18 1d bf 81 ff 2f bf bf 90 8e 3d 37 10 b8 bd
       -0.61366016 -0.68749243 0.06961202 -0.08987468
000120 a7 f5 f0 bd de c1 6a 3e 9f 01 ad 3e a4 74 81 bd
       -0.117656045 0.22925517 0.337903 -0.063210756
000130 6b cf c5 be 34 00 3e 3e 6d ef 61 be 92 85 23 3f
       -0.3863481 0.18554765 -0.2206399 0.6387569
000140 f9 fa 0e bf dd 50 b4 be 22 a5 1c 3f 28 97 43 3f
       -0.55851704 -0.35217944 0.6118947 0.7640252
000150 f0 6b cc be 38 ec 87 3f 46 06 6d 3f c8 4b 27 be
       -0.399261 1.0618963 0.925877 -0.16337502
000160 76 3c 82 3f 22 95 35 3f 46 60 0e 3e 9e 06 5e be
       1.0174701 0.70930684 0.13903913 -0.21682212
000170 be 54 20 3e 2f 8a 7a be 77 c0 32 be 99 7e 18 be
       0.15657327 -0.24466775 -0.17456232 -0.14892043
000180 cf bb e9 3d be 73 44 3d 2d 92 c5 bd 6e e2 96 3d
       0.11412775 0.047961943 -0.096470214 0.07367407
000190 26 3e 0f 3f 52 b3 09 3f 4c 78 2c bf a6 1c 56 bf
       0.55954206 0.53789246 -0.6737106 -0.83637464
0001a0 e4 80 ff 3e 1d 07 75 bf 5d 08 5b bf 77 33 a5 3e
       0.49903023 -0.9571398 -0.85559636 0.32265827
0001b0 40 a4 62 bf 40 ba 68 bf 1a 2f 16 bf 22 dc 22 bf
       -0.88531876 -0.90909195 -0.5866562 -0.63617146
0001c0 ce 9a 30 3f 54 cd 27 3f bd e6 22 bf 9f df 8b 3f
       0.68986213 0.6554768 -0.6363333 1.0927619
0001d0 4d 23 7f 3f 16 12 08 be 4f fb 8c 3f 6d f2 6f 3f
       0.9966324 -0.13288149 1.1014193 0.9372929
0001e0 00 c4 06 3f da 28 e1 3e 79 65 40 bf 76 12 57 bf
       0.5264282 0.4397648 -0.75154835 -0.84012544
0001f0 47 09 e4 3e b0 cf 77 bf 6b 56 8c bf 1d 51 ad 3e
       0.44538328 -0.9680128 -1.0963873 0.33850947
000200 ec 37 83 bf 74 3d 5d bf a4 ca 3e be 50 14 f8 3a
       -1.0251441 -0.86421895 -0.18631989 0.0018926952
000210 7e 88 1c 3d a5 eb 26 be 60 27 c2 be eb 63 b2 bd
       0.038216107 -0.16300829 -0.37920666 -0.08710464
000220 b2 13 ca 3e f0 43 a6 be 3e 91 81 be 2b c3 9a bd
       0.3946815 -0.32473707 -0.25306123 -0.075567566
000230 19 db 64 bf 4a 4e 33 bf 8a 81 47 3f 82 89 39 3f
       -0.89396816 -0.70041335 0.77932036 0.72475445
000240 50 c1 15 bf 7d 0b 92 3f 80 7a 92 3f c8 a8 ab be
       -0.58498096 1.1409756 1.1443634 -0.33527207
000250 5c 48 85 3f a7 e9 62 3f 29 aa b9 be fc 6b 36 3e
       1.0412707 0.88637775 -0.36262634 0.1781463
000260 4e e1 91 bb a3 c9 83 3e 54 cb fa bd b2 ad a8 3d
       -0.0044519072 0.25739774 -0.12245813 0.08236255
000270 39 99 08 3d ac 8d ca bd ae 30 e1 3d 99 67 9f be
       0.03334925 -0.09890303 0.10995613 -0.31133726
000280 81 d7 d7 bd 85 94 b5 3c 3a 03 af bd 90 e5 ae bd
       -0.10539151 0.022165546 -0.08545537 -0.08539879
000290 28 21 eb bd 90 3b 26 3e b1 ca 7f 3d 13 f5 ac bd
       -0.114809334 0.16233659 0.06244916 -0.08445182
0002a0 b8 02 07 be ee 5b 98 3c 10 2f a1 bc b0 61 10 3d
       -0.13184631 0.018598523 -0.019675761 0.035249412
0002b0 f3 9e 0d bd 25 a7 a3 bd 4c 85 86 be 22 4e f9 3d
       -0.034575414 -0.07990865 -0.26273572 0.12173106
0002c0 26 4f 14 3e 10 60 8d be 50 7c ea be a8 e2 9b 3e
       0.14483318 -0.27612352 -0.45797968 0.30446362
0002d0 53 cf 51 3d ee d1 8a 3d 08 19 8a bc 42 c4 f9 bc
       0.05122311 0.06778322 -0.016857639 -0.03048909
0002e0 48 f7 ea bc ef 64 4b bd f8 ce 51 3d e4 50 56 3c
       -0.028682366 -0.049656805 0.05122277 0.013080809
0002f0 fb b5 32 3e aa 8f ae bd c5 92 0d bf 5d e3 81 be
       0.17452233 -0.085234955 -0.5530208 -0.25368777
000300 2a b8 1a 3f a3 b7 35 3f cf 65 d0 be 8f 29 81 3f
       0.6043726 0.7098333 -0.40702674 1.0090808
000310 96 0e 6b 3f 5f ef a1 be 64 1a 55 3f ca 23 87 3f
       0.9181913 -0.31627938 0.83243394 1.0557797
000320 5d a7 16 3d 84 37 4e bc f6 69 e4 bc ec b3 c4 bc
       0.036780704 -0.012586478 -0.027882557 -0.024011575
000330 ba 78 99 bd 35 16 e5 3d 81 ac 43 be 20 c8 32 3e
       -0.0749373 0.11185876 -0.19108774 0.17459154
000340 76 78 29 bc ba da 86 3d 44 83 dd be fa 20 6f be
       -0.0103436615 0.065846875 -0.4326421 -0.23352423
000350 63 4c d4 3e d3 c6 06 3f 21 d1 60 bd d3 ea 30 3f
       0.41464528 0.5264713 -0.05488694 0.69108313
000360 98 f7 15 3f 54 25 4f be f4 5d 5e 3f 3d 9a 47 3f
       0.58580923 -0.20229083 0.8686211 0.77969724
000370 50 36 1b bf 61 11 0d bf 51 ae 2f 3f d3 df 55 3f
       -0.6062975 -0.55104643 0.6862536 0.83544654
000380 c2 56 e2 be cb 34 6a 3f 6d dc 76 3f 78 ca 46 be
       -0.44206816 0.91486806 0.96430093 -0.19413173
000390 dd 39 6e 3f de 80 84 3f a5 cb 4b bf ef 3c 1f bf
       0.9305704 1.0351827 -0.7960761 -0.6220235
0003a0 3e b2 5f 3f 51 3f 6c 3f 87 a7 09 bf 21 71 58 3f
       0.8738135 0.92284113 -0.5377125 0.8454762
0003b0 dc e8 78 3f df fb a7 be 1c 94 95 3f d6 c8 5a 3f
       0.97230315 -0.3280935 1.1685824 0.854627
0003c0 0f a7 d9 3d b6 77 65 bd c7 1b 8c 3c 6f 5c 6f 3c
       0.10627567 -0.05602237 0.017103089 0.01460944
0003d0 43 d7 16 bc c7 64 63 bd ad 91 02 bc 28 39 60 3c
       -0.009206596 -0.05551603 -0.007969302 0.013685502
0003e0 d4 35 9b 3d b0 09 0a bd d6 a1 31 be 15 38 60 bd
       0.07578626 -0.033700645 -0.17346892 -0.054740984
0003f0 82 57 34 bd 0b 9a 8f bd 8a 65 77 bd 59 19 1c bd
       -0.044028766 -0.07011803 -0.06039957 -0.03811011
