outlier-interpretation-Xu/checkpoints/WXdcNwzk_checkpoint.pt (torch, 105819 bytes, 5 tensors)

attn_net.hidden.weight f4 [96, 192]
000000 cb 9d c8 3d 94 16 f2 bc be 84 ae bd cd 76 dd 3d
       0.097957216 -0.029551782 -0.08521412 0.10813675
000010 78 9a e8 bc ad 7f 88 bc 54 ec 8e 3d dc e7 01 bd
       -0.028393969 -0.016662443 0.0697867 -0.03171526
000020 93 4b 3c 3d 5c 02 12 3c e8 1f 25 3d cf 15 89 bd
       0.04597051 0.008911695 0.04031363 -0.06693613
000030 77 eb 28 bd 1f c1 46 bd ab f7 90 bd c8 e5 6a bd
       -0.04124018 -0.04852402 -0.07078489 -0.057348043
000040 ea a9 3f bd 0e 6f 02 bd ed 08 0a be b8 0e a8 bd
       -0.046792902 -0.03184419 -0.13479967 -0.082059324
000050 9a 98 03 3e 88 0e 83 39 4d 07 37 bd ab 57 54 bd
       0.12851182 0.00024997094 -0.044684697 -0.05184142
000060 b6 47 25 bd c1 cb 9a 3d 1e 88 23 bc 16 8f 62 bd
       -0.040351592 0.07558394 -0.009981183 -0.05531224
000070 af a3 ea bc 75 ae 9f bd 2c 14 d0 3b 65 55 d0 3d
       -0.028642504 -0.07796947 0.006350061 0.10172538
000080 c1 2a 1a 3d 92 f6 6a bd f9 69 3a 3b 40 eb 51 3c
       0.03763843 -0.057364054 0.0028444512 0.012812436
000090 da dd 4e 3c 32 40 85 3d 38 47 96 3d ae c7 0a bd
       0.012626136 0.06506385 0.07337803 -0.033881836
0000a0 05 17 a1 3c 5b e9 b2 bc 3f 21 27 bd f4 3e 90 bd
       0.019664297 -0.021839788 -0.04080319 -0.07043257
0000b0 cc a7 c2 bc 58 a8 8f bc a1 72 39 bd 0a a9 ad bc
       -0.023761652 -0.017536327 -0.045275334 -0.021198768
0000c0 60 82 39 bb e4 ff 1c bd a8 a3 fd bc 57 24 7d bd
       -0.002830647 -0.038329974 -0.030961826 -0.061802235
0000d0 61 99 c1 3c d3 68 8c bd 0a 26 8c 3d de 73 60 bd
       0.023632707 -0.06855931 0.06843193 -0.054798
0000e0 1d 07 82 bd 15 86 ba 3c 26 49 3a bd dc d7 40 bd
       -0.06349013 0.022769013 -0.045479916 -0.04708086
0000f0 8e bf 81 3c 74 93 1c bd 22 30 a1 3d f4 81 cd 3c
       0.01583841 -0.03822656 0.07870509 0.02508638
000100 92 6c 3b 3c b8 4a cf bc c8 14 c5 bc 75 16 e9 3c
       0.011439459 -0.025304183 -0.02405776 0.028453091
000110 f0 81 28 bc 25 ae 55 3d 9b 41 84 bd 47 ee c6 3c
       -0.010284886 0.05216803 -0.06457826 0.024283541
000120 ac ef 83 3d d9 35 63 bd 9a 02 3a bb f0 2f 5e bd
       0.06442198 -0.055471275 -0.0028382898 -0.054244936
000130 ec a5 80 bd b4 5c 66 bd c6 6c 2e bd db 6e b1 bd
       -0.06281647 -0.056240752 -0.042584203 -0.08663722
000140 63 66 12 bd ce 96 04 bd 3a f1 ba bd ea ce 81 3d
       -0.035742175 -0.03237038 -0.091280416 0.06338294
000150 4f 05 0a bd 67 18 a6 3c eb 54 96 3d 8d 64 81 3d
       -0.03369647 0.020275308 0.073404156 0.06318007
000160 8c 3c 0d bd ae 15 36 3c cb 63 43 3d e6 4e f9 3c
       -0.03448157 0.011113567 0.047702592 0.03043313
000170 4d d7 29 bd fb 7e 71 bc f0 25 a8 b9 32 12 f4 bc
       -0.041465092 -0.014739747 -0.00032071723 -0.029793832
000180 54 5b 9c bd 44 ff d8 3c a6 87 46 3d 77 25 31 bd
       -0.07634607 0.026488908 0.04846921 -0.04324862
000190 18 41 58 bd df 58 5e bd e1 4b 01 3e 68 92 9e 3b
       -0.052796453 -0.054283973 0.12626602 0.0048392303
0001a0 12 1d 92 3d 9a 3b e2 3c a3 de 7d bc 3f 5c 89 bd
       0.07134451 0.02761631 -0.015494975 -0.06707048
0001b0 04 76 4b 3a 4c b3 07 3c 40 b4 59 3d 02 5c 82 bd
       0.0007761421 0.008282494 0.053150415 -0.06365205
0001c0 d7 6f 15 bb 64 0a 7a 3c cb 37 ad bd b6 25 b0 3c
       -0.0022802257 0.015261266 -0.08457907 0.021502357
0001d0 41 e0 59 bd 19 86 7b 3c f1 d6 83 3d c5 e4 f2 3b
       -0.05319238 0.015351796 0.06437481 0.0074125254
0001e0 28 10 64 bd 94 96 23 be 4a f1 e2 3d ca 64 7d 3d
       -0.05567947 -0.1597541 0.110811785 0.061863698
0001f0 9c c4 33 3d 3d f9 d7 bc bc a6 b2 bd 06 b8 28 bd
       0.043888673 -0.026363963 -0.08723208 -0.041191123
000200 7c 81 27 3d 87 35 f9 bb 44 2b 84 bd 0b 6e 90 3d
       0.04089497 -0.007605258 -0.06453565 0.07052239
000210 b7 4e 4a 3d 38 28 6b 3d 55 66 10 3c 23 89 9a 3c
       0.049391475 0.057411402 0.00881346 0.01886422
000220 de ca 63 bc a1 cc 18 bd da 7a 8f 3d ab 6b 00 bd
       -0.013903348 -0.037304524 0.07005854 -0.03135268
000230 87 4c 31 bd 31 13 3d bd cd 82 24 3d 5c d3 ac bd
       -0.043285873 -0.04616088 0.040163804 -0.08438751
000240 a4 f2 b6 bc 92 5d fb bc 35 b1 dd bd 45 5f 29 3b
       -0.022332497 -0.030684266 -0.10824815 0.0025844139
000250 6f 72 c9 3d 87 2c 8a 3d e7 57 b3 bc f6 b6 cb 3c
       0.098362796 0.06746774 -0.021892501 0.024867516
000260 97 08 a6 bd 1d 22 dd 3b 33 51 25 bd 85 01 9f 3b
       -0.08107107 0.0067484514 -0.04036064 0.004852476
000270 8b f3 39 bc ba cd 9b bc f8 45 2a 3a 85 26 31 3d
       -0.011349569 -0.019018997 0.00064954115 0.043249626
000280 89 7e 0e bb 57 fc 8b 3c 0a 9a cc bc db 73 44 3d
       -0.0021742901 0.017088098 -0.024975795 0.04796205
000290 06 24 e5 bc 12 20 7d 3d b8 21 4f bd 6c eb 84 bd
       -0.027971279 0.061798163 -0.050569266 -0.06490216
0002a0 8d 34 58 bc 5d 20 e7 bb 54 e2 95 3c 8d fc 7b bd
       -0.013196123 -0.0070534186 0.018296398 -0.061520148
0002b0 8b 3f 78 bb ea 18 5c 3b b4 2a 04 3c c7 b7 55 bd
       -0.0037879671 0.0033584186 0.008066822 -0.052177217
0002c0 e3 bd 01 bd c8 ff 58 3d fe 0e 41 3c f0 fb e1 bb
       -0.03167523 0.052978307 0.01178336 -0.0068964884
0002d0 a1 cd 13 bd c1 50 83 3d a0 cc 8c bb 3e df d8 3b
       -0.036084775 0.06411887 -0.004296854 0.0066184094
0002e0 f6 81 94 bd c6 c6 59 bd 13 1f 37 3d 3b 86 2d 3d
       -0.072513506 -0.05316808 0.04470737 0.04236434
0002f0 6a d6 8b bd fb 48 73 bc c6 e9 93 3c d3 43 5e bd
       -0.068280056 -0.014848943 0.018055808 -0.0542639
000300 2b 32 70 be b0 c0 2e bc 5a 77 86 bd 7c 2f 5b be
       -0.23456638 -0.0106660575 -0.06565733 -0.21404833
000310 f0 2a 7e bc ee 5e db 3d 44 92 0d 3d 57 35 34 3e
       -0.015513167 0.10711466 0.034563318 0.17598473
000320 21 c8 53 be 46 4a 00 be 7f 8c 76 3d 46 3c ae 3c
       -0.20681812 -0.12528333 0.06019258 0.021268975
000330 95 b8 a1 3d f1 01 3f 3c b3 c9 25 3c 7a 41 29 3d
       0.07896534 0.011658178 0.01011889 0.04132221
000340 b1 46 e4 bd be a2 e6 bd 39 98 7d 3e ac 32 75 bd
       -0.11146296 -0.11261509 0.247651 -0.059862778
000350 5a 6b 8d be ce 53 eb bc 2e 43 55 bd 29 48 90 3d
       -0.27620965 -0.028726485 -0.05206602 0.070450135
000360 8b 3b 39 3e d5 0e 60 be ec c9 98 3d 79 b7 76 bd
       0.1808912 -0.21880658 0.074603885 -0.060233567
000370 f0 f2 af bd 7a 25 7e 3e af 97 51 bd 4e 38 87 be
       -0.085912585 0.24818984 -0.051170047 -0.26410145
000380 ad 23 30 3e 15 ec 5d 3e 2f 03 90 bd 79 a0 d6 3d
       0.17201109 0.2167209 -0.07031857 0.104798265
000390 15 92 81 bb 75 29 0c bd 67 1e fd 3d 94 2c e1 3d
       -0.003954182 -0.034219224 0.123593144 0.10994831
0003a0 ec 90 1f be d3 40 24 be 69 21 e2 bd 21 76 0c 3c
       -0.15582627 -0.16040353 -0.11041529 0.008573086
0003b0 71 b2 1d bd 25 38 6a bd b2 bd 03 3d 7b 38 32 bd
       -0.038500253 -0.05718245 0.03216333 -0.043510895
0003c0 f8 f4 9d bd 12 e3 5f 3e f7 89 2d 3e 07 46 86 bc
       -0.0771274 0.21863964 0.1694716 -0.016390814
0003d0 62 ca 93 3d 98 8f 76 bd 96 73 8b 3d ad 53 65 3d
       0.07216336 -0.060195535 0.06809156 0.055988003
0003e0 d4 2d 48 3c 03 4c cf 3d 5f ad c1 bd bf 7b 2f 3e
       0.0122179575 0.1012192 -0.09456896 0.17137049
0003f0 60 31 33 3d 51 8a 9c 3d a2 b0 66 be 11 1d 22 3d
       0.04374826 0.07643569 -0.22528318 0.0395785

attn_net.hidden.bias f4 [96]
000000 f1 7a 66 be 15 8d a9 3e ca d6 9c 3d f6 b6 10 3d
       -0.22507836 0.3311545 0.07658155 0.035330735
000010 9e ac de bd 0f e2 b6 bc f2 ad ce 3b 54 26 1b bc
       -0.10872768 -0.02232459 0.006307357 -0.009469587
000020 e8 59 00 3b 50 08 a7 3d d7 37 ef 3b 66 de 3a bd
       0.0019584838 0.08155882 0.007300358 -0.045622252
000030 bc 42 b0 bc 46 83 f4 bd 0c c4 d4 bd a8 84 7b bc
       -0.021516196 -0.11939101 -0.103889555 -0.015351452
000040 64 93 16 bd 9b be 68 be 5c 97 0e 3e 8d 46 84 be
       -0.036761656 -0.2272896 0.13924927 -0.25835076
000050 9b 16 11 be 6e 50 55 3d ed 05 ff 3c 40 71 a2 bd
       -0.1416878 0.052078657 0.031130755 -0.07931757
000060 b0 db be bd 9d a2 0c be d2 16 97 3d d3 1d 02 be
       -0.09319246 -0.13733907 0.073773995 -0.1270669
000070 8c c7 fb 3b 66 c4 36 be fe e9 29 bd 3d 08 e0 3b
       0.0076837 -0.17848358 -0.041482918 0.0068369196
000080 04 2c b8 ba a2 e4 f6 bc 48 6b 87 3e 27 ce 3a be
       -0.0014051204 -0.030138317 0.26449037 -0.18242703
000090 dd 1f 30 3d 5b e7 49 3d 06 d9 d7 3c 0d 51 c5 bd
       0.042999137 0.049292903 0.026348602 -0.096346
0000a0 5f 71 a8 3c c3 e8 84 3d 74 1e 90 bb c3 59 9c bd
       0.020561872 0.06489708 -0.0043981615 -0.07634308
0000b0 a4 61 18 3e ba 5e 9e 3d cf e5 57 be 6d ac 2c 3d
       0.14880997 0.077329114 -0.21083759 0.042156626
0000c0 6e 1f d9 3c 3a 34 a1 be 96 57 39 3c 48 36 0a be
       0.026504245 -0.31485158 0.011312386 -0.13497269
0000d0 65 a0 51 3d 79 a7 1e be ba 63 8f 3c ec 71 83 be
       0.051178355 -0.15493573 0.017503608 -0.25672853
0000e0 df c7 28 3e 0b a2 71 3b ea aa 26 3e 5a af c3 3d
       0.16482495 0.0036870267 0.16276136 0.0955493
0000f0 6d ef 44 bd 60 bb eb 3d 16 74 3c bd d4 f3 e0 bc
       -0.048079897 0.11510348 -0.046009146 -0.027460016
000100 70 f9 d9 3c 7e fb 7f 3e c7 01 93 3d e2 7d f4 3c
       0.026608199 0.2499828 0.071780734 0.029845182
000110 ca 82 95 3b cb 55 68 3e b5 1f 26 be 4a e1 87 3e
       0.0045627104 0.22688977 -0.16223033 0.2653907
000120 c4 e2 09 bd fc ec 4d be a5 9d b7 bd c1 42 11 bd
       -0.033663526 -0.20109934 -0.08965615 -0.035464052
000130 33 c3 55 bc de 4a 93 3e 66 7a a0 3e c8 a1 dc 3c
       -0.013047027 0.28768057 0.31343383 0.026932612
000140 9e bf 6b be 17 5b 98 3d 70 20 07 3d 8b fd 89 3d
       -0.23022315 0.07439249 0.03298992 0.067378126
000150 6f 15 77 be cf 42 0a bc e4 2a 7b 3e 23 5c 7e 3b
       -0.2412927 -0.00843878 0.2452808 0.0038812242
000160 bc 94 07 3e 14 9f ef 3c 67 48 20 3e 30 bd 8f bd
       0.13240331 0.029250659 0.1565262 -0.070185065
000170 27 72 7d 3d 56 7d 62 bd 84 de 92 3c 08 81 39 ba
       0.061876442 -0.05529531 0.01792837 -0.0007076417

attn_net.out.weight f4 [64, 96]
000000 0b 8d 90 bc 8c 1f 7a 3d e1 cd 84 3d 77 72 d4 bc
       -0.01764538 0.06106524 0.06484581 -0.025933487
000010 dc 81 8a 3c 60 bb 3c bb 63 48 ae 3c a6 92 a0 3c
       0.016907625 -0.0028798208 0.021274751 0.019601177
000020 92 63 b5 bc 1a 5e 80 bc da 9b 12 bb 06 f4 f5 3c
       -0.022142205 -0.015669871 -0.0022370727 0.030023586
000030 18 dc d4 3c 39 af 5c 3c d0 86 96 3d 77 c5 00 bd
       0.025983855 0.013469511 0.07349932 -0.031438317
000040 88 e3 13 3c 85 11 a2 3c b2 93 fb 3c 79 2a af 3c
       0.009026416 0.019783745 0.030710075 0.021382557
000050 07 f5 f4 3b 78 13 c0 3b c8 de 2b bc 38 4f 8a bd
       0.0074754986 0.005861696 -0.010490127 -0.06753391
000060 96 89 31 3c 4d 9c b2 bc 9f 2a 73 3c 9a 5b c1 bb
       0.010836026 -0.021803046 0.014841705 -0.0059008123
000070 73 a4 a4 bc e0 05 36 bc 48 7d e5 3b cc ed 95 3a
       -0.020097947 -0.011109799 0.00700346 0.0011438667
000080 06 79 5a 3c a2 79 9a 3c 75 36 b9 3d 76 7f 90 3c
       0.013334518 0.018856827 0.0904359 0.017638903
000090 ff 9c e8 bc 8b f9 0e bd 1a ff d1 3b 1e 7d bc 3c
       -0.028395174 -0.03490595 0.0064085843 0.02300888
0000a0 00 e2 c7 3c 4b 59 8f bc 12 ee ac bb 4a 2d d2 3c
       0.024399757 -0.017498633 -0.0052774036 0.025656361
0000b0 c0 8c 2c 3d 53 da 9e 3b 64 6f a2 3c 7c 50 93 3a
       0.042126417 0.0048478036 0.019828506 0.0011239196
0000c0 bf 48 5b 3d 0e 94 c5 3b 4a d7 92 3b b4 70 39 bc
       0.053536173 0.0060296124 0.004481231 -0.011318374
0000d0 10 e8 63 3c 69 02 67 bb c0 61 ca 3c 58 f6 a4 3c
       0.0139103085 -0.003524924 0.024704814 0.020136997
0000e0 5e af bb 3b 2b a4 00 3c 64 39 5c 3d ba 20 3d 3c
       0.0057276925 0.007851641 0.05376567 0.011543447
0000f0 d0 03 49 ba e7 bf 2c 3c b5 07 8c 3c 87 c1 17 3d
       -0.00076681096 0.0105438 0.017093519 0.037049796
000100 4b 05 98 bc ac 9f 01 3c 60 6b d2 3c 58 56 f0 39
       -0.018557211 0.007911604 0.025685966 0.00045840698
000110 99 09 27 3c 96 b1 ab 3c 6e 84 90 3c c2 d4 ad bc
       0.010195159 0.020958703 0.017641272 -0.021219615
000120 64 ef d7 3c 44 70 21 3d 12 78 14 3c d6 12 4c bc
       0.026359268 0.039413705 0.00906183 -0.012455663
000130 4e 08 f8 3c 4a 54 ab 3c 99 cd 86 3d c2 28 a4 bc
       0.030277397 0.020914216 0.065821834 -0.020038966
000140 0c 1b e8 3b 2b fa 4e 3c 78 db 83 bc ef 32 93 bc
       0.0070833024 0.012632887 -0.016095862 -0.017968623
000150 bd 35 27 bc 87 bc a8 3d e0 37 94 3c 90 1d 63 3d
       -0.010205683 0.08239084 0.01809305 0.055448115
000160 d8 ff d6 bc 22 bd 3f bb 52 8f d8 3b 20 35 29 3d
       -0.026245043 -0.002925702 0.006608882 0.04131043
000170 57 0f 1d bc f5 12 07 3d d1 93 89 bc ce e8 83 3c
       -0.009586177 0.032977063 -0.016794117 0.01610222
000180 f1 3c 26 bd 5f 0b ba bd ee db 4f be 9e ec 95 3c
       -0.040585462 -0.090842 -0.2029874 0.018301304
000190 2f f7 05 3d c5 a3 77 3c 54 00 36 bc 62 ef 2f bd
       0.032706436 0.015114729 -0.011108477 -0.042952903
0001a0 e8 66 99 3a 38 ba 2d 3c ae 1a c0 3b b4 48 9f 3d
       0.0011703642 0.01060348 0.0058625555 0.07777539
0001b0 d9 2a b5 3c 10 b3 5f bc 0d 17 a7 bd 5f 77 ad bc
       0.022115158 -0.013653532 -0.081586935 -0.021175085
0001c0 2e 98 b8 3b ae 3b fa bd 29 f8 61 3c 6f c8 17 be
       0.0056333756 -0.12218414 0.013792076 -0.14822553
0001d0 2b d4 2f 3d 91 f7 79 bb d0 6f 14 3c 49 02 c2 bd
       0.04292695 -0.0038141946 0.009059861 -0.09473092
0001e0 96 e1 93 3b 18 53 c3 3d 1c f5 71 3c ab de dd bd
       0.004512976 0.09537333 0.014767911 -0.10833486
0001f0 fe a9 ab 3c 7d 56 8b 3d ae 95 12 bc d0 dd d6 3a
       0.020955082 0.06803606 -0.008946819 0.001639301
000200 d0 4f 2b bd 3e 70 1f 3c 40 de 8e 3c 19 11 87 bd
       -0.041824162 0.0097313505 0.017439961 -0.06595058
000210 af bb 76 3b 2e 33 03 3d 44 45 53 3c 98 6a 82 bd
       0.003764849 0.03203123 0.012894932 -0.063679874
000220 74 8c cf 3b bc d1 3d 3d ab 35 25 bc 6c f6 a1 bb
       0.006333882 0.046342596 -0.010083596 -0.004942706
000230 88 7c 91 bd 60 a9 81 3c 9f 04 96 bc 9f fb 02 3d
       -0.071038306 0.015827835 -0.01831275 0.031978246
000240 f1 87 a6 3c 26 2c 41 be 57 74 7a 3c f8 1c b1 b9
       0.020328494 -0.18864498 0.015286527 -0.00033781654
000250 34 b0 69 bc f5 25 52 3d fd 83 6d 3c 62 df 06 3d
       -0.0142632015 0.05130573 0.0144968005 0.03292788
000260 24 1e 7a 3b b4 4f e8 3b b0 3d 4f bd e8 55 ad 3b
       0.0038164938 0.0070895795 -0.05059594 0.005289782
000270 37 aa cf 3c 45 be 05 bd 22 d6 c7 3c c7 22 67 3d
       0.02534972 -0.03265216 0.024394099 0.05642965
000280 af 40 89 3c d5 28 6e bd f5 1a 54 bc 49 62 61 bd
       0.016754476 -0.05814441 -0.01294588 -0.055025373
000290 cf bb a6 3c 3e 12 f4 3c 18 88 f5 3c 54 d3 ad 39
       0.020353226 0.029793855 0.029972121 0.00033154583
0002a0 23 a4 fc 3c b4 64 b0 3d e0 6d 80 3c f0 a5 8a 3c
       0.030839985 0.086129576 0.015677392 0.016924828
0002b0 0f e6 bf bd bb c1 91 bc 1f 51 76 bd e6 08 3d bd
       -0.09370052 -0.017792573 -0.060135957 -0.046151064
0002c0 ae 27 ad bd 49 4f 16 bd a7 dd 63 bc 00 8b 04 bd
       -0.08454834 -0.036696706 -0.0139078265 -0.032359123
0002d0 0f 3b 07 3d 4b 48 30 3d 2f 5c 9a bd 6f bd c8 3c
       0.033015307 0.043037694 -0.07537114 0.024504391
0002e0 c5 fd 3a be 1c 04 5b 3b 5a 50 b0 3c 11 89 9c bd
       -0.18260868 0.0033419197 0.02152269 -0.07643331
0002f0 6b 8f 5d 3d 32 ae 89 3c 4a 9e 8f 3c 19 c9 b1 bc
       0.054091852 0.016806696 0.017531533 -0.021702336
000300 26 12 f9 bc ab ea f4 3e 0f a2 78 3e 64 ea a5 3b
       -0.030404162 0.47835287 0.2428057 0.005063342
000310 42 34 c1 3c 84 47 b1 3d 5f 7a 48 3e 7a 65 71 3d
       0.023584489 0.08656219 0.19577931 0.058934666
000320 26 28 33 bd 80 12 bf 3d 7a 06 ca bc fd 15 20 bd
       -0.04373946 0.093297005 -0.024661291 -0.03908347
000330 5c b4 44 3c 80 54 73 3e b6 6c be 3c ad 42 f3 3c
       0.012005892 0.23762703 0.023245197 0.02969488
000340 87 35 82 bd 26 04 25 3c fa 81 10 3e 01 d5 9a bc
       -0.06357866 0.01007179 0.14112082 -0.018900396
000350 f8 86 47 3c be f5 d4 3c a0 b9 b7 3d 98 31 0e 3f
       0.012178175 0.025996085 0.08970952 0.55544424
000360 bd 25 ae 3e 89 57 55 3b f0 ab 2d 3d 84 7d 51 bc
       0.34013167 0.0032553396 0.0424003 -0.012786273
000370 7c 57 d1 3c 2b c4 ec 3b ee df dd bd 7a a4 71 bd
       0.025554411 0.0072255335 -0.10833727 -0.058994748
000380 76 6f a6 bd 3a 13 8d 3d 08 a2 e6 3e b0 a5 f2 bc
       -0.08126728 0.06888433 0.45045495 -0.029620022
000390 d5 d1 63 3d 98 8c 72 3e 67 ee 63 3e 3c f4 a7 3e
       0.055620033 0.23686445 0.22258912 0.32803524
0003a0 28 6e fe 3c 53 b7 29 3e a5 41 ab 3d 1b d4 86 3e
       0.031058386 0.16573839 0.0836213 0.263337
0003b0 d0 ea 55 3e 3f db 66 3d 7c 08 4b 3a c2 ea 5b 3d
       0.20890355 0.056361433 0.00077451 0.05369068
0003c0 10 30 05 3f 4f fc 5c 3d 01 63 5d 3d 8f b2 0f bc
       0.5202646 0.053951558 0.054049496 -0.008770599
0003d0 dc 75 78 bb 96 1e b4 3c e7 72 db 3e 44 25 5e bb
       -0.0037912047 0.02198724 0.428611 -0.0033896724
0003e0 1d 0d 9b 3e 00 ab d2 3e 44 50 0b 3f 9c 50 9b 3e
       0.30283442 0.41146088 0.5441935 0.30334938
0003f0 94 21 f9 3d 28 0b bf 3d 1e fa 93 3d 48 7b d6 3e
       0.12164608 0.093283 0.072254404 0.4189093

attn_net.out.bias f4 [64]
000000 4e 3e 94 3d 52 90 93 be c4 be e5 3d 7c 44 4e be
       0.07238446 -0.28821045 0.11218026 -0.20143312
000010 20 aa 9c 3d 48 ec 6d be ff 6a b8 3d be 29 4f be
       0.07649636 -0.23234665 0.09004783 -0.20230767
000020 7d 2c a8 3e 41 b1 f2 3c 7c 4d 6a be 2e 1a 7a be
       0.32846442 0.029625537 -0.2288112 -0.2442405
000030 c6 9f a0 be 2c 0b 48 be 2b d7 d9 bc 4c f9 03 be
       -0.31371897 -0.19535512 -0.026591858 -0.12888068
000040 f8 0f 33 be 01 e8 7b be e2 b0 3e be 74 c7 c6 3e
       -0.1748656 -0.24600221 -0.18622163 0.38824046
000050 a2 89 af 3e df 6f ae be 4f 17 49 3c 04 16 f8 3a
       0.34284693 -0.34069726 0.012273624 0.001892746
000060 89 d4 1c 3d 69 56 c8 bb b1 13 26 3d 3e 32 af 3d
       0.038288627 -0.0061138165 0.040546123 0.08554505
000070 18 a5 ad 3e 5a fd 9d 3e 76 bc 8e 3b 34 8b b1 3e
       0.3391502 0.30857354 0.0043559624 0.34676516
000080 a6 04 c3 3e 7f 77 a7 3e 6c e1 10 be fd 64 89 be
       0.38089484 0.32708356 -0.14148492 -0.2683486
000090 4a 11 52 3e c3 55 32 be fb bc 9b 3e 49 7e e6 3d
       0.20514408 -0.17415528 0.30417618 0.11254556
0000a0 b2 b9 7d 3e cf f3 61 be 19 96 85 be df 71 bc be
       0.24777868 -0.22065662 -0.26091078 -0.36805627
0000b0 50 a2 7f be bd be 81 be bc 1e 60 be 7e e9 cb bd
       -0.24964261 -0.25340834 -0.21886724 -0.099566445
0000c0 31 36 53 be 00 47 96 3e 84 64 70 be d3 0b a6 be
       -0.20626141 0.29351044 -0.23475844 -0.32430896
0000d0 48 a8 3d be 5f 32 a6 3e 68 bb 11 be 8a d7 97 bd
       -0.18521225 0.32460305 -0.14231646 -0.07414158
0000e0 98 c7 5c be 30 b0 8d 3e d4 6d c5 bd a6 fe 92 be
       -0.21560514 0.27673483 -0.09640089 -0.28709906
0000f0 8e 54 08 bf 9c d9 8f be cf f0 b2 3e b1 7f f9 bd
       -0.5325402 -0.2809571 0.34949347 -0.12182558

linear.weight f4 [64, 20]
000000 bd aa a4 3c 95 c9 9a bd 45 38 2f be ad 00 95 bd
       0.020100946 -0.0755798 -0.17111309 -0.072755195
000010 1e 19 9a bd 74 aa 96 3d af 96 96 bd da b5 81 bd
       -0.07524322 0.0735673 -0.07352959 -0.063335136
000020 d0 5d 47 bd 70 6c 6e 3c 72 32 ca bc 6a ad 8f ba
       -0.04867345 0.014552221 -0.024682257 -0.0010961716
000030 fe ae 4e bd 60 4c fb bd 79 e0 66 bd 72 70 09 bd
       -0.050459854 -0.12270427 -0.056366418 -0.0335545
000040 ce f1 16 bb fc 77 14 3d 4c b8 81 3d 38 ea 97 bd
       -0.002303231 0.03624724 0.0633398 -0.074177206
000050 d1 e2 a7 3e 4d 1f f8 bd 38 42 aa be ab ec 0f 3d
       0.32790235 -0.12115345 -0.33253646 0.035137814
000060 4c e9 ba bd d8 fd 05 3e 16 a2 ee 3b 17 bc 14 3e
       -0.09126529 0.13085115 0.0072825057 0.14524876
000070 fd 2a 64 3e 45 e9 bc 3d 1d 0b 69 3e 11 f8 14 3d
       0.22282024 0.0922418 0.22758146 0.036369387
000080 e0 b9 01 be b9 2e ca bd 44 de 45 3e 1a 36 bd bd
       -0.12668562 -0.09872193 0.19323069 -0.09238835
000090 f1 90 b5 bc de 94 04 bd 1b f7 2b be 49 6f 3d bd
       -0.02216384 -0.032368533 -0.16793482 -0.046248708
0000a0 b0 98 0b 3f 1b 05 fa 3e e5 4b 7d bd dc ff 0d bf
       0.5452986 0.4883202 -0.061839957 -0.55468535
0000b0 ab 02 19 3f d8 9b a6 3e 05 4c da be ca 6d 09 3f
       0.59769696 0.32540774 -0.42636123 0.5368315
0000c0 4c fd 76 3e dc 95 20 bf be 2b 11 bc bf 18 61 3e
       0.24120063 -0.6272867 -0.008860527 0.21982096
0000d0 95 d8 4c 3e 12 15 ff 3d f0 e0 59 bc 72 45 c5 3e
       0.20004494 0.12455191 -0.013298258 0.38529545
0000e0 52 e1 90 3e cb 97 85 3d ef e7 2e bf bb 0c 25 bf
       0.28296906 0.06523093 -0.6832265 -0.6447255
0000f0 e0 9c 0c 3d b8 ea c0 3c 91 d3 2e 3d c3 ed 94 3d
       0.034329295 0.023549423 0.042682234 0.07271912
000100 e3 12 10 3d 1f 86 9a bd e6 b4 27 3d 42 db c0 bd
       0.03517426 -0.07545113 0.040944003 -0.0941682
000110 ba 5d f2 bd d2 6e e2 bd 80 76 70 39 59 47 f1 bd
       -0.11834283 -0.110562935 0.00022932328 -0.117811866
000120 b6 a6 c5 3b d9 24 ea 3d 48 05 60 bd 99 d5 20 3d
       0.0060318364 0.114328094 -0.054692537 0.039266203
000130 75 e1 66 bd 6a 15 23 3d 66 2f 66 3d 0f 43 5d bd
       -0.056367356 0.039815344 0.056197546 -0.05401903
000140 cc 65 c1 3d 06 10 18 be 5d 79 a2 bd 7e a2 a1 bd
       0.09443244 -0.14849862 -0.079333045 -0.07892321
000150 03 c6 2e be 49 75 17 3e 13 78 99 3d 27 a6 86 3d
       -0.17067723 0.14790834 0.074936055 0.0657466
000160 de 9e 37 3e 97 33 58 3e c3 c1 10 be 4c a9 3a be
       0.17931697 0.2111343 -0.14136414 -0.18228644
000170 da e8 93 bc cb 8e 21 be 29 c9 24 bd d5 95 c6 bc
       -0.018055368 -0.15777127 -0.040230904 -0.024241367
000180 65 0c 95 3d 14 c5 93 bd 6e 8c ee bd ea aa 1b 3c
       0.07277755 -0.07215324 -0.116478786 0.009501198
000190 3b 5e 16 3e e9 a8 11 3d 08 53 21 bd 2a 53 0f 3d
       0.14684384 0.035561476 -0.039385825 0.03499142
0001a0 9e 92 02 be 2a a5 14 bc 59 23 39 3d 33 d6 58 bd
       -0.12751243 -0.009072581 0.045199726 -0.05293865
0001b0 22 2f 98 ba bd 2a 99 3d 88 f9 db 3b 44 49 06 3b
       -0.0011610726 0.07478855 0.006713096 0.0020490447
0001c0 93 0d 0b 3c 7c c8 56 3d 2e 6e b4 3d cd c7 e1 3d
       0.008487123 0.05243729 0.088100776 0.11024437
0001d0 4d 88 c5 bd 20 83 8b 3d e8 86 84 bd 7f 1d 08 3d
       -0.09645138 0.068121195 -0.06471044 0.033231255
0001e0 38 76 41 bf 22 28 48 bf 0a 2a 62 3e ca 2e 44 3f
       -0.7557101 -0.7818624 0.22086349 0.76633894
0001f0 c3 89 5c bf 5f 4a 30 bf 5a 63 37 3f 2d 07 51 bf
       -0.8614771 -0.6886348 0.71635973 -0.81651574
000200 d7 37 18 bf d0 cd 42 3f e5 55 89 be 4a 57 07 bf
       -0.59460205 0.76095295 -0.26823345 -0.5286757
000210 f2 c6 e9 be 5f 8f 26 be 17 26 91 be e9 5a 12 bf
       -0.45659596 -0.16265629 -0.28349373 -0.5716997
000220 45 da 0d bf 43 0e 6c be 37 d0 6d 3f 06 e7 35 3f
       -0.5541118 -0.23052315 0.92895836 0.7105564
000230 0f c7 86 3d 68 52 04 3e 44 41 15 3d 85 64 52 bc
       0.06580936 0.1292206 0.036439195 -0.012841349
000240 74 c2 cd 3c 54 20 18 3e 20 22 da bc 47 d4 61 bc
       0.025117137 0.14856082 -0.0266276 -0.013783521
000250 ba 0a a4 3c 68 dc 2f 3d f1 a4 cd bc 71 8a 1c 3e
       0.020024646 0.042934805 -0.025103064 0.15287186
000260 aa a5 c6 3d 1c bb 1b 3d 06 93 5b 3d c6 c0 18 bd
       0.09699567 0.03802024 0.05360701 -0.037293218
000270 97 27 dd bc 3c 33 b7 bd 64 45 8d 3d 7a 49 9b bd
       -0.026996417 -0.08945319 0.06898001 -0.07582374
000280 db e6 15 3f 26 51 1f 3f 83 72 d0 be 11 3a 0b bf
       0.5855538 0.622332 -0.40712366 -0.5438548
000290 ec d4 43 3f d9 25 25 3f ee f1 f4 be a7 9e 46 3f
       0.7649677 0.64510876 -0.47840828 0.77585834
0002a0 61 52 ae 3e 78 15 18 bf a4 28 c4 3e 00 24 20 3f
       0.34047225 -0.5940776 0.38312256 0.6255493
0002b0 5e 4b 0a 3f ad 08 6e be fc 93 37 be cf 64 fc 3e
       0.5402125 -0.23245497 -0.17927545 0.4929566
0002c0 34 47 02 3f 46 bf aa bd 9e 7e 35 bf 4f 22 1b bf
       0.508899 -0.08337264 -0.7089633 -0.60599226
0002d0 be d0 8f 3e 77 1e 3d bc c7 1b 25 be aa 5e a1 be
       0.28088945 -0.011542908 -0.16123877 -0.31517535
0002e0 c3 3e 43 3e eb 5e 2a 3e f2 5d 57 be b9 d5 90 3e
       0.1906691 0.16637771 -0.21031931 0.28288057
0002f0 e4 2e e7 bd fd c9 58 be 66 62 0a bd 71 00 34 3d
       -0.112882406 -0.21170802 -0.033785246 0.043945733
000300 46 6a aa bd 37 c4 70 3e 6a 16 fa bd 74 24 98 bd
       -0.08321051 0.2351235 -0.122113064 -0.07428828
000310 12 7d c7 ba 4b 09 fc 3d 46 41 ac be cd b4 93 be
       -0.0015219769 0.1230646 -0.3364355 -0.28848878
000320 93 a0 01 3e f0 f7 13 be fb 76 81 bd d3 21 a1 3d
       0.1265891 -0.1445005 -0.06321522 0.078677796
000330 11 04 c6 3d a2 01 36 3a 46 3c b5 3b 87 45 ba 3d
       0.09668744 0.00069429923 0.005530867 0.090952925
000340 f5 31 e5 bd e8 f8 e2 3d 57 33 49 3e 32 78 fc bd
       -0.11191169 0.11082631 0.19648491 -0.12327613
000350 f6 1d 2b 3e ed 76 2f be 69 dd 23 be fd d3 96 3a
       0.16710648 -0.1713521 -0.1600243 0.0011507269
000360 67 6d 40 bd b0 c6 23 3e 07 d2 0d be 95 97 4f 3d
       -0.046979334 0.15993762 -0.1384965 0.05068167
000370 90 87 52 3e bc 32 11 be 91 18 fe bc 87 89 2c bc
       0.20559525 -0.1417951 -0.031017574 -0.010530836
000380 0d ef 60 3d 9e dd 1a be 6a b8 c1 3c 9c d9 11 3d
       0.054915477 -0.15123603 0.023647506 0.03560792
000390 c4 ae 1d be 7f 99 65 bc 5c 3d c3 bd d8 7b 0f 3e
       -0.15398699 -0.014013647 -0.09533188 0.14012086
0003a0 b5 63 5f 3c e4 dd 27 3e 70 df af bd 28 53 0c be
       0.013634612 0.16393238 -0.08587539 -0.13703597
0003b0 57 af 47 3b d5 24 f0 3d 39 32 c8 be c8 da 3e 3e
       0.00304695 0.11725775 -0.39100817 0.18638146
0003c0 e0 0c d1 3e 7c 92 85 be 77 11 a3 be 03 df b2 bd
       0.40830135 -0.2608832 -0.31849262 -0.08733942
0003d0 cf 82 8e be 7b e6 8e bd ae d1 9d 3b 1d 0c 26 3d
       -0.27834174 -0.069775544 0.0048162555 0.040538896
0003e0 4b fa 85 bc e2 04 c8 3d ee ca 81 3e 68 6f 79 bc
       -0.0163547 0.09766556 0.25350136 -0.015224315
0003f0 b8 ff c8 3d 83 36 b6 bd b9 8c 06 3d 28 0c 6e 3d
       0.098143995 -0.08897116 0.032849047 0.05811706
