outlier-interpretation-Xu/checkpoints/YwzoetVR_checkpoint.pt (torch, 126299 bytes, 5 tensors)

attn_net.hidden.weight f4 [96, 192]
0.0014866719 0.041764196 -0.08898205 -0.007475675 0.058462005 0.043288764 -0.07493092 0.08684444
0.08506262 0.036593642 0.1022034 0.071127884 0.05883041 0.0766876 -0.09814 0.0821019
0.07135811 0.11002529 -0.10197222 0.05534645 -0.06127225 0.061528612 -0.08080962 0.037852988
-0.09741546 -0.029437648 0.05994597 -0.09664578 -0.084481254 -0.10164795 0.036934678 0.011298196
-0.052003264 -0.061913013 -0.0029356843 -0.064056434 0.096731216 0.018295122 -0.05454061 -0.09128664
-0.027162494 -0.10100529 -0.081724375 0.11312687 0.08001132 -0.073762655 -0.07286559 -0.020919979
-0.068165846 0.004991454 -0.10287197 -0.11251319 -0.09108642 -0.095398016 -0.0082172025 -0.07262244
-0.06449483 0.047814153 -0.03418761 -0.10332607 -0.055260148 0.0025062982 0.08053845 0.115842015
0.07035413 0.06334504 -0.06494983 0.043211572 -0.05679161 -0.045526583 -0.00014046952 0.035246737
-0.0020776603 0.0041914657 0.10211279 0.049084138 0.0052503883 0.11125706 -0.010066692 0.06504198
-0.0049097175 -0.002291284 0.003575639 -0.037505623 -0.059028897 -0.012727668 0.010136596 0.050687563
-0.03751547 0.008001252 0.08050873 0.028957214 -0.0065201805 0.047266867 0.050839808 -0.026444996
0.005782706 -0.06061963 0.010744325 -0.05869614 -0.0079514645 0.07891914 0.0022223347 0.067839354
0.06221592 -0.011334335 -0.040078465 0.085951924 -0.003548585 -0.09700336 -0.06724356 -0.053792223
0.010386422 -0.004089913 -0.034243517 -0.0081356745 0.0496842 -0.05475225 -0.059036713 -0.10753582
-0.020004269 0.03422331 0.0059382226 0.057672735 0.014648626 -0.0030454586 0.015394494 0.057969626
0.08636312 0.0571974 -0.07635143 0.0048792474 -0.07719386 -0.05495974 0.004527788 0.051026165
0.010700952 -0.0030794276 0.025350166 0.03354864 0.019505199 0.052988697 -0.09053583 0.02384198
0.047336854 0.015578752 0.06486681 -0.05005118 -0.018696925 0.021599507 -0.01819161 0.068633944
-0.036903873 0.017076971 0.074644595 0.024019001 0.00085896323 0.0029119742 0.043320112 0.016083125
-0.010872481 -0.06983734 0.050184544 -0.023268865 -0.0031644297 0.09203419 -0.014776007 0.06023847
0.03396863 0.0565812 -0.08367219 0.041908752 -0.011204063 -0.065739684 -0.06513666 -0.048852157
-0.04920253 -0.084539846 -0.04298439 0.04635281 0.008052302 -0.034010854 0.045360625 -0.10175553
-0.007866336 0.017500704 0.0007263236 0.06107792 -0.023197932 0.081564784 -0.016877703 0.10007421
-0.01286109 -0.04412604 0.04435014 0.016604535 -0.0049445704 0.025512114 0.018020757 0.0004200586
-0.015484037 0.021019964 0.052440833 -0.0042951712 0.008862958 0.0030211937 0.0031061561 -0.04845545
-0.027626028 0.0016240062 -0.038837954 0.007964965 -0.019015066 -0.027976131 -0.020012803 0.047014512
0.035744675 0.05301269 -0.009632819 -0.033606198 0.029250871 -0.014931912 0.00082544977 -0.0017164616
0.0053996076 0.06651852 -0.0098455325 -0.004551852 0.034262188 0.016265456 0.007683873 -0.04245998
0.0101937335 0.02093414 0.03756751 0.004149665 0.010637655 0.057215586 0.058968566 -0.009889895
0.011092307 -0.025989413 -0.03387308 0.0021617652 -0.028555764 0.01778463 0.0056831324 0.04287374
0.010533147 -0.017736975 -0.012032063 -0.038867265 0.02338395 0.026223473 0.04534545 0.011273857
00000000: 6edc c23a ef10 2b3d 393c b6bd 82f6 f4bb
00000010: db75 6f3d 8f4f 313d 6275 99bd 7fdb b13d
00000020: 5035 ae3d 37e3 153d 0450 d13d 7fab 913d
00000030: 28f8 703d 630e 9d3d a0fd c8bd 0a25 a83d
00000040: 3324 923d f054 e13d d0d6 d0bd f6b2 623d
00000050: 9cf8 7abd 6d05 7c3d 847f a5bd bc0b 1b3d
00000060: c281 c7bd 3927 f1bc e889 753d 39ee c5bd
00000070: 8204 adbd cd2c d0bd d148 173d 121c 393c
00000080: 6001 55bd 8098 7dbd 9c64 40bb 0530 83bd
00000090: 041b c63d a7df 953c fa65 5fbd 7df4 babd
000000a0: e183 debc dddb cebd 1c5f a7bd 0faf e73d
000000b0: fadc a33d e010 97bd 8e3a 95bd 6060 abbc
000000c0: 899a 8bbd 5a8f a33b 8aae d2bd 516d e6bd
000000d0: 848b babd 0960 c3bd 72a1 06bc 13bb 94bd
000000e0: de15 84bd c6d8 433d 4f08 0cbd 9e9c d3bd
000000f0: 7758 62bd b540 243b 58f1 a43d 943e ed3d
00000100: d315 903d 0bbb 813d 6b04 85bd 9efe 303d
00000110: 529e 68bd 157a 3abd 004b 13b9 e25e 103d
00000120: 5b29 08bb 9058 893b 8320 d13d 730c 493d
00000130: 730b ac3b beda e33d c4ee 24bc bb34 853d
00000140: b2e1 a0bb 5e29 16bb 4555 6a3b 7f9f 19bd
00000150: 49c8 71bd b587 50bc f713 263c c39d 4f3d
00000160: d2a9 19bd af17 033c c3e1 a43d ae37 ed3c
00000170: 3da7 d5bb e79a 413d 673d 503d 2da3 d8bc
00000180: db7c bd3b 4a4c 78bd f708 303c 5d6b 70bd
00000190: dc46 02bc 5ca0 a13d 97a4 113b 5cef 8a3d
000001a0: 1fd6 7e3d a6b3 39bc 5129 24bd 9007 b03d
000001b0: 618f 68bb b3a9 c6bd feb6 89bd 3c55 5cbd
000001c0: d02b 2a3c ad04 86bb ee42 0cbd 7e4b 05bc
000001d0: a981 4b3d e543 60bd 7bd0 71bd bd3b dcbd
000001e0: fedf a3bc be2d 0c3d 6c95 c23b 3f3a 6c3d
000001f0: ca00 703c 5196 47bb 3039 7c3c 8f71 6d3d
00000200: 26df b03d d247 6a3d 235e 9cbd 18e2 9f3b
00000210: d117 9ebd 771d 61bd d75d 943b d000 513d
00000220: 0c53 2f3c 39d0 49bb 27ab cf3c 4c6a 093d
00000230: 5ec9 9f3c ad0a 593d d96a b9bd 4250 c33c
00000240: 4ae4 413d 063e 7f3c e4d8 843d 7702 4dbd
00000250: 4b2a 99bc 73f1 b03c 9206 95bc f48f 8c3d
00000260: 8428 17bd 01e5 8b3c 44df 983d 7fc3 c43c
00000270: 0c2c 613a d2d6 3e3b 6e70 313d c2c0 833c
00000280: 7e22 32bc e106 8fbd 4f8e 4d3d 599e bebc
00000290: 5262 4fbb 6c7c bc3d 1117 72bc 9dbc 763d
000002a0: b122 0b3d b0c1 673d 535c abbd 83a8 2b3d
000002b0: 3f91 37bc 87a2 86bd 5f66 85bd 3319 48bd
000002c0: 9888 49bd 3a23 adbd 6610 30bd 72dc 3d3d
000002d0: cded 033c f74e 0bbd 10cc 393d 3465 d0bd
000002e0: cee1 00bc a35d 8f3c c066 3e3a d72c 7a3d
000002f0: 9709 bebc 700b a73d 1c43 8abc b5f3 cc3d
00000300: 52b7 52bc 82bd 34bd 7ea8 353d 3c06 883c
00000310: 1006 a2bb c8fe d03c 44a0 933c 503b dc39
00000320: c2b0 7dbc 0f32 ac3c 33cc 563d 82be 8cbb
00000330: f135 113c 38ff 453b a790 4b3b 3979 46bd
00000340: fb4f e2bc 9bdc d43a 8c14 1fbd 7c7f 023c
00000350: 7cc5 9bbc 332e e5bc e4f1 a3bc 4a92 403d
00000360: 0269 123d d623 593d f9d2 1dbc a7a6 09bd
00000370: 869f ef3c faa4 74bc ff62 583a e5fa e0ba
00000380: 31ef b03b dd3a 883d 284f 21bc b427 95bb
00000390: 8256 0c3d 223f 853c 00c9 fb3b 84ea 2dbd
000003a0: 9e03 273c 137e ab3c 64e0 193d eaf9 873b
000003b0: 8f49 2e3c e45a 6a3d 0689 713d 3a09 22bc
000003c0: 82bc 353c c0e7 d4bc 80be 0abd 67ac 0d3b
000003d0: c7ed e9bc 13b1 913c 9239 ba3b 609c 2f3d
000003e0: 3893 2c3c 224d 91bc 2122 45bc 4833 1fbd
000003f0: b38f bf3c 9cd2 d63c 27bc 393d fcb5 383c

attn_net.hidden.bias f4 [96]
0.058065593 -0.025436599 0.0008887234 -0.13603081 0.031328548 0.20423107 0.28222182 0.0099707935
0.27665034 0.014700047 -0.02966461 0.2311511 0.13357338 -0.25988486 -0.026039962 0.021724945
-0.0040246174 0.24140868 -0.03275016 -0.035258885 0.0019833364 -0.040141013 -0.015879346 -0.19442153
0.031710148 0.14871351 0.006064497 -0.041148443 0.019391444 -0.25757858 0.05888675 -0.23029998
0.076678276 0.25960204 -0.043937605 0.010978722 0.32605192 0.034268398 -0.20540462 -0.005041476
-0.005429433 -0.3192705 0.066202685 0.008601911 -0.01274522 0.20869847 -0.042273816 -0.13640769
0.017935589 -0.0075812037 0.0050463583 0.10704706 0.053296387 -0.30756488 -0.0038124772 -0.017822081
-0.023466991 -0.048178628 -0.14798239 0.26570225 0.17000113 0.042876147 0.21454412 -0.04895782
0.049705397 -0.018977994 -0.04376562 -0.0019341768 -0.2453342 -0.11233529 0.0003282777 0.18998753
-0.007905485 0.020871155 0.025440915 -0.008662742 0.301912 0.024987618 0.09505067 0.059083726
-0.012922047 -0.017927976 -0.015036917 0.0061631547 0.13578191 0.12014066 0.13160612 -0.06392019
-0.0127253635 0.04782823 0.23184629 0.21849312 -0.0034824081 -0.20304394 -0.09174659 -0.1618628
00000000: 30d6 6d3d 6a60 d0bc 38f9 683a a94b 0bbe
00000010: 5d52 003d f321 513e 617f 903e 8a5c 233c
00000020: 1da5 8d3e 77d8 703c 3203 f3bc e0b2 6c3e
00000030: 76c7 083e a10f 85be c251 d5bc 83f8 b13c
00000040: f0e0 83bb d633 773e 0825 06bd 9f6b 10bd
00000050: ddfa 013b e76a 24bd 6715 82bc 7016 47be
00000060: 80e2 013d 5b48 183e b0b8 c63b 458b 28bd
00000070: ceda 9e3c 57e1 83be 3c33 713d c2d3 6bbe
00000080: 8009 9d3d 8fea 843e ebf7 33bd 19e0 333c
00000090: 47f0 a63e 055d 0c3d 9755 52be f732 a5bb
000000a0: 63e9 b1bb 6c77 a3be 4695 873d 08ef 0c3c
000000b0: 54d1 50bc 0db5 553e 4f27 2dbd 75ae 0bbe
000000c0: a8ed 923c bf6b f8bb ec5b a53b 7d3b db3d
000000d0: 504d 5a3d 2579 9dbe c1da 79bb 9dff 91bc
000000e0: d93d c0bc f456 45bd b288 17be 200a 883e
000000f0: c714 2e3e e69e 2f3d 74b1 5b3e ff87 48bd
00000100: e397 4b3d bd77 9bbc 9443 33bd 3484 fdba
00000110: e338 7bbe 0b10 e6bd b01c ac39 178c 423e
00000120: 0286 01bc fcf9 aa3c 7769 d03c 2cee 0dbc
00000130: 3694 9a3e d5b2 cc3c eda9 c23d c701 723d
00000140: feb6 53bc b1dd 92bc 675d 76bc 4af4 c93b
00000150: 6a0a 0b3e 4e0c f63d c1c3 063e 97e8 82bd
00000160: 0b7e 50bc 89e7 433d 1d69 6d3e a9bc 5f3e
00000170: 1d39 64bb c0ea 4fbe a3e5 bbbd 5dbf 25be

attn_net.out.weight f4 [64, 96]
0.0025624256 0.03842098 -0.009076531 0.017718062 -0.030333582 0.054957133 0.027863227 -0.00071574247
0.038622163 -0.08610664 0.061324123 0.062824026 0.040404674 -0.05881695 0.013139755 -0.009470958
-0.0019736525 0.034111124 0.0071525387 0.00034682604 0.056867655 0.0025305273 -0.03164877 0.042532012
-0.00705822 0.0036880956 0.00079378765 -0.0186528 0.003026355 0.013925685 -0.0003601436 -0.020664763
-0.0029495158 0.04650555 0.009619932 -0.03401169 0.02349387 0.00798194 0.035188988 -0.0030126907
-0.0641971 0.021156497 -0.0071307775 -0.00786956 0.008158696 0.018303147 0.012840923 0.017915279
-0.005229307 -0.0014943671 -0.010649312 0.03374314 -0.017537331 -0.03315701 -0.002602916 -0.0006127041
-0.005099794 0.046174802 0.052160487 0.02123158 0.06020558 -0.0088307075 0.041506775 -0.024451582
-0.01125338 -0.022923645 -0.0019855408 -0.0054862318 -0.04111933 -0.004294704 0.0011711787 0.020617187
0.01229012 -0.009759982 -0.007048422 0.005183035 -0.017301204 -0.038868405 -0.09655394 0.012840831
-0.0066201016 0.0068598976 -0.10872223 0.01178778 -0.00074693176 -0.007383623 -0.028129378 -0.048242655
-0.009852058 -0.0063531063 0.021819616 -0.0011690189 -0.011164595 -0.09267509 0.036366053 0.031586718
-0.063690916 -0.00056150695 -0.05199696 -0.037208848 0.014414936 -0.059444577 0.061927933 -0.01627834
-0.061400104 -0.027812522 0.015146899 -0.06352371 0.10155701 -0.026566263 -0.004484629 -0.018249726
-0.02039299 0.036142495 -0.00026352447 0.07155902 0.07333794 0.00604065 0.044054158 -0.010479012
0.006763705 -0.085570805 -0.07673013 0.038964193 -0.029070094 -0.03611866 0.0029671178 -0.00020273845
-0.032984987 0.074602254 0.007460808 -0.05773965 0.00073889806 -0.006936419 -0.002435787 -0.00039564678
0.0453903 0.01605825 0.005067112 -0.0067000864 0.0027820154 -0.028118236 0.0074008796 -0.007944169
-0.010068392 0.008170523 0.077973604 0.047355264 -0.0076800315 -0.03892491 -0.030536393 -0.022112302
-0.02785764 -0.010586351 -0.026001038 0.121896856 -0.074076846 -0.010326797 -0.07585184 0.0007050629
-0.006361064 -0.011002317 0.0009598115 0.006799732 0.020255158 0.0072136633 -0.0071367156 -0.08525193
0.015275517 -0.008239711 -0.00592689 -0.008013715 -0.0792404 -0.04384737 0.095661 0.022842295
0.006724094 0.0063977325 -0.058292363 -0.0069423476 0.10145077 0.06353472 -0.08772034 0.04523387
-0.03192599 -0.0056122877 -0.043235276 0.09751146 0.09643598 -0.03870283 0.009587197 -0.028631667
0.04106967 -0.078529604 0.010323743 0.043352652 0.023933366 0.020212607 -0.052642763 0.012341353
-0.053287905 0.0274297 0.01965921 0.00813492 -0.01510496 0.10163691 -0.023626085 0.007242047
-0.0047276802 -0.05225274 -0.018006459 -0.0011205274 -0.06395478 -0.0065142876 -0.010861166 -0.0428024
-0.0040589804 -0.012191666 0.0039580753 -0.03983883 -0.007258203 -0.04900411 0.0032263114 0.04210864
-0.027557103 0.05252578 0.02037794 -0.008437909 -0.026722757 -0.0042711394 -0.009156545 0.0035689273
-0.011316769 -0.0149314795 -0.007486881 -0.0048364336 -0.001511039 -0.04046893 -0.006460349 -0.050434705
0.052131254 0.011655265 -0.00659779 -0.04624516 -0.0055827266 0.026621815 -0.006674864 -0.0024402414
0.00034243986 -0.02159536 -0.045267846 -0.04476526 0.0541123 0.0046397066 -0.045133755 -0.02362947
00000000: 5eee 273b 515f 1d3d bbb5 14bc 7825 913c
00000010: 227e f8bc bb1a 613d 6c41 e43c aaa0 3bba
00000020: 4632 1e3d ae58 b0bd 012f 7b3d e2a9 803d
00000030: 5f7f 253d 0bea 70bd 2148 573c 142c 1bbc
00000040: 6558 01bb 1bb8 0b3d d85f ea3b 34d6 b539
00000050: 0fee 683d 34d7 253b 24a2 01bd 0c36 2e3d
00000060: a448 e7bb fab3 713b 3016 503a c2cd 98bc
00000070: d055 463b 8e28 643c a8d1 bcb9 2649 a9bc
00000080: aa4c 41bb 9b7c 3e3d eb9c 1d3c d84f 0bbd
00000090: 3776 c03c afc6 023c 5422 103d 9070 45bb
000000a0: c579 83bd 6450 ad3c 4ca9 e9bb 54ef 00bc
000000b0: 0dac 053c 7bf0 953c bc62 523c 10c3 923c
000000c0: 9b5a abbb a4de c3ba 747a 2ebc 3f36 0a3d
000000d0: 73aa 8fbc a5cf 07bd af95 2abb e09d 20ba
000000e0: 2c1c a7bb ca21 3d3d 3ca6 553d daed ad3c
000000f0: 209a 763d acae 10bc 0203 2a3d af4e c8bc
00000100: 1960 38bc 5eca bbbc d91f 02bb d9c5 b3bb
00000110: be6c 28bd 97ba 8cbb 3c82 993a 60e5 a83c
00000120: 805c 493c 55e8 1fbc 73f6 e6bb 73d6 a93b
00000130: 41bb 8dbc 7a34 1fbd 12be c5bd 5962 523c
00000140: 70ed d8bb fec8 e03b c3a9 debd 8821 413c
00000150: becd 43ba 52f2 f1bb 956f e6bc 179a 45bd
00000160: 876a 21bc b82d d0bb 0dbf b23c c439 99ba
00000170: b5eb 36bc 70cc bdbd 92f4 143d 1361 013d
00000180: 6270 82bd 1832 13ba c4fa 54bd 4e68 18bd
00000190: a02c 6c3c 287c 73bd 25a8 7d3d 275a 85bc
000001a0: ad7e 7bbd 16d7 e3bc b32a 783c b818 82bd
000001b0: 1ffd cf3d 7ea1 d9bc cbf3 92bb 7380 95bc
000001c0: 330f a7bc 270a 143d a829 8ab9 898d 923d
000001d0: 3432 963d a5f0 c53b 2272 343d 29b0 2bbc
000001e0: 12a2 dd3b bf3f afbd b024 9dbd eb98 1f3d
000001f0: 6824 eebc 29f1 13bd fa73 423b 3096 54b9
00000200: 441b 07bd 11c9 983d cb79 f43b 6980 6cbd
00000210: 9cb2 413a e64a e3bb baa1 1fbb d06e cfb9
00000220: 2eeb 393d 978c 833c 040a a63b 668c dbbb
00000230: 7952 363b 3758 e6bc 1483 f23b 4328 02bc
00000240: e6f5 24bc a8dd 053c a0b0 9f3d 98f7 413d
00000250: c6a8 fbbb ba6f 1fbd 7527 fabc dc24 b5bc
00000260: b535 e4bc 6072 2dbc 2100 d5bc 0fa5 f93d
00000270: 9ab5 97bd ba31 29bc 3658 9bbd f8d3 383a
00000280: 7970 d0bb 1043 34bc dc9b 7b3a 49d0 de3b
00000290: 25ee a53c 9860 ec3b 1cdb e9bb 9098 aebd
000002a0: 2946 7a3c daff 06bc 5b36 c2bb f54b 03bc
000002b0: ca48 a2bd 4d99 33bd eae9 c33d c41f bb3c
000002c0: ca55 dc3b 12a4 d13b f9c3 6ebd a27c e3bb
000002d0: 6cc5 cf3d 7e1e 823d b9a6 b3bd 2747 393d
000002e0: d4c4 02bd 48e7 b7bb 7917 31bd 17b4 c73d
000002f0: 3a80 c53d dc86 1ebd 9e13 1d3c f58c eabc
00000300: ac38 283d 21d4 a0bd eb24 293c 8d92 313d
00000310: e80f c43c e994 a53c f09f 57bd 6333 4a3c
00000320: 6b44 5abd 40b4 e03c 5a0c a13c 5448 053c
00000330: cb7a 77bc 0327 d03d 7e8b c1bc b24e ed3b
00000340: a8ea 9abb f806 56bd 4882 93bc a9de 92ba
00000350: b9fa 82bd ce75 d5bb 08f3 31bc 9251 2fbd
00000360: 3201 85bb 8ebf 47bc beb2 813b 0a2e 23bd
00000370: 38d6 edbb 89b8 48bd 8670 533b 1c7a 2c3d
00000380: 6fbf e1bc 4625 573d a3ef a63c 283f 0abc
00000390: afe9 dabc eaf4 8bbb 5505 16bc aae4 693b
000003a0: f869 39bc 2aa3 74bc 8354 f5bb f27a 9ebb
000003b0: 0e0e c6ba c0c2 25bd 56b1 d3bb 9f94 4ebd
000003c0: 9587 553d baf5 3e3c 4632 d8bb 916b 3dbd
000003d0: 4eef b6bb fe15 da3c d1b8 dabb 75ec 1fbb
000003e0: 8089 b339 c1e8 b0bc c76a 39bd c75b 37bd
000003f0: dca4 5d3d ae08 983b 2cde 38bd 9792 c1bc

attn_net.out.bias f4 [64]
-0.2785892 0.028482005 0.23769435 0.20038758 -0.23530854 0.32553738 0.36774704 -0.025566611
-0.24216826 -0.023644373 0.0045666164 -0.3019329 -0.20254773 -0.26432374 -0.011755353 0.010240152
0.30558652 -0.20805645 0.31874397 0.3058855 0.046528816 0.34569168 -0.23345667 -0.15594324
-0.23760907 0.34909746 -0.22902022 0.023802303 -0.25481135 -0.37007084 0.33789757 -0.25614372
-0.24571852 -0.1623861 -0.35536483 -0.23354854 0.14332922 -0.26798415 -0.3004033 0.24716908
-0.31243432 -0.25293168 0.3083096 -0.11405381 -0.27116215 -0.22512224 -0.09152379 -0.23281577
0.42932835 -0.23478691 -0.29620522 -0.3296388 -0.17325509 0.16807663 0.0084958095 0.075151555
-0.26051348 0.27734312 -0.2612635 0.4816221 0.06646781 -0.15561533 0.35768396 -0.30102018
00000000: 3ea3 8ebe 1853 e93c 2666 733e 6732 4d3e
00000010: b9f4 70be d6ac a63e 5749 bc3e 1271 d1bc
00000020: f5fa 77be d8b1 c1bc 8ea3 953b f396 9abe
00000030: ac68 4fbe 7155 87be 8699 40bc 4fc6 273c
00000040: d675 9c3e c00c 55be 6932 a33e 069d 9c3e
00000050: 0095 3e3d 80fe b03e 440f 6fbe 96af 1fbe
00000060: cb4f 73be e7bc b23e 4784 6abe 0cfd c23c
00000070: a276 82be ed79 bdbe e900 ad3e 4525 83be
00000080: a39d 7bbe 8b48 26be 61f2 b5be 5927 6fbe
00000090: e5c4 123e 3835 89be 76ce 99be e419 7d3e
000000a0: 64f7 9fbe 4380 81be c2da 9d3e 0b95 e9bd
000000b0: c4d5 8abe 7286 66be d370 bbbd 4267 6ebe
000000c0: edd0 db3e fb6b 70be 36a8 97be 6bc6 a8be
000000d0: c869 31be 481c 2c3e 0232 0b3c 0fe9 993d
000000e0: 0662 85be ebff 8d3e 54c4 85be 2c97 f63e
000000f0: 4620 883d a059 1fbe 5a22 b73e 511f 9abe

linear.weight f4 [64, 100]
0.008099177 0.14433351 0.060632527 -0.0875177 -0.13369295 -0.073783815 -0.060023014 -0.021643478
0.18848832 0.2226262 -0.10204366 -0.18328391 0.0032257074 -0.05842096 -0.031156236 0.05436547
0.052364714 -0.08809881 0.0034425426 -0.037295938 0.07621884 -0.108289495 0.08714743 -0.094296575
0.09645227 0.01851688 0.028381994 -0.09301164 -0.028279549 0.043091778 -0.068612635 -0.07426841
0.19123113 -0.010021977 0.011997824 0.06450146 0.013453776 -0.0014342743 0.0071049 0.17352778
-0.04456904 0.11688329 -0.0001909404 -0.010664307 -0.036472637 0.06233841 0.0710813 0.16386126
-0.047379807 -0.013299358 -0.0053224256 -0.050961606 0.019468918 0.057744503 -0.0013242905 0.1614468
-0.05205096 0.005653903 -0.019908536 0.066006325 -0.021555236 -0.07369752 0.13329303 0.13134344
-0.10377734 0.004180209 -0.006248381 0.0059518525 0.06373966 0.14238851 0.06376313 -0.100525975
0.013230604 0.04069473 0.11018384 0.033634216 -0.03372304 -0.10391088 -0.23418358 0.03457425
0.10279255 -0.009527845 0.039573733 0.04882042 0.07467366 -0.108149044 -0.11665425 0.06484773
0.123324014 -0.21308148 0.07603098 0.065253384 -0.10529941 0.09622221 0.030485068 0.010710136
-0.07519507 0.008641792 0.039986707 0.059991285 0.079141356 0.068222106 -0.03640077 -0.05221421
-0.04014456 0.062158 0.05607908 -0.07402028 -0.017571833 0.10035311 -0.024325127 0.07458616
-0.025357017 0.005988396 0.0650611 -0.028470991 0.040705286 0.02153597 0.025566602 -0.030857833
0.040956732 -0.036222078 -0.0654176 -0.074606694 -0.0066647218 0.05518347 -0.025704473 -0.06278871
-0.007836054 -0.07991047 0.031945255 0.044998787 0.03369518 0.07679533 -0.08727419 0.05864809
-0.03311878 -0.02421328 0.08813262 0.050463855 0.0061657308 0.034361687 -0.0034686741 -0.04354365
0.07528273 0.019802123 0.074565396 0.026286695 0.006522332 0.06957828 -0.015688004 -0.034127455
0.08525876 0.02701203 -0.058429506 -0.008139548 -0.009312291 0.012461083 -0.03902836 0.054226693
0.07084405 -0.016699944 0.10457756 0.0064908243 -0.030570779 -0.025304982 0.018049585 -0.020027194
0.06665751 0.10414273 0.039405778 -0.046829924 -0.05690343 -0.017514575 0.07387922 0.0131892
-0.009348746 0.016684711 0.097453386 0.00060893106 0.04596886 0.06297338 0.076188765 0.03179461
0.05974243 0.03485749 0.0050104246 -0.03200126 0.051240183 0.007450288 0.03901723 0.041630156
-0.012326752 -0.05043279 0.00071788824 -0.045739014 0.05792131 0.03529322 0.041184966 0.030308362
-0.052128494 0.035050064 0.078441985 0.05243537 -0.022116125 -0.051241945 0.0023099063 0.0053881695
0.049319383 0.068460874 -0.016220402 -0.03971538 -0.033477582 -0.033568334 -0.0039737504 0.02657183
-0.004873812 0.06448473 -0.01649434 0.04980315 0.033748068 -0.04615024 -0.052311167 -0.06564597
-0.014871621 -0.034981273 0.015975136 0.026881991 -0.042128164 -0.07363765 -0.026722657 -0.0092699425
-0.025998266 -0.029853862 0.08986595 0.028136175 -0.039267946 -0.071781315 -0.055272073 -0.05214511
-0.027240425 0.020482793 0.0020631528 -0.02104073 -0.08866134 0.006811879 -0.010830617 0.008007038
-0.008634926 0.008865736 -0.050492235 0.0083171595 0.027897978 0.021421582 -0.029396147 0.024331026
00000000: 69b2 043c 2acc 133e d059 783d 7b3c b3bd
00000010: cee6 08be f81b 97bd b1da 75bd aa4d b1bc
00000020: 1503 413e 1ff8 633e 44fc d0bd c7ae 3bbe
00000030: 6466 533b d14a 6fbd 5d3b ffbc 54ae 5e3d
00000040: 627c 563d 266d b4bd 489c 613b a0c3 18bd
00000050: a018 9c3d e2c6 ddbd 5a7a b23d 901e c1bd
00000060: c588 c53d b6b0 973c 5b81 e83c e37c bebd
00000070: 83aa e7bc 0181 303d c884 8cbd 091a 98bd
00000080: 18d2 433e 3833 24bc 8592 443c 5719 843d
00000090: 3a6d 5c3c 42fe bbba 39d0 e83b 44b1 313e
000000a0: 078e 36bd 8260 ef3d 2c37 48b9 58b9 2ebc
000000b0: 5564 15bd 9056 7f3d 1393 913d 3fcb 273e
000000c0: 5411 42bd 8de5 59bc be67 aebb 1ebd 50bd
000000d0: 487d 9f3c 8085 6c3d d193 adba 4f52 253e
000000e0: 6333 55bd 6044 b93b 3a17 a3bc 532e 873d
000000f0: 9b94 b0bc baee 96bd f87d 083e e57e 063e
00000100: 3789 d4bd 22fa 883b 38bf ccbb c207 c33b
00000110: f089 823d 4bce 113e 3e96 823d 90e0 cdbd
00000120: 2dc5 583c 84af 263d 11a8 e13d 08c4 093d
00000130: 2c21 0abd 3acf d4bd d2cd 6fbe bb9d 0d3d
00000140: e784 d23d ae1a 1cbc 1118 223d ecf7 473d
00000150: 81ee 983d 3f7d ddbd 6ce8 eebd e3ce 843d
00000160: 4d91 fc3d 0832 5abe 21b6 9b3d 91a3 853d
00000170: 38a7 d7bd 2610 c53d d2bb f93c 9179 2f3c
00000180: dfff 99bd 4e96 0d3c 1ac9 233d 6cb9 753d
00000190: dd14 a23d 08b8 8b3d f918 15bd 91de 55bd
000001a0: 9f6e 24bd 6399 7e3d 2db3 653d f297 97bd
000001b0: cef2 8fbc ee85 cd3d 7d45 c7bc a1c0 983d
000001c0: 85b9 cfbc 4e3a c43b c13e 853d ff3b e9bc
000001d0: 96ba 263d 346c b03c 0d71 d13c 91c9 fcbc
000001e0: 3fc2 273d 9a5d 14bd aaf9 85bd 65cb 98bd
000001f0: bd63 dabb 1008 623d 3092 d2bc 5e97 80bd
00000200: cb62 00bc 1aa8 a3bd 07d9 023d a650 383d
00000210: f503 0a3d df46 9d3d cfbc b2bd fb38 703d
00000220: 8fa7 07bd ee5a c6bc e07e b43d 30b3 4e3d
00000230: e609 ca3b d7be 0c3d b252 63bb d45a 32bd
00000240: d52d 9a3d 1038 a23c beb5 983d 3257 d73c
00000250: 49b9 d53b 0f7f 8e3d 2184 80bc 3bc9 0bbd
00000260: 259c ae3d 5548 dd3c c753 6fbd bd5b 05bc
00000270: 9492 18bc 9229 4c3c 34dc 1fbd cf1c 5e3d
00000280: af16 913d 52ce 88bc c32c d63d fbb0 d43b
00000290: 926f fabc 654c cfbc b9dc 933c 1210 a4bc
000002a0: bc83 883d c948 d53d f467 213d bcd0 3fbd
000002b0: 9213 69bd ba7a 8fbc fd4d 973d 8417 583c
000002c0: 7c2b 19bc 60ae 883c a495 c73d aca0 1f3a
000002d0: d849 3c3d 30f8 803d db08 9c3d 113b 023d
000002e0: 7ab4 743d bac6 0e3d 7d2e a43b c113 03bd
000002f0: 3ae1 513d 8c21 f43b 88d0 1f3d 6284 2a3d
00000300: 25f6 49bc 9d92 4ebd aa30 3c3a d558 3bbd
00000310: e53e 6d3d a08f 103d 91b1 283d 3e49 f83c
00000320: b084 55bd a890 0f3d 31a6 a03d 78c6 563d
00000330: e02c b5bc 13e3 51bd cc61 173b 3e8f b03b
00000340: 1f03 4a3d 3735 8c3d a6e0 84bc 98ac 22bd
00000350: ca1f 09bd f37e 09bd 3c36 82bb 2bad d93c
00000360: 80b4 9fbb 9210 843d 231f 87bc 63fe 4b3d
00000370: 6a3b 0a3d 0908 3dbd 3c44 56bd 6571 86bd
00000380: 19a8 73bc 8648 0fbd 4ade 823c 9f37 dc3c
00000390: 958e 2cbd 56cf 96bd 79e9 dabc f5e0 17bc
000003a0: 51fa d4bc 1690 f4bc a40b b83d d67d e63c
000003b0: 6dd7 20bd 1502 93bd f864 62bd 1c96 55bd
000003c0: 5027 dfbc 88cb a73c f635 073b 9c5d acbc
000003d0: 1494 b5bd 2f36 df3b e672 31bc f42f 033c
000003e0: 8179 0dbc 9841 113c f2d0 4ebd b244 083c
000003f0: 4d8a e43c 507c af3c 30d0 f0bc dc51 c73c
