outlier-interpretation-Xu/checkpoints/zeqnvOYs_checkpoint.pt (torch, 103259 bytes, 5 tensors)

attn_net.hidden.weight f4 [96, 192]
00000000: ff26 01bd 2537 a5ba 0a9a b63c 576f 05bc
00000010: 6a4e 393d e4f6 4abd b524 513c f8dd a8bb
00000020: 2b35 49bc d4ea 4f3d d4b4 703c 415d 513d
00000030: 7217 dcbb 4eb1 19bd 09c7 b53d 336d c23b
00000040: 338b 7f3c d20e 383d 02b8 d9bd cfb7 343d
00000050: 8eea 5f3c de48 d0bd e03c 2abc e8f6 17bd
00000060: 2398 22bd c080 763d 8043 903d 9170 083c
00000070: 71ad bebc 9dad 5ebc d9f1 983c 945f c7bd
00000080: b4fb a13c 521e 43bd c881 683d e0dd 843c
00000090: 6276 b23a ae19 843d e04d 54bb fa11 bf3d
000000a0: 1f3f 7f3d 5471 8ebc fcfb 9d3b ced3 703d
000000b0: 1bac 27bd e483 00bd c80c c9bb 73e9 083d
000000c0: f4a8 f63a c00b 20bc cda9 0ebd 1ef3 ffbb
000000d0: c179 573d 8c45 7bbc d5e6 e63b bcda 2c3d
000000e0: d488 d63c a732 9c3c 41df 423d 9b6c 463d
000000f0: 80b8 0f3c 560b a7bc 682e 783b b3d4 003c
00000100: 39dc b33b db78 68bd cb48 23bc 6f61 20bb
00000110: 8005 473a f15e 2ebd 788b 2c3a 2a0a b23c
00000120: 34f3 38bd f7ba 873c 6872 91ba 6319 423d
00000130: 2901 9e3b de1e 2f3b 38c5 c8bc 7a1d edbc
00000140: 0aa2 0a3d 1287 033c 7340 363d 7a3d 713c
00000150: 28a4 b8bc ad97 393d 3a89 803d 15e6 07bc
00000160: 08b2 b5bb 54d4 0ebc 4605 5cbc 1852 b03b
00000170: b013 82bd bf4d 5cbd bd18 0dbd c08b 583d
00000180: d95d 363b a609 51bd f6fb 4c3d 6372 5cbd
00000190: b192 7e3c 30f3 b0bc 4367 5c3d fac1 3cbd
000001a0: e399 2bbd 4bd7 75bb 2741 1f3d 50fe 5e3b
000001b0: 5718 393c f81c dd3b 5dd4 693c 0ef6 8abb
000001c0: 7ad6 64bd 1036 f5b9 5430 dfbb 30c1 743b
000001d0: c633 e73c b4b9 b6bc dcb2 2bbc 225d 28bd
000001e0: f48f 6dbc 1973 083c e913 b2bc 9bfe 153c
000001f0: a7c5 f23b 6f86 1abd 1965 5c3d 17d0 903d
00000200: 4261 00bc 19fb cfbb b47c 453c dfdc fd3b
00000210: d48f f43b 15db 23bd 494f ddbc 910e 31bd
00000220: 6028 edbc 3cc9 1b3d 6685 283d b457 5a3d
00000230: 4019 94bc c2bb 02bd 5cf9 33bd a905 0e3b
00000240: f11c 273d 3d62 243d 06c6 a83c 502b 6e3d
00000250: 33e7 e43c 2e15 ec3b 6c36 c9ba 4fd7 3cbd
00000260: de40 68bd 36f7 01bc ca71 273c b8c7 c33b
00000270: e7a9 81bd 4bc2 00bd 0550 48bd 2a8b e93c
00000280: 6441 2bbd 3ec6 61bd 80f0 383d 709c 30bd
00000290: 5875 223a 0417 3cba 0df7 633d 210f 25bd
000002a0: 7a3e 72bb f8e6 98ba 2e1c a33b 9071 aa3b
000002b0: ce1f 4b3b 3261 aebb a832 0fbd a689 283d
000002c0: b298 0dbd 9d56 83bd 68a0 253b 2a1f d6bb
000002d0: 6441 2abc e987 2e3d 835a 0d3d fc16 683c
000002e0: de75 d73c 8fa8 3e3d 3beb 243d cc44 b8bb
000002f0: 4a19 36bd bff5 31bd f00d cb3c 5604 89bc
00000300: afa7 bd3a 00f1 c93d 64f2 debc 5576 18bd
00000310: fb25 8c3d 310f d43d 84cc ba3c 1a32 6a3d
00000320: 96f9 a03d 9758 cdbc 4d2d b6bd 6c1f 1a3b
00000330: 85bf 9f3d 27f9 813d 49d4 aa3d 07d8 10bd
00000340: bfc7 8ebb ee9b 193c f2ab 28bd ef23 fbbc
00000350: e858 adbd 7b53 f6bc b063 54bd 8e58 993c
00000360: da64 923c ed94 9bbd 205b a23d 80b0 103a
00000370: 2ec5 003d 4704 46bd 047a c43c 270a 9fbd
00000380: f843 44ba fd3f 243c 3520 01bd 2b38 d03d
00000390: 4f81 2dbc 34ae 65bd 8fcc 78bd f7c8 b63d
000003a0: 7a1f febc aac8 4c3c 775b 5dbd 86ec 92bb
000003b0: 3408 26bd 7042 e4b9 097d 803b f727 c2bd
000003c0: 8fd2 a63d 5a78 303d d117 d93d 2d61 1bbb
000003d0: 30e1 b53c c776 46bc af4a 1bbd 1609 c6bd
000003e0: 0adc 08ba 8e95 093c ab18 6c3d 1f5f a5bc
000003f0: 0c6a e33c aafb fbb9 9669 0bbd 1802 dd3c
-0.03153133 -0.0012604935 0.022290248 -0.008144221 0.045240797 -0.04955186 0.012765099 -0.005153414
-0.012280743 0.05076106 0.01469155 0.051114324 -0.006716662 -0.037522607 0.088758536 0.0059334277
0.0155971525 0.04493601 -0.106308 0.044120606 0.013666762 -0.10170148 -0.01039049 -0.037100703
-0.03969587 0.06018138 0.070441246 0.008327619 -0.023276063 -0.013591197 0.01867001 -0.09735027
0.019773342 -0.047636338 0.056764394 0.01621908 0.0013615603 0.064502105 -0.003239505 0.09329601
0.062316056 -0.017388023 0.0048212986 0.058795743 -0.040935617 -0.03137578 -0.006135557 0.03342576
0.0018818663 -0.009768426 -0.034829903 -0.0078109642 0.052606348 -0.0153364055 0.0070465603 0.04220079
0.026188292 0.019067122 0.047576193 0.048443418 0.008772016 -0.020391148 0.0037869457 0.007863211
0.005488899 -0.05675588 -0.009966086 -0.0024472137 0.0007592067 -0.042571012 0.0006582062 0.021733362
-0.04515381 0.016568644 -0.0011096718 0.047387492 0.0048219156 0.002672128 -0.024508104 -0.02894472
0.03384594 0.008027809 0.044495057 0.01472413 -0.022539213 0.045310665 0.06276174 -0.008294602
-0.0055449046 -0.008717615 -0.013428992 0.00538088 -0.06351411 -0.053785082 -0.03444742 0.05286765
0.0027826934 -0.051034592 0.050044976 -0.053820025 0.015537904 -0.021600336 0.053809416 -0.046083428
-0.041894805 -0.0037512358 0.038880493 0.0034026094 0.011297307 0.006747838 0.014271823 -0.004240758
-0.055868603 -0.0004677032 -0.006811181 0.0037346594 0.02822293 -0.022305347 -0.010479655 -0.041104443
-0.014499653 0.008328223 -0.02173801 0.009154941 0.007408816 -0.037725862 0.05380735 0.0707094
-0.007835688 -0.006347072 0.012053657 0.007747277 0.0074634347 -0.040003855 -0.027015345 -0.043226782
-0.028949916 0.03803371 0.041142844 0.053306296 -0.018078446 -0.03191734 -0.04393898 0.0021670854
0.040799085 0.04013275 0.020602237 0.058146775 0.027942276 0.0072046733 -0.0015351302 -0.04610377
-0.056702487 -0.007932475 0.0102200005 0.005974736 -0.063312344 -0.031435292 -0.048904438 0.028508741
-0.04181041 -0.0551207 0.045151234 -0.04311794 0.0006197295 -0.00071750605 0.055655528 -0.04029763
-0.0036963508 -0.0011665514 0.0049777245 0.005201526 0.00309943 -0.005321645 -0.03496042 0.041146897
-0.03456945 -0.064130045 0.0025272612 -0.0065344768 -0.010391567 0.042610083 0.034510147 0.014165636
0.02630132 0.04654747 0.040263396 -0.0056234356 -0.04445771 -0.043447252 0.02478692 -0.0167257
0.0014469529 0.0986042 -0.02721519 -0.037222225 0.06843182 0.1035446 0.022802599 0.057176687
0.07860105 -0.025066657 -0.08895359 0.0023517264 0.07800201 0.0634635 0.083412714 -0.03536227
-0.0043573077 0.009375555 -0.041179605 -0.030656783 -0.08464223 -0.030069103 -0.051852882 0.018718984
0.017870355 -0.07596765 0.07927537 0.00055194646 0.031438045 -0.048343923 0.023983963 -0.07765608
-0.0007486935 0.010025022 -0.031524856 0.10166963 -0.010589912 -0.056074336 -0.060741957 0.0892505
-0.031020869 0.012499014 -0.054042306 -0.004483762 -0.040535167 -0.0004353705 0.0039211554 -0.09480279
0.081456296 0.043083526 0.10600246 -0.0023709044 0.022202104 -0.01211328 -0.03791302 -0.09669702
-0.00052207767 0.008397473 0.057640713 -0.020186959 0.027760528 -0.00048061955 -0.03403624 0.026978537

attn_net.hidden.bias f4 [96]
00000000: 9edd 0abe 7ec9 74bd f82e 61bd ea03 9b3b
00000010: e552 ec3c 222d 7f3d dc56 e2bc 2383 153d
00000020: 3e19 873c c05e 3a3d e537 9bbb 578c 653e
00000030: 1fe4 d43c 5871 c23d fcdc 86bc ec07 25be
00000040: 1f44 8abd 9ca4 a93e c0a9 f03c 5e02 173c
00000050: 0b26 4ebd 2282 113d 7eb6 89be 670f 0cbc
00000060: ec62 9a3e a211 0c3b 3122 43be 1cc8 aa3e
00000070: ba26 c63e b30d 90bd 1ff4 863e 2e80 b23e
00000080: 59a5 6ebd d9b7 bd3e ba4d cebb 0eb7 72bc
00000090: fb23 60bb 834a dabd 3488 9b3e ebc7 65be
000000a0: ee42 84be 277d 8b3e 13dd 77bc f6a2 d33c
000000b0: c4fa c0bd c006 1fbd 0e5f 92be 0a10 693e
000000c0: c889 c2b9 1df8 4d3d 8870 52bc 3a90 113c
000000d0: 3cb7 ec3d 1f42 7dbe e91c b63e 30ff 313d
000000e0: f00f c2bd e960 f6bd fa66 803d adb5 49be
000000f0: e8cf 5cbc d6df 8e3b b608 a5be 17e9 103d
00000100: 7efb d0bb 6d7d 2f3e 7d07 543c a8c3 b63e
00000110: 9d9a 753d ee62 82bb 396d bc3e c2a6 6bbe
00000120: 037d 8dbe 1bab febd 5997 283d be26 c7be
00000130: 5e71 47bd 76d1 0bbd 12c9 95be 6cc0 693d
00000140: 036e 2bbd 74c7 4b3e 0388 4bbe 0c91 b5be
00000150: 2942 653e d6e3 88be 14a3 193d 2600 13bd
00000160: fe17 b6bc 327d 5ebe 82dd 86be 65d7 b3be
00000170: f3f5 843e 3575 be3e a38e 3a3e 25c0 d23e
-0.13561103 -0.05976247 -0.054976434 0.004730691 0.028848121 0.0622989 -0.027629308 0.036502015
0.016491529 0.045500517 -0.0047368878 0.22416817 0.025987683 0.09494275 -0.016462795 -0.16116303
-0.06751274 0.331334 0.029377818 0.009216873 -0.05032925 0.035524495 -0.26897043 -0.008548594
0.30153596 0.0021372815 -0.19056012 0.33355796 0.3870142 -0.07033863 0.26358125 0.34863418
-0.058263157 0.37054327 -0.006295887 -0.014814151 -0.0034201134 -0.10658743 0.30377352 -0.22439544
-0.25832313 0.2724392 -0.015128392 0.025834542 -0.0942283 -0.038824797 -0.28588146 0.22760025
-0.00037105219 0.050285447 -0.012844212 0.008884484 0.11558387 -0.24732254 0.35568932 0.043456256
-0.09475696 -0.12030203 0.06269641 -0.1969821 -0.013477303 0.0043601794 -0.32233208 0.03537854
-0.0063776365 0.1713769 0.0129412385 0.3569615 0.059961904 -0.0039790785 0.3680208 -0.23012832
-0.2763444 -0.124349795 0.04115996 -0.38896745 -0.0486921 -0.034135304 -0.29254967 0.057068273
-0.041852962 0.19900304 -0.19876103 -0.35462224 0.2238852 -0.26736325 0.03750904 -0.035888813
-0.022228237 -0.21727446 -0.26340872 -0.3512527 0.25968894 0.37198797 0.18218474 0.4116222

attn_net.out.weight f4 [64, 96]
00000000: 64a4 22ba 377c 16bd 46d6 1abd c51e 6b3b
00000010: 3bbd a7bc 66ea 0abc e7c2 9dbc df1b e1bb
00000020: 05b1 fe3b a808 13ba a07e e03a 9954 e03c
00000030: e6ab b33b f817 833d 4e20 a0bd 000f b238
00000040: d577 56bc 8655 213d 08ed df3b 033f 193c
00000050: 22d0 1fbc 4696 df3b 04d2 1bbc ca84 60bb
00000060: 7b62 c0bc d32e ac3b 208e d2bb d9ae 533d
00000070: ab5c 173d 050c 7abc 314d a93d 83da 833d
00000080: 97f1 2b3c 3cd1 8fbd ee9f 27bb 15c2 13bd
00000090: 61ba 993d acd2 ecbb 22b3 173d e609 663d
000000a0: acd7 ae3c f5cf 663c af84 f4bb b92c e0bb
000000b0: 36b1 003c 2cde 9ebb be36 583d 0476 febc
000000c0: 468a a53b 3db1 2c3d 6a2d 89bc 507c 22bc
000000d0: 8073 febc 0288 0a3b 4e90 7a3d e361 c4bb
000000e0: de08 8e3c dba8 59bc f299 0a3c afe3 1a3d
000000f0: 6c7d b8bc a6f4 f33b 1a21 a3bd 784c 12bc
00000100: 780d 913b 9615 9b3d 9661 05bc 9712 023d
00000110: 66de bf3c d801 01bd f694 643c 622a bf3c
00000120: 7432 f73c 00e6 d13c 3c58 a73d c434 963d
00000130: e1e5 96bd 20ba eb38 8973 013d 98ca c0bb
00000140: 07c0 8cbc 1bcd e73c e876 923b cc8a 163d
00000150: 02c1 773d 4177 473d 0cf3 4ebb 3ff9 743b
00000160: 603c a73a 46c6 c5bc 047c a7bc 3164 1a3c
00000170: 2370 b53c eaca 6c3c 248b a4bc 7173 613d
00000180: b55e 39bc 2821 183e a225 943d 91a6 14bc
00000190: e100 d6bd 5a00 8e3b 1e77 a8bc 78d1 debc
000001a0: de2a 5bbd 1ac6 bcbc 930b a5bc c498 1f3f
000001b0: 0435 863b 2e91 eb3e 086a d83e 8b5d 16bd
000001c0: 8f73 473e efc2 f83e 9996 86bd 3fab b7bc
000001d0: fe22 c03b be97 d33a a49d 88bd 1de9 4abd
000001e0: 3a97 d53e a070 0bbc 5864 033c b1f5 033f
000001f0: 4891 0d3f 7d3a 833e 6fdb 003f 5bfd 063f
00000200: 62a1 6d3e 9a24 033f a07f b0bb e2d8 1b3e
00000210: 2e1c f93e b508 813d 2f78 f93e 6ff5 36bd
00000220: 8d22 4b3d 5481 f83e b44e 8dbd 0a41 58bd
00000230: 8dcb 3dbd 650d fc3d 4584 b73d 1581 c43e
00000240: f45b 47bb f294 84bc c1c7 db3d 8bd6 823d
00000250: db48 8d3e b846 16bb 50a5 0d3f 96f1 6ebd
00000260: db08 b3bd c72f a7bd 7f56 84bd 38fe a73d
00000270: 1392 433e a7d8 b1bd d5f3 4b3e 65fa cfbc
00000280: b3ef 913a 1394 c63e 2600 223c e155 093f
00000290: e13c febd fa68 af3e 8c71 143f 442a 0a3c
000002a0: e66f 30bd 1509 fa3d d592 f03e 4a16 a03c
000002b0: 8ae1 ab3e f6f5 d83d 8e87 053d 7813 ccbd
000002c0: e90c 4e3e fb7f ba3e 6bec 813c ba60 d6bc
000002d0: d5b2 b43e e90c 4b3d 68b8 81bc f5ef 9a3c
000002e0: f3f8 fabc 29c0 b63b e4ed 713c 82ed f1bc
000002f0: 176d e53e 00f3 0a3f c9af e03e f2d0 0a3f
00000300: 8404 3d3a b627 673c 0364 a03c 25f3 e8bb
00000310: d66e a5bb c41a 19bd 6850 a0b6 6313 15bd
00000320: 455b dbbc 4d2c 89bc 0df0 38bc 19cb 0cbe
00000330: b7d2 19bd 60ce 283d 14bd e9ba 708b 603c
00000340: 9df7 a83c 277d 0fbe e781 ecbc 7cb6 573b
00000350: 72e8 15bd 96a3 0fbd d9bb 8cbc 6eb8 133c
00000360: 88f4 b1bd 17a9 ccbb 1585 ccbb 0d6a a6bd
00000370: 00d8 febd b692 aabb 07a6 24bd fc45 d7bd
00000380: be28 e03a 6683 02be 4e64 b5bb 787f 5c3c
00000390: d9fe 373b abdd d53c 53a1 58bd 653e 933d
000003a0: cabc 1a3d 95d5 06be c970 bdbc 1abc 36bc
000003b0: 6164 05bd 7d3d 943c 75bf a7bb 569b 86bd
000003c0: d0d4 efbc 5c91 e9bb 6429 ba3c 9403 083c
000003d0: 7897 2bbc af4e 17bc 2ee3 e7bd 00dc 47bd
000003e0: cabc 11bc 051c 553d 93dd 32bd 3c56 9b3b
000003f0: 16e7 2cbb 30a8 7cbc 0a4e 06be c3bf e5bc
-0.00062043057 -0.036739554 -0.037802003 0.0035876494 -0.020475974 -0.0084787365 -0.019257976 -0.0068697776
0.007772567 -0.0005608895 0.0017127581 0.02738409 0.0054831384 0.06401056 -0.07818662 8.4904954e-05
-0.013090094 0.039388202 0.0068336762 0.009353402 -0.009754213 0.006823334 -0.009510521 -0.0034258836
-0.02348446 0.0052546053 -0.006425634 0.05168042 0.03695361 -0.015261655 0.08266676 0.06438162
0.010494611 -0.0702233 -0.0025577503 -0.036073763 0.07506252 -0.0072272625 0.03703607 0.056161784
0.021343075 0.014087667 -0.007462106 -0.006841269 0.00785475 -0.0048482623 0.05278658 -0.031062134
0.005051884 0.042161215 -0.016745288 -0.009917334 -0.031060934 0.0021138196 0.061172776 -0.0059931143
0.017338213 -0.013284887 0.008459555 0.037814792 -0.022520743 0.007444936 -0.07965298 -0.008929364
0.0044266544 0.075724766 -0.008140942 0.03175601 0.023421478 -0.0314959 0.013951531 0.02333564
0.030175425 0.025622368 0.08171126 0.07334283 -0.07368065 0.00011240342 0.031604324 -0.005883526
-0.01718141 0.028296044 0.004469741 0.03675346 0.0604868 0.048697714 -0.0031577973 0.0037380008
0.0012759082 -0.024142396 -0.020444877 0.009423302 0.022148198 0.014452675 -0.020085879 0.055041734
-0.011314084 0.14856398 0.072337404 -0.009072916 -0.104493864 0.004333538 -0.020564612 -0.027199492
-0.05350768 -0.023043681 -0.02014712 0.62342477 0.0040956754 0.460092 0.42268395 -0.036710303
0.19477676 0.48586223 -0.06571693 -0.022420524 0.0058635464 0.0016143245 -0.066706926 -0.04953872
0.4171694 -0.008510739 0.008019529 0.5154677 0.55299807 0.2563056 0.5033483 0.5273034
0.23206094 0.51227725 -0.005386308 0.15219453 0.48654312 0.06300489 0.48724505 -0.044667657
0.049593497 0.4853617 -0.06899777 -0.0527964 -0.0463367 0.12307242 0.08960775 0.38379732
-0.0030419799 -0.016184304 0.107314594 0.06388577 0.27594647 -0.0022930335 0.5533037 -0.058335863
-0.087419234 -0.0816341 -0.0646181 0.08202785 0.19098692 -0.08683901 0.19917233 -0.025387952
0.0011134058 0.38784847 0.009887731 0.53646666 -0.124139555 0.34259778 0.5798576 0.0084329285
-0.043075465 0.122087635 0.46987024 0.019541878 0.3357051 0.10593788 0.03259998 -0.09964651
0.20122112 0.36425766 0.015859803 -0.02616917 0.35292688 0.04957286 -0.015835002 0.018913249
-0.030636286 0.0055771065 0.01476619 -0.029532198 0.4480979 0.5427704 0.43884113 0.54225075
0.0007210451 0.014108589 0.01957894 -0.007109063 -0.005048613 -0.03737904 -4.777732e-06 -0.03639544
-0.02677692 -0.016744757 -0.011287701 -0.1374935 -0.03755447 0.04121244 -0.0017832839 0.0137051195
0.020625884 -0.14012586 -0.028870536 0.0032915166 -0.03659863 -0.035068117 -0.017179416 0.009016139
-0.08689219 -0.006245743 -0.0062414506 -0.08125696 -0.124435425 -0.0052054776 -0.0401974 -0.10511395
0.0017101986 -0.12745437 -0.005535639 0.013458125 0.0028075485 0.026106676 -0.052888226 0.07189635
0.0377777 -0.13167413 -0.02312507 -0.011153245 -0.032566432 0.018095726 -0.005119259 -0.06572597
-0.029276282 -0.007127924 0.022724815 0.008301634 -0.010473125 -0.009235068 -0.11322628 -0.048793793
-0.0088951085 0.052028675 -0.04366834 0.0047405045 -0.0026382855 -0.015420958 -0.13115707 -0.02804554

attn_net.out.bias f4 [64]
00000000: 0f5b 3cbe 3464 c03e 6564 83be 9c81 34be
00000010: 544d e5bd c4c0 743e d8f9 44be 3528 a7be
00000020: 2c4d d83c 31b5 9d3e 16b4 b83e abe9 08be
00000030: bfdf 43be 1375 9fbb ca44 f0bc 47fa d83e
00000040: a80f 6fbe ee0e f2be e1ec d33e 9c8c aebe
00000050: fe62 c23e b24f ee3e 4945 743d 5635 ce3e
00000060: 16bf 8ebe a19e ca3c b0a5 a43e 9553 06be
00000070: 3548 f2bc 235a a4be c6d0 a03e 27fe bd3e
00000080: c358 af3e f8dd 9bbe 27f0 f83d b654 543e
00000090: 91bc bdbe ca4f 7fbe a550 62be 0a55 b03e
000000a0: c2c9 bf3e c3d7 953d 94c6 26be ea12 9c3d
000000b0: b472 883d e382 b2be 4c7f 18be 2a4f aa3e
000000c0: 3d01 21bc 1e55 bf3e 55a1 b03e 84cf e2be
000000d0: 9ba5 92be 657b 4abe b3d3 a43e 6275 0ebb
000000e0: 2118 5cbe fc17 e53c 66b3 b4bc dc99 7cbe
000000f0: afa9 94bb ab51 aebb 86a4 5bbe d9fd 4fbe
-0.18394111 0.3757645 -0.25662532 -0.17627567 -0.1119639 0.23901659 -0.19235933 -0.32647863
0.026403986 0.308023 0.36074895 -0.13370387 -0.19128321 -0.0048662513 -0.029329676 0.42378446
-0.23345816 -0.47277015 0.41391662 -0.3409165 0.3796615 0.46545178 0.059636388 0.40275067
-0.27880162 0.024733843 0.3215766 -0.13117822 -0.029575447 -0.3210002 0.31409281 0.37107965
0.34247407 -0.30442786 0.121551804 0.2073544 -0.37057927 -0.24932781 -0.22101076 0.3443988
0.37458616 0.07316544 -0.16286689 0.07620795 0.06662503 -0.34865484 -0.1489231 0.33263522
-0.009826955 0.37369627 0.34498087 -0.44298947 -0.28641972 -0.19773634 0.32192764 -0.0021737446
-0.2149358 0.027965538 -0.0220582 -0.24668068 -0.0045368294 -0.005319794 -0.2144948 -0.20311679

linear.weight f4 [64, 10]
00000000: 076e 403d 99f7 ebbd 689e 08bc c9c0 683e
00000010: 33c8 023d af31 713d 779c 4d3d e52c b5bd
00000020: f844 d3bc 881c a43b 1d8c 293f ae96 d13e
00000030: 9e7e 0dbf 0228 46bf fcc1 003f 08f0 81bf
00000040: ce23 55bf e397 ae3e dc8d 88bf 3558 40bf
00000050: 2d74 a63c 8e1f 81bd b89d 11be 9a15 3a3e
00000060: 9abf ddbe 1e72 44bd 5c94 8e3e 94ab b3be
00000070: 6455 40bf 7954 193f 4e3f 8bbc 0bdf 8abd
00000080: 112d 8bbd af5f 453d 2cf6 d4bd 5084 a0bc
00000090: cabd 253e e737 24be b46f 0fbe c754 9ebd
000000a0: bc94 39bd 1845 c5bc 1e00 243d 9143 96bd
000000b0: bbcf 193d aa44 e63c e538 b7bd 42c5 ca3d
000000c0: a44e b83d 9e35 483d 1d7f 203f 4434 a33e
000000d0: 98c4 f7be 3cb8 35bf a14a ec3e f86a 3dbf
000000e0: 3af2 23bf 0ae6 eb3e d55a 8fbf fb87 87bf
000000f0: 2e0f 88bb 6913 adbd 003b d43d 22b4 193e
00000100: 9cc2 b0bd 7771 29be 000e 493e 03d1 53be
00000110: a92a 33be 52c7 debd 51f0 dcbb 8fd2 10be
00000120: a4d9 823b 8ddd 98bd 10de 5bbd b452 763d
00000130: 30c3 babd dd22 c93c b149 d83d f6f1 d53d
00000140: 4177 963e fbac 273e e7e6 b9be 18d3 bfbe
00000150: d2d7 ab3e d85a 44bf 91b7 ddbe 11b5 82bd
00000160: 3fcb 62bf f701 32bf 3103 10bf 44c5 f3be
00000170: a286 0d3f 160c 403f 4789 5cbe ec88 853f
00000180: f967 2c3f 6c74 1abe 7241 613f f4a1 533f
00000190: ddcf 18bf 4aad d6be 07d1 1a3f e6ae 313f
000001a0: 8e6a f8be d0ab 7a3f 2c12 163f 1597 b5be
000001b0: 70e4 713f 67b4 7a3f bbd1 4bbe 2075 66bd
000001c0: e845 92bc 9eaf 033c 932e 68be 4027 4cbd
000001d0: 7de5 8a3d 0709 57be 10fd ff3d c526 1cbe
000001e0: b391 71be 3c8f 6b3b 3cfd 00bd 8424 69bd
000001f0: 6217 48be d532 b9bd 563d 5cbd 6a3b 57be
00000200: 7764 23be 8fd8 4abe ab6f 56be 113e 2e3e
00000210: b300 a23c 6e5b 30be 702b c3bd 15f8 94be
00000220: 3d2e a9bd d8e3 eabd c9a3 acbe 20b1 c9be
00000230: 1543 b33e 2ea5 613e f2c3 c8be d5a6 acbe
00000240: a8e5 833e 77b6 3cbf a564 e9be afae 6f3e
00000250: cf6c 40bf 8215 28bf a58a 48bf 8102 84be
00000260: cb15 253f cb6b 293f 3329 05bf ad41 843f
00000270: 76f5 3d3f 00d8 98be 5c29 623f e01c 8e3f
00000280: 09c7 5a3c 7d21 adbd f4da 96be 17fb 113e
00000290: 3288 aebd 51aa da3d babc aabd 77db 523e
000002a0: 2808 febe 8436 203f bde9 7cbe f4f6 e13e
000002b0: cef6 b7bd 7f91 8d3e 8a15 ad3e b7bc 24bd
000002c0: 4362 3cbf d77b 373f ca92 5a3e c8d9 b33e
000002d0: 47bc 22bf ec95 e3be 95ba 353f 6ce8 563f
000002e0: c30a 18bf d12e 7e3f 7fde 5b3f f763 dcbe
000002f0: 7cde 873f add9 8c3f f8ab e63e cb56 9cbe
00000300: 5196 b13e f8d1 2cbe 5b84 0fbe 0d20 44be
00000310: 9a9f 46be 9a16 abbd 83d1 be3d 8551 173e
00000320: de81 10bf f893 efbe 831a 1e3f 0122 2a3f
00000330: 7867 07bf cebc 4d3f afa5 223f 6fd1 b5be
00000340: 5c8e 873f 6bee 873f b60d 1abf b013 b3be
00000350: 070a 363f ab46 343f e6a1 2abf 02cd 843f
00000360: 4f60 5e3f 951c 64be deb9 8d3f bba9 583f
00000370: 5047 cebb b29c 8c3b 5957 60bd 7779 fc3d
00000380: 4b58 dd3d 58ae 34bd 3369 43bb 0f99 0c3e
00000390: 9ee0 f93d 69ac 4bbe de62 2a3f 05fd 983e
000003a0: bf32 15bf aab8 2cbf e0c6 093f 28b0 82bf
000003b0: 832b 18bf 031b de3e 7d16 7dbf f264 82bf
000003c0: 224b 06be c5ba c43d 071b 183e 18ca 8c3e
000003d0: 2a83 b7be 1961 35be fa79 993e 4962 5cbe
000003e0: d6bb bbbe 66de 15bd a2e6 203d 3618 85be
000003f0: 7ad6 a83e a65e c43e f446 3ebe 5a37 173f
0.04697993 -0.11521835 -0.008338548 0.22729792 0.031929206 0.058885273 0.050198045 -0.088464536
-0.025789723 0.005008284 0.6622942 0.40935272 -0.5527133 -0.774048 0.50295997 -1.0151377
-0.8325776 0.34100255 -1.0668292 -0.75134593 0.020319069 -0.06304847 -0.14220321 0.18172303
-0.43310243 -0.047960393 0.27847564 -0.3509184 -0.75130296 0.5989452 -0.01699796 -0.06780823
-0.06795705 0.048186954 -0.10398516 -0.019594342 0.1618568 -0.1603695 -0.14007455 -0.07731014
-0.04530786 -0.024080798 0.040039174 -0.07337106 0.037551623 0.028108913 -0.08946399 0.09900905
0.089993745 0.04887926 0.6269396 0.31875813 -0.48392177 -0.70984244 0.46150687 -0.73991346
-0.64041483 0.46073943 -1.1199595 -1.0588373 -0.0041522 -0.08450968 0.10362816 0.15010121
-0.08630869 -0.1654719 0.19634247 -0.206852 -0.17496742 -0.10877861 -0.006742515 -0.14142822
0.00399323 -0.074641325 -0.053678572 0.060137466 -0.0911926 0.024552757 0.105609305 0.10446541
0.2938786 0.1637458 -0.36308977 -0.3746574 0.33563095 -0.76701117 -0.43304113 -0.06382192
-0.8859138 -0.6953425 -0.5625487 -0.4761144 0.5528356 0.7501844 -0.21536742 1.043241
0.6734615 -0.15083474 0.87990487 0.82668996 -0.59692174 -0.41929084 0.604752 0.694075
-0.48518795 0.97918415 0.5862148 -0.3546683 0.9448919 0.9793152 -0.19904225 -0.056264043
-0.0178556 0.008037476 -0.22674017 -0.04984212 0.06782053 -0.20999537 0.1249944 -0.15249164
-0.23590736 0.0035943529 -0.031491503 -0.05691959 -0.1954017 -0.090428986 -0.053769432 -0.21018758
-0.15956293 -0.19809173 -0.20941035 0.17015864 0.019775724 -0.17222378 -0.095297694 -0.29095522
-0.082607724 -0.11469239 -0.33718708 -0.39392948 0.35012117 0.22035667 -0.39211994 -0.33721033
0.2576115 -0.7371592 -0.45584598 0.2340648 -0.7516603 -0.6565782 -0.78336555 -0.2578316
0.6448638 0.66180104 -0.5201599 1.0332543 0.7420267 -0.29852295 0.8834436 1.1102562
0.013353118 -0.08453653 -0.29463923 0.1425594 -0.08522071 0.106770165 -0.08336778 0.20591532
-0.49615598 0.62583184 -0.24698539 0.44133723 -0.08982621 0.27650067 0.33805496 -0.040219035
-0.73587435 0.7167334 0.21345058 0.3512709 -0.6356854 -0.4445032 0.70987827 0.839484
-0.5939142 0.99290186 0.8588638 -0.43045017 1.0614772 1.1003929 0.45053077 -0.30534968
0.34684995 -0.16876972 -0.14015333 -0.19152851 -0.1939682 -0.0835392 0.09317305 0.14777191
-0.5644816 -0.4679258 0.61759204 0.66458136 -0.52892256 0.8036622 0.63534063 -0.35511348
1.059032 1.0619634 -0.6017717 -0.34975958 0.7110905 0.7042033 -0.6665329 1.0375063
0.86865705 -0.22276528 1.1072347 0.8463399 -0.006295122 0.0042911405 -0.0547708 0.12327855
0.10807856 -0.04411158 -0.0029817342 0.13730262 0.122010455 -0.19889988 0.6655711 0.2988054
-0.5828056 -0.67469275 0.53819084 -1.0210009 -0.59441394 0.43379983 -0.9886244 -1.0187056
-0.13114598 0.09605936 0.1485406 0.27497935 -0.35842258 -0.17712821 0.29975873 -0.21521868
-0.36666745 -0.03658905 0.03928245 -0.25995034 0.32976133 0.3835346 -0.18581754 0.59068835
